…
I0331 22:56:19.728119  7281 net.cpp:296] The NetState phase (0) differed from the phase (1) specified by a rule in layer acc/top-5
I0331 22:56:19.728893  7281 net.cpp:53] Initializing net from parameters: 
name: "ResNet-50"
state {
  phase: TRAIN
  level: 0
  stage: ""
}
layer {
  name: "data"
  type: "Data"
  top: "data"
  top: "label"
  include {
    phase: TRAIN
  }
  transform_param {
    mirror: true
    crop_size: 224
    mean_file: "/scratch/imagenet/lmdb_data/imagenet_mean.binaryproto"
  }
  data_param {
    source: "/scratch/imagenet/lmdb_data/ilsvrc12_train_lmdb"
    batch_size: 16
    backend: LMDB
  }
}
layer {
  name: "conv1"
  type: "Convolution"
  bottom: "data"
  top: "conv1"
  convolution_param {
    num_output: 64
    bias_term: true
    pad: 3
    kernel_size: 7
    stride: 2
    weight_filler {
      type: "msra"
    }
  }
}
layer {
  name: "bn_conv1"
  type: "BatchNorm"
  bottom: "conv1"
  top: "conv1"
  batch_norm_param {
    use_global_stats: false
  }
}
layer {
  name: "scale_conv1"
  type: "Scale"
  bottom: "conv1"
  top: "conv1"
  scale_param {
    bias_term: true
  }
}
layer {
  name: "conv1_relu"
  type: "ReLU"
  bottom: "conv1"
  top: "conv1"
}
layer {
  name: "pool1"
  type: "Pooling"
  bottom: "conv1"
  top: "pool1"
  pooling_param {
    pool: MAX
    kernel_size: 3
    stride: 2
  }
}
layer {
  name: "res2a_branch1"
  type: "Convolution"
  bottom: "pool1"
  top: "res2a_branch1"
  convolution_param {
    num_output: 256
    bias_term: false
    pad: 0
    kernel_size: 1
    stride: 1
    weight_filler {
      type: "msra"
    }
  }
}
layer {
  name: "bn2a_branch1"
  type: "BatchNorm"
  bottom: "res2a_branch1"
  top: "res2a_branch1"
  batch_norm_param {
    use_global_stats: false
  }
}
layer {
  name: "scale2a_branch1"
  type: "Scale"
  bottom: "res2a_branch1"
  top: "res2a_branch1"
  scale_param {
    bias_term: true
  }
}
layer {
  name: "res2a_branch2a"
  type: "Convolution"
  bottom: "pool1"
  top: "res2a_branch2a"
  convolution_param {
    num_output: 64
    bias_term: false
    pad: 0
    kernel_size: 1
    stride: 1
    weight_filler {
      type: "msra"
    }
  }
}
layer {
  name: "bn2a_branch2a"
  type: "BatchNorm"
  bottom: "res2a_branch2a"
  top: "res2a_branch2a"
  batch_norm_param {
    use_global_stats: false
  }
}
layer {
  name: "scale2a_branch2a"
  type: "Scale"
  bottom: "res2a_branch2a"
  top: "res2a_branch2a"
  scale_param {
    bias_term: true
  }
}
layer {
  name: "res2a_branch2a_relu"
  type: "ReLU"
  bottom: "res2a_branch2a"
  top: "res2a_branch2a"
}
layer {
  name: "res2a_branch2b"
  type: "Convolution"
  bottom: "res2a_branch2a"
  top: "res2a_branch2b"
  convolution_param {
    num_output: 64
    bias_term: false
    pad: 1
    kernel_size: 3
    stride: 1
    weight_filler {
      type: "msra"
    }
  }
}
layer {
  name: "bn2a_branch2b"
  type: "BatchNorm"
  bottom: "res2a_branch2b"
  top: "res2a_branch2b"
  batch_norm_param {
    use_global_stats: false
  }
}
layer {
  name: "scale2a_branch2b"
  type: "Scale"
  bottom: "res2a_branch2b"
  top: "res2a_branch2b"
  scale_param {
    bias_term: true
  }
}
layer {
  name: "res2a_branch2b_relu"
  type: "ReLU"
  bottom: "res2a_branch2b"
  top: "res2a_branch2b"
}
layer {
  name: "res2a_branch2c"
  type: "Convolution"
  bottom: "res2a_branch2b"
  top: "res2a_branch2c"
  convolution_param {
    num_output: 256
    bias_term: false
    pad: 0
    kernel_size: 1
    stride: 1
    weight_filler {
      type: "msra"
    }
  }
}
layer {
  name: "bn2a_branch2c"
  type: "BatchNorm"
  bottom: "res2a_branch2c"
  top: "res2a_branch2c"
  batch_norm_param {
    use_global_stats: false
  }
}
layer {
  name: "scale2a_branch2c"
  type: "Scale"
  bottom: "res2a_branch2c"
  top: "res2a_branch2c"
  scale_param {
    bias_term: true
  }
}
layer {
  name: "res2a"
  type: "Eltwise"
  bottom: "res2a_branch1"
  bottom: "res2a_branch2c"
  top: "res2a"
  eltwise_param {
    operation: SUM
  }
}
layer {
  name: "res2a_relu"
  type: "ReLU"
  bottom: "res2a"
  top: "res2a"
}
layer {
  name: "res2b_branch2a"
  type: "Convolution"
  bottom: "res2a"
  top: "res2b_branch2a"
  convolution_param {
    num_output: 64
    bias_term: false
    pad: 0
    kernel_size: 1
    stride: 1
    weight_filler {
      type: "msra"
    }
  }
}
layer {
  name: "bn2b_branch2a"
  type: "BatchNorm"
  bottom: "res2b_branch2a"
  top: "res2b_branch2a"
  batch_norm_param {
    use_global_stats: false
  }
}
layer {
  name: "scale2b_branch2a"
  type: "Scale"
  bottom: "res2b_branch2a"
  top: "res2b_branch2a"
  scale_param {
    bias_term: true
  }
}
layer {
  name: "res2b_branch2a_relu"
  type: "ReLU"
  bottom: "res2b_branch2a"
  top: "res2b_branch2a"
}
layer {
  name: "res2b_branch2b"
  type: "Convolution"
  bottom: "res2b_branch2a"
  top: "res2b_branch2b"
  convolution_param {
    num_output: 64
    bias_term: false
    pad: 1
    kernel_size: 3
    stride: 1
    weight_filler {
      type: "msra"
    }
  }
}
layer {
  name: "bn2b_branch2b"
  type: "BatchNorm"
  bottom: "res2b_branch2b"
  top: "res2b_branch2b"
  batch_norm_param {
    use_global_stats: false
  }
}
layer {
  name: "scale2b_branch2b"
  type: "Scale"
  bottom: "res2b_branch2b"
  top: "res2b_branch2b"
  scale_param {
    bias_term: true
  }
}
layer {
  name: "res2b_branch2b_relu"
  type: "ReLU"
  bottom: "res2b_branch2b"
  top: "res2b_branch2b"
}
layer {
  name: "res2b_branch2c"
  type: "Convolution"
  bottom: "res2b_branch2b"
  top: "res2b_branch2c"
  convolution_param {
    num_output: 256
    bias_term: false
    pad: 0
    kernel_size: 1
    stride: 1
    weight_filler {
      type: "msra"
    }
  }
}
layer {
  name: "bn2b_branch2c"
  type: "BatchNorm"
  bottom: "res2b_branch2c"
  top: "res2b_branch2c"
  batch_norm_param {
    use_global_stats: false
  }
}
layer {
  name: "scale2b_branch2c"
  type: "Scale"
  bottom: "res2b_branch2c"
  top: "res2b_branch2c"
  scale_param {
    bias_term: true
  }
}
layer {
  name: "res2b"
  type: "Eltwise"
  bottom: "res2a"
  bottom: "res2b_branch2c"
  top: "res2b"
  eltwise_param {
    operation: SUM
  }
}
layer {
  name: "res2b_relu"
  type: "ReLU"
  bottom: "res2b"
  top: "res2b"
}
layer {
  name: "res2c_branch2a"
  type: "Convolution"
  bottom: "res2b"
  top: "res2c_branch2a"
  convolution_param {
    num_output: 64
    bias_term: false
    pad: 0
    kernel_size: 1
    stride: 1
    weight_filler {
      type: "msra"
    }
  }
}
layer {
  name: "bn2c_branch2a"
  type: "BatchNorm"
  bottom: "res2c_branch2a"
  top: "res2c_branch2a"
  batch_norm_param {
    use_global_stats: false
  }
}
layer {
  name: "scale2c_branch2a"
  type: "Scale"
  bottom: "res2c_branch2a"
  top: "res2c_branch2a"
  scale_param {
    bias_term: true
  }
}
layer {
  name: "res2c_branch2a_relu"
  type: "ReLU"
  bottom: "res2c_branch2a"
  top: "res2c_branch2a"
}
layer {
  name: "res2c_branch2b"
  type: "Convolution"
  bottom: "res2c_branch2a"
  top: "res2c_branch2b"
  convolution_param {
    num_output: 64
    bias_term: false
    pad: 1
    kernel_size: 3
    stride: 1
    weight_filler {
      type: "msra"
    }
  }
}
layer {
  name: "bn2c_branch2b"
  type: "BatchNorm"
  bottom: "res2c_branch2b"
  top: "res2c_branch2b"
  batch_norm_param {
    use_global_stats: false
  }
}
layer {
  name: "scale2c_branch2b"
  type: "Scale"
  bottom: "res2c_branch2b"
  top: "res2c_branch2b"
  scale_param {
    bias_term: true
  }
}
layer {
  name: "res2c_branch2b_relu"
  type: "ReLU"
  bottom: "res2c_branch2b"
  top: "res2c_branch2b"
}
layer {
  name: "res2c_branch2c"
  type: "Convolution"
  bottom: "res2c_branch2b"
  top: "res2c_branch2c"
  convolution_param {
    num_output: 256
    bias_term: false
    pad: 0
    kernel_size: 1
    stride: 1
    weight_filler {
      type: "msra"
    }
  }
}
layer {
  name: "bn2c_branch2c"
  type: "BatchNorm"
  bottom: "res2c_branch2c"
  top: "res2c_branch2c"
  batch_norm_param {
    use_global_stats: false
  }
}
layer {
  name: "scale2c_branch2c"
  type: "Scale"
  bottom: "res2c_branch2c"
  top: "res2c_branch2c"
  scale_param {
    bias_term: true
  }
}
layer {
  name: "res2c"
  type: "Eltwise"
  bottom: "res2b"
  bottom: "res2c_branch2c"
  top: "res2c"
  eltwise_param {
    operation: SUM
  }
}
layer {
  name: "res2c_relu"
  type: "ReLU"
  bottom: "res2c"
  top: "res2c"
}
layer {
  name: "res3a_branch1"
  type: "Convolution"
  bottom: "res2c"
  top: "res3a_branch1"
  convolution_param {
    num_output: 512
    bias_term: false
    pad: 0
    kernel_size: 1
    stride: 2
    weight_filler {
      type: "msra"
    }
  }
}
layer {
  name: "bn3a_branch1"
  type: "BatchNorm"
  bottom: "res3a_branch1"
  top: "res3a_branch1"
  batch_norm_param {
    use_global_stats: false
  }
}
layer {
  name: "scale3a_branch1"
  type: "Scale"
  bottom: "res3a_branch1"
  top: "res3a_branch1"
  scale_param {
    bias_term: true
  }
}
layer {
  name: "res3a_branch2a"
  type: "Convolution"
  bottom: "res2c"
  top: "res3a_branch2a"
  convolution_param {
    num_output: 128
    bias_term: false
    pad: 0
    kernel_size: 1
    stride: 2
    weight_filler {
      type: "msra"
    }
  }
}
layer {
  name: "bn3a_branch2a"
  type: "BatchNorm"
  bottom: "res3a_branch2a"
  top: "res3a_branch2a"
  batch_norm_param {
    use_global_stats: false
  }
}
layer {
  name: "scale3a_branch2a"
  type: "Scale"
  bottom: "res3a_branch2a"
  top: "res3a_branch2a"
  scale_param {
    bias_term: true
  }
}
layer {
  name: "res3a_branch2a_relu"
  type: "ReLU"
  bottom: "res3a_branch2a"
  top: "res3a_branch2a"
}
layer {
  name: "res3a_branch2b"
  type: "Convolution"
  bottom: "res3a_branch2a"
  top: "res3a_branch2b"
  convolution_param {
    num_output: 128
    bias_term: false
    pad: 1
    kernel_size: 3
    stride: 1
    weight_filler {
      type: "msra"
    }
  }
}
layer {
  name: "bn3a_branch2b"
  type: "BatchNorm"
  bottom: "res3a_branch2b"
  top: "res3a_branch2b"
  batch_norm_param {
    use_global_stats: false
  }
}
layer {
  name: "scale3a_branch2b"
  type: "Scale"
  bottom: "res3a_branch2b"
  top: "res3a_branch2b"
  scale_param {
    bias_term: true
  }
}
layer {
  name: "res3a_branch2b_relu"
  type: "ReLU"
  bottom: "res3a_branch2b"
  top: "res3a_branch2b"
}
layer {
  name: "res3a_branch2c"
  type: "Convolution"
  bottom: "res3a_branch2b"
  top: "res3a_branch2c"
  convolution_param {
    num_output: 512
    bias_term: false
    pad: 0
    kernel_size: 1
    stride: 1
    weight_filler {
      type: "msra"
    }
  }
}
layer {
  name: "bn3a_branch2c"
  type: "BatchNorm"
  bottom: "res3a_branch2c"
  top: "res3a_branch2c"
  batch_norm_param {
    use_global_stats: false
  }
}
layer {
  name: "scale3a_branch2c"
  type: "Scale"
  bottom: "res3a_branch2c"
  top: "res3a_branch2c"
  scale_param {
    bias_term: true
  }
}
layer {
  name: "res3a"
  type: "Eltwise"
  bottom: "res3a_branch1"
  bottom: "res3a_branch2c"
  top: "res3a"
  eltwise_param {
    operation: SUM
  }
}
layer {
  name: "res3a_relu"
  type: "ReLU"
  bottom: "res3a"
  top: "res3a"
}
layer {
  name: "res3b_branch2a"
  type: "Convolution"
  bottom: "res3a"
  top: "res3b_branch2a"
  convolution_param {
    num_output: 128
    bias_term: false
    pad: 0
    kernel_size: 1
    stride: 1
    weight_filler {
      type: "msra"
    }
  }
}
layer {
  name: "bn3b_branch2a"
  type: "BatchNorm"
  bottom: "res3b_branch2a"
  top: "res3b_branch2a"
  batch_norm_param {
    use_global_stats: false
  }
}
layer {
  name: "scale3b_branch2a"
  type: "Scale"
  bottom: "res3b_branch2a"
  top: "res3b_branch2a"
  scale_param {
    bias_term: true
  }
}
layer {
  name: "res3b_branch2a_relu"
  type: "ReLU"
  bottom: "res3b_branch2a"
  top: "res3b_branch2a"
}
layer {
  name: "res3b_branch2b"
  type: "Convolution"
  bottom: "res3b_branch2a"
  top: "res3b_branch2b"
  convolution_param {
    num_output: 128
    bias_term: false
    pad: 1
    kernel_size: 3
    stride: 1
    weight_filler {
      type: "msra"
    }
  }
}
layer {
  name: "bn3b_branch2b"
  type: "BatchNorm"
  bottom: "res3b_branch2b"
  top: "res3b_branch2b"
  batch_norm_param {
    use_global_stats: false
  }
}
layer {
  name: "scale3b_branch2b"
  type: "Scale"
  bottom: "res3b_branch2b"
  top: "res3b_branch2b"
  scale_param {
    bias_term: true
  }
}
layer {
  name: "res3b_branch2b_relu"
  type: "ReLU"
  bottom: "res3b_branch2b"
  top: "res3b_branch2b"
}
layer {
  name: "res3b_branch2c"
  type: "Convolution"
  bottom: "res3b_branch2b"
  top: "res3b_branch2c"
  convolution_param {
    num_output: 512
    bias_term: false
    pad: 0
    kernel_size: 1
    stride: 1
    weight_filler {
      type: "msra"
    }
  }
}
layer {
  name: "bn3b_branch2c"
  type: "BatchNorm"
  bottom: "res3b_branch2c"
  top: "res3b_branch2c"
  batch_norm_param {
    use_global_stats: false
  }
}
layer {
  name: "scale3b_branch2c"
  type: "Scale"
  bottom: "res3b_branch2c"
  top: "res3b_branch2c"
  scale_param {
    bias_term: true
  }
}
layer {
  name: "res3b"
  type: "Eltwise"
  bottom: "res3a"
  bottom: "res3b_branch2c"
  top: "res3b"
  eltwise_param {
    operation: SUM
  }
}
layer {
  name: "res3b_relu"
  type: "ReLU"
  bottom: "res3b"
  top: "res3b"
}
layer {
  name: "res3c_branch2a"
  type: "Convolution"
  bottom: "res3b"
  top: "res3c_branch2a"
  convolution_param {
    num_output: 128
    bias_term: false
    pad: 0
    kernel_size: 1
    stride: 1
    weight_filler {
      type: "msra"
    }
  }
}
layer {
  name: "bn3c_branch2a"
  type: "BatchNorm"
  bottom: "res3c_branch2a"
  top: "res3c_branch2a"
  batch_norm_param {
    use_global_stats: false
  }
}
layer {
  name: "scale3c_branch2a"
  type: "Scale"
  bottom: "res3c_branch2a"
  top: "res3c_branch2a"
  scale_param {
    bias_term: true
  }
}
layer {
  name: "res3c_branch2a_relu"
  type: "ReLU"
  bottom: "res3c_branch2a"
  top: "res3c_branch2a"
}
layer {
  name: "res3c_branch2b"
  type: "Convolution"
  bottom: "res3c_branch2a"
  top: "res3c_branch2b"
  convolution_param {
    num_output: 128
    bias_term: false
    pad: 1
    kernel_size: 3
    stride: 1
    weight_filler {
      type: "msra"
    }
  }
}
layer {
  name: "bn3c_branch2b"
  type: "BatchNorm"
  bottom: "res3c_branch2b"
  top: "res3c_branch2b"
  batch_norm_param {
    use_global_stats: false
  }
}
layer {
  name: "scale3c_branch2b"
  type: "Scale"
  bottom: "res3c_branch2b"
  top: "res3c_branch2b"
  scale_param {
    bias_term: true
  }
}
layer {
  name: "res3c_branch2b_relu"
  type: "ReLU"
  bottom: "res3c_branch2b"
  top: "res3c_branch2b"
}
layer {
  name: "res3c_branch2c"
  type: "Convolution"
  bottom: "res3c_branch2b"
  top: "res3c_branch2c"
  convolution_param {
    num_output: 512
    bias_term: false
    pad: 0
    kernel_size: 1
    stride: 1
    weight_filler {
      type: "msra"
    }
  }
}
layer {
  name: "bn3c_branch2c"
  type: "BatchNorm"
  bottom: "res3c_branch2c"
  top: "res3c_branch2c"
  batch_norm_param {
    use_global_stats: false
  }
}
layer {
  name: "scale3c_branch2c"
  type: "Scale"
  bottom: "res3c_branch2c"
  top: "res3c_branch2c"
  scale_param {
    bias_term: true
  }
}
layer {
  name: "res3c"
  type: "Eltwise"
  bottom: "res3b"
  bottom: "res3c_branch2c"
  top: "res3c"
  eltwise_param {
    operation: SUM
  }
}
layer {
  name: "res3c_relu"
  type: "ReLU"
  bottom: "res3c"
  top: "res3c"
}
layer {
  name: "res3d_branch2a"
  type: "Convolution"
  bottom: "res3c"
  top: "res3d_branch2a"
  convolution_param {
    num_output: 128
    bias_term: false
    pad: 0
    kernel_size: 1
    stride: 1
    weight_filler {
      type: "msra"
    }
  }
}
layer {
  name: "bn3d_branch2a"
  type: "BatchNorm"
  bottom: "res3d_branch2a"
  top: "res3d_branch2a"
  batch_norm_param {
    use_global_stats: false
  }
}
layer {
  name: "scale3d_branch2a"
  type: "Scale"
  bottom: "res3d_branch2a"
  top: "res3d_branch2a"
  scale_param {
    bias_term: true
  }
}
layer {
  name: "res3d_branch2a_relu"
  type: "ReLU"
  bottom: "res3d_branch2a"
  top: "res3d_branch2a"
}
layer {
  name: "res3d_branch2b"
  type: "Convolution"
  bottom: "res3d_branch2a"
  top: "res3d_branch2b"
  convolution_param {
    num_output: 128
    bias_term: false
    pad: 1
    kernel_size: 3
    stride: 1
    weight_filler {
      type: "msra"
    }
  }
}
layer {
  name: "bn3d_branch2b"
  type: "BatchNorm"
  bottom: "res3d_branch2b"
  top: "res3d_branch2b"
  batch_norm_param {
    use_global_stats: false
  }
}
layer {
  name: "scale3d_branch2b"
  type: "Scale"
  bottom: "res3d_branch2b"
  top: "res3d_branch2b"
  scale_param {
    bias_term: true
  }
}
layer {
  name: "res3d_branch2b_relu"
  type: "ReLU"
  bottom: "res3d_branch2b"
  top: "res3d_branch2b"
}
layer {
  name: "res3d_branch2c"
  type: "Convolution"
  bottom: "res3d_branch2b"
  top: "res3d_branch2c"
  convolution_param {
    num_output: 512
    bias_term: false
    pad: 0
    kernel_size: 1
    stride: 1
    weight_filler {
      type: "msra"
    }
  }
}
layer {
  name: "bn3d_branch2c"
  type: "BatchNorm"
  bottom: "res3d_branch2c"
  top: "res3d_branch2c"
  batch_norm_param {
    use_global_stats: false
  }
}
layer {
  name: "scale3d_branch2c"
  type: "Scale"
  bottom: "res3d_branch2c"
  top: "res3d_branch2c"
  scale_param {
    bias_term: true
  }
}
layer {
  name: "res3d"
  type: "Eltwise"
  bottom: "res3c"
  bottom: "res3d_branch2c"
  top: "res3d"
  eltwise_param {
    operation: SUM
  }
}
layer {
  name: "res3d_relu"
  type: "ReLU"
  bottom: "res3d"
  top: "res3d"
}
layer {
  name: "res4a_branch1"
  type: "Convolution"
  bottom: "res3d"
  top: "res4a_branch1"
  convolution_param {
    num_output: 1024
    bias_term: false
    pad: 0
    kernel_size: 1
    stride: 2
    weight_filler {
      type: "msra"
    }
  }
}
layer {
  name: "bn4a_branch1"
  type: "BatchNorm"
  bottom: "res4a_branch1"
  top: "res4a_branch1"
  batch_norm_param {
    use_global_stats: false
  }
}
layer {
  name: "scale4a_branch1"
  type: "Scale"
  bottom: "res4a_branch1"
  top: "res4a_branch1"
  scale_param {
    bias_term: true
  }
}
layer {
  name: "res4a_branch2a"
  type: "Convolution"
  bottom: "res3d"
  top: "res4a_branch2a"
  convolution_param {
    num_output: 256
    bias_term: false
    pad: 0
    kernel_size: 1
    stride: 2
    weight_filler {
      type: "msra"
    }
  }
}
layer {
  name: "bn4a_branch2a"
  type: "BatchNorm"
  bottom: "res4a_branch2a"
  top: "res4a_branch2a"
  batch_norm_param {
    use_global_stats: false
  }
}
layer {
  name: "scale4a_branch2a"
  type: "Scale"
  bottom: "res4a_branch2a"
  top: "res4a_branch2a"
  scale_param {
    bias_term: true
  }
}
layer {
  name: "res4a_branch2a_relu"
  type: "ReLU"
  bottom: "res4a_branch2a"
  top: "res4a_branch2a"
}
layer {
  name: "res4a_branch2b"
  type: "Convolution"
  bottom: "res4a_branch2a"
  top: "res4a_branch2b"
  convolution_param {
    num_output: 256
    bias_term: false
    pad: 1
    kernel_size: 3
    stride: 1
    weight_filler {
      type: "msra"
    }
  }
}
layer {
  name: "bn4a_branch2b"
  type: "BatchNorm"
  bottom: "res4a_branch2b"
  top: "res4a_branch2b"
  batch_norm_param {
    use_global_stats: false
  }
}
layer {
  name: "scale4a_branch2b"
  type: "Scale"
  bottom: "res4a_branch2b"
  top: "res4a_branch2b"
  scale_param {
    bias_term: true
  }
}
layer {
  name: "res4a_branch2b_relu"
  type: "ReLU"
  bottom: "res4a_branch2b"
  top: "res4a_branch2b"
}
layer {
  name: "res4a_branch2c"
  type: "Convolution"
  bottom: "res4a_branch2b"
  top: "res4a_branch2c"
  convolution_param {
    num_output: 1024
    bias_term: false
    pad: 0
    kernel_size: 1
    stride: 1
    weight_filler {
      type: "msra"
    }
  }
}
layer {
  name: "bn4a_branch2c"
  type: "BatchNorm"
  bottom: "res4a_branch2c"
  top: "res4a_branch2c"
  batch_norm_param {
    use_global_stats: false
  }
}
layer {
  name: "scale4a_branch2c"
  type: "Scale"
  bottom: "res4a_branch2c"
  top: "res4a_branch2c"
  scale_param {
    bias_term: true
  }
}
layer {
  name: "res4a"
  type: "Eltwise"
  bottom: "res4a_branch1"
  bottom: "res4a_branch2c"
  top: "res4a"
  eltwise_param {
    operation: SUM
  }
}
layer {
  name: "res4a_relu"
  type: "ReLU"
  bottom: "res4a"
  top: "res4a"
}
layer {
  name: "res4b_branch2a"
  type: "Convolution"
  bottom: "res4a"
  top: "res4b_branch2a"
  convolution_param {
    num_output: 256
    bias_term: false
    pad: 0
    kernel_size: 1
    stride: 1
    weight_filler {
      type: "msra"
    }
  }
}
layer {
  name: "bn4b_branch2a"
  type: "BatchNorm"
  bottom: "res4b_branch2a"
  top: "res4b_branch2a"
  batch_norm_param {
    use_global_stats: false
  }
}
layer {
  name: "scale4b_branch2a"
  type: "Scale"
  bottom: "res4b_branch2a"
  top: "res4b_branch2a"
  scale_param {
    bias_term: true
  }
}
layer {
  name: "res4b_branch2a_relu"
  type: "ReLU"
  bottom: "res4b_branch2a"
  top: "res4b_branch2a"
}
layer {
  name: "res4b_branch2b"
  type: "Convolution"
  bottom: "res4b_branch2a"
  top: "res4b_branch2b"
  convolution_param {
    num_output: 256
    bias_term: false
    pad: 1
    kernel_size: 3
    stride: 1
    weight_filler {
      type: "msra"
    }
  }
}
layer {
  name: "bn4b_branch2b"
  type: "BatchNorm"
  bottom: "res4b_branch2b"
  top: "res4b_branch2b"
  batch_norm_param {
    use_global_stats: false
  }
}
layer {
  name: "scale4b_branch2b"
  type: "Scale"
  bottom: "res4b_branch2b"
  top: "res4b_branch2b"
  scale_param {
    bias_term: true
  }
}
layer {
  name: "res4b_branch2b_relu"
  type: "ReLU"
  bottom: "res4b_branch2b"
  top: "res4b_branch2b"
}
layer {
  name: "res4b_branch2c"
  type: "Convolution"
  bottom: "res4b_branch2b"
  top: "res4b_branch2c"
  convolution_param {
    num_output: 1024
    bias_term: false
    pad: 0
    kernel_size: 1
    stride: 1
    weight_filler {
      type: "msra"
    }
  }
}
layer {
  name: "bn4b_branch2c"
  type: "BatchNorm"
  bottom: "res4b_branch2c"
  top: "res4b_branch2c"
  batch_norm_param {
    use_global_stats: false
  }
}
layer {
  name: "scale4b_branch2c"
  type: "Scale"
  bottom: "res4b_branch2c"
  top: "res4b_branch2c"
  scale_param {
    bias_term: true
  }
}
layer {
  name: "res4b"
  type: "Eltwise"
  bottom: "res4a"
  bottom: "res4b_branch2c"
  top: "res4b"
  eltwise_param {
    operation: SUM
  }
}
layer {
  name: "res4b_relu"
  type: "ReLU"
  bottom: "res4b"
  top: "res4b"
}
layer {
  name: "res4c_branch2a"
  type: "Convolution"
  bottom: "res4b"
  top: "res4c_branch2a"
  convolution_param {
    num_output: 256
    bias_term: false
    pad: 0
    kernel_size: 1
    stride: 1
    weight_filler {
      type: "msra"
    }
  }
}
layer {
  name: "bn4c_branch2a"
  type: "BatchNorm"
  bottom: "res4c_branch2a"
  top: "res4c_branch2a"
  batch_norm_param {
    use_global_stats: false
  }
}
layer {
  name: "scale4c_branch2a"
  type: "Scale"
  bottom: "res4c_branch2a"
  top: "res4c_branch2a"
  scale_param {
    bias_term: true
  }
}
layer {
  name: "res4c_branch2a_relu"
  type: "ReLU"
  bottom: "res4c_branch2a"
  top: "res4c_branch2a"
}
layer {
  name: "res4c_branch2b"
  type: "Convolution"
  bottom: "res4c_branch2a"
  top: "res4c_branch2b"
  convolution_param {
    num_output: 256
    bias_term: false
    pad: 1
    kernel_size: 3
    stride: 1
    weight_filler {
      type: "msra"
    }
  }
}
layer {
  name: "bn4c_branch2b"
  type: "BatchNorm"
  bottom: "res4c_branch2b"
  top: "res4c_branch2b"
  batch_norm_param {
    use_global_stats: false
  }
}
layer {
  name: "scale4c_branch2b"
  type: "Scale"
  bottom: "res4c_branch2b"
  top: "res4c_branch2b"
  scale_param {
    bias_term: true
  }
}
layer {
  name: "res4c_branch2b_relu"
  type: "ReLU"
  bottom: "res4c_branch2b"
  top: "res4c_branch2b"
}
layer {
  name: "res4c_branch2c"
  type: "Convolution"
  bottom: "res4c_branch2b"
  top: "res4c_branch2c"
  convolution_param {
    num_output: 1024
    bias_term: false
    pad: 0
    kernel_size: 1
    stride: 1
    weight_filler {
      type: "msra"
    }
  }
}
layer {
  name: "bn4c_branch2c"
  type: "BatchNorm"
  bottom: "res4c_branch2c"
  top: "res4c_branch2c"
  batch_norm_param {
    use_global_stats: false
  }
}
layer {
  name: "scale4c_branch2c"
  type: "Scale"
  bottom: "res4c_branch2c"
  top: "res4c_branch2c"
  scale_param {
    bias_term: true
  }
}
layer {
  name: "res4c"
  type: "Eltwise"
  bottom: "res4b"
  bottom: "res4c_branch2c"
  top: "res4c"
  eltwise_param {
    operation: SUM
  }
}
layer {
  name: "res4c_relu"
  type: "ReLU"
  bottom: "res4c"
  top: "res4c"
}
layer {
  name: "res4d_branch2a"
  type: "Convolution"
  bottom: "res4c"
  top: "res4d_branch2a"
  convolution_param {
    num_output: 256
    bias_term: false
    pad: 0
    kernel_size: 1
    stride: 1
    weight_filler {
      type: "msra"
    }
  }
}
layer {
  name: "bn4d_branch2a"
  type: "BatchNorm"
  bottom: "res4d_branch2a"
  top: "res4d_branch2a"
  batch_norm_param {
    use_global_stats: false
  }
}
layer {
  name: "scale4d_branch2a"
  type: "Scale"
  bottom: "res4d_branch2a"
  top: "res4d_branch2a"
  scale_param {
    bias_term: true
  }
}
layer {
  name: "res4d_branch2a_relu"
  type: "ReLU"
  bottom: "res4d_branch2a"
  top: "res4d_branch2a"
}
layer {
  name: "res4d_branch2b"
  type: "Convolution"
  bottom: "res4d_branch2a"
  top: "res4d_branch2b"
  convolution_param {
    num_output: 256
    bias_term: false
    pad: 1
    kernel_size: 3
    stride: 1
    weight_filler {
      type: "msra"
    }
  }
}
layer {
  name: "bn4d_branch2b"
  type: "BatchNorm"
  bottom: "res4d_branch2b"
  top: "res4d_branch2b"
  batch_norm_param {
    use_global_stats: false
  }
}
layer {
  name: "scale4d_branch2b"
  type: "Scale"
  bottom: "res4d_branch2b"
  top: "res4d_branch2b"
  scale_param {
    bias_term: true
  }
}
layer {
  name: "res4d_branch2b_relu"
  type: "ReLU"
  bottom: "res4d_branch2b"
  top: "res4d_branch2b"
}
layer {
  name: "res4d_branch2c"
  type: "Convolution"
  bottom: "res4d_branch2b"
  top: "res4d_branch2c"
  convolution_param {
    num_output: 1024
    bias_term: false
    pad: 0
    kernel_size: 1
    stride: 1
    weight_filler {
      type: "msra"
    }
  }
}
layer {
  name: "bn4d_branch2c"
  type: "BatchNorm"
  bottom: "res4d_branch2c"
  top: "res4d_branch2c"
  batch_norm_param {
    use_global_stats: false
  }
}
layer {
  name: "scale4d_branch2c"
  type: "Scale"
  bottom: "res4d_branch2c"
  top: "res4d_branch2c"
  scale_param {
    bias_term: true
  }
}
layer {
  name: "res4d"
  type: "Eltwise"
  bottom: "res4c"
  bottom: "res4d_branch2c"
  top: "res4d"
  eltwise_param {
    operation: SUM
  }
}
layer {
  name: "res4d_relu"
  type: "ReLU"
  bottom: "res4d"
  top: "res4d"
}
layer {
  name: "res4e_branch2a"
  type: "Convolution"
  bottom: "res4d"
  top: "res4e_branch2a"
  convolution_param {
    num_output: 256
    bias_term: false
    pad: 0
    kernel_size: 1
    stride: 1
    weight_filler {
      type: "msra"
    }
  }
}
layer {
  name: "bn4e_branch2a"
  type: "BatchNorm"
  bottom: "res4e_branch2a"
  top: "res4e_branch2a"
  batch_norm_param {
    use_global_stats: false
  }
}
layer {
  name: "scale4e_branch2a"
  type: "Scale"
  bottom: "res4e_branch2a"
  top: "res4e_branch2a"
  scale_param {
    bias_term: true
  }
}
layer {
  name: "res4e_branch2a_relu"
  type: "ReLU"
  bottom: "res4e_branch2a"
  top: "res4e_branch2a"
}
layer {
  name: "res4e_branch2b"
  type: "Convolution"
  bottom: "res4e_branch2a"
  top: "res4e_branch2b"
  convolution_param {
    num_output: 256
    bias_term: false
    pad: 1
    kernel_size: 3
    stride: 1
    weight_filler {
      type: "msra"
    }
  }
}
layer {
  name: "bn4e_branch2b"
  type: "BatchNorm"
  bottom: "res4e_branch2b"
  top: "res4e_branch2b"
  batch_norm_param {
    use_global_stats: false
  }
}
layer {
  name: "scale4e_branch2b"
  type: "Scale"
  bottom: "res4e_branch2b"
  top: "res4e_branch2b"
  scale_param {
    bias_term: true
  }
}
layer {
  name: "res4e_branch2b_relu"
  type: "ReLU"
  bottom: "res4e_branch2b"
  top: "res4e_branch2b"
}
layer {
  name: "res4e_branch2c"
  type: "Convolution"
  bottom: "res4e_branch2b"
  top: "res4e_branch2c"
  convolution_param {
    num_output: 1024
    bias_term: false
    pad: 0
    kernel_size: 1
    stride: 1
    weight_filler {
      type: "msra"
    }
  }
}
layer {
  name: "bn4e_branch2c"
  type: "BatchNorm"
  bottom: "res4e_branch2c"
  top: "res4e_branch2c"
  batch_norm_param {
    use_global_stats: false
  }
}
layer {
  name: "scale4e_branch2c"
  type: "Scale"
  bottom: "res4e_branch2c"
  top: "res4e_branch2c"
  scale_param {
    bias_term: true
  }
}
layer {
  name: "res4e"
  type: "Eltwise"
  bottom: "res4d"
  bottom: "res4e_branch2c"
  top: "res4e"
  eltwise_param {
    operation: SUM
  }
}
layer {
  name: "res4e_relu"
  type: "ReLU"
  bottom: "res4e"
  top: "res4e"
}
layer {
  name: "res4f_branch2a"
  type: "Convolution"
  bottom: "res4e"
  top: "res4f_branch2a"
  convolution_param {
    num_output: 256
    bias_term: false
    pad: 0
    kernel_size: 1
    stride: 1
    weight_filler {
      type: "msra"
    }
  }
}
layer {
  name: "bn4f_branch2a"
  type: "BatchNorm"
  bottom: "res4f_branch2a"
  top: "res4f_branch2a"
  batch_norm_param {
    use_global_stats: false
  }
}
layer {
  name: "scale4f_branch2a"
  type: "Scale"
  bottom: "res4f_branch2a"
  top: "res4f_branch2a"
  scale_param {
    bias_term: true
  }
}
layer {
  name: "res4f_branch2a_relu"
  type: "ReLU"
  bottom: "res4f_branch2a"
  top: "res4f_branch2a"
}
layer {
  name: "res4f_branch2b"
  type: "Convolution"
  bottom: "res4f_branch2a"
  top: "res4f_branch2b"
  convolution_param {
    num_output: 256
    bias_term: false
    pad: 1
    kernel_size: 3
    stride: 1
    weight_filler {
      type: "msra"
    }
  }
}
layer {
  name: "bn4f_branch2b"
  type: "BatchNorm"
  bottom: "res4f_branch2b"
  top: "res4f_branch2b"
  batch_norm_param {
    use_global_stats: false
  }
}
layer {
  name: "scale4f_branch2b"
  type: "Scale"
  bottom: "res4f_branch2b"
  top: "res4f_branch2b"
  scale_param {
    bias_term: true
  }
}
layer {
  name: "res4f_branch2b_relu"
  type: "ReLU"
  bottom: "res4f_branch2b"
  top: "res4f_branch2b"
}
layer {
  name: "res4f_branch2c"
  type: "Convolution"
  bottom: "res4f_branch2b"
  top: "res4f_branch2c"
  convolution_param {
    num_output: 1024
    bias_term: false
    pad: 0
    kernel_size: 1
    stride: 1
    weight_filler {
      type: "msra"
    }
  }
}
layer {
  name: "bn4
I0331 22:56:19.729600  7281 layer_factory.hpp:77] Creating layer data
I0331 22:56:19.729701  7281 db_lmdb.cpp:35] Opened lmdb /scratch/imagenet/lmdb_data/ilsvrc12_train_lmdb
I0331 22:56:19.729739  7281 net.cpp:86] Creating Layer data
I0331 22:56:19.729748  7281 net.cpp:382] data -> data
I0331 22:56:19.729768  7281 net.cpp:382] data -> label
I0331 22:56:19.729785  7281 data_transformer.cpp:25] Loading mean file from: /scratch/imagenet/lmdb_data/imagenet_mean.binaryproto
I0331 22:56:19.733268  7281 data_layer.cpp:45] output data size: 16,3,224,224
I0331 22:56:19.750192  7281 net.cpp:124] Setting up data
I0331 22:56:19.750231  7281 net.cpp:131] Top shape: 16 3 224 224 (2408448)
I0331 22:56:19.750239  7281 net.cpp:131] Top shape: 16 (16)
I0331 22:56:19.750244  7281 net.cpp:139] Memory required for data: 9633856
I0331 22:56:19.750257  7281 layer_factory.hpp:77] Creating layer conv1
I0331 22:56:19.750284  7281 net.cpp:86] Creating Layer conv1
I0331 22:56:19.750294  7281 net.cpp:408] conv1 <- data
I0331 22:56:19.750310  7281 net.cpp:382] conv1 -> conv1
I0331 22:56:20.748210  7281 net.cpp:124] Setting up conv1
I0331 22:56:20.748242  7281 net.cpp:131] Top shape: 16 64 112 112 (12845056)
I0331 22:56:20.748246  7281 net.cpp:139] Memory required for data: 61014080
I0331 22:56:20.748267  7281 layer_factory.hpp:77] Creating layer bn_conv1
I0331 22:56:20.748280  7281 net.cpp:86] Creating Layer bn_conv1
I0331 22:56:20.748283  7281 net.cpp:408] bn_conv1 <- conv1
I0331 22:56:20.748291  7281 net.cpp:369] bn_conv1 -> conv1 (in-place)
I0331 22:56:20.748502  7281 net.cpp:124] Setting up bn_conv1
I0331 22:56:20.748509  7281 net.cpp:131] Top shape: 16 64 112 112 (12845056)
I0331 22:56:20.748541  7281 net.cpp:139] Memory required for data: 112394304
I0331 22:56:20.748553  7281 layer_factory.hpp:77] Creating layer scale_conv1
I0331 22:56:20.748560  7281 net.cpp:86] Creating Layer scale_conv1
I0331 22:56:20.748564  7281 net.cpp:408] scale_conv1 <- conv1
I0331 22:56:20.748569  7281 net.cpp:369] scale_conv1 -> conv1 (in-place)
I0331 22:56:20.748620  7281 layer_factory.hpp:77] Creating layer scale_conv1
I0331 22:56:20.748751  7281 net.cpp:124] Setting up scale_conv1
I0331 22:56:20.748759  7281 net.cpp:131] Top shape: 16 64 112 112 (12845056)
I0331 22:56:20.748761  7281 net.cpp:139] Memory required for data: 163774528
I0331 22:56:20.748767  7281 layer_factory.hpp:77] Creating layer conv1_relu
I0331 22:56:20.748775  7281 net.cpp:86] Creating Layer conv1_relu
I0331 22:56:20.748777  7281 net.cpp:408] conv1_relu <- conv1
I0331 22:56:20.748782  7281 net.cpp:369] conv1_relu -> conv1 (in-place)
I0331 22:56:20.749325  7281 net.cpp:124] Setting up conv1_relu
I0331 22:56:20.749336  7281 net.cpp:131] Top shape: 16 64 112 112 (12845056)
I0331 22:56:20.749339  7281 net.cpp:139] Memory required for data: 215154752
I0331 22:56:20.749343  7281 layer_factory.hpp:77] Creating layer pool1
I0331 22:56:20.749351  7281 net.cpp:86] Creating Layer pool1
I0331 22:56:20.749354  7281 net.cpp:408] pool1 <- conv1
I0331 22:56:20.749361  7281 net.cpp:382] pool1 -> pool1
I0331 22:56:20.749415  7281 net.cpp:124] Setting up pool1
I0331 22:56:20.749423  7281 net.cpp:131] Top shape: 16 64 56 56 (3211264)
I0331 22:56:20.749426  7281 net.cpp:139] Memory required for data: 227999808
I0331 22:56:20.749429  7281 layer_factory.hpp:77] Creating layer pool1_pool1_0_split
I0331 22:56:20.749435  7281 net.cpp:86] Creating Layer pool1_pool1_0_split
I0331 22:56:20.749439  7281 net.cpp:408] pool1_pool1_0_split <- pool1
I0331 22:56:20.749444  7281 net.cpp:382] pool1_pool1_0_split -> pool1_pool1_0_split_0
I0331 22:56:20.749451  7281 net.cpp:382] pool1_pool1_0_split -> pool1_pool1_0_split_1
I0331 22:56:20.749490  7281 net.cpp:124] Setting up pool1_pool1_0_split
I0331 22:56:20.749496  7281 net.cpp:131] Top shape: 16 64 56 56 (3211264)
I0331 22:56:20.749500  7281 net.cpp:131] Top shape: 16 64 56 56 (3211264)
I0331 22:56:20.749502  7281 net.cpp:139] Memory required for data: 253689920
I0331 22:56:20.749506  7281 layer_factory.hpp:77] Creating layer res2a_branch1
I0331 22:56:20.749516  7281 net.cpp:86] Creating Layer res2a_branch1
I0331 22:56:20.749519  7281 net.cpp:408] res2a_branch1 <- pool1_pool1_0_split_0
I0331 22:56:20.749524  7281 net.cpp:382] res2a_branch1 -> res2a_branch1
I0331 22:56:20.751960  7281 net.cpp:124] Setting up res2a_branch1
I0331 22:56:20.751976  7281 net.cpp:131] Top shape: 16 256 56 56 (12845056)
I0331 22:56:20.751979  7281 net.cpp:139] Memory required for data: 305070144
I0331 22:56:20.751984  7281 layer_factory.hpp:77] Creating layer bn2a_branch1
I0331 22:56:20.751993  7281 net.cpp:86] Creating Layer bn2a_branch1
I0331 22:56:20.751998  7281 net.cpp:408] bn2a_branch1 <- res2a_branch1
I0331 22:56:20.752003  7281 net.cpp:369] bn2a_branch1 -> res2a_branch1 (in-place)
I0331 22:56:20.753015  7281 net.cpp:124] Setting up bn2a_branch1
I0331 22:56:20.753027  7281 net.cpp:131] Top shape: 16 256 56 56 (12845056)
I0331 22:56:20.753031  7281 net.cpp:139] Memory required for data: 356450368
I0331 22:56:20.753042  7281 layer_factory.hpp:77] Creating layer scale2a_branch1
I0331 22:56:20.753051  7281 net.cpp:86] Creating Layer scale2a_branch1
I0331 22:56:20.753054  7281 net.cpp:408] scale2a_branch1 <- res2a_branch1
I0331 22:56:20.753059  7281 net.cpp:369] scale2a_branch1 -> res2a_branch1 (in-place)
I0331 22:56:20.753105  7281 layer_factory.hpp:77] Creating layer scale2a_branch1
I0331 22:56:20.753231  7281 net.cpp:124] Setting up scale2a_branch1
I0331 22:56:20.753237  7281 net.cpp:131] Top shape: 16 256 56 56 (12845056)
I0331 22:56:20.753242  7281 net.cpp:139] Memory required for data: 407830592
I0331 22:56:20.753247  7281 layer_factory.hpp:77] Creating layer res2a_branch2a
I0331 22:56:20.753255  7281 net.cpp:86] Creating Layer res2a_branch2a
I0331 22:56:20.753280  7281 net.cpp:408] res2a_branch2a <- pool1_pool1_0_split_1
I0331 22:56:20.753288  7281 net.cpp:382] res2a_branch2a -> res2a_branch2a
I0331 22:56:20.755544  7281 net.cpp:124] Setting up res2a_branch2a
I0331 22:56:20.755558  7281 net.cpp:131] Top shape: 16 64 56 56 (3211264)
I0331 22:56:20.755561  7281 net.cpp:139] Memory required for data: 420675648
I0331 22:56:20.755568  7281 layer_factory.hpp:77] Creating layer bn2a_branch2a
I0331 22:56:20.755574  7281 net.cpp:86] Creating Layer bn2a_branch2a
I0331 22:56:20.755578  7281 net.cpp:408] bn2a_branch2a <- res2a_branch2a
I0331 22:56:20.755584  7281 net.cpp:369] bn2a_branch2a -> res2a_branch2a (in-place)
I0331 22:56:20.755785  7281 net.cpp:124] Setting up bn2a_branch2a
I0331 22:56:20.755792  7281 net.cpp:131] Top shape: 16 64 56 56 (3211264)
I0331 22:56:20.755795  7281 net.cpp:139] Memory required for data: 433520704
I0331 22:56:20.755805  7281 layer_factory.hpp:77] Creating layer scale2a_branch2a
I0331 22:56:20.755812  7281 net.cpp:86] Creating Layer scale2a_branch2a
I0331 22:56:20.755816  7281 net.cpp:408] scale2a_branch2a <- res2a_branch2a
I0331 22:56:20.755820  7281 net.cpp:369] scale2a_branch2a -> res2a_branch2a (in-place)
I0331 22:56:20.755863  7281 layer_factory.hpp:77] Creating layer scale2a_branch2a
I0331 22:56:20.755978  7281 net.cpp:124] Setting up scale2a_branch2a
I0331 22:56:20.755985  7281 net.cpp:131] Top shape: 16 64 56 56 (3211264)
I0331 22:56:20.755988  7281 net.cpp:139] Memory required for data: 446365760
I0331 22:56:20.755993  7281 layer_factory.hpp:77] Creating layer res2a_branch2a_relu
I0331 22:56:20.756000  7281 net.cpp:86] Creating Layer res2a_branch2a_relu
I0331 22:56:20.756003  7281 net.cpp:408] res2a_branch2a_relu <- res2a_branch2a
I0331 22:56:20.756007  7281 net.cpp:369] res2a_branch2a_relu -> res2a_branch2a (in-place)
I0331 22:56:20.756474  7281 net.cpp:124] Setting up res2a_branch2a_relu
I0331 22:56:20.756484  7281 net.cpp:131] Top shape: 16 64 56 56 (3211264)
I0331 22:56:20.756487  7281 net.cpp:139] Memory required for data: 459210816
I0331 22:56:20.756491  7281 layer_factory.hpp:77] Creating layer res2a_branch2b
I0331 22:56:20.756500  7281 net.cpp:86] Creating Layer res2a_branch2b
I0331 22:56:20.756505  7281 net.cpp:408] res2a_branch2b <- res2a_branch2a
I0331 22:56:20.756510  7281 net.cpp:382] res2a_branch2b -> res2a_branch2b
I0331 22:56:20.760054  7281 net.cpp:124] Setting up res2a_branch2b
I0331 22:56:20.760071  7281 net.cpp:131] Top shape: 16 64 56 56 (3211264)
I0331 22:56:20.760076  7281 net.cpp:139] Memory required for data: 472055872
I0331 22:56:20.760082  7281 layer_factory.hpp:77] Creating layer bn2a_branch2b
I0331 22:56:20.760088  7281 net.cpp:86] Creating Layer bn2a_branch2b
I0331 22:56:20.760092  7281 net.cpp:408] bn2a_branch2b <- res2a_branch2b
I0331 22:56:20.760098  7281 net.cpp:369] bn2a_branch2b -> res2a_branch2b (in-place)
I0331 22:56:20.760323  7281 net.cpp:124] Setting up bn2a_branch2b
I0331 22:56:20.760329  7281 net.cpp:131] Top shape: 16 64 56 56 (3211264)
I0331 22:56:20.760332  7281 net.cpp:139] Memory required for data: 484900928
I0331 22:56:20.760340  7281 layer_factory.hpp:77] Creating layer scale2a_branch2b
I0331 22:56:20.760349  7281 net.cpp:86] Creating Layer scale2a_branch2b
I0331 22:56:20.760354  7281 net.cpp:408] scale2a_branch2b <- res2a_branch2b
I0331 22:56:20.760359  7281 net.cpp:369] scale2a_branch2b -> res2a_branch2b (in-place)
I0331 22:56:20.760406  7281 layer_factory.hpp:77] Creating layer scale2a_branch2b
I0331 22:56:20.760534  7281 net.cpp:124] Setting up scale2a_branch2b
I0331 22:56:20.760540  7281 net.cpp:131] Top shape: 16 64 56 56 (3211264)
I0331 22:56:20.760543  7281 net.cpp:139] Memory required for data: 497745984
I0331 22:56:20.760550  7281 layer_factory.hpp:77] Creating layer res2a_branch2b_relu
I0331 22:56:20.760556  7281 net.cpp:86] Creating Layer res2a_branch2b_relu
I0331 22:56:20.760560  7281 net.cpp:408] res2a_branch2b_relu <- res2a_branch2b
I0331 22:56:20.760565  7281 net.cpp:369] res2a_branch2b_relu -> res2a_branch2b (in-place)
I0331 22:56:20.761281  7281 net.cpp:124] Setting up res2a_branch2b_relu
I0331 22:56:20.761313  7281 net.cpp:131] Top shape: 16 64 56 56 (3211264)
I0331 22:56:20.761317  7281 net.cpp:139] Memory required for data: 510591040
I0331 22:56:20.761320  7281 layer_factory.hpp:77] Creating layer res2a_branch2c
I0331 22:56:20.761332  7281 net.cpp:86] Creating Layer res2a_branch2c
I0331 22:56:20.761335  7281 net.cpp:408] res2a_branch2c <- res2a_branch2b
I0331 22:56:20.761343  7281 net.cpp:382] res2a_branch2c -> res2a_branch2c
I0331 22:56:20.763913  7281 net.cpp:124] Setting up res2a_branch2c
I0331 22:56:20.763928  7281 net.cpp:131] Top shape: 16 256 56 56 (12845056)
I0331 22:56:20.763931  7281 net.cpp:139] Memory required for data: 561971264
I0331 22:56:20.763937  7281 layer_factory.hpp:77] Creating layer bn2a_branch2c
I0331 22:56:20.763945  7281 net.cpp:86] Creating Layer bn2a_branch2c
I0331 22:56:20.763949  7281 net.cpp:408] bn2a_branch2c <- res2a_branch2c
I0331 22:56:20.763955  7281 net.cpp:369] bn2a_branch2c -> res2a_branch2c (in-place)
I0331 22:56:20.764175  7281 net.cpp:124] Setting up bn2a_branch2c
I0331 22:56:20.764184  7281 net.cpp:131] Top shape: 16 256 56 56 (12845056)
I0331 22:56:20.764189  7281 net.cpp:139] Memory required for data: 613351488
I0331 22:56:20.764194  7281 layer_factory.hpp:77] Creating layer scale2a_branch2c
I0331 22:56:20.764200  7281 net.cpp:86] Creating Layer scale2a_branch2c
I0331 22:56:20.764204  7281 net.cpp:408] scale2a_branch2c <- res2a_branch2c
I0331 22:56:20.764209  7281 net.cpp:369] scale2a_branch2c -> res2a_branch2c (in-place)
I0331 22:56:20.764255  7281 layer_factory.hpp:77] Creating layer scale2a_branch2c
I0331 22:56:20.764377  7281 net.cpp:124] Setting up scale2a_branch2c
I0331 22:56:20.764384  7281 net.cpp:131] Top shape: 16 256 56 56 (12845056)
I0331 22:56:20.764387  7281 net.cpp:139] Memory required for data: 664731712
I0331 22:56:20.764394  7281 layer_factory.hpp:77] Creating layer res2a
I0331 22:56:20.764401  7281 net.cpp:86] Creating Layer res2a
I0331 22:56:20.764405  7281 net.cpp:408] res2a <- res2a_branch1
I0331 22:56:20.764410  7281 net.cpp:408] res2a <- res2a_branch2c
I0331 22:56:20.764415  7281 net.cpp:382] res2a -> res2a
I0331 22:56:20.764449  7281 net.cpp:124] Setting up res2a
I0331 22:56:20.764456  7281 net.cpp:131] Top shape: 16 256 56 56 (12845056)
I0331 22:56:20.764459  7281 net.cpp:139] Memory required for data: 716111936
I0331 22:56:20.764463  7281 layer_factory.hpp:77] Creating layer res2a_relu
I0331 22:56:20.764468  7281 net.cpp:86] Creating Layer res2a_relu
I0331 22:56:20.764472  7281 net.cpp:408] res2a_relu <- res2a
I0331 22:56:20.764478  7281 net.cpp:369] res2a_relu -> res2a (in-place)
I0331 22:56:20.765090  7281 net.cpp:124] Setting up res2a_relu
I0331 22:56:20.765100  7281 net.cpp:131] Top shape: 16 256 56 56 (12845056)
I0331 22:56:20.765103  7281 net.cpp:139] Memory required for data: 767492160
I0331 22:56:20.765107  7281 layer_factory.hpp:77] Creating layer res2a_res2a_relu_0_split
I0331 22:56:20.765121  7281 net.cpp:86] Creating Layer res2a_res2a_relu_0_split
I0331 22:56:20.765125  7281 net.cpp:408] res2a_res2a_relu_0_split <- res2a
I0331 22:56:20.765132  7281 net.cpp:382] res2a_res2a_relu_0_split -> res2a_res2a_relu_0_split_0
I0331 22:56:20.765141  7281 net.cpp:382] res2a_res2a_relu_0_split -> res2a_res2a_relu_0_split_1
I0331 22:56:20.765190  7281 net.cpp:124] Setting up res2a_res2a_relu_0_split
I0331 22:56:20.765197  7281 net.cpp:131] Top shape: 16 256 56 56 (12845056)
I0331 22:56:20.765202  7281 net.cpp:131] Top shape: 16 256 56 56 (12845056)
I0331 22:56:20.765204  7281 net.cpp:139] Memory required for data: 870252608
I0331 22:56:20.765208  7281 layer_factory.hpp:77] Creating layer res2b_branch2a
I0331 22:56:20.765218  7281 net.cpp:86] Creating Layer res2b_branch2a
I0331 22:56:20.765220  7281 net.cpp:408] res2b_branch2a <- res2a_res2a_relu_0_split_0
I0331 22:56:20.765228  7281 net.cpp:382] res2b_branch2a -> res2b_branch2a
I0331 22:56:20.767921  7281 net.cpp:124] Setting up res2b_branch2a
I0331 22:56:20.767935  7281 net.cpp:131] Top shape: 16 64 56 56 (3211264)
I0331 22:56:20.767941  7281 net.cpp:139] Memory required for data: 883097664
I0331 22:56:20.767966  7281 layer_factory.hpp:77] Creating layer bn2b_branch2a
I0331 22:56:20.767974  7281 net.cpp:86] Creating Layer bn2b_branch2a
I0331 22:56:20.767978  7281 net.cpp:408] bn2b_branch2a <- res2b_branch2a
I0331 22:56:20.767984  7281 net.cpp:369] bn2b_branch2a -> res2b_branch2a (in-place)
I0331 22:56:20.768211  7281 net.cpp:124] Setting up bn2b_branch2a
I0331 22:56:20.768218  7281 net.cpp:131] Top shape: 16 64 56 56 (3211264)
I0331 22:56:20.768221  7281 net.cpp:139] Memory required for data: 895942720
I0331 22:56:20.768234  7281 layer_factory.hpp:77] Creating layer scale2b_branch2a
I0331 22:56:20.768241  7281 net.cpp:86] Creating Layer scale2b_branch2a
I0331 22:56:20.768245  7281 net.cpp:408] scale2b_branch2a <- res2b_branch2a
I0331 22:56:20.768250  7281 net.cpp:369] scale2b_branch2a -> res2b_branch2a (in-place)
I0331 22:56:20.768299  7281 layer_factory.hpp:77] Creating layer scale2b_branch2a
I0331 22:56:20.768429  7281 net.cpp:124] Setting up scale2b_branch2a
I0331 22:56:20.768436  7281 net.cpp:131] Top shape: 16 64 56 56 (3211264)
I0331 22:56:20.768440  7281 net.cpp:139] Memory required for data: 908787776
I0331 22:56:20.768445  7281 layer_factory.hpp:77] Creating layer res2b_branch2a_relu
I0331 22:56:20.768450  7281 net.cpp:86] Creating Layer res2b_branch2a_relu
I0331 22:56:20.768453  7281 net.cpp:408] res2b_branch2a_relu <- res2b_branch2a
I0331 22:56:20.768460  7281 net.cpp:369] res2b_branch2a_relu -> res2b_branch2a (in-place)
I0331 22:56:20.768967  7281 net.cpp:124] Setting up res2b_branch2a_relu
I0331 22:56:20.768980  7281 net.cpp:131] Top shape: 16 64 56 56 (3211264)
I0331 22:56:20.768982  7281 net.cpp:139] Memory required for data: 921632832
I0331 22:56:20.768985  7281 layer_factory.hpp:77] Creating layer res2b_branch2b
I0331 22:56:20.768996  7281 net.cpp:86] Creating Layer res2b_branch2b
I0331 22:56:20.768999  7281 net.cpp:408] res2b_branch2b <- res2b_branch2a
I0331 22:56:20.769006  7281 net.cpp:382] res2b_branch2b -> res2b_branch2b
I0331 22:56:20.771728  7281 net.cpp:124] Setting up res2b_branch2b
I0331 22:56:20.771742  7281 net.cpp:131] Top shape: 16 64 56 56 (3211264)
I0331 22:56:20.771746  7281 net.cpp:139] Memory required for data: 934477888
I0331 22:56:20.771751  7281 layer_factory.hpp:77] Creating layer bn2b_branch2b
I0331 22:56:20.771759  7281 net.cpp:86] Creating Layer bn2b_branch2b
I0331 22:56:20.771762  7281 net.cpp:408] bn2b_branch2b <- res2b_branch2b
I0331 22:56:20.771770  7281 net.cpp:369] bn2b_branch2b -> res2b_branch2b (in-place)
I0331 22:56:20.771999  7281 net.cpp:124] Setting up bn2b_branch2b
I0331 22:56:20.772006  7281 net.cpp:131] Top shape: 16 64 56 56 (3211264)
I0331 22:56:20.772009  7281 net.cpp:139] Memory required for data: 947322944
I0331 22:56:20.772017  7281 layer_factory.hpp:77] Creating layer scale2b_branch2b
I0331 22:56:20.772022  7281 net.cpp:86] Creating Layer scale2b_branch2b
I0331 22:56:20.772027  7281 net.cpp:408] scale2b_branch2b <- res2b_branch2b
I0331 22:56:20.772030  7281 net.cpp:369] scale2b_branch2b -> res2b_branch2b (in-place)
I0331 22:56:20.772078  7281 layer_factory.hpp:77] Creating layer scale2b_branch2b
I0331 22:56:20.772208  7281 net.cpp:124] Setting up scale2b_branch2b
I0331 22:56:20.772217  7281 net.cpp:131] Top shape: 16 64 56 56 (3211264)
I0331 22:56:20.772219  7281 net.cpp:139] Memory required for data: 960168000
I0331 22:56:20.772225  7281 layer_factory.hpp:77] Creating layer res2b_branch2b_relu
I0331 22:56:20.772230  7281 net.cpp:86] Creating Layer res2b_branch2b_relu
I0331 22:56:20.772234  7281 net.cpp:408] res2b_branch2b_relu <- res2b_branch2b
I0331 22:56:20.772238  7281 net.cpp:369] res2b_branch2b_relu -> res2b_branch2b (in-place)
I0331 22:56:20.772940  7281 net.cpp:124] Setting up res2b_branch2b_relu
I0331 22:56:20.772953  7281 net.cpp:131] Top shape: 16 64 56 56 (3211264)
I0331 22:56:20.772956  7281 net.cpp:139] Memory required for data: 973013056
I0331 22:56:20.772959  7281 layer_factory.hpp:77] Creating layer res2b_branch2c
I0331 22:56:20.772975  7281 net.cpp:86] Creating Layer res2b_branch2c
I0331 22:56:20.772999  7281 net.cpp:408] res2b_branch2c <- res2b_branch2b
I0331 22:56:20.773006  7281 net.cpp:382] res2b_branch2c -> res2b_branch2c
I0331 22:56:20.775390  7281 net.cpp:124] Setting up res2b_branch2c
I0331 22:56:20.775404  7281 net.cpp:131] Top shape: 16 256 56 56 (12845056)
I0331 22:56:20.775408  7281 net.cpp:139] Memory required for data: 1024393280
I0331 22:56:20.775413  7281 layer_factory.hpp:77] Creating layer bn2b_branch2c
I0331 22:56:20.775419  7281 net.cpp:86] Creating Layer bn2b_branch2c
I0331 22:56:20.775424  7281 net.cpp:408] bn2b_branch2c <- res2b_branch2c
I0331 22:56:20.775431  7281 net.cpp:369] bn2b_branch2c -> res2b_branch2c (in-place)
I0331 22:56:20.775650  7281 net.cpp:124] Setting up bn2b_branch2c
I0331 22:56:20.775657  7281 net.cpp:131] Top shape: 16 256 56 56 (12845056)
I0331 22:56:20.775661  7281 net.cpp:139] Memory required for data: 1075773504
I0331 22:56:20.775668  7281 layer_factory.hpp:77] Creating layer scale2b_branch2c
I0331 22:56:20.775674  7281 net.cpp:86] Creating Layer scale2b_branch2c
I0331 22:56:20.775678  7281 net.cpp:408] scale2b_branch2c <- res2b_branch2c
I0331 22:56:20.775683  7281 net.cpp:369] scale2b_branch2c -> res2b_branch2c (in-place)
I0331 22:56:20.775730  7281 layer_factory.hpp:77] Creating layer scale2b_branch2c
I0331 22:56:20.775851  7281 net.cpp:124] Setting up scale2b_branch2c
I0331 22:56:20.775858  7281 net.cpp:131] Top shape: 16 256 56 56 (12845056)
I0331 22:56:20.775861  7281 net.cpp:139] Memory required for data: 1127153728
I0331 22:56:20.775867  7281 layer_factory.hpp:77] Creating layer res2b
I0331 22:56:20.775873  7281 net.cpp:86] Creating Layer res2b
I0331 22:56:20.775876  7281 net.cpp:408] res2b <- res2a_res2a_relu_0_split_1
I0331 22:56:20.775882  7281 net.cpp:408] res2b <- res2b_branch2c
I0331 22:56:20.775888  7281 net.cpp:382] res2b -> res2b
I0331 22:56:20.775921  7281 net.cpp:124] Setting up res2b
I0331 22:56:20.775928  7281 net.cpp:131] Top shape: 16 256 56 56 (12845056)
I0331 22:56:20.775931  7281 net.cpp:139] Memory required for data: 1178533952
I0331 22:56:20.775934  7281 layer_factory.hpp:77] Creating layer res2b_relu
I0331 22:56:20.775939  7281 net.cpp:86] Creating Layer res2b_relu
I0331 22:56:20.775943  7281 net.cpp:408] res2b_relu <- res2b
I0331 22:56:20.775950  7281 net.cpp:369] res2b_relu -> res2b (in-place)
I0331 22:56:20.776496  7281 net.cpp:124] Setting up res2b_relu
I0331 22:56:20.776506  7281 net.cpp:131] Top shape: 16 256 56 56 (12845056)
I0331 22:56:20.776510  7281 net.cpp:139] Memory required for data: 1229914176
I0331 22:56:20.776513  7281 layer_factory.hpp:77] Creating layer res2b_res2b_relu_0_split
I0331 22:56:20.776520  7281 net.cpp:86] Creating Layer res2b_res2b_relu_0_split
I0331 22:56:20.776525  7281 net.cpp:408] res2b_res2b_relu_0_split <- res2b
I0331 22:56:20.776531  7281 net.cpp:382] res2b_res2b_relu_0_split -> res2b_res2b_relu_0_split_0
I0331 22:56:20.776540  7281 net.cpp:382] res2b_res2b_relu_0_split -> res2b_res2b_relu_0_split_1
I0331 22:56:20.776588  7281 net.cpp:124] Setting up res2b_res2b_relu_0_split
I0331 22:56:20.776597  7281 net.cpp:131] Top shape: 16 256 56 56 (12845056)
I0331 22:56:20.776602  7281 net.cpp:131] Top shape: 16 256 56 56 (12845056)
I0331 22:56:20.776605  7281 net.cpp:139] Memory required for data: 1332674624
I0331 22:56:20.776608  7281 layer_factory.hpp:77] Creating layer res2c_branch2a
I0331 22:56:20.776616  7281 net.cpp:86] Creating Layer res2c_branch2a
I0331 22:56:20.776619  7281 net.cpp:408] res2c_branch2a <- res2b_res2b_relu_0_split_0
I0331 22:56:20.776628  7281 net.cpp:382] res2c_branch2a -> res2c_branch2a
I0331 22:56:20.779032  7281 net.cpp:124] Setting up res2c_branch2a
I0331 22:56:20.779047  7281 net.cpp:131] Top shape: 16 64 56 56 (3211264)
I0331 22:56:20.779049  7281 net.cpp:139] Memory required for data: 1345519680
I0331 22:56:20.779055  7281 layer_factory.hpp:77] Creating layer bn2c_branch2a
I0331 22:56:20.779063  7281 net.cpp:86] Creating Layer bn2c_branch2a
I0331 22:56:20.779067  7281 net.cpp:408] bn2c_branch2a <- res2c_branch2a
I0331 22:56:20.779078  7281 net.cpp:369] bn2c_branch2a -> res2c_branch2a (in-place)
I0331 22:56:20.779325  7281 net.cpp:124] Setting up bn2c_branch2a
I0331 22:56:20.779335  7281 net.cpp:131] Top shape: 16 64 56 56 (3211264)
I0331 22:56:20.779337  7281 net.cpp:139] Memory required for data: 1358364736
I0331 22:56:20.779345  7281 layer_factory.hpp:77] Creating layer scale2c_branch2a
I0331 22:56:20.779351  7281 net.cpp:86] Creating Layer scale2c_branch2a
I0331 22:56:20.779354  7281 net.cpp:408] scale2c_branch2a <- res2c_branch2a
I0331 22:56:20.779359  7281 net.cpp:369] scale2c_branch2a -> res2c_branch2a (in-place)
I0331 22:56:20.779407  7281 layer_factory.hpp:77] Creating layer scale2c_branch2a
I0331 22:56:20.779534  7281 net.cpp:124] Setting up scale2c_branch2a
I0331 22:56:20.779541  7281 net.cpp:131] Top shape: 16 64 56 56 (3211264)
I0331 22:56:20.779544  7281 net.cpp:139] Memory required for data: 1371209792
I0331 22:56:20.779549  7281 layer_factory.hpp:77] Creating layer res2c_branch2a_relu
I0331 22:56:20.779556  7281 net.cpp:86] Creating Layer res2c_branch2a_relu
I0331 22:56:20.779558  7281 net.cpp:408] res2c_branch2a_relu <- res2c_branch2a
I0331 22:56:20.779564  7281 net.cpp:369] res2c_branch2a_relu -> res2c_branch2a (in-place)
I0331 22:56:20.780378  7281 net.cpp:124] Setting up res2c_branch2a_relu
I0331 22:56:20.780391  7281 net.cpp:131] Top shape: 16 64 56 56 (3211264)
I0331 22:56:20.780395  7281 net.cpp:139] Memory required for data: 1384054848
I0331 22:56:20.780398  7281 layer_factory.hpp:77] Creating layer res2c_branch2b
I0331 22:56:20.780408  7281 net.cpp:86] Creating Layer res2c_branch2b
I0331 22:56:20.780412  7281 net.cpp:408] res2c_branch2b <- res2c_branch2a
I0331 22:56:20.780418  7281 net.cpp:382] res2c_branch2b -> res2c_branch2b
I0331 22:56:20.783202  7281 net.cpp:124] Setting up res2c_branch2b
I0331 22:56:20.783217  7281 net.cpp:131] Top shape: 16 64 56 56 (3211264)
I0331 22:56:20.783221  7281 net.cpp:139] Memory required for data: 1396899904
I0331 22:56:20.783226  7281 layer_factory.hpp:77] Creating layer bn2c_branch2b
I0331 22:56:20.783233  7281 net.cpp:86] Creating Layer bn2c_branch2b
I0331 22:56:20.783236  7281 net.cpp:408] bn2c_branch2b <- res2c_branch2b
I0331 22:56:20.783244  7281 net.cpp:369] bn2c_branch2b -> res2c_branch2b (in-place)
I0331 22:56:20.783478  7281 net.cpp:124] Setting up bn2c_branch2b
I0331 22:56:20.783486  7281 net.cpp:131] Top shape: 16 64 56 56 (3211264)
I0331 22:56:20.783489  7281 net.cpp:139] Memory required for data: 1409744960
I0331 22:56:20.783496  7281 layer_factory.hpp:77] Creating layer scale2c_branch2b
I0331 22:56:20.783504  7281 net.cpp:86] Creating Layer scale2c_branch2b
I0331 22:56:20.783507  7281 net.cpp:408] scale2c_branch2b <- res2c_branch2b
I0331 22:56:20.783511  7281 net.cpp:369] scale2c_branch2b -> res2c_branch2b (in-place)
I0331 22:56:20.783560  7281 layer_factory.hpp:77] Creating layer scale2c_branch2b
I0331 22:56:20.783689  7281 net.cpp:124] Setting up scale2c_branch2b
I0331 22:56:20.783696  7281 net.cpp:131] Top shape: 16 64 56 56 (3211264)
I0331 22:56:20.783699  7281 net.cpp:139] Memory required for data: 1422590016
I0331 22:56:20.783705  7281 layer_factory.hpp:77] Creating layer res2c_branch2b_relu
I0331 22:56:20.783712  7281 net.cpp:86] Creating Layer res2c_branch2b_relu
I0331 22:56:20.783715  7281 net.cpp:408] res2c_branch2b_relu <- res2c_branch2b
I0331 22:56:20.783720  7281 net.cpp:369] res2c_branch2b_relu -> res2c_branch2b (in-place)
I0331 22:56:20.784274  7281 net.cpp:124] Setting up res2c_branch2b_relu
I0331 22:56:20.784286  7281 net.cpp:131] Top shape: 16 64 56 56 (3211264)
I0331 22:56:20.784289  7281 net.cpp:139] Memory required for data: 1435435072
I0331 22:56:20.784292  7281 layer_factory.hpp:77] Creating layer res2c_branch2c
I0331 22:56:20.784302  7281 net.cpp:86] Creating Layer res2c_branch2c
I0331 22:56:20.784307  7281 net.cpp:408] res2c_branch2c <- res2c_branch2b
I0331 22:56:20.784312  7281 net.cpp:382] res2c_branch2c -> res2c_branch2c
I0331 22:56:20.787040  7281 net.cpp:124] Setting up res2c_branch2c
I0331 22:56:20.787055  7281 net.cpp:131] Top shape: 16 256 56 56 (12845056)
I0331 22:56:20.787062  7281 net.cpp:139] Memory required for data: 1486815296
I0331 22:56:20.787086  7281 layer_factory.hpp:77] Creating layer bn2c_branch2c
I0331 22:56:20.787093  7281 net.cpp:86] Creating Layer bn2c_branch2c
I0331 22:56:20.787097  7281 net.cpp:408] bn2c_branch2c <- res2c_branch2c
I0331 22:56:20.787103  7281 net.cpp:369] bn2c_branch2c -> res2c_branch2c (in-place)
I0331 22:56:20.787333  7281 net.cpp:124] Setting up bn2c_branch2c
I0331 22:56:20.787339  7281 net.cpp:131] Top shape: 16 256 56 56 (12845056)
I0331 22:56:20.787343  7281 net.cpp:139] Memory required for data: 1538195520
I0331 22:56:20.787360  7281 layer_factory.hpp:77] Creating layer scale2c_branch2c
I0331 22:56:20.787367  7281 net.cpp:86] Creating Layer scale2c_branch2c
I0331 22:56:20.787370  7281 net.cpp:408] scale2c_branch2c <- res2c_branch2c
I0331 22:56:20.787377  7281 net.cpp:369] scale2c_branch2c -> res2c_branch2c (in-place)
I0331 22:56:20.787427  7281 layer_factory.hpp:77] Creating layer scale2c_branch2c
I0331 22:56:20.787552  7281 net.cpp:124] Setting up scale2c_branch2c
I0331 22:56:20.787559  7281 net.cpp:131] Top shape: 16 256 56 56 (12845056)
I0331 22:56:20.787562  7281 net.cpp:139] Memory required for data: 1589575744
I0331 22:56:20.787569  7281 layer_factory.hpp:77] Creating layer res2c
I0331 22:56:20.787575  7281 net.cpp:86] Creating Layer res2c
I0331 22:56:20.787578  7281 net.cpp:408] res2c <- res2b_res2b_relu_0_split_1
I0331 22:56:20.787583  7281 net.cpp:408] res2c <- res2c_branch2c
I0331 22:56:20.787588  7281 net.cpp:382] res2c -> res2c
I0331 22:56:20.787619  7281 net.cpp:124] Setting up res2c
I0331 22:56:20.787626  7281 net.cpp:131] Top shape: 16 256 56 56 (12845056)
I0331 22:56:20.787628  7281 net.cpp:139] Memory required for data: 1640955968
I0331 22:56:20.787632  7281 layer_factory.hpp:77] Creating layer res2c_relu
I0331 22:56:20.787636  7281 net.cpp:86] Creating Layer res2c_relu
I0331 22:56:20.787641  7281 net.cpp:408] res2c_relu <- res2c
I0331 22:56:20.787645  7281 net.cpp:369] res2c_relu -> res2c (in-place)
I0331 22:56:20.788156  7281 net.cpp:124] Setting up res2c_relu
I0331 22:56:20.788166  7281 net.cpp:131] Top shape: 16 256 56 56 (12845056)
I0331 22:56:20.788168  7281 net.cpp:139] Memory required for data: 1692336192
I0331 22:56:20.788172  7281 layer_factory.hpp:77] Creating layer res2c_res2c_relu_0_split
I0331 22:56:20.788178  7281 net.cpp:86] Creating Layer res2c_res2c_relu_0_split
I0331 22:56:20.788182  7281 net.cpp:408] res2c_res2c_relu_0_split <- res2c
I0331 22:56:20.788189  7281 net.cpp:382] res2c_res2c_relu_0_split -> res2c_res2c_relu_0_split_0
I0331 22:56:20.788197  7281 net.cpp:382] res2c_res2c_relu_0_split -> res2c_res2c_relu_0_split_1
I0331 22:56:20.788250  7281 net.cpp:124] Setting up res2c_res2c_relu_0_split
I0331 22:56:20.788256  7281 net.cpp:131] Top shape: 16 256 56 56 (12845056)
I0331 22:56:20.788260  7281 net.cpp:131] Top shape: 16 256 56 56 (12845056)
I0331 22:56:20.788264  7281 net.cpp:139] Memory required for data: 1795096640
I0331 22:56:20.788267  7281 layer_factory.hpp:77] Creating layer res3a_branch1
I0331 22:56:20.788276  7281 net.cpp:86] Creating Layer res3a_branch1
I0331 22:56:20.788280  7281 net.cpp:408] res3a_branch1 <- res2c_res2c_relu_0_split_0
I0331 22:56:20.788286  7281 net.cpp:382] res3a_branch1 -> res3a_branch1
I0331 22:56:20.791662  7281 net.cpp:124] Setting up res3a_branch1
I0331 22:56:20.791677  7281 net.cpp:131] Top shape: 16 512 28 28 (6422528)
I0331 22:56:20.791680  7281 net.cpp:139] Memory required for data: 1820786752
I0331 22:56:20.791687  7281 layer_factory.hpp:77] Creating layer bn3a_branch1
I0331 22:56:20.791693  7281 net.cpp:86] Creating Layer bn3a_branch1
I0331 22:56:20.791697  7281 net.cpp:408] bn3a_branch1 <- res3a_branch1
I0331 22:56:20.791705  7281 net.cpp:369] bn3a_branch1 -> res3a_branch1 (in-place)
I0331 22:56:20.792723  7281 net.cpp:124] Setting up bn3a_branch1
I0331 22:56:20.792735  7281 net.cpp:131] Top shape: 16 512 28 28 (6422528)
I0331 22:56:20.792739  7281 net.cpp:139] Memory required for data: 1846476864
I0331 22:56:20.792747  7281 layer_factory.hpp:77] Creating layer scale3a_branch1
I0331 22:56:20.792775  7281 net.cpp:86] Creating Layer scale3a_branch1
I0331 22:56:20.792780  7281 net.cpp:408] scale3a_branch1 <- res3a_branch1
I0331 22:56:20.792786  7281 net.cpp:369] scale3a_branch1 -> res3a_branch1 (in-place)
I0331 22:56:20.792835  7281 layer_factory.hpp:77] Creating layer scale3a_branch1
I0331 22:56:20.792956  7281 net.cpp:124] Setting up scale3a_branch1
I0331 22:56:20.792963  7281 net.cpp:131] Top shape: 16 512 28 28 (6422528)
I0331 22:56:20.792966  7281 net.cpp:139] Memory required for data: 1872166976
I0331 22:56:20.792971  7281 layer_factory.hpp:77] Creating layer res3a_branch2a
I0331 22:56:20.792981  7281 net.cpp:86] Creating Layer res3a_branch2a
I0331 22:56:20.792985  7281 net.cpp:408] res3a_branch2a <- res2c_res2c_relu_0_split_1
I0331 22:56:20.792992  7281 net.cpp:382] res3a_branch2a -> res3a_branch2a
I0331 22:56:20.795711  7281 net.cpp:124] Setting up res3a_branch2a
I0331 22:56:20.795724  7281 net.cpp:131] Top shape: 16 128 28 28 (1605632)
I0331 22:56:20.795727  7281 net.cpp:139] Memory required for data: 1878589504
I0331 22:56:20.795732  7281 layer_factory.hpp:77] Creating layer bn3a_branch2a
I0331 22:56:20.795742  7281 net.cpp:86] Creating Layer bn3a_branch2a
I0331 22:56:20.795747  7281 net.cpp:408] bn3a_branch2a <- res3a_branch2a
I0331 22:56:20.795752  7281 net.cpp:369] bn3a_branch2a -> res3a_branch2a (in-place)
I0331 22:56:20.795984  7281 net.cpp:124] Setting up bn3a_branch2a
I0331 22:56:20.795990  7281 net.cpp:131] Top shape: 16 128 28 28 (1605632)
I0331 22:56:20.795994  7281 net.cpp:139] Memory required for data: 1885012032
I0331 22:56:20.796001  7281 layer_factory.hpp:77] Creating layer scale3a_branch2a
I0331 22:56:20.796006  7281 net.cpp:86] Creating Layer scale3a_branch2a
I0331 22:56:20.796010  7281 net.cpp:408] scale3a_branch2a <- res3a_branch2a
I0331 22:56:20.796017  7281 net.cpp:369] scale3a_branch2a -> res3a_branch2a (in-place)
I0331 22:56:20.796063  7281 layer_factory.hpp:77] Creating layer scale3a_branch2a
I0331 22:56:20.796185  7281 net.cpp:124] Setting up scale3a_branch2a
I0331 22:56:20.796191  7281 net.cpp:131] Top shape: 16 128 28 28 (1605632)
I0331 22:56:20.796195  7281 net.cpp:139] Memory required for data: 1891434560
I0331 22:56:20.796200  7281 layer_factory.hpp:77] Creating layer res3a_branch2a_relu
I0331 22:56:20.796205  7281 net.cpp:86] Creating Layer res3a_branch2a_relu
I0331 22:56:20.796209  7281 net.cpp:408] res3a_branch2a_relu <- res3a_branch2a
I0331 22:56:20.796216  7281 net.cpp:369] res3a_branch2a_relu -> res3a_branch2a (in-place)
I0331 22:56:20.796892  7281 net.cpp:124] Setting up res3a_branch2a_relu
I0331 22:56:20.796906  7281 net.cpp:131] Top shape: 16 128 28 28 (1605632)
I0331 22:56:20.796911  7281 net.cpp:139] Memory required for data: 1897857088
I0331 22:56:20.796914  7281 layer_factory.hpp:77] Creating layer res3a_branch2b
I0331 22:56:20.796922  7281 net.cpp:86] Creating Layer res3a_branch2b
I0331 22:56:20.796926  7281 net.cpp:408] res3a_branch2b <- res3a_branch2a
I0331 22:56:20.796934  7281 net.cpp:382] res3a_branch2b -> res3a_branch2b
I0331 22:56:20.800592  7281 net.cpp:124] Setting up res3a_branch2b
I0331 22:56:20.800609  7281 net.cpp:131] Top shape: 16 128 28 28 (1605632)
I0331 22:56:20.800612  7281 net.cpp:139] Memory required for data: 1904279616
I0331 22:56:20.800618  7281 layer_factory.hpp:77] Creating layer bn3a_branch2b
I0331 22:56:20.800626  7281 net.cpp:86] Creating Layer bn3a_branch2b
I0331 22:56:20.800629  7281 net.cpp:408] bn3a_branch2b <- res3a_branch2b
I0331 22:56:20.800637  7281 net.cpp:369] bn3a_branch2b -> res3a_branch2b (in-place)
I0331 22:56:20.800873  7281 net.cpp:124] Setting up bn3a_branch2b
I0331 22:56:20.800881  7281 net.cpp:131] Top shape: 16 128 28 28 (1605632)
I0331 22:56:20.800884  7281 net.cpp:139] Memory required for data: 1910702144
I0331 22:56:20.800891  7281 layer_factory.hpp:77] Creating layer scale3a_branch2b
I0331 22:56:20.800896  7281 net.cpp:86] Creating Layer scale3a_branch2b
I0331 22:56:20.800901  7281 net.cpp:408] scale3a_branch2b <- res3a_branch2b
I0331 22:56:20.800909  7281 net.cpp:369] scale3a_branch2b -> res3a_branch2b (in-place)
I0331 22:56:20.800981  7281 layer_factory.hpp:77] Creating layer scale3a_branch2b
I0331 22:56:20.801105  7281 net.cpp:124] Setting up scale3a_branch2b
I0331 22:56:20.801121  7281 net.cpp:131] Top shape: 16 128 28 28 (1605632)
I0331 22:56:20.801124  7281 net.cpp:139] Memory required for data: 1917124672
I0331 22:56:20.801131  7281 layer_factory.hpp:77] Creating layer res3a_branch2b_relu
I0331 22:56:20.801136  7281 net.cpp:86] Creating Layer res3a_branch2b_relu
I0331 22:56:20.801141  7281 net.cpp:408] res3a_branch2b_relu <- res3a_branch2b
I0331 22:56:20.801147  7281 net.cpp:369] res3a_branch2b_relu -> res3a_branch2b (in-place)
I0331 22:56:20.801704  7281 net.cpp:124] Setting up res3a_branch2b_relu
I0331 22:56:20.801715  7281 net.cpp:131] Top shape: 16 128 28 28 (1605632)
I0331 22:56:20.801718  7281 net.cpp:139] Memory required for data: 1923547200
I0331 22:56:20.801723  7281 layer_factory.hpp:77] Creating layer res3a_branch2c
I0331 22:56:20.801731  7281 net.cpp:86] Creating Layer res3a_branch2c
I0331 22:56:20.801735  7281 net.cpp:408] res3a_branch2c <- res3a_branch2b
I0331 22:56:20.801743  7281 net.cpp:382] res3a_branch2c -> res3a_branch2c
I0331 22:56:20.804742  7281 net.cpp:124] Setting up res3a_branch2c
I0331 22:56:20.804756  7281 net.cpp:131] Top shape: 16 512 28 28 (6422528)
I0331 22:56:20.804759  7281 net.cpp:139] Memory required for data: 1949237312
I0331 22:56:20.804765  7281 layer_factory.hpp:77] Creating layer bn3a_branch2c
I0331 22:56:20.804790  7281 net.cpp:86] Creating Layer bn3a_branch2c
I0331 22:56:20.804795  7281 net.cpp:408] bn3a_branch2c <- res3a_branch2c
I0331 22:56:20.804800  7281 net.cpp:369] bn3a_branch2c -> res3a_branch2c (in-place)
I0331 22:56:20.805032  7281 net.cpp:124] Setting up bn3a_branch2c
I0331 22:56:20.805038  7281 net.cpp:131] Top shape: 16 512 28 28 (6422528)
I0331 22:56:20.805042  7281 net.cpp:139] Memory required for data: 1974927424
I0331 22:56:20.805049  7281 layer_factory.hpp:77] Creating layer scale3a_branch2c
I0331 22:56:20.805057  7281 net.cpp:86] Creating Layer scale3a_branch2c
I0331 22:56:20.805060  7281 net.cpp:408] scale3a_branch2c <- res3a_branch2c
I0331 22:56:20.805065  7281 net.cpp:369] scale3a_branch2c -> res3a_branch2c (in-place)
I0331 22:56:20.805119  7281 layer_factory.hpp:77] Creating layer scale3a_branch2c
I0331 22:56:20.805243  7281 net.cpp:124] Setting up scale3a_branch2c
I0331 22:56:20.805250  7281 net.cpp:131] Top shape: 16 512 28 28 (6422528)
I0331 22:56:20.805253  7281 net.cpp:139] Memory required for data: 2000617536
I0331 22:56:20.805258  7281 layer_factory.hpp:77] Creating layer res3a
I0331 22:56:20.805265  7281 net.cpp:86] Creating Layer res3a
I0331 22:56:20.805269  7281 net.cpp:408] res3a <- res3a_branch1
I0331 22:56:20.805274  7281 net.cpp:408] res3a <- res3a_branch2c
I0331 22:56:20.805280  7281 net.cpp:382] res3a -> res3a
I0331 22:56:20.805313  7281 net.cpp:124] Setting up res3a
I0331 22:56:20.805320  7281 net.cpp:131] Top shape: 16 512 28 28 (6422528)
I0331 22:56:20.805322  7281 net.cpp:139] Memory required for data: 2026307648
I0331 22:56:20.805325  7281 layer_factory.hpp:77] Creating layer res3a_relu
I0331 22:56:20.805330  7281 net.cpp:86] Creating Layer res3a_relu
I0331 22:56:20.805335  7281 net.cpp:408] res3a_relu <- res3a
I0331 22:56:20.805339  7281 net.cpp:369] res3a_relu -> res3a (in-place)
I0331 22:56:20.805852  7281 net.cpp:124] Setting up res3a_relu
I0331 22:56:20.805863  7281 net.cpp:131] Top shape: 16 512 28 28 (6422528)
I0331 22:56:20.805866  7281 net.cpp:139] Memory required for data: 2051997760
I0331 22:56:20.805869  7281 layer_factory.hpp:77] Creating layer res3a_res3a_relu_0_split
I0331 22:56:20.805876  7281 net.cpp:86] Creating Layer res3a_res3a_relu_0_split
I0331 22:56:20.805881  7281 net.cpp:408] res3a_res3a_relu_0_split <- res3a
I0331 22:56:20.805888  7281 net.cpp:382] res3a_res3a_relu_0_split -> res3a_res3a_relu_0_split_0
I0331 22:56:20.805896  7281 net.cpp:382] res3a_res3a_relu_0_split -> res3a_res3a_relu_0_split_1
I0331 22:56:20.805948  7281 net.cpp:124] Setting up res3a_res3a_relu_0_split
I0331 22:56:20.805960  7281 net.cpp:131] Top shape: 16 512 28 28 (6422528)
I0331 22:56:20.805979  7281 net.cpp:131] Top shape: 16 512 28 28 (6422528)
I0331 22:56:20.805982  7281 net.cpp:139] Memory required for data: 2103377984
I0331 22:56:20.805985  7281 layer_factory.hpp:77] Creating layer res3b_branch2a
I0331 22:56:20.805994  7281 net.cpp:86] Creating Layer res3b_branch2a
I0331 22:56:20.805999  7281 net.cpp:408] res3b_branch2a <- res3a_res3a_relu_0_split_0
I0331 22:56:20.806005  7281 net.cpp:382] res3b_branch2a -> res3b_branch2a
I0331 22:56:20.808987  7281 net.cpp:124] Setting up res3b_branch2a
I0331 22:56:20.809002  7281 net.cpp:131] Top shape: 16 128 28 28 (1605632)
I0331 22:56:20.809005  7281 net.cpp:139] Memory required for data: 2109800512
I0331 22:56:20.809010  7281 layer_factory.hpp:77] Creating layer bn3b_branch2a
I0331 22:56:20.809020  7281 net.cpp:86] Creating Layer bn3b_branch2a
I0331 22:56:20.809023  7281 net.cpp:408] bn3b_branch2a <- res3b_branch2a
I0331 22:56:20.809029  7281 net.cpp:369] bn3b_branch2a -> res3b_branch2a (in-place)
I0331 22:56:20.809271  7281 net.cpp:124] Setting up bn3b_branch2a
I0331 22:56:20.809280  7281 net.cpp:131] Top shape: 16 128 28 28 (1605632)
I0331 22:56:20.809283  7281 net.cpp:139] Memory required for data: 2116223040
I0331 22:56:20.809290  7281 layer_factory.hpp:77] Creating layer scale3b_branch2a
I0331 22:56:20.809296  7281 net.cpp:86] Creating Layer scale3b_branch2a
I0331 22:56:20.809300  7281 net.cpp:408] scale3b_branch2a <- res3b_branch2a
I0331 22:56:20.809307  7281 net.cpp:369] scale3b_branch2a -> res3b_branch2a (in-place)
I0331 22:56:20.809355  7281 layer_factory.hpp:77] Creating layer scale3b_branch2a
I0331 22:56:20.809478  7281 net.cpp:124] Setting up scale3b_branch2a
I0331 22:56:20.809486  7281 net.cpp:131] Top shape: 16 128 28 28 (1605632)
I0331 22:56:20.809489  7281 net.cpp:139] Memory required for data: 2122645568
I0331 22:56:20.809495  7281 layer_factory.hpp:77] Creating layer res3b_branch2a_relu
I0331 22:56:20.809500  7281 net.cpp:86] Creating Layer res3b_branch2a_relu
I0331 22:56:20.809504  7281 net.cpp:408] res3b_branch2a_relu <- res3b_branch2a
I0331 22:56:20.809509  7281 net.cpp:369] res3b_branch2a_relu -> res3b_branch2a (in-place)
I0331 22:56:20.810187  7281 net.cpp:124] Setting up res3b_branch2a_relu
I0331 22:56:20.810199  7281 net.cpp:131] Top shape: 16 128 28 28 (1605632)
I0331 22:56:20.810202  7281 net.cpp:139] Memory required for data: 2129068096
I0331 22:56:20.810207  7281 layer_factory.hpp:77] Creating layer res3b_branch2b
I0331 22:56:20.810217  7281 net.cpp:86] Creating Layer res3b_branch2b
I0331 22:56:20.810221  7281 net.cpp:408] res3b_branch2b <- res3b_branch2a
I0331 22:56:20.810230  7281 net.cpp:382] res3b_branch2b -> res3b_branch2b
I0331 22:56:20.814713  7281 net.cpp:124] Setting up res3b_branch2b
I0331 22:56:20.814728  7281 net.cpp:131] Top shape: 16 128 28 28 (1605632)
I0331 22:56:20.814733  7281 net.cpp:139] Memory required for data: 2135490624
I0331 22:56:20.814738  7281 layer_factory.hpp:77] Creating layer bn3b_branch2b
I0331 22:56:20.814748  7281 net.cpp:86] Creating Layer bn3b_branch2b
I0331 22:56:20.814751  7281 net.cpp:408] bn3b_branch2b <- res3b_branch2b
I0331 22:56:20.814759  7281 net.cpp:369] bn3b_branch2b -> res3b_branch2b (in-place)
I0331 22:56:20.814997  7281 net.cpp:124] Setting up bn3b_branch2b
I0331 22:56:20.815006  7281 net.cpp:131] Top shape: 16 128 28 28 (1605632)
I0331 22:56:20.815009  7281 net.cpp:139] Memory required for data: 2141913152
I0331 22:56:20.815016  7281 layer_factory.hpp:77] Creating layer scale3b_branch2b
I0331 22:56:20.815023  7281 net.cpp:86] Creating Layer scale3b_branch2b
I0331 22:56:20.815027  7281 net.cpp:408] scale3b_branch2b <- res3b_branch2b
I0331 22:56:20.815032  7281 net.cpp:369] scale3b_branch2b -> res3b_branch2b (in-place)
I0331 22:56:20.815081  7281 layer_factory.hpp:77] Creating layer scale3b_branch2b
I0331 22:56:20.815209  7281 net.cpp:124] Setting up scale3b_branch2b
I0331 22:56:20.815217  7281 net.cpp:131] Top shape: 16 128 28 28 (1605632)
I0331 22:56:20.815220  7281 net.cpp:139] Memory required for data: 2148335680
I0331 22:56:20.815245  7281 layer_factory.hpp:77] Creating layer res3b_branch2b_relu
I0331 22:56:20.815251  7281 net.cpp:86] Creating Layer res3b_branch2b_relu
I0331 22:56:20.815255  7281 net.cpp:408] res3b_branch2b_relu <- res3b_branch2b
I0331 22:56:20.815263  7281 net.cpp:369] res3b_branch2b_relu -> res3b_branch2b (in-place)
I0331 22:56:20.815824  7281 net.cpp:124] Setting up res3b_branch2b_relu
I0331 22:56:20.815834  7281 net.cpp:131] Top shape: 16 128 28 28 (1605632)
I0331 22:56:20.815837  7281 net.cpp:139] Memory required for data: 2154758208
I0331 22:56:20.815840  7281 layer_factory.hpp:77] Creating layer res3b_branch2c
I0331 22:56:20.815850  7281 net.cpp:86] Creating Layer res3b_branch2c
I0331 22:56:20.815855  7281 net.cpp:408] res3b_branch2c <- res3b_branch2b
I0331 22:56:20.815862  7281 net.cpp:382] res3b_branch2c -> res3b_branch2c
I0331 22:56:20.818897  7281 net.cpp:124] Setting up res3b_branch2c
I0331 22:56:20.818909  7281 net.cpp:131] Top shape: 16 512 28 28 (6422528)
I0331 22:56:20.818912  7281 net.cpp:139] Memory required for data: 2180448320
I0331 22:56:20.818918  7281 layer_factory.hpp:77] Creating layer bn3b_branch2c
I0331 22:56:20.818928  7281 net.cpp:86] Creating Layer bn3b_branch2c
I0331 22:56:20.818931  7281 net.cpp:408] bn3b_branch2c <- res3b_branch2c
I0331 22:56:20.818938  7281 net.cpp:369] bn3b_branch2c -> res3b_branch2c (in-place)
I0331 22:56:20.819173  7281 net.cpp:124] Setting up bn3b_branch2c
I0331 22:56:20.819181  7281 net.cpp:131] Top shape: 16 512 28 28 (6422528)
I0331 22:56:20.819185  7281 net.cpp:139] Memory required for data: 2206138432
I0331 22:56:20.819190  7281 layer_factory.hpp:77] Creating layer scale3b_branch2c
I0331 22:56:20.819197  7281 net.cpp:86] Creating Layer scale3b_branch2c
I0331 22:56:20.819201  7281 net.cpp:408] scale3b_branch2c <- res3b_branch2c
I0331 22:56:20.819207  7281 net.cpp:369] scale3b_branch2c -> res3b_branch2c (in-place)
I0331 22:56:20.819255  7281 layer_factory.hpp:77] Creating layer scale3b_branch2c
I0331 22:56:20.819381  7281 net.cpp:124] Setting up scale3b_branch2c
I0331 22:56:20.819388  7281 net.cpp:131] Top shape: 16 512 28 28 (6422528)
I0331 22:56:20.819391  7281 net.cpp:139] Memory required for data: 2231828544
I0331 22:56:20.819396  7281 layer_factory.hpp:77] Creating layer res3b
I0331 22:56:20.819403  7281 net.cpp:86] Creating Layer res3b
I0331 22:56:20.819407  7281 net.cpp:408] res3b <- res3a_res3a_relu_0_split_1
I0331 22:56:20.819411  7281 net.cpp:408] res3b <- res3b_branch2c
I0331 22:56:20.819419  7281 net.cpp:382] res3b -> res3b
I0331 22:56:20.819450  7281 net.cpp:124] Setting up res3b
I0331 22:56:20.819458  7281 net.cpp:131] Top shape: 16 512 28 28 (6422528)
I0331 22:56:20.819461  7281 net.cpp:139] Memory required for data: 2257518656
I0331 22:56:20.819464  7281 layer_factory.hpp:77] Creating layer res3b_relu
I0331 22:56:20.819470  7281 net.cpp:86] Creating Layer res3b_relu
I0331 22:56:20.819473  7281 net.cpp:408] res3b_relu <- res3b
I0331 22:56:20.819478  7281 net.cpp:369] res3b_relu -> res3b (in-place)
I0331 22:56:20.820159  7281 net.cpp:124] Setting up res3b_relu
I0331 22:56:20.820171  7281 net.cpp:131] Top shape: 16 512 28 28 (6422528)
I0331 22:56:20.820174  7281 net.cpp:139] Memory required for data: 2283208768
I0331 22:56:20.820178  7281 layer_factory.hpp:77] Creating layer res3b_res3b_relu_0_split
I0331 22:56:20.820186  7281 net.cpp:86] Creating Layer res3b_res3b_relu_0_split
I0331 22:56:20.820191  7281 net.cpp:408] res3b_res3b_relu_0_split <- res3b
I0331 22:56:20.820196  7281 net.cpp:382] res3b_res3b_relu_0_split -> res3b_res3b_relu_0_split_0
I0331 22:56:20.820204  7281 net.cpp:382] res3b_res3b_relu_0_split -> res3b_res3b_relu_0_split_1
I0331 22:56:20.820261  7281 net.cpp:124] Setting up res3b_res3b_relu_0_split
I0331 22:56:20.820267  7281 net.cpp:131] Top shape: 16 512 28 28 (6422528)
I0331 22:56:20.820271  7281 net.cpp:131] Top shape: 16 512 28 28 (6422528)
I0331 22:56:20.820274  7281 net.cpp:139] Memory required for data: 2334588992
I0331 22:56:20.820277  7281 layer_factory.hpp:77] Creating layer res3c_branch2a
I0331 22:56:20.820291  7281 net.cpp:86] Creating Layer res3c_branch2a
I0331 22:56:20.820309  7281 net.cpp:408] res3c_branch2a <- res3b_res3b_relu_0_split_0
I0331 22:56:20.820317  7281 net.cpp:382] res3c_branch2a -> res3c_branch2a
I0331 22:56:20.823155  7281 net.cpp:124] Setting up res3c_branch2a
I0331 22:56:20.823169  7281 net.cpp:131] Top shape: 16 128 28 28 (1605632)
I0331 22:56:20.823173  7281 net.cpp:139] Memory required for data: 2341011520
I0331 22:56:20.823177  7281 layer_factory.hpp:77] Creating layer bn3c_branch2a
I0331 22:56:20.823187  7281 net.cpp:86] Creating Layer bn3c_branch2a
I0331 22:56:20.823192  7281 net.cpp:408] bn3c_branch2a <- res3c_branch2a
I0331 22:56:20.823199  7281 net.cpp:369] bn3c_branch2a -> res3c_branch2a (in-place)
I0331 22:56:20.823434  7281 net.cpp:124] Setting up bn3c_branch2a
I0331 22:56:20.823442  7281 net.cpp:131] Top shape: 16 128 28 28 (1605632)
I0331 22:56:20.823446  7281 net.cpp:139] Memory required for data: 2347434048
I0331 22:56:20.823453  7281 layer_factory.hpp:77] Creating layer scale3c_branch2a
I0331 22:56:20.823459  7281 net.cpp:86] Creating Layer scale3c_branch2a
I0331 22:56:20.823462  7281 net.cpp:408] scale3c_branch2a <- res3c_branch2a
I0331 22:56:20.823467  7281 net.cpp:369] scale3c_branch2a -> res3c_branch2a (in-place)
I0331 22:56:20.823518  7281 layer_factory.hpp:77] Creating layer scale3c_branch2a
I0331 22:56:20.823643  7281 net.cpp:124] Setting up scale3c_branch2a
I0331 22:56:20.823650  7281 net.cpp:131] Top shape: 16 128 28 28 (1605632)
I0331 22:56:20.823653  7281 net.cpp:139] Memory required for data: 2353856576
I0331 22:56:20.823658  7281 layer_factory.hpp:77] Creating layer res3c_branch2a_relu
I0331 22:56:20.823665  7281 net.cpp:86] Creating Layer res3c_branch2a_relu
I0331 22:56:20.823668  7281 net.cpp:408] res3c_branch2a_relu <- res3c_branch2a
I0331 22:56:20.823673  7281 net.cpp:369] res3c_branch2a_relu -> res3c_branch2a (in-place)
I0331 22:56:20.824229  7281 net.cpp:124] Setting up res3c_branch2a_relu
I0331 22:56:20.824241  7281 net.cpp:131] Top shape: 16 128 28 28 (1605632)
I0331 22:56:20.824244  7281 net.cpp:139] Memory required for data: 2360279104
I0331 22:56:20.824249  7281 layer_factory.hpp:77] Creating layer res3c_branch2b
I0331 22:56:20.824257  7281 net.cpp:86] Creating Layer res3c_branch2b
I0331 22:56:20.824261  7281 net.cpp:408] res3c_branch2b <- res3c_branch2a
I0331 22:56:20.824267  7281 net.cpp:382] res3c_branch2b -> res3c_branch2b
I0331 22:56:20.828058  7281 net.cpp:124] Setting up res3c_branch2b
I0331 22:56:20.828073  7281 net.cpp:131] Top shape: 16 128 28 28 (1605632)
I0331 22:56:20.828075  7281 net.cpp:139] Memory required for data: 2366701632
I0331 22:56:20.828080  7281 layer_factory.hpp:77] Creating layer bn3c_branch2b
I0331 22:56:20.828089  7281 net.cpp:86] Creating Layer bn3c_branch2b
I0331 22:56:20.828094  7281 net.cpp:408] bn3c_branch2b <- res3c_branch2b
I0331 22:56:20.828099  7281 net.cpp:369] bn3c_branch2b -> res3c_branch2b (in-place)
I0331 22:56:20.828341  7281 net.cpp:124] Setting up bn3c_branch2b
I0331 22:56:20.828349  7281 net.cpp:131] Top shape: 16 128 28 28 (1605632)
I0331 22:56:20.828352  7281 net.cpp:139] Memory required for data: 2373124160
I0331 22:56:20.828358  7281 layer_factory.hpp:77] Creating layer scale3c_branch2b
I0331 22:56:20.828364  7281 net.cpp:86] Creating Layer scale3c_branch2b
I0331 22:56:20.828368  7281 net.cpp:408] scale3c_branch2b <- res3c_branch2b
I0331 22:56:20.828375  7281 net.cpp:369] scale3c_branch2b -> res3c_branch2b (in-place)
I0331 22:56:20.828424  7281 layer_factory.hpp:77] Creating layer scale3c_branch2b
I0331 22:56:20.828552  7281 net.cpp:124] Setting up scale3c_branch2b
I0331 22:56:20.828558  7281 net.cpp:131] Top shape: 16 128 28 28 (1605632)
I0331 22:56:20.828562  7281 net.cpp:139] Memory required for data: 2379546688
I0331 22:56:20.828567  7281 layer_factory.hpp:77] Creating layer res3c_branch2b_relu
I0331 22:56:20.828572  7281 net.cpp:86] Creating Layer res3c_branch2b_relu
I0331 22:56:20.828575  7281 net.cpp:408] res3c_branch2b_relu <- res3c_branch2b
I0331 22:56:20.828586  7281 net.cpp:369] res3c_branch2b_relu -> res3c_branch2b (in-place)
I0331 22:56:20.829169  7281 net.cpp:124] Setting up res3c_branch2b_relu
I0331 22:56:20.829180  7281 net.cpp:131] Top shape: 16 128 28 28 (1605632)
I0331 22:56:20.829183  7281 net.cpp:139] Memory required for data: 2385969216
I0331 22:56:20.829186  7281 layer_factory.hpp:77] Creating layer res3c_branch2c
I0331 22:56:20.829196  7281 net.cpp:86] Creating Layer res3c_branch2c
I0331 22:56:20.829200  7281 net.cpp:408] res3c_branch2c <- res3c_branch2b
I0331 22:56:20.829207  7281 net.cpp:382] res3c_branch2c -> res3c_branch2c
I0331 22:56:20.832242  7281 net.cpp:124] Setting up res3c_branch2c
I0331 22:56:20.832254  7281 net.cpp:131] Top shape: 16 512 28 28 (6422528)
I0331 22:56:20.832257  7281 net.cpp:139] Memory required for data: 2411659328
I0331 22:56:20.832263  7281 layer_factory.hpp:77] Creating layer bn3c_branch2c
I0331 22:56:20.832270  7281 net.cpp:86] Creating Layer bn3c_branch2c
I0331 22:56:20.832274  7281 net.cpp:408] bn3c_branch2c <- res3c_branch2c
I0331 22:56:20.832281  7281 net.cpp:369] bn3c_branch2c -> res3c_branch2c (in-place)
I0331 22:56:20.832518  7281 net.cpp:124] Setting up bn3c_branch2c
I0331 22:56:20.832525  7281 net.cpp:131] Top shape: 16 512 28 28 (6422528)
I0331 22:56:20.832528  7281 net.cpp:139] Memory required for data: 2437349440
I0331 22:56:20.832535  7281 layer_factory.hpp:77] Creating layer scale3c_branch2c
I0331 22:56:20.832541  7281 net.cpp:86] Creating Layer scale3c_branch2c
I0331 22:56:20.832545  7281 net.cpp:408] scale3c_branch2c <- res3c_branch2c
I0331 22:56:20.832551  7281 net.cpp:369] scale3c_branch2c -> res3c_branch2c (in-place)
I0331 22:56:20.832597  7281 layer_factory.hpp:77] Creating layer scale3c_branch2c
I0331 22:56:20.832721  7281 net.cpp:124] Setting up scale3c_branch2c
I0331 22:56:20.832728  7281 net.cpp:131] Top shape: 16 512 28 28 (6422528)
I0331 22:56:20.832731  7281 net.cpp:139] Memory required for data: 2463039552
I0331 22:56:20.832737  7281 layer_factory.hpp:77] Creating layer res3c
I0331 22:56:20.832744  7281 net.cpp:86] Creating Layer res3c
I0331 22:56:20.832748  7281 net.cpp:408] res3c <- res3b_res3b_relu_0_split_1
I0331 22:56:20.832753  7281 net.cpp:408] res3c <- res3c_branch2c
I0331 22:56:20.832758  7281 net.cpp:382] res3c -> res3c
I0331 22:56:20.832792  7281 net.cpp:124] Setting up res3c
I0331 22:56:20.832798  7281 net.cpp:131] Top shape: 16 512 28 28 (6422528)
I0331 22:56:20.832800  7281 net.cpp:139] Memory required for data: 2488729664
I0331 22:56:20.832803  7281 layer_factory.hpp:77] Creating layer res3c_relu
I0331 22:56:20.832809  7281 net.cpp:86] Creating Layer res3c_relu
I0331 22:56:20.832813  7281 net.cpp:408] res3c_relu <- res3c
I0331 22:56:20.832818  7281 net.cpp:369] res3c_relu -> res3c (in-place)
I0331 22:56:20.833508  7281 net.cpp:124] Setting up res3c_relu
I0331 22:56:20.833520  7281 net.cpp:131] Top shape: 16 512 28 28 (6422528)
I0331 22:56:20.833524  7281 net.cpp:139] Memory required for data: 2514419776
I0331 22:56:20.833528  7281 layer_factory.hpp:77] Creating layer res3c_res3c_relu_0_split
I0331 22:56:20.833535  7281 net.cpp:86] Creating Layer res3c_res3c_relu_0_split
I0331 22:56:20.833539  7281 net.cpp:408] res3c_res3c_relu_0_split <- res3c
I0331 22:56:20.833547  7281 net.cpp:382] res3c_res3c_relu_0_split -> res3c_res3c_relu_0_split_0
I0331 22:56:20.833555  7281 net.cpp:382] res3c_res3c_relu_0_split -> res3c_res3c_relu_0_split_1
I0331 22:56:20.833611  7281 net.cpp:124] Setting up res3c_res3c_relu_0_split
I0331 22:56:20.833619  7281 net.cpp:131] Top shape: 16 512 28 28 (6422528)
I0331 22:56:20.833623  7281 net.cpp:131] Top shape: 16 512 28 28 (6422528)
I0331 22:56:20.833626  7281 net.cpp:139] Memory required for data: 2565800000
I0331 22:56:20.833629  7281 layer_factory.hpp:77] Creating layer res3d_branch2a
I0331 22:56:20.833638  7281 net.cpp:86] Creating Layer res3d_branch2a
I0331 22:56:20.833642  7281 net.cpp:408] res3d_branch2a <- res3c_res3c_relu_0_split_0
I0331 22:56:20.833650  7281 net.cpp:382] res3d_branch2a -> res3d_branch2a
I0331 22:56:20.837327  7281 net.cpp:124] Setting up res3d_branch2a
I0331 22:56:20.837347  7281 net.cpp:131] Top shape: 16 128 28 28 (1605632)
I0331 22:56:20.837368  7281 net.cpp:139] Memory required for data: 2572222528
I0331 22:56:20.837374  7281 layer_factory.hpp:77] Creating layer bn3d_branch2a
I0331 22:56:20.837381  7281 net.cpp:86] Creating Layer bn3d_branch2a
I0331 22:56:20.837386  7281 net.cpp:408] bn3d_branch2a <- res3d_branch2a
I0331 22:56:20.837394  7281 net.cpp:369] bn3d_branch2a -> res3d_branch2a (in-place)
I0331 22:56:20.837641  7281 net.cpp:124] Setting up bn3d_branch2a
I0331 22:56:20.837648  7281 net.cpp:131] Top shape: 16 128 28 28 (1605632)
I0331 22:56:20.837651  7281 net.cpp:139] Memory required for data: 2578645056
I0331 22:56:20.837673  7281 layer_factory.hpp:77] Creating layer scale3d_branch2a
I0331 22:56:20.837682  7281 net.cpp:86] Creating Layer scale3d_branch2a
I0331 22:56:20.837684  7281 net.cpp:408] scale3d_branch2a <- res3d_branch2a
I0331 22:56:20.837690  7281 net.cpp:369] scale3d_branch2a -> res3d_branch2a (in-place)
I0331 22:56:20.837744  7281 layer_factory.hpp:77] Creating layer scale3d_branch2a
I0331 22:56:20.837874  7281 net.cpp:124] Setting up scale3d_branch2a
I0331 22:56:20.837882  7281 net.cpp:131] Top shape: 16 128 28 28 (1605632)
I0331 22:56:20.837884  7281 net.cpp:139] Memory required for data: 2585067584
I0331 22:56:20.837889  7281 layer_factory.hpp:77] Creating layer res3d_branch2a_relu
I0331 22:56:20.837895  7281 net.cpp:86] Creating Layer res3d_branch2a_relu
I0331 22:56:20.837898  7281 net.cpp:408] res3d_branch2a_relu <- res3d_branch2a
I0331 22:56:20.837905  7281 net.cpp:369] res3d_branch2a_relu -> res3d_branch2a (in-place)
I0331 22:56:20.838467  7281 net.cpp:124] Setting up res3d_branch2a_relu
I0331 22:56:20.838479  7281 net.cpp:131] Top shape: 16 128 28 28 (1605632)
I0331 22:56:20.838484  7281 net.cpp:139] Memory required for data: 2591490112
I0331 22:56:20.838487  7281 layer_factory.hpp:77] Creating layer res3d_branch2b
I0331 22:56:20.838496  7281 net.cpp:86] Creating Layer res3d_branch2b
I0331 22:56:20.838500  7281 net.cpp:408] res3d_branch2b <- res3d_branch2a
I0331 22:56:20.838505  7281 net.cpp:382] res3d_branch2b -> res3d_branch2b
I0331 22:56:20.842206  7281 net.cpp:124] Setting up res3d_branch2b
I0331 22:56:20.842221  7281 net.cpp:131] Top shape: 16 128 28 28 (1605632)
I0331 22:56:20.842224  7281 net.cpp:139] Memory required for data: 2597912640
I0331 22:56:20.842229  7281 layer_factory.hpp:77] Creating layer bn3d_branch2b
I0331 22:56:20.842238  7281 net.cpp:86] Creating Layer bn3d_branch2b
I0331 22:56:20.842242  7281 net.cpp:408] bn3d_branch2b <- res3d_branch2b
I0331 22:56:20.842250  7281 net.cpp:369] bn3d_branch2b -> res3d_branch2b (in-place)
I0331 22:56:20.842496  7281 net.cpp:124] Setting up bn3d_branch2b
I0331 22:56:20.842504  7281 net.cpp:131] Top shape: 16 128 28 28 (1605632)
I0331 22:56:20.842507  7281 net.cpp:139] Memory required for data: 2604335168
I0331 22:56:20.842514  7281 layer_factory.hpp:77] Creating layer scale3d_branch2b
I0331 22:56:20.842521  7281 net.cpp:86] Creating Layer scale3d_branch2b
I0331 22:56:20.842525  7281 net.cpp:408] scale3d_branch2b <- res3d_branch2b
I0331 22:56:20.842530  7281 net.cpp:369] scale3d_branch2b -> res3d_branch2b (in-place)
I0331 22:56:20.842581  7281 layer_factory.hpp:77] Creating layer scale3d_branch2b
I0331 22:56:20.842712  7281 net.cpp:124] Setting up scale3d_branch2b
I0331 22:56:20.842720  7281 net.cpp:131] Top shape: 16 128 28 28 (1605632)
I0331 22:56:20.842722  7281 net.cpp:139] Memory required for data: 2610757696
I0331 22:56:20.842727  7281 layer_factory.hpp:77] Creating layer res3d_branch2b_relu
I0331 22:56:20.842732  7281 net.cpp:86] Creating Layer res3d_branch2b_relu
I0331 22:56:20.842736  7281 net.cpp:408] res3d_branch2b_relu <- res3d_branch2b
I0331 22:56:20.842743  7281 net.cpp:369] res3d_branch2b_relu -> res3d_branch2b (in-place)
I0331 22:56:20.843427  7281 net.cpp:124] Setting up res3d_branch2b_relu
I0331 22:56:20.843441  7281 net.cpp:131] Top shape: 16 128 28 28 (1605632)
I0331 22:56:20.843446  7281 net.cpp:139] Memory required for data: 2617180224
I0331 22:56:20.843452  7281 layer_factory.hpp:77] Creating layer res3d_branch2c
I0331 22:56:20.843478  7281 net.cpp:86] Creating Layer res3d_branch2c
I0331 22:56:20.843482  7281 net.cpp:408] res3d_branch2c <- res3d_branch2b
I0331 22:56:20.843489  7281 net.cpp:382] res3d_branch2c -> res3d_branch2c
I0331 22:56:20.846374  7281 net.cpp:124] Setting up res3d_branch2c
I0331 22:56:20.846390  7281 net.cpp:131] Top shape: 16 512 28 28 (6422528)
I0331 22:56:20.846392  7281 net.cpp:139] Memory required for data: 2642870336
I0331 22:56:20.846398  7281 layer_factory.hpp:77] Creating layer bn3d_branch2c
I0331 22:56:20.846406  7281 net.cpp:86] Creating Layer bn3d_branch2c
I0331 22:56:20.846410  7281 net.cpp:408] bn3d_branch2c <- res3d_branch2c
I0331 22:56:20.846417  7281 net.cpp:369] bn3d_branch2c -> res3d_branch2c (in-place)
I0331 22:56:20.846660  7281 net.cpp:124] Setting up bn3d_branch2c
I0331 22:56:20.846668  7281 net.cpp:131] Top shape: 16 512 28 28 (6422528)
I0331 22:56:20.846670  7281 net.cpp:139] Memory required for data: 2668560448
I0331 22:56:20.846678  7281 layer_factory.hpp:77] Creating layer scale3d_branch2c
I0331 22:56:20.846685  7281 net.cpp:86] Creating Layer scale3d_branch2c
I0331 22:56:20.846688  7281 net.cpp:408] scale3d_branch2c <- res3d_branch2c
I0331 22:56:20.846693  7281 net.cpp:369] scale3d_branch2c -> res3d_branch2c (in-place)
I0331 22:56:20.846742  7281 layer_factory.hpp:77] Creating layer scale3d_branch2c
I0331 22:56:20.846870  7281 net.cpp:124] Setting up scale3d_branch2c
I0331 22:56:20.846877  7281 net.cpp:131] Top shape: 16 512 28 28 (6422528)
I0331 22:56:20.846880  7281 net.cpp:139] Memory required for data: 2694250560
I0331 22:56:20.846885  7281 layer_factory.hpp:77] Creating layer res3d
I0331 22:56:20.846892  7281 net.cpp:86] Creating Layer res3d
I0331 22:56:20.846896  7281 net.cpp:408] res3d <- res3c_res3c_relu_0_split_1
I0331 22:56:20.846900  7281 net.cpp:408] res3d <- res3d_branch2c
I0331 22:56:20.846906  7281 net.cpp:382] res3d -> res3d
I0331 22:56:20.846942  7281 net.cpp:124] Setting up res3d
I0331 22:56:20.846948  7281 net.cpp:131] Top shape: 16 512 28 28 (6422528)
I0331 22:56:20.846951  7281 net.cpp:139] Memory required for data: 2719940672
I0331 22:56:20.846954  7281 layer_factory.hpp:77] Creating layer res3d_relu
I0331 22:56:20.846961  7281 net.cpp:86] Creating Layer res3d_relu
I0331 22:56:20.846963  7281 net.cpp:408] res3d_relu <- res3d
I0331 22:56:20.846968  7281 net.cpp:369] res3d_relu -> res3d (in-place)
I0331 22:56:20.847494  7281 net.cpp:124] Setting up res3d_relu
I0331 22:56:20.847506  7281 net.cpp:131] Top shape: 16 512 28 28 (6422528)
I0331 22:56:20.847509  7281 net.cpp:139] Memory required for data: 2745630784
I0331 22:56:20.847513  7281 layer_factory.hpp:77] Creating layer res3d_res3d_relu_0_split
I0331 22:56:20.847518  7281 net.cpp:86] Creating Layer res3d_res3d_relu_0_split
I0331 22:56:20.847523  7281 net.cpp:408] res3d_res3d_relu_0_split <- res3d
I0331 22:56:20.847529  7281 net.cpp:382] res3d_res3d_relu_0_split -> res3d_res3d_relu_0_split_0
I0331 22:56:20.847537  7281 net.cpp:382] res3d_res3d_relu_0_split -> res3d_res3d_relu_0_split_1
I0331 22:56:20.847594  7281 net.cpp:124] Setting up res3d_res3d_relu_0_split
I0331 22:56:20.847602  7281 net.cpp:131] Top shape: 16 512 28 28 (6422528)
I0331 22:56:20.847606  7281 net.cpp:131] Top shape: 16 512 28 28 (6422528)
I0331 22:56:20.847609  7281 net.cpp:139] Memory required for data: 2797011008
I0331 22:56:20.847612  7281 layer_factory.hpp:77] Creating layer res4a_branch1
I0331 22:56:20.847620  7281 net.cpp:86] Creating Layer res4a_branch1
I0331 22:56:20.847625  7281 net.cpp:408] res4a_branch1 <- res3d_res3d_relu_0_split_0
I0331 22:56:20.847631  7281 net.cpp:382] res4a_branch1 -> res4a_branch1
I0331 22:56:20.855226  7281 net.cpp:124] Setting up res4a_branch1
I0331 22:56:20.855247  7281 net.cpp:131] Top shape: 16 1024 14 14 (3211264)
I0331 22:56:20.855249  7281 net.cpp:139] Memory required for data: 2809856064
I0331 22:56:20.855257  7281 layer_factory.hpp:77] Creating layer bn4a_branch1
I0331 22:56:20.855265  7281 net.cpp:86] Creating Layer bn4a_branch1
I0331 22:56:20.855274  7281 net.cpp:408] bn4a_branch1 <- res4a_branch1
I0331 22:56:20.855299  7281 net.cpp:369] bn4a_branch1 -> res4a_branch1 (in-place)
I0331 22:56:20.855568  7281 net.cpp:124] Setting up bn4a_branch1
I0331 22:56:20.855576  7281 net.cpp:131] Top shape: 16 1024 14 14 (3211264)
I0331 22:56:20.855581  7281 net.cpp:139] Memory required for data: 2822701120
I0331 22:56:20.855587  7281 layer_factory.hpp:77] Creating layer scale4a_branch1
I0331 22:56:20.855593  7281 net.cpp:86] Creating Layer scale4a_branch1
I0331 22:56:20.855597  7281 net.cpp:408] scale4a_branch1 <- res4a_branch1
I0331 22:56:20.855607  7281 net.cpp:369] scale4a_branch1 -> res4a_branch1 (in-place)
I0331 22:56:20.855653  7281 layer_factory.hpp:77] Creating layer scale4a_branch1
I0331 22:56:20.855796  7281 net.cpp:124] Setting up scale4a_branch1
I0331 22:56:20.855803  7281 net.cpp:131] Top shape: 16 1024 14 14 (3211264)
I0331 22:56:20.855808  7281 net.cpp:139] Memory required for data: 2835546176
I0331 22:56:20.855813  7281 layer_factory.hpp:77] Creating layer res4a_branch2a
I0331 22:56:20.855823  7281 net.cpp:86] Creating Layer res4a_branch2a
I0331 22:56:20.855826  7281 net.cpp:408] res4a_branch2a <- res3d_res3d_relu_0_split_1
I0331 22:56:20.855832  7281 net.cpp:382] res4a_branch2a -> res4a_branch2a
I0331 22:56:20.860358  7281 net.cpp:124] Setting up res4a_branch2a
I0331 22:56:20.860375  7281 net.cpp:131] Top shape: 16 256 14 14 (802816)
I0331 22:56:20.860379  7281 net.cpp:139] Memory required for data: 2838757440
I0331 22:56:20.860386  7281 layer_factory.hpp:77] Creating layer bn4a_branch2a
I0331 22:56:20.860394  7281 net.cpp:86] Creating Layer bn4a_branch2a
I0331 22:56:20.860399  7281 net.cpp:408] bn4a_branch2a <- res4a_branch2a
I0331 22:56:20.860405  7281 net.cpp:369] bn4a_branch2a -> res4a_branch2a (in-place)
I0331 22:56:20.860664  7281 net.cpp:124] Setting up bn4a_branch2a
I0331 22:56:20.860672  7281 net.cpp:131] Top shape: 16 256 14 14 (802816)
I0331 22:56:20.860675  7281 net.cpp:139] Memory required for data: 2841968704
I0331 22:56:20.860682  7281 layer_factory.hpp:77] Creating layer scale4a_branch2a
I0331 22:56:20.860688  7281 net.cpp:86] Creating Layer scale4a_branch2a
I0331 22:56:20.860692  7281 net.cpp:408] scale4a_branch2a <- res4a_branch2a
I0331 22:56:20.860698  7281 net.cpp:369] scale4a_branch2a -> res4a_branch2a (in-place)
I0331 22:56:20.860750  7281 layer_factory.hpp:77] Creating layer scale4a_branch2a
I0331 22:56:20.860890  7281 net.cpp:124] Setting up scale4a_branch2a
I0331 22:56:20.860896  7281 net.cpp:131] Top shape: 16 256 14 14 (802816)
I0331 22:56:20.860899  7281 net.cpp:139] Memory required for data: 2845179968
I0331 22:56:20.860905  7281 layer_factory.hpp:77] Creating layer res4a_branch2a_relu
I0331 22:56:20.860911  7281 net.cpp:86] Creating Layer res4a_branch2a_relu
I0331 22:56:20.860914  7281 net.cpp:408] res4a_branch2a_relu <- res4a_branch2a
I0331 22:56:20.860919  7281 net.cpp:369] res4a_branch2a_relu -> res4a_branch2a (in-place)
I0331 22:56:20.861497  7281 net.cpp:124] Setting up res4a_branch2a_relu
I0331 22:56:20.861508  7281 net.cpp:131] Top shape: 16 256 14 14 (802816)
I0331 22:56:20.861511  7281 net.cpp:139] Memory required for data: 2848391232
I0331 22:56:20.861515  7281 layer_factory.hpp:77] Creating layer res4a_branch2b
I0331 22:56:20.861524  7281 net.cpp:86] Creating Layer res4a_branch2b
I0331 22:56:20.861529  7281 net.cpp:408] res4a_branch2b <- res4a_branch2a
I0331 22:56:20.861536  7281 net.cpp:382] res4a_branch2b -> res4a_branch2b
I0331 22:56:20.869907  7281 net.cpp:124] Setting up res4a_branch2b
I0331 22:56:20.869926  7281 net.cpp:131] Top shape: 16 256 14 14 (802816)
I0331 22:56:20.869930  7281 net.cpp:139] Memory required for data: 2851602496
I0331 22:56:20.869936  7281 layer_factory.hpp:77] Creating layer bn4a_branch2b
I0331 22:56:20.869946  7281 net.cpp:86] Creating Layer bn4a_branch2b
I0331 22:56:20.869951  7281 net.cpp:408] bn4a_branch2b <- res4a_branch2b
I0331 22:56:20.869957  7281 net.cpp:369] bn4a_branch2b -> res4a_branch2b (in-place)
I0331 22:56:20.870216  7281 net.cpp:124] Setting up bn4a_branch2b
I0331 22:56:20.870227  7281 net.cpp:131] Top shape: 16 256 14 14 (802816)
I0331 22:56:20.870250  7281 net.cpp:139] Memory required for data: 2854813760
I0331 22:56:20.870259  7281 layer_factory.hpp:77] Creating layer scale4a_branch2b
I0331 22:56:20.870265  7281 net.cpp:86] Creating Layer scale4a_branch2b
I0331 22:56:20.870268  7281 net.cpp:408] scale4a_branch2b <- res4a_branch2b
I0331 22:56:20.870276  7281 net.cpp:369] scale4a_branch2b -> res4a_branch2b (in-place)
I0331 22:56:20.870334  7281 layer_factory.hpp:77] Creating layer scale4a_branch2b
I0331 22:56:20.870474  7281 net.cpp:124] Setting up scale4a_branch2b
I0331 22:56:20.870481  7281 net.cpp:131] Top shape: 16 256 14 14 (802816)
I0331 22:56:20.870484  7281 net.cpp:139] Memory required for data: 2858025024
I0331 22:56:20.870491  7281 layer_factory.hpp:77] Creating layer res4a_branch2b_relu
I0331 22:56:20.870496  7281 net.cpp:86] Creating Layer res4a_branch2b_relu
I0331 22:56:20.870499  7281 net.cpp:408] res4a_branch2b_relu <- res4a_branch2b
I0331 22:56:20.870507  7281 net.cpp:369] res4a_branch2b_relu -> res4a_branch2b (in-place)
I0331 22:56:20.871196  7281 net.cpp:124] Setting up res4a_branch2b_relu
I0331 22:56:20.871208  7281 net.cpp:131] Top shape: 16 256 14 14 (802816)
I0331 22:56:20.871212  7281 net.cpp:139] Memory required for data: 2861236288
I0331 22:56:20.871215  7281 layer_factory.hpp:77] Creating layer res4a_branch2c
I0331 22:56:20.871227  7281 net.cpp:86] Creating Layer res4a_branch2c
I0331 22:56:20.871230  7281 net.cpp:408] res4a_branch2c <- res4a_branch2b
I0331 22:56:20.871238  7281 net.cpp:382] res4a_branch2c -> res4a_branch2c
I0331 22:56:20.875926  7281 net.cpp:124] Setting up res4a_branch2c
I0331 22:56:20.875944  7281 net.cpp:131] Top shape: 16 1024 14 14 (3211264)
I0331 22:56:20.875947  7281 net.cpp:139] Memory required for data: 2874081344
I0331 22:56:20.875953  7281 layer_factory.hpp:77] Creating layer bn4a_branch2c
I0331 22:56:20.875960  7281 net.cpp:86] Creating Layer bn4a_branch2c
I0331 22:56:20.875965  7281 net.cpp:408] bn4a_branch2c <- res4a_branch2c
I0331 22:56:20.875972  7281 net.cpp:369] bn4a_branch2c -> res4a_branch2c (in-place)
I0331 22:56:20.876237  7281 net.cpp:124] Setting up bn4a_branch2c
I0331 22:56:20.876245  7281 net.cpp:131] Top shape: 16 1024 14 14 (3211264)
I0331 22:56:20.876248  7281 net.cpp:139] Memory required for data: 2886926400
I0331 22:56:20.876255  7281 layer_factory.hpp:77] Creating layer scale4a_branch2c
I0331 22:56:20.876261  7281 net.cpp:86] Creating Layer scale4a_branch2c
I0331 22:56:20.876264  7281 net.cpp:408] scale4a_branch2c <- res4a_branch2c
I0331 22:56:20.876271  7281 net.cpp:369] scale4a_branch2c -> res4a_branch2c (in-place)
I0331 22:56:20.876317  7281 layer_factory.hpp:77] Creating layer scale4a_branch2c
I0331 22:56:20.876464  7281 net.cpp:124] Setting up scale4a_branch2c
I0331 22:56:20.876471  7281 net.cpp:131] Top shape: 16 1024 14 14 (3211264)
I0331 22:56:20.876474  7281 net.cpp:139] Memory required for data: 2899771456
I0331 22:56:20.876479  7281 layer_factory.hpp:77] Creating layer res4a
I0331 22:56:20.876485  7281 net.cpp:86] Creating Layer res4a
I0331 22:56:20.876489  7281 net.cpp:408] res4a <- res4a_branch1
I0331 22:56:20.876494  7281 net.cpp:408] res4a <- res4a_branch2c
I0331 22:56:20.876502  7281 net.cpp:382] res4a -> res4a
I0331 22:56:20.876534  7281 net.cpp:124] Setting up res4a
I0331 22:56:20.876540  7281 net.cpp:131] Top shape: 16 1024 14 14 (3211264)
I0331 22:56:20.876543  7281 net.cpp:139] Memory required for data: 2912616512
I0331 22:56:20.876547  7281 layer_factory.hpp:77] Creating layer res4a_relu
I0331 22:56:20.876554  7281 net.cpp:86] Creating Layer res4a_relu
I0331 22:56:20.876557  7281 net.cpp:408] res4a_relu <- res4a
I0331 22:56:20.876562  7281 net.cpp:369] res4a_relu -> res4a (in-place)
I0331 22:56:20.877095  7281 net.cpp:124] Setting up res4a_relu
I0331 22:56:20.877105  7281 net.cpp:131] Top shape: 16 1024 14 14 (3211264)
I0331 22:56:20.877117  7281 net.cpp:139] Memory required for data: 2925461568
I0331 22:56:20.877121  7281 layer_factory.hpp:77] Creating layer res4a_res4a_relu_0_split
I0331 22:56:20.877131  7281 net.cpp:86] Creating Layer res4a_res4a_relu_0_split
I0331 22:56:20.877154  7281 net.cpp:408] res4a_res4a_relu_0_split <- res4a
I0331 22:56:20.877161  7281 net.cpp:382] res4a_res4a_relu_0_split -> res4a_res4a_relu_0_split_0
I0331 22:56:20.877171  7281 net.cpp:382] res4a_res4a_relu_0_split -> res4a_res4a_relu_0_split_1
I0331 22:56:20.877231  7281 net.cpp:124] Setting up res4a_res4a_relu_0_split
I0331 22:56:20.877238  7281 net.cpp:131] Top shape: 16 1024 14 14 (3211264)
I0331 22:56:20.877243  7281 net.cpp:131] Top shape: 16 1024 14 14 (3211264)
I0331 22:56:20.877245  7281 net.cpp:139] Memory required for data: 2951151680
I0331 22:56:20.877249  7281 layer_factory.hpp:77] Creating layer res4b_branch2a
I0331 22:56:20.877281  7281 net.cpp:86] Creating Layer res4b_branch2a
I0331 22:56:20.877285  7281 net.cpp:408] res4b_branch2a <- res4a_res4a_relu_0_split_0
I0331 22:56:20.877292  7281 net.cpp:382] res4b_branch2a -> res4b_branch2a
I0331 22:56:20.882776  7281 net.cpp:124] Setting up res4b_branch2a
I0331 22:56:20.882793  7281 net.cpp:131] Top shape: 16 256 14 14 (802816)
I0331 22:56:20.882797  7281 net.cpp:139] Memory required for data: 2954362944
I0331 22:56:20.882803  7281 layer_factory.hpp:77] Creating layer bn4b_branch2a
I0331 22:56:20.882812  7281 net.cpp:86] Creating Layer bn4b_branch2a
I0331 22:56:20.882817  7281 net.cpp:408] bn4b_branch2a <- res4b_branch2a
I0331 22:56:20.882824  7281 net.cpp:369] bn4b_branch2a -> res4b_branch2a (in-place)
I0331 22:56:20.883086  7281 net.cpp:124] Setting up bn4b_branch2a
I0331 22:56:20.883093  7281 net.cpp:131] Top shape: 16 256 14 14 (802816)
I0331 22:56:20.883096  7281 net.cpp:139] Memory required for data: 2957574208
I0331 22:56:20.883103  7281 layer_factory.hpp:77] Creating layer scale4b_branch2a
I0331 22:56:20.883111  7281 net.cpp:86] Creating Layer scale4b_branch2a
I0331 22:56:20.883116  7281 net.cpp:408] scale4b_branch2a <- res4b_branch2a
I0331 22:56:20.883121  7281 net.cpp:369] scale4b_branch2a -> res4b_branch2a (in-place)
I0331 22:56:20.883174  7281 layer_factory.hpp:77] Creating layer scale4b_branch2a
I0331 22:56:20.883317  7281 net.cpp:124] Setting up scale4b_branch2a
I0331 22:56:20.883324  7281 net.cpp:131] Top shape: 16 256 14 14 (802816)
I0331 22:56:20.883327  7281 net.cpp:139] Memory required for data: 2960785472
I0331 22:56:20.883332  7281 layer_factory.hpp:77] Creating layer res4b_branch2a_relu
I0331 22:56:20.883338  7281 net.cpp:86] Creating Layer res4b_branch2a_relu
I0331 22:56:20.883342  7281 net.cpp:408] res4b_branch2a_relu <- res4b_branch2a
I0331 22:56:20.883348  7281 net.cpp:369] res4b_branch2a_relu -> res4b_branch2a (in-place)
I0331 22:56:20.883914  7281 net.cpp:124] Setting up res4b_branch2a_relu
I0331 22:56:20.883925  7281 net.cpp:131] Top shape: 16 256 14 14 (802816)
I0331 22:56:20.883929  7281 net.cpp:139] Memory required for data: 2963996736
I0331 22:56:20.883931  7281 layer_factory.hpp:77] Creating layer res4b_branch2b
I0331 22:56:20.883941  7281 net.cpp:86] Creating Layer res4b_branch2b
I0331 22:56:20.883946  7281 net.cpp:408] res4b_branch2b <- res4b_branch2a
I0331 22:56:20.883954  7281 net.cpp:382] res4b_branch2b -> res4b_branch2b
I0331 22:56:20.892196  7281 net.cpp:124] Setting up res4b_branch2b
I0331 22:56:20.892217  7281 net.cpp:131] Top shape: 16 256 14 14 (802816)
I0331 22:56:20.892222  7281 net.cpp:139] Memory required for data: 2967208000
I0331 22:56:20.892228  7281 layer_factory.hpp:77] Creating layer bn4b_branch2b
I0331 22:56:20.892236  7281 net.cpp:86] Creating Layer bn4b_branch2b
I0331 22:56:20.892241  7281 net.cpp:408] bn4b_branch2b <- res4b_branch2b
I0331 22:56:20.892247  7281 net.cpp:369] bn4b_branch2b -> res4b_branch2b (in-place)
I0331 22:56:20.892515  7281 net.cpp:124] Setting up bn4b_branch2b
I0331 22:56:20.892524  7281 net.cpp:131] Top shape: 16 256 14 14 (802816)
I0331 22:56:20.892526  7281 net.cpp:139] Memory required for data: 2970419264
I0331 22:56:20.892534  7281 layer_factory.hpp:77] Creating layer scale4b_branch2b
I0331 22:56:20.892540  7281 net.cpp:86] Creating Layer scale4b_branch2b
I0331 22:56:20.892549  7281 net.cpp:408] scale4b_branch2b <- res4b_branch2b
I0331 22:56:20.892572  7281 net.cpp:369] scale4b_branch2b -> res4b_branch2b (in-place)
I0331 22:56:20.892635  7281 layer_factory.hpp:77] Creating layer scale4b_branch2b
I0331 22:56:20.892777  7281 net.cpp:124] Setting up scale4b_branch2b
I0331 22:56:20.892784  7281 net.cpp:131] Top shape: 16 256 14 14 (802816)
I0331 22:56:20.892787  7281 net.cpp:139] Memory required for data: 2973630528
I0331 22:56:20.892793  7281 layer_factory.hpp:77] Creating layer res4b_branch2b_relu
I0331 22:56:20.892798  7281 net.cpp:86] Creating Layer res4b_branch2b_relu
I0331 22:56:20.892802  7281 net.cpp:408] res4b_branch2b_relu <- res4b_branch2b
I0331 22:56:20.892808  7281 net.cpp:369] res4b_branch2b_relu -> res4b_branch2b (in-place)
I0331 22:56:20.893342  7281 net.cpp:124] Setting up res4b_branch2b_relu
I0331 22:56:20.893352  7281 net.cpp:131] Top shape: 16 256 14 14 (802816)
I0331 22:56:20.893355  7281 net.cpp:139] Memory required for data: 2976841792
I0331 22:56:20.893358  7281 layer_factory.hpp:77] Creating layer res4b_branch2c
I0331 22:56:20.893369  7281 net.cpp:86] Creating Layer res4b_branch2c
I0331 22:56:20.893373  7281 net.cpp:408] res4b_branch2c <- res4b_branch2b
I0331 22:56:20.893380  7281 net.cpp:382] res4b_branch2c -> res4b_branch2c
I0331 22:56:20.898268  7281 net.cpp:124] Setting up res4b_branch2c
I0331 22:56:20.898284  7281 net.cpp:131] Top shape: 16 1024 14 14 (3211264)
I0331 22:56:20.898288  7281 net.cpp:139] Memory required for data: 2989686848
I0331 22:56:20.898293  7281 layer_factory.hpp:77] Creating layer bn4b_branch2c
I0331 22:56:20.898303  7281 net.cpp:86] Creating Layer bn4b_branch2c
I0331 22:56:20.898308  7281 net.cpp:408] bn4b_branch2c <- res4b_branch2c
I0331 22:56:20.898313  7281 net.cpp:369] bn4b_branch2c -> res4b_branch2c (in-place)
I0331 22:56:20.898576  7281 net.cpp:124] Setting up bn4b_branch2c
I0331 22:56:20.898583  7281 net.cpp:131] Top shape: 16 1024 14 14 (3211264)
I0331 22:56:20.898587  7281 net.cpp:139] Memory required for data: 3002531904
I0331 22:56:20.898594  7281 layer_factory.hpp:77] Creating layer scale4b_branch2c
I0331 22:56:20.898599  7281 net.cpp:86] Creating Layer scale4b_branch2c
I0331 22:56:20.898603  7281 net.cpp:408] scale4b_branch2c <- res4b_branch2c
I0331 22:56:20.898610  7281 net.cpp:369] scale4b_branch2c -> res4b_branch2c (in-place)
I0331 22:56:20.898656  7281 layer_factory.hpp:77] Creating layer scale4b_branch2c
I0331 22:56:20.898804  7281 net.cpp:124] Setting up scale4b_branch2c
I0331 22:56:20.898810  7281 net.cpp:131] Top shape: 16 1024 14 14 (3211264)
I0331 22:56:20.898814  7281 net.cpp:139] Memory required for data: 3015376960
I0331 22:56:20.898819  7281 layer_factory.hpp:77] Creating layer res4b
I0331 22:56:20.898826  7281 net.cpp:86] Creating Layer res4b
I0331 22:56:20.898830  7281 net.cpp:408] res4b <- res4a_res4a_relu_0_split_1
I0331 22:56:20.898835  7281 net.cpp:408] res4b <- res4b_branch2c
I0331 22:56:20.898840  7281 net.cpp:382] res4b -> res4b
I0331 22:56:20.898875  7281 net.cpp:124] Setting up res4b
I0331 22:56:20.898883  7281 net.cpp:131] Top shape: 16 1024 14 14 (3211264)
I0331 22:56:20.898887  7281 net.cpp:139] Memory required for data: 3028222016
I0331 22:56:20.898890  7281 layer_factory.hpp:77] Creating layer res4b_relu
I0331 22:56:20.898895  7281 net.cpp:86] Creating Layer res4b_relu
I0331 22:56:20.898900  7281 net.cpp:408] res4b_relu <- res4b
I0331 22:56:20.898905  7281 net.cpp:369] res4b_relu -> res4b (in-place)
I0331 22:56:20.899468  7281 net.cpp:124] Setting up res4b_relu
I0331 22:56:20.899480  7281 net.cpp:131] Top shape: 16 1024 14 14 (3211264)
I0331 22:56:20.899483  7281 net.cpp:139] Memory required for data: 3041067072
I0331 22:56:20.899487  7281 layer_factory.hpp:77] Creating layer res4b_res4b_relu_0_split
I0331 22:56:20.899493  7281 net.cpp:86] Creating Layer res4b_res4b_relu_0_split
I0331 22:56:20.899497  7281 net.cpp:408] res4b_res4b_relu_0_split <- res4b
I0331 22:56:20.899503  7281 net.cpp:382] res4b_res4b_relu_0_split -> res4b_res4b_relu_0_split_0
I0331 22:56:20.899513  7281 net.cpp:382] res4b_res4b_relu_0_split -> res4b_res4b_relu_0_split_1
I0331 22:56:20.899596  7281 net.cpp:124] Setting up res4b_res4b_relu_0_split
I0331 22:56:20.899603  7281 net.cpp:131] Top shape: 16 1024 14 14 (3211264)
I0331 22:56:20.899607  7281 net.cpp:131] Top shape: 16 1024 14 14 (3211264)
I0331 22:56:20.899611  7281 net.cpp:139] Memory required for data: 3066757184
I0331 22:56:20.899614  7281 layer_factory.hpp:77] Creating layer res4c_branch2a
I0331 22:56:20.899626  7281 net.cpp:86] Creating Layer res4c_branch2a
I0331 22:56:20.899629  7281 net.cpp:408] res4c_branch2a <- res4b_res4b_relu_0_split_0
I0331 22:56:20.899636  7281 net.cpp:382] res4c_branch2a -> res4c_branch2a
I0331 22:56:20.904898  7281 net.cpp:124] Setting up res4c_branch2a
I0331 22:56:20.904919  7281 net.cpp:131] Top shape: 16 256 14 14 (802816)
I0331 22:56:20.904922  7281 net.cpp:139] Memory required for data: 3069968448
I0331 22:56:20.904929  7281 layer_factory.hpp:77] Creating layer bn4c_branch2a
I0331 22:56:20.904937  7281 net.cpp:86] Creating Layer bn4c_branch2a
I0331 22:56:20.904940  7281 net.cpp:408] bn4c_branch2a <- res4c_branch2a
I0331 22:56:20.904947  7281 net.cpp:369] bn4c_branch2a -> res4c_branch2a (in-place)
I0331 22:56:20.905220  7281 net.cpp:124] Setting up bn4c_branch2a
I0331 22:56:20.905228  7281 net.cpp:131] Top shape: 16 256 14 14 (802816)
I0331 22:56:20.905231  7281 net.cpp:139] Memory required for data: 3073179712
I0331 22:56:20.905238  7281 layer_factory.hpp:77] Creating layer scale4c_branch2a
I0331 22:56:20.905246  7281 net.cpp:86] Creating Layer scale4c_branch2a
I0331 22:56:20.905248  7281 net.cpp:408] scale4c_branch2a <- res4c_branch2a
I0331 22:56:20.905253  7281 net.cpp:369] scale4c_branch2a -> res4c_branch2a (in-place)
I0331 22:56:20.905311  7281 layer_factory.hpp:77] Creating layer scale4c_branch2a
I0331 22:56:20.905453  7281 net.cpp:124] Setting up scale4c_branch2a
I0331 22:56:20.905460  7281 net.cpp:131] Top shape: 16 256 14 14 (802816)
I0331 22:56:20.905463  7281 net.cpp:139] Memory required for data: 3076390976
I0331 22:56:20.905469  7281 layer_factory.hpp:77] Creating layer res4c_branch2a_relu
I0331 22:56:20.905477  7281 net.cpp:86] Creating Layer res4c_branch2a_relu
I0331 22:56:20.905479  7281 net.cpp:408] res4c_branch2a_relu <- res4c_branch2a
I0331 22:56:20.905485  7281 net.cpp:369] res4c_branch2a_relu -> res4c_branch2a (in-place)
I0331 22:56:20.906229  7281 net.cpp:124] Setting up res4c_branch2a_relu
I0331 22:56:20.906241  7281 net.cpp:131] Top shape: 16 256 14 14 (802816)
I0331 22:56:20.906244  7281 net.cpp:139] Memory required for data: 3079602240
I0331 22:56:20.906249  7281 layer_factory.hpp:77] Creating layer res4c_branch2b
I0331 22:56:20.906258  7281 net.cpp:86] Creating Layer res4c_branch2b
I0331 22:56:20.906263  7281 net.cpp:408] res4c_branch2b <- res4c_branch2a
I0331 22:56:20.906270  7281 net.cpp:382] res4c_branch2b -> res4c_branch2b
I0331 22:56:20.914554  7281 net.cpp:124] Setting up res4c_branch2b
I0331 22:56:20.914574  7281 net.cpp:131] Top shape: 16 256 14 14 (802816)
I0331 22:56:20.914578  7281 net.cpp:139] Memory required for data: 3082813504
I0331 22:56:20.914585  7281 layer_factory.hpp:77] Creating layer bn4c_branch2b
I0331 22:56:20.914594  7281 net.cpp:86] Creating Layer bn4c_branch2b
I0331 22:56:20.914599  7281 net.cpp:408] bn4c_branch2b <- res4c_branch2b
I0331 22:56:20.914607  7281 net.cpp:369] bn4c_branch2b -> res4c_branch2b (in-place)
I0331 22:56:20.914872  7281 net.cpp:124] Setting up bn4c_branch2b
I0331 22:56:20.914881  7281 net.cpp:131] Top shape: 16 256 14 14 (802816)
I0331 22:56:20.914885  7281 net.cpp:139] Memory required for data: 3086024768
I0331 22:56:20.914892  7281 layer_factory.hpp:77] Creating layer scale4c_branch2b
I0331 22:56:20.914898  7281 net.cpp:86] Creating Layer scale4c_branch2b
I0331 22:56:20.914902  7281 net.cpp:408] scale4c_branch2b <- res4c_branch2b
I0331 22:56:20.914907  7281 net.cpp:369] scale4c_branch2b -> res4c_branch2b (in-place)
I0331 22:56:20.914965  7281 layer_factory.hpp:77] Creating layer scale4c_branch2b
I0331 22:56:20.915112  7281 net.cpp:124] Setting up scale4c_branch2b
I0331 22:56:20.915123  7281 net.cpp:131] Top shape: 16 256 14 14 (802816)
I0331 22:56:20.915146  7281 net.cpp:139] Memory required for data: 3089236032
I0331 22:56:20.915153  7281 layer_factory.hpp:77] Creating layer res4c_branch2b_relu
I0331 22:56:20.915159  7281 net.cpp:86] Creating Layer res4c_branch2b_relu
I0331 22:56:20.915163  7281 net.cpp:408] res4c_branch2b_relu <- res4c_branch2b
I0331 22:56:20.915169  7281 net.cpp:369] res4c_branch2b_relu -> res4c_branch2b (in-place)
I0331 22:56:20.915702  7281 net.cpp:124] Setting up res4c_branch2b_relu
I0331 22:56:20.915714  7281 net.cpp:131] Top shape: 16 256 14 14 (802816)
I0331 22:56:20.915716  7281 net.cpp:139] Memory required for data: 3092447296
I0331 22:56:20.915720  7281 layer_factory.hpp:77] Creating layer res4c_branch2c
I0331 22:56:20.915731  7281 net.cpp:86] Creating Layer res4c_branch2c
I0331 22:56:20.915735  7281 net.cpp:408] res4c_branch2c <- res4c_branch2b
I0331 22:56:20.915742  7281 net.cpp:382] res4c_branch2c -> res4c_branch2c
I0331 22:56:20.920295  7281 net.cpp:124] Setting up res4c_branch2c
I0331 22:56:20.920310  7281 net.cpp:131] Top shape: 16 1024 14 14 (3211264)
I0331 22:56:20.920313  7281 net.cpp:139] Memory required for data: 3105292352
I0331 22:56:20.920320  7281 layer_factory.hpp:77] Creating layer bn4c_branch2c
I0331 22:56:20.920327  7281 net.cpp:86] Creating Layer bn4c_branch2c
I0331 22:56:20.920332  7281 net.cpp:408] bn4c_branch2c <- res4c_branch2c
I0331 22:56:20.920338  7281 net.cpp:369] bn4c_branch2c -> res4c_branch2c (in-place)
I0331 22:56:20.920611  7281 net.cpp:124] Setting up bn4c_branch2c
I0331 22:56:20.920619  7281 net.cpp:131] Top shape: 16 1024 14 14 (3211264)
I0331 22:56:20.920624  7281 net.cpp:139] Memory required for data: 3118137408
I0331 22:56:20.920629  7281 layer_factory.hpp:77] Creating layer scale4c_branch2c
I0331 22:56:20.920636  7281 net.cpp:86] Creating Layer scale4c_branch2c
I0331 22:56:20.920639  7281 net.cpp:408] scale4c_branch2c <- res4c_branch2c
I0331 22:56:20.920646  7281 net.cpp:369] scale4c_branch2c -> res4c_branch2c (in-place)
I0331 22:56:20.920696  7281 layer_factory.hpp:77] Creating layer scale4c_branch2c
I0331 22:56:20.920845  7281 net.cpp:124] Setting up scale4c_branch2c
I0331 22:56:20.920852  7281 net.cpp:131] Top shape: 16 1024 14 14 (3211264)
I0331 22:56:20.920856  7281 net.cpp:139] Memory required for data: 3130982464
I0331 22:56:20.920861  7281 layer_factory.hpp:77] Creating layer res4c
I0331 22:56:20.920867  7281 net.cpp:86] Creating Layer res4c
I0331 22:56:20.920871  7281 net.cpp:408] res4c <- res4b_res4b_relu_0_split_1
I0331 22:56:20.920876  7281 net.cpp:408] res4c <- res4c_branch2c
I0331 22:56:20.920882  7281 net.cpp:382] res4c -> res4c
I0331 22:56:20.920917  7281 net.cpp:124] Setting up res4c
I0331 22:56:20.920923  7281 net.cpp:131] Top shape: 16 1024 14 14 (3211264)
I0331 22:56:20.920928  7281 net.cpp:139] Memory required for data: 3143827520
I0331 22:56:20.920930  7281 layer_factory.hpp:77] Creating layer res4c_relu
I0331 22:56:20.920935  7281 net.cpp:86] Creating Layer res4c_relu
I0331 22:56:20.920938  7281 net.cpp:408] res4c_relu <- res4c
I0331 22:56:20.920945  7281 net.cpp:369] res4c_relu -> res4c (in-place)
I0331 22:56:20.921684  7281 net.cpp:124] Setting up res4c_relu
I0331 22:56:20.921696  7281 net.cpp:131] Top shape: 16 1024 14 14 (3211264)
I0331 22:56:20.921700  7281 net.cpp:139] Memory required for data: 3156672576
I0331 22:56:20.921703  7281 layer_factory.hpp:77] Creating layer res4c_res4c_relu_0_split
I0331 22:56:20.921711  7281 net.cpp:86] Creating Layer res4c_res4c_relu_0_split
I0331 22:56:20.921715  7281 net.cpp:408] res4c_res4c_relu_0_split <- res4c
I0331 22:56:20.921721  7281 net.cpp:382] res4c_res4c_relu_0_split -> res4c_res4c_relu_0_split_0
I0331 22:56:20.921730  7281 net.cpp:382] res4c_res4c_relu_0_split -> res4c_res4c_relu_0_split_1
I0331 22:56:20.921793  7281 net.cpp:124] Setting up res4c_res4c_relu_0_split
I0331 22:56:20.921800  7281 net.cpp:131] Top shape: 16 1024 14 14 (3211264)
I0331 22:56:20.921804  7281 net.cpp:131] Top shape: 16 1024 14 14 (3211264)
I0331 22:56:20.921808  7281 net.cpp:139] Memory required for data: 3182362688
I0331 22:56:20.921830  7281 layer_factory.hpp:77] Creating layer res4d_branch2a
I0331 22:56:20.921842  7281 net.cpp:86] Creating Layer res4d_branch2a
I0331 22:56:20.921846  7281 net.cpp:408] res4d_branch2a <- res4c_res4c_relu_0_split_0
I0331 22:56:20.921854  7281 net.cpp:382] res4d_branch2a -> res4d_branch2a
I0331 22:56:20.927361  7281 net.cpp:124] Setting up res4d_branch2a
I0331 22:56:20.927377  7281 net.cpp:131] Top shape: 16 256 14 14 (802816)
I0331 22:56:20.927381  7281 net.cpp:139] Memory required for data: 3185573952
I0331 22:56:20.927387  7281 layer_factory.hpp:77] Creating layer bn4d_branch2a
I0331 22:56:20.927397  7281 net.cpp:86] Creating Layer bn4d_branch2a
I0331 22:56:20.927402  7281 net.cpp:408] bn4d_branch2a <- res4d_branch2a
I0331 22:56:20.927408  7281 net.cpp:369] bn4d_branch2a -> res4d_branch2a (in-place)
I0331 22:56:20.927675  7281 net.cpp:124] Setting up bn4d_branch2a
I0331 22:56:20.927682  7281 net.cpp:131] Top shape: 16 256 14 14 (802816)
I0331 22:56:20.927685  7281 net.cpp:139] Memory required for data: 3188785216
I0331 22:56:20.927692  7281 layer_factory.hpp:77] Creating layer scale4d_branch2a
I0331 22:56:20.927700  7281 net.cpp:86] Creating Layer scale4d_branch2a
I0331 22:56:20.927704  7281 net.cpp:408] scale4d_branch2a <- res4d_branch2a
I0331 22:56:20.927709  7281 net.cpp:369] scale4d_branch2a -> res4d_branch2a (in-place)
I0331 22:56:20.927767  7281 layer_factory.hpp:77] Creating layer scale4d_branch2a
I0331 22:56:20.927915  7281 net.cpp:124] Setting up scale4d_branch2a
I0331 22:56:20.927922  7281 net.cpp:131] Top shape: 16 256 14 14 (802816)
I0331 22:56:20.927924  7281 net.cpp:139] Memory required for data: 3191996480
I0331 22:56:20.927930  7281 layer_factory.hpp:77] Creating layer res4d_branch2a_relu
I0331 22:56:20.927937  7281 net.cpp:86] Creating Layer res4d_branch2a_relu
I0331 22:56:20.927939  7281 net.cpp:408] res4d_branch2a_relu <- res4d_branch2a
I0331 22:56:20.927945  7281 net.cpp:369] res4d_branch2a_relu -> res4d_branch2a (in-place)
I0331 22:56:20.928479  7281 net.cpp:124] Setting up res4d_branch2a_relu
I0331 22:56:20.928489  7281 net.cpp:131] Top shape: 16 256 14 14 (802816)
I0331 22:56:20.928493  7281 net.cpp:139] Memory required for data: 3195207744
I0331 22:56:20.928496  7281 layer_factory.hpp:77] Creating layer res4d_branch2b
I0331 22:56:20.928505  7281 net.cpp:86] Creating Layer res4d_branch2b
I0331 22:56:20.928510  7281 net.cpp:408] res4d_branch2b <- res4d_branch2a
I0331 22:56:20.928516  7281 net.cpp:382] res4d_branch2b -> res4d_branch2b
I0331 22:56:20.937134  7281 net.cpp:124] Setting up res4d_branch2b
I0331 22:56:20.937157  7281 net.cpp:131] Top shape: 16 256 14 14 (802816)
I0331 22:56:20.937161  7281 net.cpp:139] Memory required for data: 3198419008
I0331 22:56:20.937168  7281 layer_factory.hpp:77] Creating layer bn4d_branch2b
I0331 22:56:20.937176  7281 net.cpp:86] Creating Layer bn4d_branch2b
I0331 22:56:20.937181  7281 net.cpp:408] bn4d_branch2b <- res4d_branch2b
I0331 22:56:20.937191  7281 net.cpp:369] bn4d_branch2b -> res4d_branch2b (in-place)
I0331 22:56:20.937469  7281 net.cpp:124] Setting up bn4d_branch2b
I0331 22:56:20.937476  7281 net.cpp:131] Top shape: 16 256 14 14 (802816)
I0331 22:56:20.937480  7281 net.cpp:139] Memory required for data: 3201630272
I0331 22:56:20.937487  7281 layer_factory.hpp:77] Creating layer scale4d_branch2b
I0331 22:56:20.937494  7281 net.cpp:86] Creating Layer scale4d_branch2b
I0331 22:56:20.937497  7281 net.cpp:408] scale4d_branch2b <- res4d_branch2b
I0331 22:56:20.937502  7281 net.cpp:369] scale4d_branch2b -> res4d_branch2b (in-place)
I0331 22:56:20.937563  7281 layer_factory.hpp:77] Creating layer scale4d_branch2b
I0331 22:56:20.937714  7281 net.cpp:124] Setting up scale4d_branch2b
I0331 22:56:20.937721  7281 net.cpp:131] Top shape: 16 256 14 14 (802816)
I0331 22:56:20.937724  7281 net.cpp:139] Memory required for data: 3204841536
I0331 22:56:20.937731  7281 layer_factory.hpp:77] Creating layer res4d_branch2b_relu
I0331 22:56:20.937737  7281 net.cpp:86] Creating Layer res4d_branch2b_relu
I0331 22:56:20.937747  7281 net.cpp:408] res4d_branch2b_relu <- res4d_branch2b
I0331 22:56:20.937769  7281 net.cpp:369] res4d_branch2b_relu -> res4d_branch2b (in-place)
I0331 22:56:20.938305  7281 net.cpp:124] Setting up res4d_branch2b_relu
I0331 22:56:20.938316  7281 net.cpp:131] Top shape: 16 256 14 14 (802816)
I0331 22:56:20.938319  7281 net.cpp:139] Memory required for data: 3208052800
I0331 22:56:20.938323  7281 layer_factory.hpp:77] Creating layer res4d_branch2c
I0331 22:56:20.938333  7281 net.cpp:86] Creating Layer res4d_branch2c
I0331 22:56:20.938338  7281 net.cpp:408] res4d_branch2c <- res4d_branch2b
I0331 22:56:20.938344  7281 net.cpp:382] res4d_branch2c -> res4d_branch2c
I0331 22:56:20.942922  7281 net.cpp:124] Setting up res4d_branch2c
I0331 22:56:20.942939  7281 net.cpp:131] Top shape: 16 1024 14 14 (3211264)
I0331 22:56:20.942941  7281 net.cpp:139] Memory required for data: 3220897856
I0331 22:56:20.942947  7281 layer_factory.hpp:77] Creating layer bn4d_branch2c
I0331 22:56:20.942955  7281 net.cpp:86] Creating Layer bn4d_branch2c
I0331 22:56:20.942960  7281 net.cpp:408] bn4d_branch2c <- res4d_branch2c
I0331 22:56:20.942966  7281 net.cpp:369] bn4d_branch2c -> res4d_branch2c (in-place)
I0331 22:56:20.943238  7281 net.cpp:124] Setting up bn4d_branch2c
I0331 22:56:20.943246  7281 net.cpp:131] Top shape: 16 1024 14 14 (3211264)
I0331 22:56:20.943249  7281 net.cpp:139] Memory required for data: 3233742912
I0331 22:56:20.943256  7281 layer_factory.hpp:77] Creating layer scale4d_branch2c
I0331 22:56:20.943264  7281 net.cpp:86] Creating Layer scale4d_branch2c
I0331 22:56:20.943267  7281 net.cpp:408] scale4d_branch2c <- res4d_branch2c
I0331 22:56:20.943272  7281 net.cpp:369] scale4d_branch2c -> res4d_branch2c (in-place)
I0331 22:56:20.943323  7281 layer_factory.hpp:77] Creating layer scale4d_branch2c
I0331 22:56:20.943476  7281 net.cpp:124] Setting up scale4d_branch2c
I0331 22:56:20.943483  7281 net.cpp:131] Top shape: 16 1024 14 14 (3211264)
I0331 22:56:20.943486  7281 net.cpp:139] Memory required for data: 3246587968
I0331 22:56:20.943492  7281 layer_factory.hpp:77] Creating layer res4d
I0331 22:56:20.943500  7281 net.cpp:86] Creating Layer res4d
I0331 22:56:20.943503  7281 net.cpp:408] res4d <- res4c_res4c_relu_0_split_1
I0331 22:56:20.943509  7281 net.cpp:408] res4d <- res4d_branch2c
I0331 22:56:20.943514  7281 net.cpp:382] res4d -> res4d
I0331 22:56:20.943549  7281 net.cpp:124] Setting up res4d
I0331 22:56:20.943555  7281 net.cpp:131] Top shape: 16 1024 14 14 (3211264)
I0331 22:56:20.943559  7281 net.cpp:139] Memory required for data: 3259433024
I0331 22:56:20.943562  7281 layer_factory.hpp:77] Creating layer res4d_relu
I0331 22:56:20.943567  7281 net.cpp:86] Creating Layer res4d_relu
I0331 22:56:20.943572  7281 net.cpp:408] res4d_relu <- res4d
I0331 22:56:20.943578  7281 net.cpp:369] res4d_relu -> res4d (in-place)
I0331 22:56:20.944321  7281 net.cpp:124] Setting up res4d_relu
I0331 22:56:20.944334  7281 net.cpp:131] Top shape: 16 1024 14 14 (3211264)
I0331 22:56:20.944337  7281 net.cpp:139] Memory required for data: 3272278080
I0331 22:56:20.944341  7281 layer_factory.hpp:77] Creating layer res4d_res4d_relu_0_split
I0331 22:56:20.944350  7281 net.cpp:86] Creating Layer res4d_res4d_relu_0_split
I0331 22:56:20.944352  7281 net.cpp:408] res4d_res4d_relu_0_split <- res4d
I0331 22:56:20.944358  7281 net.cpp:382] res4d_res4d_relu_0_split -> res4d_res4d_relu_0_split_0
I0331 22:56:20.944367  7281 net.cpp:382] res4d_res4d_relu_0_split -> res4d_res4d_relu_0_split_1
I0331 22:56:20.944429  7281 net.cpp:124] Setting up res4d_res4d_relu_0_split
I0331 22:56:20.944437  7281 net.cpp:131] Top shape: 16 1024 14 14 (3211264)
I0331 22:56:20.944440  7281 net.cpp:131] Top shape: 16 1024 14 14 (3211264)
I0331 22:56:20.944443  7281 net.cpp:139] Memory required for data: 3297968192
I0331 22:56:20.944447  7281 layer_factory.hpp:77] Creating layer res4e_branch2a
I0331 22:56:20.944456  7281 net.cpp:86] Creating Layer res4e_branch2a
I0331 22:56:20.944460  7281 net.cpp:408] res4e_branch2a <- res4d_res4d_relu_0_split_0
I0331 22:56:20.944468  7281 net.cpp:382] res4e_branch2a -> res4e_branch2a
I0331 22:56:20.949846  7281 net.cpp:124] Setting up res4e_branch2a
I0331 22:56:20.949862  7281 net.cpp:131] Top shape: 16 256 14 14 (802816)
I0331 22:56:20.949865  7281 net.cpp:139] Memory required for data: 3301179456
I0331 22:56:20.949872  7281 layer_factory.hpp:77] Creating layer bn4e_branch2a
I0331 22:56:20.949882  7281 net.cpp:86] Creating Layer bn4e_branch2a
I0331 22:56:20.949885  7281 net.cpp:408] bn4e_branch2a <- res4e_branch2a
I0331 22:56:20.949892  7281 net.cpp:369] bn4e_branch2a -> res4e_branch2a (in-place)
I0331 22:56:20.950167  7281 net.cpp:124] Setting up bn4e_branch2a
I0331 22:56:20.950175  7281 net.cpp:131] Top shape: 16 256 14 14 (802816)
I0331 22:56:20.950177  7281 net.cpp:139] Memory required for data: 3304390720
I0331 22:56:20.950184  7281 layer_factory.hpp:77] Creating layer scale4e_branch2a
I0331 22:56:20.950191  7281 net.cpp:86] Creating Layer scale4e_branch2a
I0331 22:56:20.950196  7281 net.cpp:408] scale4e_branch2a <- res4e_branch2a
I0331 22:56:20.950201  7281 net.cpp:369] scale4e_branch2a -> res4e_branch2a (in-place)
I0331 22:56:20.950256  7281 layer_factory.hpp:77] Creating layer scale4e_branch2a
I0331 22:56:20.950407  7281 net.cpp:124] Setting up scale4e_branch2a
I0331 22:56:20.950413  7281 net.cpp:131] Top shape: 16 256 14 14 (802816)
I0331 22:56:20.950417  7281 net.cpp:139] Memory required for data: 3307601984
I0331 22:56:20.950423  7281 layer_factory.hpp:77] Creating layer res4e_branch2a_relu
I0331 22:56:20.950428  7281 net.cpp:86] Creating Layer res4e_branch2a_relu
I0331 22:56:20.950431  7281 net.cpp:408] res4e_branch2a_relu <- res4e_branch2a
I0331 22:56:20.950436  7281 net.cpp:369] res4e_branch2a_relu -> res4e_branch2a (in-place)
I0331 22:56:20.950976  7281 net.cpp:124] Setting up res4e_branch2a_relu
I0331 22:56:20.950989  7281 net.cpp:131] Top shape: 16 256 14 14 (802816)
I0331 22:56:20.950991  7281 net.cpp:139] Memory required for data: 3310813248
I0331 22:56:20.950995  7281 layer_factory.hpp:77] Creating layer res4e_branch2b
I0331 22:56:20.951004  7281 net.cpp:86] Creating Layer res4e_branch2b
I0331 22:56:20.951010  7281 net.cpp:408] res4e_branch2b <- res4e_branch2a
I0331 22:56:20.951016  7281 net.cpp:382] res4e_branch2b -> res4e_branch2b
I0331 22:56:20.959311  7281 net.cpp:124] Setting up res4e_branch2b
I0331 22:56:20.959331  7281 net.cpp:131] Top shape: 16 256 14 14 (802816)
I0331 22:56:20.959334  7281 net.cpp:139] Memory required for data: 3314024512
I0331 22:56:20.959342  7281 layer_factory.hpp:77] Creating layer bn4e_branch2b
I0331 22:56:20.959349  7281 net.cpp:86] Creating Layer bn4e_branch2b
I0331 22:56:20.959353  7281 net.cpp:408] bn4e_branch2b <- res4e_branch2b
I0331 22:56:20.959362  7281 net.cpp:369] bn4e_branch2b -> res4e_branch2b (in-place)
I0331 22:56:20.959641  7281 net.cpp:124] Setting up bn4e_branch2b
I0331 22:56:20.959650  7281 net.cpp:131] Top shape: 16 256 14 14 (802816)
I0331 22:56:20.959652  7281 net.cpp:139] Memory required for data: 3317235776
I0331 22:56:20.959659  7281 layer_factory.hpp:77] Creating layer scale4e_branch2b
I0331 22:56:20.959666  7281 net.cpp:86] Creating Layer scale4e_branch2b
I0331 22:56:20.959669  7281 net.cpp:408] scale4e_branch2b <- res4e_branch2b
I0331 22:56:20.959674  7281 net.cpp:369] scale4e_branch2b -> res4e_branch2b (in-place)
I0331 22:56:20.959734  7281 layer_factory.hpp:77] Creating layer scale4e_branch2b
I0331 22:56:20.959885  7281 net.cpp:124] Setting up scale4e_branch2b
I0331 22:56:20.959892  7281 net.cpp:131] Top shape: 16 256 14 14 (802816)
I0331 22:56:20.959894  7281 net.cpp:139] Memory required for data: 3320447040
I0331 22:56:20.959900  7281 layer_factory.hpp:77] Creating layer res4e_branch2b_relu
I0331 22:56:20.959908  7281 net.cpp:86] Creating Layer res4e_branch2b_relu
I0331 22:56:20.959911  7281 net.cpp:408] res4e_branch2b_relu <- res4e_branch2b
I0331 22:56:20.959915  7281 net.cpp:369] res4e_branch2b_relu -> res4e_branch2b (in-place)
I0331 22:56:20.960665  7281 net.cpp:124] Setting up res4e_branch2b_relu
I0331 22:56:20.960677  7281 net.cpp:131] Top shape: 16 256 14 14 (802816)
I0331 22:56:20.960685  7281 net.cpp:139] Memory required for data: 3323658304
I0331 22:56:20.960707  7281 layer_factory.hpp:77] Creating layer res4e_branch2c
I0331 22:56:20.960719  7281 net.cpp:86] Creating Layer res4e_branch2c
I0331 22:56:20.960723  7281 net.cpp:408] res4e_branch2c <- res4e_branch2b
I0331 22:56:20.960731  7281 net.cpp:382] res4e_branch2c -> res4e_branch2c
I0331 22:56:20.965294  7281 net.cpp:124] Setting up res4e_branch2c
I0331 22:56:20.965309  7281 net.cpp:131] Top shape: 16 1024 14 14 (3211264)
I0331 22:56:20.965313  7281 net.cpp:139] Memory required for data: 3336503360
I0331 22:56:20.965319  7281 layer_factory.hpp:77] Creating layer bn4e_branch2c
I0331 22:56:20.965327  7281 net.cpp:86] Creating Layer bn4e_branch2c
I0331 22:56:20.965330  7281 net.cpp:408] bn4e_branch2c <- res4e_branch2c
I0331 22:56:20.965338  7281 net.cpp:369] bn4e_branch2c -> res4e_branch2c (in-place)
I0331 22:56:20.965617  7281 net.cpp:124] Setting up bn4e_branch2c
I0331 22:56:20.965626  7281 net.cpp:131] Top shape: 16 1024 14 14 (3211264)
I0331 22:56:20.965629  7281 net.cpp:139] Memory required for data: 3349348416
I0331 22:56:20.965636  7281 layer_factory.hpp:77] Creating layer scale4e_branch2c
I0331 22:56:20.965642  7281 net.cpp:86] Creating Layer scale4e_branch2c
I0331 22:56:20.965646  7281 net.cpp:408] scale4e_branch2c <- res4e_branch2c
I0331 22:56:20.965651  7281 net.cpp:369] scale4e_branch2c -> res4e_branch2c (in-place)
I0331 22:56:20.965703  7281 layer_factory.hpp:77] Creating layer scale4e_branch2c
I0331 22:56:20.965857  7281 net.cpp:124] Setting up scale4e_branch2c
I0331 22:56:20.965864  7281 net.cpp:131] Top shape: 16 1024 14 14 (3211264)
I0331 22:56:20.965868  7281 net.cpp:139] Memory required for data: 3362193472
I0331 22:56:20.965873  7281 layer_factory.hpp:77] Creating layer res4e
I0331 22:56:20.965881  7281 net.cpp:86] Creating Layer res4e
I0331 22:56:20.965885  7281 net.cpp:408] res4e <- res4d_res4d_relu_0_split_1
I0331 22:56:20.965891  7281 net.cpp:408] res4e <- res4e_branch2c
I0331 22:56:20.965896  7281 net.cpp:382] res4e -> res4e
I0331 22:56:20.965932  7281 net.cpp:124] Setting up res4e
I0331 22:56:20.965939  7281 net.cpp:131] Top shape: 16 1024 14 14 (3211264)
I0331 22:56:20.965942  7281 net.cpp:139] Memory required for data: 3375038528
I0331 22:56:20.965945  7281 layer_factory.hpp:77] Creating layer res4e_relu
I0331 22:56:20.965950  7281 net.cpp:86] Creating Layer res4e_relu
I0331 22:56:20.965955  7281 net.cpp:408] res4e_relu <- res4e
I0331 22:56:20.965961  7281 net.cpp:369] res4e_relu -> res4e (in-place)
I0331 22:56:20.966533  7281 net.cpp:124] Setting up res4e_relu
I0331 22:56:20.966544  7281 net.cpp:131] Top shape: 16 1024 14 14 (3211264)
I0331 22:56:20.966547  7281 net.cpp:139] Memory required for data: 3387883584
I0331 22:56:20.966552  7281 layer_factory.hpp:77] Creating layer res4e_res4e_relu_0_split
I0331 22:56:20.966557  7281 net.cpp:86] Creating Layer res4e_res4e_relu_0_split
I0331 22:56:20.966562  7281 net.cpp:408] res4e_res4e_relu_0_split <- res4e
I0331 22:56:20.966568  7281 net.cpp:382] res4e_res4e_relu_0_split -> res4e_res4e_relu_0_split_0
I0331 22:56:20.966576  7281 net.cpp:382] res4e_res4e_relu_0_split -> res4e_res4e_relu_0_split_1
I0331 22:56:20.966639  7281 net.cpp:124] Setting up res4e_res4e_relu_0_split
I0331 22:56:20.966646  7281 net.cpp:131] Top shape: 16 1024 14 14 (3211264)
I0331 22:56:20.966650  7281 net.cpp:131] Top shape: 16 1024 14 14 (3211264)
I0331 22:56:20.966653  7281 net.cpp:139] Memory required for data: 3413573696
I0331 22:56:20.966656  7281 layer_factory.hpp:77] Creating layer res4f_branch2a
I0331 22:56:20.966666  7281 net.cpp:86] Creating Layer res4f_branch2a
I0331 22:56:20.966670  7281 net.cpp:408] res4f_branch2a <- res4e_res4e_relu_0_split_0
I0331 22:56:20.966679  7281 net.cpp:382] res4f_branch2a -> res4f_branch2a
I0331 22:56:20.972394  7281 net.cpp:124] Setting up res4f_branch2a
I0331 22:56:20.972411  7281 net.cpp:131] Top shape: 16 256 14 14 (802816)
I0331 22:56:20.972414  7281 net.cpp:139] Memory required for data: 3416784960
I0331 22:56:20.972421  7281 layer_factory.hpp:77] Creating layer bn4f_branch2a
I0331 22:56:20.972451  7281 net.cpp:86] Creating Layer bn4f_branch2a
I0331 22:56:20.972456  7281 net.cpp:408] bn4f_branch2a <- res4f_branch2a
I0331 22:56:20.972465  7281 net.cpp:369] bn4f_branch2a -> res4f_branch2a (in-place)
I0331 22:56:20.972748  7281 net.cpp:124] Setting up bn4f_branch2a
I0331 22:56:20.972756  7281 net.cpp:131] Top shape: 16 256 14 14 (802816)
I0331 22:56:20.972759  7281 net.cpp:139] Memory required for data: 3419996224
I0331 22:56:20.972766  7281 layer_factory.hpp:77] Creating layer scale4f_branch2a
I0331 22:56:20.972774  7281 net.cpp:86] Creating Layer scale4f_branch2a
I0331 22:56:20.972776  7281 net.cpp:408] scale4f_branch2a <- res4f_branch2a
I0331 22:56:20.972781  7281 net.cpp:369] scale4f_branch2a -> res4f_branch2a (in-place)
I0331 22:56:20.972841  7281 layer_factory.hpp:77] Creating layer scale4f_branch2a
I0331 22:56:20.972999  7281 net.cpp:124] Setting up scale4f_branch2a
I0331 22:56:20.973006  7281 net.cpp:131] Top shape: 16 256 14 14 (802816)
I0331 22:56:20.973009  7281 net.cpp:139] Memory required for data: 3423207488
I0331 22:56:20.973014  7281 layer_factory.hpp:77] Creating layer res4f_branch2a_relu
I0331 22:56:20.973021  7281 net.cpp:86] Creating Layer res4f_branch2a_relu
I0331 22:56:20.973024  7281 net.cpp:408] res4f_branch2a_relu <- res4f_branch2a
I0331 22:56:20.973029  7281 net.cpp:369] res4f_branch2a_relu -> res4f_branch2a (in-place)
I0331 22:56:20.973573  7281 net.cpp:124] Setting up res4f_branch2a_relu
I0331 22:56:20.973584  7281 net.cpp:131] Top shape: 16 256 14 14 (802816)
I0331 22:56:20.973587  7281 net.cpp:139] Memory required for data: 3426418752
I0331 22:56:20.973592  7281 layer_factory.hpp:77] Creating layer res4f_branch2b
I0331 22:56:20.973600  7281 net.cpp:86] Creating Layer res4f_branch2b
I0331 22:56:20.973605  7281 net.cpp:408] res4f_branch2b <- res4f_branch2a
I0331 22:56:20.973613  7281 net.cpp:382] res4f_branch2b -> res4f_branch2b
I0331 22:56:20.981925  7281 net.cpp:124] Setting up res4f_branch2b
I0331 22:56:20.981945  7281 net.cpp:131] Top shape: 16 256 14 14 (802816)
I0331 22:56:20.981950  7281 net.cpp:139] Memory required for data: 3429630016
I0331 22:56:20.981956  7281 layer_factory.hpp:77] Creating layer bn4f_branch2b
I0331 22:56:20.981966  7281 net.cpp:86] Creating Layer bn4f_branch2b
I0331 22:56:20.981969  7281 net.cpp:408] bn4f_branch2b <- res4f_branch2b
I0331 22:56:20.981976  7281 net.cpp:369] bn4f_branch2b -> res4f_branch2b (in-place)
I0331 22:56:20.982265  7281 net.cpp:124] Setting up bn4f_branch2b
I0331 22:56:20.982273  7281 net.cpp:131] Top shape: 16 256 14 14 (802816)
I0331 22:56:20.982276  7281 net.cpp:139] Memory required for data: 3432841280
I0331 22:56:20.982283  7281 layer_factory.hpp:77] Creating layer scale4f_branch2b
I0331 22:56:20.982290  7281 net.cpp:86] Creating Layer scale4f_branch2b
I0331 22:56:20.982293  7281 net.cpp:408] scale4f_branch2b <- res4f_branch2b
I0331 22:56:20.982298  7281 net.cpp:369] scale4f_branch2b -> res4f_branch2b (in-place)
I0331 22:56:20.982360  7281 layer_factory.hpp:77] Creating layer scale4f_branch2b
I0331 22:56:20.982517  7281 net.cpp:124] Setting up scale4f_branch2b
I0331 22:56:20.982523  7281 net.cpp:131] Top shape: 16 256 14 14 (802816)
I0331 22:56:20.982527  7281 net.cpp:139] Memory required for data: 3436052544
I0331 22:56:20.982532  7281 layer_factory.hpp:77] Creating layer res4f_branch2b_relu
I0331 22:56:20.982538  7281 net.cpp:86] Creating Layer res4f_branch2b_relu
I0331 22:56:20.982542  7281 net.cpp:408] res4f_branch2b_relu <- res4f_branch2b
I0331 22:56:20.982547  7281 net.cpp:369] res4f_branch2b_relu -> res4f_branch2b (in-place)
I0331 22:56:20.983294  7281 net.cpp:124] Setting up res4f_branch2b_relu
I0331 22:56:20.983306  7281 net.cpp:131] Top shape: 16 256 14 14 (802816)
I0331 22:56:20.983310  7281 net.cpp:139] Memory required for data: 3439263808
I0331 22:56:20.983314  7281 layer_factory.hpp:77] Creating layer res4f_branch2c
I0331 22:56:20.983325  7281 net.cpp:86] Creating Layer res4f_branch2c
I0331 22:56:20.983328  7281 net.cpp:408] res4f_branch2c <- res4f_branch2b
I0331 22:56:20.983340  7281 net.cpp:382] res4f_branch2c -> res4f_branch2c
I0331 22:56:20.987995  7281 net.cpp:124] Setting up res4f_branch2c
I0331 22:56:20.988011  7281 net.cpp:131] Top shape: 16 1024 14 14 (3211264)
I0331 22:56:20.988014  7281 net.cpp:139] Memory required for data: 3452108864
I0331 22:56:20.988020  7281 layer_factory.hpp:77] Creating layer bn4f_branch2c
I0331 22:56:20.988029  7281 net.cpp:86] Creating Layer bn4f_branch2c
I0331 22:56:20.988034  7281 net.cpp:408] bn4f_branch2c <- res4f_branch2c
I0331 22:56:20.988039  7281 net.cpp:369] bn4f_branch2c -> res4f_branch2c (in-place)
I0331 22:56:20.988323  7281 net.cpp:124] Setting up bn4f_branch2c
I0331 22:56:20.988332  7281 net.cpp:131] Top shape: 16 1024 14 14 (3211264)
I0331 22:56:20.988334  7281 net.cpp:139] Memory required for data: 3464953920
I0331 22:56:20.988366  7281 layer_factory.hpp:77] Creating layer scale4f_branch2c
I0331 22:56:20.988373  7281 net.cpp:86] Creating Layer scale4f_branch2c
I0331 22:56:20.988378  7281 net.cpp:408] scale4f_branch2c <- res4f_branch2c
I0331 22:56:20.988382  7281 net.cpp:369] scale4f_branch2c -> res4f_branch2c (in-place)
I0331 22:56:20.988436  7281 layer_factory.hpp:77] Creating layer scale4f_branch2c
I0331 22:56:20.988597  7281 net.cpp:124] Setting up scale4f_branch2c
I0331 22:56:20.988605  7281 net.cpp:131] Top shape: 16 1024 14 14 (3211264)
I0331 22:56:20.988607  7281 net.cpp:139] Memory required for data: 3477798976
I0331 22:56:20.988613  7281 layer_factory.hpp:77] Creating layer res4f
I0331 22:56:20.988620  7281 net.cpp:86] Creating Layer res4f
I0331 22:56:20.988623  7281 net.cpp:408] res4f <- res4e_res4e_relu_0_split_1
I0331 22:56:20.988628  7281 net.cpp:408] res4f <- res4f_branch2c
I0331 22:56:20.988636  7281 net.cpp:382] res4f -> res4f
I0331 22:56:20.988672  7281 net.cpp:124] Setting up res4f
I0331 22:56:20.988679  7281 net.cpp:131] Top shape: 16 1024 14 14 (3211264)
I0331 22:56:20.988682  7281 net.cpp:139] Memory required for data: 3490644032
I0331 22:56:20.988687  7281 layer_factory.hpp:77] Creating layer res4f_relu
I0331 22:56:20.988692  7281 net.cpp:86] Creating Layer res4f_relu
I0331 22:56:20.988694  7281 net.cpp:408] res4f_relu <- res4f
I0331 22:56:20.988700  7281 net.cpp:369] res4f_relu -> res4f (in-place)
I0331 22:56:20.989420  7281 net.cpp:124] Setting up res4f_relu
I0331 22:56:20.989432  7281 net.cpp:131] Top shape: 16 1024 14 14 (3211264)
I0331 22:56:20.989436  7281 net.cpp:139] Memory required for data: 3503489088
I0331 22:56:20.989440  7281 layer_factory.hpp:77] Creating layer res4f_res4f_relu_0_split
I0331 22:56:20.989447  7281 net.cpp:86] Creating Layer res4f_res4f_relu_0_split
I0331 22:56:20.989451  7281 net.cpp:408] res4f_res4f_relu_0_split <- res4f
I0331 22:56:20.989457  7281 net.cpp:382] res4f_res4f_relu_0_split -> res4f_res4f_relu_0_split_0
I0331 22:56:20.989466  7281 net.cpp:382] res4f_res4f_relu_0_split -> res4f_res4f_relu_0_split_1
I0331 22:56:20.989531  7281 net.cpp:124] Setting up res4f_res4f_relu_0_split
I0331 22:56:20.989538  7281 net.cpp:131] Top shape: 16 1024 14 14 (3211264)
I0331 22:56:20.989542  7281 net.cpp:131] Top shape: 16 1024 14 14 (3211264)
I0331 22:56:20.989547  7281 net.cpp:139] Memory required for data: 3529179200
I0331 22:56:20.989549  7281 layer_factory.hpp:77] Creating layer res5a_branch1
I0331 22:56:20.989558  7281 net.cpp:86] Creating Layer res5a_branch1
I0331 22:56:20.989562  7281 net.cpp:408] res5a_branch1 <- res4f_res4f_relu_0_split_0
I0331 22:56:20.989570  7281 net.cpp:382] res5a_branch1 -> res5a_branch1
I0331 22:56:21.011926  7281 net.cpp:124] Setting up res5a_branch1
I0331 22:56:21.011955  7281 net.cpp:131] Top shape: 16 2048 7 7 (1605632)
I0331 22:56:21.011957  7281 net.cpp:139] Memory required for data: 3535601728
I0331 22:56:21.011966  7281 layer_factory.hpp:77] Creating layer bn5a_branch1
I0331 22:56:21.011977  7281 net.cpp:86] Creating Layer bn5a_branch1
I0331 22:56:21.011982  7281 net.cpp:408] bn5a_branch1 <- res5a_branch1
I0331 22:56:21.011989  7281 net.cpp:369] bn5a_branch1 -> res5a_branch1 (in-place)
I0331 22:56:21.012302  7281 net.cpp:124] Setting up bn5a_branch1
I0331 22:56:21.012315  7281 net.cpp:131] Top shape: 16 2048 7 7 (1605632)
I0331 22:56:21.012339  7281 net.cpp:139] Memory required for data: 3542024256
I0331 22:56:21.012347  7281 layer_factory.hpp:77] Creating layer scale5a_branch1
I0331 22:56:21.012354  7281 net.cpp:86] Creating Layer scale5a_branch1
I0331 22:56:21.012358  7281 net.cpp:408] scale5a_branch1 <- res5a_branch1
I0331 22:56:21.012362  7281 net.cpp:369] scale5a_branch1 -> res5a_branch1 (in-place)
I0331 22:56:21.012428  7281 layer_factory.hpp:77] Creating layer scale5a_branch1
I0331 22:56:21.012598  7281 net.cpp:124] Setting up scale5a_branch1
I0331 22:56:21.012605  7281 net.cpp:131] Top shape: 16 2048 7 7 (1605632)
I0331 22:56:21.012609  7281 net.cpp:139] Memory required for data: 3548446784
I0331 22:56:21.012614  7281 layer_factory.hpp:77] Creating layer res5a_branch2a
I0331 22:56:21.012624  7281 net.cpp:86] Creating Layer res5a_branch2a
I0331 22:56:21.012629  7281 net.cpp:408] res5a_branch2a <- res4f_res4f_relu_0_split_1
I0331 22:56:21.012634  7281 net.cpp:382] res5a_branch2a -> res5a_branch2a
I0331 22:56:21.020323  7281 net.cpp:124] Setting up res5a_branch2a
I0331 22:56:21.020344  7281 net.cpp:131] Top shape: 16 512 7 7 (401408)
I0331 22:56:21.020347  7281 net.cpp:139] Memory required for data: 3550052416
I0331 22:56:21.020354  7281 layer_factory.hpp:77] Creating layer bn5a_branch2a
I0331 22:56:21.020361  7281 net.cpp:86] Creating Layer bn5a_branch2a
I0331 22:56:21.020366  7281 net.cpp:408] bn5a_branch2a <- res5a_branch2a
I0331 22:56:21.020375  7281 net.cpp:369] bn5a_branch2a -> res5a_branch2a (in-place)
I0331 22:56:21.020674  7281 net.cpp:124] Setting up bn5a_branch2a
I0331 22:56:21.020681  7281 net.cpp:131] Top shape: 16 512 7 7 (401408)
I0331 22:56:21.020685  7281 net.cpp:139] Memory required for data: 3551658048
I0331 22:56:21.020692  7281 layer_factory.hpp:77] Creating layer scale5a_branch2a
I0331 22:56:21.020699  7281 net.cpp:86] Creating Layer scale5a_branch2a
I0331 22:56:21.020702  7281 net.cpp:408] scale5a_branch2a <- res5a_branch2a
I0331 22:56:21.020707  7281 net.cpp:369] scale5a_branch2a -> res5a_branch2a (in-place)
I0331 22:56:21.020762  7281 layer_factory.hpp:77] Creating layer scale5a_branch2a
I0331 22:56:21.020925  7281 net.cpp:124] Setting up scale5a_branch2a
I0331 22:56:21.020932  7281 net.cpp:131] Top shape: 16 512 7 7 (401408)
I0331 22:56:21.020936  7281 net.cpp:139] Memory required for data: 3553263680
I0331 22:56:21.020941  7281 layer_factory.hpp:77] Creating layer res5a_branch2a_relu
I0331 22:56:21.020948  7281 net.cpp:86] Creating Layer res5a_branch2a_relu
I0331 22:56:21.020952  7281 net.cpp:408] res5a_branch2a_relu <- res5a_branch2a
I0331 22:56:21.020957  7281 net.cpp:369] res5a_branch2a_relu -> res5a_branch2a (in-place)
I0331 22:56:21.021517  7281 net.cpp:124] Setting up res5a_branch2a_relu
I0331 22:56:21.021528  7281 net.cpp:131] Top shape: 16 512 7 7 (401408)
I0331 22:56:21.021530  7281 net.cpp:139] Memory required for data: 3554869312
I0331 22:56:21.021534  7281 layer_factory.hpp:77] Creating layer res5a_branch2b
I0331 22:56:21.021544  7281 net.cpp:86] Creating Layer res5a_branch2b
I0331 22:56:21.021549  7281 net.cpp:408] res5a_branch2b <- res5a_branch2a
I0331 22:56:21.021556  7281 net.cpp:382] res5a_branch2b -> res5a_branch2b
I0331 22:56:21.046237  7281 net.cpp:124] Setting up res5a_branch2b
I0331 22:56:21.046265  7281 net.cpp:131] Top shape: 16 512 7 7 (401408)
I0331 22:56:21.046269  7281 net.cpp:139] Memory required for data: 3556474944
I0331 22:56:21.046277  7281 layer_factory.hpp:77] Creating layer bn5a_branch2b
I0331 22:56:21.046289  7281 net.cpp:86] Creating Layer bn5a_branch2b
I0331 22:56:21.046294  7281 net.cpp:408] bn5a_branch2b <- res5a_branch2b
I0331 22:56:21.046303  7281 net.cpp:369] bn5a_branch2b -> res5a_branch2b (in-place)
I0331 22:56:21.046614  7281 net.cpp:124] Setting up bn5a_branch2b
I0331 22:56:21.046623  7281 net.cpp:131] Top shape: 16 512 7 7 (401408)
I0331 22:56:21.046627  7281 net.cpp:139] Memory required for data: 3558080576
I0331 22:56:21.046633  7281 layer_factory.hpp:77] Creating layer scale5a_branch2b
I0331 22:56:21.046644  7281 net.cpp:86] Creating Layer scale5a_branch2b
I0331 22:56:21.046671  7281 net.cpp:408] scale5a_branch2b <- res5a_branch2b
I0331 22:56:21.046679  7281 net.cpp:369] scale5a_branch2b -> res5a_branch2b (in-place)
I0331 22:56:21.046738  7281 layer_factory.hpp:77] Creating layer scale5a_branch2b
I0331 22:56:21.046908  7281 net.cpp:124] Setting up scale5a_branch2b
I0331 22:56:21.046916  7281 net.cpp:131] Top shape: 16 512 7 7 (401408)
I0331 22:56:21.046918  7281 net.cpp:139] Memory required for data: 3559686208
I0331 22:56:21.046924  7281 layer_factory.hpp:77] Creating layer res5a_branch2b_relu
I0331 22:56:21.046929  7281 net.cpp:86] Creating Layer res5a_branch2b_relu
I0331 22:56:21.046934  7281 net.cpp:408] res5a_branch2b_relu <- res5a_branch2b
I0331 22:56:21.046941  7281 net.cpp:369] res5a_branch2b_relu -> res5a_branch2b (in-place)
I0331 22:56:21.047861  7281 net.cpp:124] Setting up res5a_branch2b_relu
I0331 22:56:21.047874  7281 net.cpp:131] Top shape: 16 512 7 7 (401408)
I0331 22:56:21.047878  7281 net.cpp:139] Memory required for data: 3561291840
I0331 22:56:21.047881  7281 layer_factory.hpp:77] Creating layer res5a_branch2c
I0331 22:56:21.047895  7281 net.cpp:86] Creating Layer res5a_branch2c
I0331 22:56:21.047899  7281 net.cpp:408] res5a_branch2c <- res5a_branch2b
I0331 22:56:21.047906  7281 net.cpp:382] res5a_branch2c -> res5a_branch2c
I0331 22:56:21.060401  7281 net.cpp:124] Setting up res5a_branch2c
I0331 22:56:21.060425  7281 net.cpp:131] Top shape: 16 2048 7 7 (1605632)
I0331 22:56:21.060428  7281 net.cpp:139] Memory required for data: 3567714368
I0331 22:56:21.060436  7281 layer_factory.hpp:77] Creating layer bn5a_branch2c
I0331 22:56:21.060446  7281 net.cpp:86] Creating Layer bn5a_branch2c
I0331 22:56:21.060451  7281 net.cpp:408] bn5a_branch2c <- res5a_branch2c
I0331 22:56:21.060458  7281 net.cpp:369] bn5a_branch2c -> res5a_branch2c (in-place)
I0331 22:56:21.060766  7281 net.cpp:124] Setting up bn5a_branch2c
I0331 22:56:21.060773  7281 net.cpp:131] Top shape: 16 2048 7 7 (1605632)
I0331 22:56:21.060776  7281 net.cpp:139] Memory required for data: 3574136896
I0331 22:56:21.060783  7281 layer_factory.hpp:77] Creating layer scale5a_branch2c
I0331 22:56:21.060791  7281 net.cpp:86] Creating Layer scale5a_branch2c
I0331 22:56:21.060794  7281 net.cpp:408] scale5a_branch2c <- res5a_branch2c
I0331 22:56:21.060799  7281 net.cpp:369] scale5a_branch2c -> res5a_branch2c (in-place)
I0331 22:56:21.060858  7281 layer_factory.hpp:77] Creating layer scale5a_branch2c
I0331 22:56:21.061029  7281 net.cpp:124] Setting up scale5a_branch2c
I0331 22:56:21.061038  7281 net.cpp:131] Top shape: 16 2048 7 7 (1605632)
I0331 22:56:21.061040  7281 net.cpp:139] Memory required for data: 3580559424
I0331 22:56:21.061045  7281 layer_factory.hpp:77] Creating layer res5a
I0331 22:56:21.061053  7281 net.cpp:86] Creating Layer res5a
I0331 22:56:21.061058  7281 net.cpp:408] res5a <- res5a_branch1
I0331 22:56:21.061062  7281 net.cpp:408] res5a <- res5a_branch2c
I0331 22:56:21.061067  7281 net.cpp:382] res5a -> res5a
I0331 22:56:21.061107  7281 net.cpp:124] Setting up res5a
I0331 22:56:21.061120  7281 net.cpp:131] Top shape: 16 2048 7 7 (1605632)
I0331 22:56:21.061123  7281 net.cpp:139] Memory required for data: 3586981952
I0331 22:56:21.061127  7281 layer_factory.hpp:77] Creating layer res5a_relu
I0331 22:56:21.061133  7281 net.cpp:86] Creating Layer res5a_relu
I0331 22:56:21.061137  7281 net.cpp:408] res5a_relu <- res5a
…
I0331 22:56:21.407969  7281 net.cpp:408] res4d_branch2a <- res4c_res4c_relu_0_split_0
I0331 22:56:21.407975  7281 net.cpp:382] res4d_branch2a -> res4d_branch2a
I0331 22:56:21.412984  7281 net.cpp:124] Setting up res4d_branch2a
I0331 22:56:21.413000  7281 net.cpp:131] Top shape: 20 256 14 14 (1003520)
I0331 22:56:21.413003  7281 net.cpp:139] Memory required for data: 3981967680
I0331 22:56:21.413010  7281 layer_factory.hpp:77] Creating layer bn4d_branch2a
I0331 22:56:21.413019  7281 net.cpp:86] Creating Layer bn4d_branch2a
I0331 22:56:21.413023  7281 net.cpp:408] bn4d_branch2a <- res4d_branch2a
I0331 22:56:21.413029  7281 net.cpp:369] bn4d_branch2a -> res4d_branch2a (in-place)
I0331 22:56:21.413393  7281 net.cpp:124] Setting up bn4d_branch2a
I0331 22:56:21.413400  7281 net.cpp:131] Top shape: 20 256 14 14 (1003520)
I0331 22:56:21.413403  7281 net.cpp:139] Memory required for data: 3985981760
I0331 22:56:21.413410  7281 layer_factory.hpp:77] Creating layer scale4d_branch2a
I0331 22:56:21.413417  7281 net.cpp:86] Creating Layer scale4d_branch2a
I0331 22:56:21.413421  7281 net.cpp:408] scale4d_branch2a <- res4d_branch2a
I0331 22:56:21.413427  7281 net.cpp:369] scale4d_branch2a -> res4d_branch2a (in-place)
I0331 22:56:21.413498  7281 layer_factory.hpp:77] Creating layer scale4d_branch2a
I0331 22:56:21.413689  7281 net.cpp:124] Setting up scale4d_branch2a
I0331 22:56:21.413697  7281 net.cpp:131] Top shape: 20 256 14 14 (1003520)
I0331 22:56:21.413699  7281 net.cpp:139] Memory required for data: 3989995840
I0331 22:56:21.413704  7281 layer_factory.hpp:77] Creating layer res4d_branch2a_relu
I0331 22:56:21.413710  7281 net.cpp:86] Creating Layer res4d_branch2a_relu
I0331 22:56:21.413714  7281 net.cpp:408] res4d_branch2a_relu <- res4d_branch2a
I0331 22:56:21.413719  7281 net.cpp:369] res4d_branch2a_relu -> res4d_branch2a (in-place)
I0331 22:56:21.414294  7281 net.cpp:124] Setting up res4d_branch2a_relu
I0331 22:56:21.414307  7281 net.cpp:131] Top shape: 20 256 14 14 (1003520)
I0331 22:56:21.414310  7281 net.cpp:139] Memory required for data: 3994009920
I0331 22:56:21.414314  7281 layer_factory.hpp:77] Creating layer res4d_branch2b
I0331 22:56:21.414324  7281 net.cpp:86] Creating Layer res4d_branch2b
I0331 22:56:21.414328  7281 net.cpp:408] res4d_branch2b <- res4d_branch2a
I0331 22:56:21.414335  7281 net.cpp:382] res4d_branch2b -> res4d_branch2b
I0331 22:56:21.423014  7281 net.cpp:124] Setting up res4d_branch2b
I0331 22:56:21.423035  7281 net.cpp:131] Top shape: 20 256 14 14 (1003520)
I0331 22:56:21.423039  7281 net.cpp:139] Memory required for data: 3998024000
I0331 22:56:21.423046  7281 layer_factory.hpp:77] Creating layer bn4d_branch2b
I0331 22:56:21.423053  7281 net.cpp:86] Creating Layer bn4d_branch2b
I0331 22:56:21.423058  7281 net.cpp:408] bn4d_branch2b <- res4d_branch2b
I0331 22:56:21.423068  7281 net.cpp:369] bn4d_branch2b -> res4d_branch2b (in-place)
I0331 22:56:21.423434  7281 net.cpp:124] Setting up bn4d_branch2b
I0331 22:56:21.423442  7281 net.cpp:131] Top shape: 20 256 14 14 (1003520)
I0331 22:56:21.423445  7281 net.cpp:139] Memory required for data: 4002038080
I0331 22:56:21.423480  7281 layer_factory.hpp:77] Creating layer scale4d_branch2b
I0331 22:56:21.423486  7281 net.cpp:86] Creating Layer scale4d_branch2b
I0331 22:56:21.423491  7281 net.cpp:408] scale4d_branch2b <- res4d_branch2b
I0331 22:56:21.423496  7281 net.cpp:369] scale4d_branch2b -> res4d_branch2b (in-place)
I0331 22:56:21.423574  7281 layer_factory.hpp:77] Creating layer scale4d_branch2b
I0331 22:56:21.423770  7281 net.cpp:124] Setting up scale4d_branch2b
I0331 22:56:21.423777  7281 net.cpp:131] Top shape: 20 256 14 14 (1003520)
I0331 22:56:21.423780  7281 net.cpp:139] Memory required for data: 4006052160
I0331 22:56:21.423786  7281 layer_factory.hpp:77] Creating layer res4d_branch2b_relu
I0331 22:56:21.423794  7281 net.cpp:86] Creating Layer res4d_branch2b_relu
I0331 22:56:21.423797  7281 net.cpp:408] res4d_branch2b_relu <- res4d_branch2b
I0331 22:56:21.423801  7281 net.cpp:369] res4d_branch2b_relu -> res4d_branch2b (in-place)
I0331 22:56:21.424584  7281 net.cpp:124] Setting up res4d_branch2b_relu
I0331 22:56:21.424597  7281 net.cpp:131] Top shape: 20 256 14 14 (1003520)
I0331 22:56:21.424599  7281 net.cpp:139] Memory required for data: 4010066240
I0331 22:56:21.424603  7281 layer_factory.hpp:77] Creating layer res4d_branch2c
I0331 22:56:21.424614  7281 net.cpp:86] Creating Layer res4d_branch2c
I0331 22:56:21.424618  7281 net.cpp:408] res4d_branch2c <- res4d_branch2b
I0331 22:56:21.424624  7281 net.cpp:382] res4d_branch2c -> res4d_branch2c
I0331 22:56:21.430315  7281 net.cpp:124] Setting up res4d_branch2c
I0331 22:56:21.430331  7281 net.cpp:131] Top shape: 20 1024 14 14 (4014080)
I0331 22:56:21.430335  7281 net.cpp:139] Memory required for data: 4026122560
I0331 22:56:21.430341  7281 layer_factory.hpp:77] Creating layer bn4d_branch2c
I0331 22:56:21.430349  7281 net.cpp:86] Creating Layer bn4d_branch2c
I0331 22:56:21.430356  7281 net.cpp:408] bn4d_branch2c <- res4d_branch2c
I0331 22:56:21.430361  7281 net.cpp:369] bn4d_branch2c -> res4d_branch2c (in-place)
I0331 22:56:21.430721  7281 net.cpp:124] Setting up bn4d_branch2c
I0331 22:56:21.430729  7281 net.cpp:131] Top shape: 20 1024 14 14 (4014080)
I0331 22:56:21.430733  7281 net.cpp:139] Memory required for data: 4042178880
I0331 22:56:21.430740  7281 layer_factory.hpp:77] Creating layer scale4d_branch2c
I0331 22:56:21.430747  7281 net.cpp:86] Creating Layer scale4d_branch2c
I0331 22:56:21.430750  7281 net.cpp:408] scale4d_branch2c <- res4d_branch2c
I0331 22:56:21.430755  7281 net.cpp:369] scale4d_branch2c -> res4d_branch2c (in-place)
I0331 22:56:21.430822  7281 layer_factory.hpp:77] Creating layer scale4d_branch2c
I0331 22:56:21.431022  7281 net.cpp:124] Setting up scale4d_branch2c
I0331 22:56:21.431030  7281 net.cpp:131] Top shape: 20 1024 14 14 (4014080)
I0331 22:56:21.431033  7281 net.cpp:139] Memory required for data: 4058235200
I0331 22:56:21.431038  7281 layer_factory.hpp:77] Creating layer res4d
I0331 22:56:21.431046  7281 net.cpp:86] Creating Layer res4d
I0331 22:56:21.431051  7281 net.cpp:408] res4d <- res4c_res4c_relu_0_split_1
I0331 22:56:21.431056  7281 net.cpp:408] res4d <- res4d_branch2c
I0331 22:56:21.431062  7281 net.cpp:382] res4d -> res4d
I0331 22:56:21.431105  7281 net.cpp:124] Setting up res4d
I0331 22:56:21.431111  7281 net.cpp:131] Top shape: 20 1024 14 14 (4014080)
I0331 22:56:21.431115  7281 net.cpp:139] Memory required for data: 4074291520
I0331 22:56:21.431118  7281 layer_factory.hpp:77] Creating layer res4d_relu
I0331 22:56:21.431123  7281 net.cpp:86] Creating Layer res4d_relu
I0331 22:56:21.431128  7281 net.cpp:408] res4d_relu <- res4d
I0331 22:56:21.431136  7281 net.cpp:369] res4d_relu -> res4d (in-place)
I0331 22:56:21.431746  7281 net.cpp:124] Setting up res4d_relu
I0331 22:56:21.431757  7281 net.cpp:131] Top shape: 20 1024 14 14 (4014080)
I0331 22:56:21.431761  7281 net.cpp:139] Memory required for data: 4090347840
I0331 22:56:21.431764  7281 layer_factory.hpp:77] Creating layer res4d_res4d_relu_0_split
I0331 22:56:21.431771  7281 net.cpp:86] Creating Layer res4d_res4d_relu_0_split
I0331 22:56:21.431778  7281 net.cpp:408] res4d_res4d_relu_0_split <- res4d
I0331 22:56:21.431807  7281 net.cpp:382] res4d_res4d_relu_0_split -> res4d_res4d_relu_0_split_0
I0331 22:56:21.431815  7281 net.cpp:382] res4d_res4d_relu_0_split -> res4d_res4d_relu_0_split_1
I0331 22:56:21.431895  7281 net.cpp:124] Setting up res4d_res4d_relu_0_split
I0331 22:56:21.431902  7281 net.cpp:131] Top shape: 20 1024 14 14 (4014080)
I0331 22:56:21.431906  7281 net.cpp:131] Top shape: 20 1024 14 14 (4014080)
I0331 22:56:21.431910  7281 net.cpp:139] Memory required for data: 4122460480
I0331 22:56:21.431913  7281 layer_factory.hpp:77] Creating layer res4e_branch2a
I0331 22:56:21.431921  7281 net.cpp:86] Creating Layer res4e_branch2a
I0331 22:56:21.431926  7281 net.cpp:408] res4e_branch2a <- res4d_res4d_relu_0_split_0
I0331 22:56:21.431933  7281 net.cpp:382] res4e_branch2a -> res4e_branch2a
I0331 22:56:21.436982  7281 net.cpp:124] Setting up res4e_branch2a
I0331 22:56:21.436998  7281 net.cpp:131] Top shape: 20 256 14 14 (1003520)
I0331 22:56:21.437002  7281 net.cpp:139] Memory required for data: 4126474560
I0331 22:56:21.437009  7281 layer_factory.hpp:77] Creating layer bn4e_branch2a
I0331 22:56:21.437019  7281 net.cpp:86] Creating Layer bn4e_branch2a
I0331 22:56:21.437023  7281 net.cpp:408] bn4e_branch2a <- res4e_branch2a
I0331 22:56:21.437029  7281 net.cpp:369] bn4e_branch2a -> res4e_branch2a (in-place)
I0331 22:56:21.437397  7281 net.cpp:124] Setting up bn4e_branch2a
I0331 22:56:21.437407  7281 net.cpp:131] Top shape: 20 256 14 14 (1003520)
I0331 22:56:21.437409  7281 net.cpp:139] Memory required for data: 4130488640
I0331 22:56:21.437417  7281 layer_factory.hpp:77] Creating layer scale4e_branch2a
I0331 22:56:21.437422  7281 net.cpp:86] Creating Layer scale4e_branch2a
I0331 22:56:21.437427  7281 net.cpp:408] scale4e_branch2a <- res4e_branch2a
I0331 22:56:21.437431  7281 net.cpp:369] scale4e_branch2a -> res4e_branch2a (in-place)
I0331 22:56:21.437503  7281 layer_factory.hpp:77] Creating layer scale4e_branch2a
I0331 22:56:21.437702  7281 net.cpp:124] Setting up scale4e_branch2a
I0331 22:56:21.437710  7281 net.cpp:131] Top shape: 20 256 14 14 (1003520)
I0331 22:56:21.437712  7281 net.cpp:139] Memory required for data: 4134502720
I0331 22:56:21.437717  7281 layer_factory.hpp:77] Creating layer res4e_branch2a_relu
I0331 22:56:21.437726  7281 net.cpp:86] Creating Layer res4e_branch2a_relu
I0331 22:56:21.437728  7281 net.cpp:408] res4e_branch2a_relu <- res4e_branch2a
I0331 22:56:21.437733  7281 net.cpp:369] res4e_branch2a_relu -> res4e_branch2a (in-place)
I0331 22:56:21.438305  7281 net.cpp:124] Setting up res4e_branch2a_relu
I0331 22:56:21.438316  7281 net.cpp:131] Top shape: 20 256 14 14 (1003520)
I0331 22:56:21.438319  7281 net.cpp:139] Memory required for data: 4138516800
I0331 22:56:21.438323  7281 layer_factory.hpp:77] Creating layer res4e_branch2b
I0331 22:56:21.438333  7281 net.cpp:86] Creating Layer res4e_branch2b
I0331 22:56:21.438338  7281 net.cpp:408] res4e_branch2b <- res4e_branch2a
I0331 22:56:21.438346  7281 net.cpp:382] res4e_branch2b -> res4e_branch2b
I0331 22:56:21.447253  7281 net.cpp:124] Setting up res4e_branch2b
I0331 22:56:21.447273  7281 net.cpp:131] Top shape: 20 256 14 14 (1003520)
I0331 22:56:21.447278  7281 net.cpp:139] Memory required for data: 4142530880
I0331 22:56:21.447284  7281 layer_factory.hpp:77] Creating layer bn4e_branch2b
I0331 22:56:21.447293  7281 net.cpp:86] Creating Layer bn4e_branch2b
I0331 22:56:21.447297  7281 net.cpp:408] bn4e_branch2b <- res4e_branch2b
I0331 22:56:21.447305  7281 net.cpp:369] bn4e_branch2b -> res4e_branch2b (in-place)
I0331 22:56:21.447670  7281 net.cpp:124] Setting up bn4e_branch2b
I0331 22:56:21.447679  7281 net.cpp:131] Top shape: 20 256 14 14 (1003520)
I0331 22:56:21.447681  7281 net.cpp:139] Memory required for data: 4146544960
I0331 22:56:21.447690  7281 layer_factory.hpp:77] Creating layer scale4e_branch2b
I0331 22:56:21.447695  7281 net.cpp:86] Creating Layer scale4e_branch2b
I0331 22:56:21.447700  7281 net.cpp:408] scale4e_branch2b <- res4e_branch2b
I0331 22:56:21.447703  7281 net.cpp:369] scale4e_branch2b -> res4e_branch2b (in-place)
I0331 22:56:21.447808  7281 layer_factory.hpp:77] Creating layer scale4e_branch2b
I0331 22:56:21.448006  7281 net.cpp:124] Setting up scale4e_branch2b
I0331 22:56:21.448014  7281 net.cpp:131] Top shape: 20 256 14 14 (1003520)
I0331 22:56:21.448016  7281 net.cpp:139] Memory required for data: 4150559040
I0331 22:56:21.448022  7281 layer_factory.hpp:77] Creating layer res4e_branch2b_relu
I0331 22:56:21.448029  7281 net.cpp:86] Creating Layer res4e_branch2b_relu
I0331 22:56:21.448034  7281 net.cpp:408] res4e_branch2b_relu <- res4e_branch2b
I0331 22:56:21.448038  7281 net.cpp:369] res4e_branch2b_relu -> res4e_branch2b (in-place)
I0331 22:56:21.448853  7281 net.cpp:124] Setting up res4e_branch2b_relu
I0331 22:56:21.448865  7281 net.cpp:131] Top shape: 20 256 14 14 (1003520)
I0331 22:56:21.448868  7281 net.cpp:139] Memory required for data: 4154573120
I0331 22:56:21.448871  7281 layer_factory.hpp:77] Creating layer res4e_branch2c
I0331 22:56:21.448884  7281 net.cpp:86] Creating Layer res4e_branch2c
I0331 22:56:21.448889  7281 net.cpp:408] res4e_branch2c <- res4e_branch2b
I0331 22:56:21.448895  7281 net.cpp:382] res4e_branch2c -> res4e_branch2c
I0331 22:56:21.454558  7281 net.cpp:124] Setting up res4e_branch2c
I0331 22:56:21.454576  7281 net.cpp:131] Top shape: 20 1024 14 14 (4014080)
I0331 22:56:21.454579  7281 net.cpp:139] Memory required for data: 4170629440
I0331 22:56:21.454586  7281 layer_factory.hpp:77] Creating layer bn4e_branch2c
I0331 22:56:21.454596  7281 net.cpp:86] Creating Layer bn4e_branch2c
I0331 22:56:21.454602  7281 net.cpp:408] bn4e_branch2c <- res4e_branch2c
I0331 22:56:21.454607  7281 net.cpp:369] bn4e_branch2c -> res4e_branch2c (in-place)
I0331 22:56:21.454977  7281 net.cpp:124] Setting up bn4e_branch2c
I0331 22:56:21.454988  7281 net.cpp:131] Top shape: 20 1024 14 14 (4014080)
I0331 22:56:21.454993  7281 net.cpp:139] Memory required for data: 4186685760
I0331 22:56:21.454999  7281 layer_factory.hpp:77] Creating layer scale4e_branch2c
I0331 22:56:21.455005  7281 net.cpp:86] Creating Layer scale4e_branch2c
I0331 22:56:21.455008  7281 net.cpp:408] scale4e_branch2c <- res4e_branch2c
I0331 22:56:21.455014  7281 net.cpp:369] scale4e_branch2c -> res4e_branch2c (in-place)
I0331 22:56:21.455083  7281 layer_factory.hpp:77] Creating layer scale4e_branch2c
I0331 22:56:21.455288  7281 net.cpp:124] Setting up scale4e_branch2c
I0331 22:56:21.455296  7281 net.cpp:131] Top shape: 20 1024 14 14 (4014080)
I0331 22:56:21.455299  7281 net.cpp:139] Memory required for data: 4202742080
I0331 22:56:21.455304  7281 layer_factory.hpp:77] Creating layer res4e
I0331 22:56:21.455312  7281 net.cpp:86] Creating Layer res4e
I0331 22:56:21.455317  7281 net.cpp:408] res4e <- res4d_res4d_relu_0_split_1
I0331 22:56:21.455322  7281 net.cpp:408] res4e <- res4e_branch2c
I0331 22:56:21.455329  7281 net.cpp:382] res4e -> res4e
I0331 22:56:21.455373  7281 net.cpp:124] Setting up res4e
I0331 22:56:21.455379  7281 net.cpp:131] Top shape: 20 1024 14 14 (4014080)
I0331 22:56:21.455384  7281 net.cpp:139] Memory required for data: 4218798400
I0331 22:56:21.455386  7281 layer_factory.hpp:77] Creating layer res4e_relu
I0331 22:56:21.455394  7281 net.cpp:86] Creating Layer res4e_relu
I0331 22:56:21.455396  7281 net.cpp:408] res4e_relu <- res4e
I0331 22:56:21.455402  7281 net.cpp:369] res4e_relu -> res4e (in-place)
I0331 22:56:21.456023  7281 net.cpp:124] Setting up res4e_relu
I0331 22:56:21.456037  7281 net.cpp:131] Top shape: 20 1024 14 14 (4014080)
I0331 22:56:21.456040  7281 net.cpp:139] Memory required for data: 4234854720
I0331 22:56:21.456044  7281 layer_factory.hpp:77] Creating layer res4e_res4e_relu_0_split
I0331 22:56:21.456050  7281 net.cpp:86] Creating Layer res4e_res4e_relu_0_split
I0331 22:56:21.456054  7281 net.cpp:408] res4e_res4e_relu_0_split <- res4e
I0331 22:56:21.456061  7281 net.cpp:382] res4e_res4e_relu_0_split -> res4e_res4e_relu_0_split_0
I0331 22:56:21.456069  7281 net.cpp:382] res4e_res4e_relu_0_split -> res4e_res4e_relu_0_split_1
I0331 22:56:21.456149  7281 net.cpp:124] Setting up res4e_res4e_relu_0_split
I0331 22:56:21.456179  7281 net.cpp:131] Top shape: 20 1024 14 14 (4014080)
I0331 22:56:21.456184  7281 net.cpp:131] Top shape: 20 1024 14 14 (4014080)
I0331 22:56:21.456187  7281 net.cpp:139] Memory required for data: 4266967360
I0331 22:56:21.456192  7281 layer_factory.hpp:77] Creating layer res4f_branch2a
I0331 22:56:21.456200  7281 net.cpp:86] Creating Layer res4f_branch2a
I0331 22:56:21.456204  7281 net.cpp:408] res4f_branch2a <- res4e_res4e_relu_0_split_0
I0331 22:56:21.456212  7281 net.cpp:382] res4f_branch2a -> res4f_branch2a
I0331 22:56:21.461272  7281 net.cpp:124] Setting up res4f_branch2a
I0331 22:56:21.461288  7281 net.cpp:131] Top shape: 20 256 14 14 (1003520)
I0331 22:56:21.461292  7281 net.cpp:139] Memory required for data: 4270981440
I0331 22:56:21.461298  7281 layer_factory.hpp:77] Creating layer bn4f_branch2a
I0331 22:56:21.461307  7281 net.cpp:86] Creating Layer bn4f_branch2a
I0331 22:56:21.461310  7281 net.cpp:408] bn4f_branch2a <- res4f_branch2a
I0331 22:56:21.461316  7281 net.cpp:369] bn4f_branch2a -> res4f_branch2a (in-place)
I0331 22:56:21.461688  7281 net.cpp:124] Setting up bn4f_branch2a
I0331 22:56:21.461696  7281 net.cpp:131] Top shape: 20 256 14 14 (1003520)
I0331 22:56:21.461699  7281 net.cpp:139] Memory required for data: 4274995520
I0331 22:56:21.461706  7281 layer_factory.hpp:77] Creating layer scale4f_branch2a
I0331 22:56:21.461714  7281 net.cpp:86] Creating Layer scale4f_branch2a
I0331 22:56:21.461717  7281 net.cpp:408] scale4f_branch2a <- res4f_branch2a
I0331 22:56:21.461721  7281 net.cpp:369] scale4f_branch2a -> res4f_branch2a (in-place)
I0331 22:56:21.461797  7281 layer_factory.hpp:77] Creating layer scale4f_branch2a
I0331 22:56:21.462000  7281 net.cpp:124] Setting up scale4f_branch2a
I0331 22:56:21.462007  7281 net.cpp:131] Top shape: 20 256 14 14 (1003520)
I0331 22:56:21.462010  7281 net.cpp:139] Memory required for data: 4279009600
I0331 22:56:21.462016  7281 layer_factory.hpp:77] Creating layer res4f_branch2a_relu
I0331 22:56:21.462023  7281 net.cpp:86] Creating Layer res4f_branch2a_relu
I0331 22:56:21.462026  7281 net.cpp:408] res4f_branch2a_relu <- res4f_branch2a
I0331 22:56:21.462033  7281 net.cpp:369] res4f_branch2a_relu -> res4f_branch2a (in-place)
I0331 22:56:21.462803  7281 net.cpp:124] Setting up res4f_branch2a_relu
I0331 22:56:21.462816  7281 net.cpp:131] Top shape: 20 256 14 14 (1003520)
I0331 22:56:21.462819  7281 net.cpp:139] Memory required for data: 4283023680
I0331 22:56:21.462823  7281 layer_factory.hpp:77] Creating layer res4f_branch2b
I0331 22:56:21.462833  7281 net.cpp:86] Creating Layer res4f_branch2b
I0331 22:56:21.462838  7281 net.cpp:408] res4f_branch2b <- res4f_branch2a
I0331 22:56:21.462846  7281 net.cpp:382] res4f_branch2b -> res4f_branch2b
I0331 22:56:21.471590  7281 net.cpp:124] Setting up res4f_branch2b
I0331 22:56:21.471609  7281 net.cpp:131] Top shape: 20 256 14 14 (1003520)
I0331 22:56:21.471613  7281 net.cpp:139] Memory required for data: 4287037760
I0331 22:56:21.471621  7281 layer_factory.hpp:77] Creating layer bn4f_branch2b
I0331 22:56:21.471629  7281 net.cpp:86] Creating Layer bn4f_branch2b
I0331 22:56:21.471633  7281 net.cpp:408] bn4f_branch2b <- res4f_branch2b
I0331 22:56:21.471642  7281 net.cpp:369] bn4f_branch2b -> res4f_branch2b (in-place)
I0331 22:56:21.472030  7281 net.cpp:124] Setting up bn4f_branch2b
I0331 22:56:21.472039  7281 net.cpp:131] Top shape: 20 256 14 14 (1003520)
I0331 22:56:21.472043  7281 net.cpp:139] Memory required for data: 4291051840
I0331 22:56:21.472049  7281 layer_factory.hpp:77] Creating layer scale4f_branch2b
I0331 22:56:21.472055  7281 net.cpp:86] Creating Layer scale4f_branch2b
I0331 22:56:21.472059  7281 net.cpp:408] scale4f_branch2b <- res4f_branch2b
I0331 22:56:21.472064  7281 net.cpp:369] scale4f_branch2b -> res4f_branch2b (in-place)
I0331 22:56:21.472143  7281 layer_factory.hpp:77] Creating layer scale4f_branch2b
I0331 22:56:21.472357  7281 net.cpp:124] Setting up scale4f_branch2b
I0331 22:56:21.472363  7281 net.cpp:131] Top shape: 20 256 14 14 (1003520)
I0331 22:56:21.472370  7281 net.cpp:139] Memory required for data: 4295065920
I0331 22:56:21.472398  7281 layer_factory.hpp:77] Creating layer res4f_branch2b_relu
I0331 22:56:21.472406  7281 net.cpp:86] Creating Layer res4f_branch2b_relu
I0331 22:56:21.472410  7281 net.cpp:408] res4f_branch2b_relu <- res4f_branch2b
I0331 22:56:21.472414  7281 net.cpp:369] res4f_branch2b_relu -> res4f_branch2b (in-place)
I0331 22:56:21.473031  7281 net.cpp:124] Setting up res4f_branch2b_relu
I0331 22:56:21.473042  7281 net.cpp:131] Top shape: 20 256 14 14 (1003520)
I0331 22:56:21.473045  7281 net.cpp:139] Memory required for data: 4299080000
I0331 22:56:21.473048  7281 layer_factory.hpp:77] Creating layer res4f_branch2c
I0331 22:56:21.473059  7281 net.cpp:86] Creating Layer res4f_branch2c
I0331 22:56:21.473063  7281 net.cpp:408] res4f_branch2c <- res4f_branch2b
I0331 22:56:21.473070  7281 net.cpp:382] res4f_branch2c -> res4f_branch2c
I0331 22:56:21.479606  7281 net.cpp:124] Setting up res4f_branch2c
I0331 22:56:21.479627  7281 net.cpp:131] Top shape: 20 1024 14 14 (4014080)
I0331 22:56:21.479630  7281 net.cpp:139] Memory required for data: 4315136320
I0331 22:56:21.479637  7281 layer_factory.hpp:77] Creating layer bn4f_branch2c
I0331 22:56:21.479645  7281 net.cpp:86] Creating Layer bn4f_branch2c
I0331 22:56:21.479651  7281 net.cpp:408] bn4f_branch2c <- res4f_branch2c
I0331 22:56:21.479657  7281 net.cpp:369] bn4f_branch2c -> res4f_branch2c (in-place)
I0331 22:56:21.479873  7281 net.cpp:124] Setting up bn4f_branch2c
I0331 22:56:21.479882  7281 net.cpp:131] Top shape: 20 1024 14 14 (4014080)
I0331 22:56:21.479885  7281 net.cpp:139] Memory required for data: 4331192640
I0331 22:56:21.479919  7281 layer_factory.hpp:77] Creating layer scale4f_branch2c
I0331 22:56:21.479928  7281 net.cpp:86] Creating Layer scale4f_branch2c
I0331 22:56:21.479931  7281 net.cpp:408] scale4f_branch2c <- res4f_branch2c
I0331 22:56:21.479936  7281 net.cpp:369] scale4f_branch2c -> res4f_branch2c (in-place)
I0331 22:56:21.479990  7281 layer_factory.hpp:77] Creating layer scale4f_branch2c
I0331 22:56:21.480103  7281 net.cpp:124] Setting up scale4f_branch2c
I0331 22:56:21.480111  7281 net.cpp:131] Top shape: 20 1024 14 14 (4014080)
I0331 22:56:21.480114  7281 net.cpp:139] Memory required for data: 4347248960
I0331 22:56:21.480119  7281 layer_factory.hpp:77] Creating layer res4f
I0331 22:56:21.480126  7281 net.cpp:86] Creating Layer res4f
I0331 22:56:21.480130  7281 net.cpp:408] res4f <- res4e_res4e_relu_0_split_1
I0331 22:56:21.480135  7281 net.cpp:408] res4f <- res4f_branch2c
I0331 22:56:21.480144  7281 net.cpp:382] res4f -> res4f
I0331 22:56:21.480165  7281 net.cpp:124] Setting up res4f
I0331 22:56:21.480171  7281 net.cpp:131] Top shape: 20 1024 14 14 (4014080)
I0331 22:56:21.480175  7281 net.cpp:139] Memory required for data: 4363305280
I0331 22:56:21.480177  7281 layer_factory.hpp:77] Creating layer res4f_relu
I0331 22:56:21.480185  7281 net.cpp:86] Creating Layer res4f_relu
I0331 22:56:21.480188  7281 net.cpp:408] res4f_relu <- res4f
I0331 22:56:21.480193  7281 net.cpp:369] res4f_relu -> res4f (in-place)
I0331 22:56:21.480756  7281 net.cpp:124] Setting up res4f_relu
I0331 22:56:21.480767  7281 net.cpp:131] Top shape: 20 1024 14 14 (4014080)
I0331 22:56:21.480770  7281 net.cpp:139] Memory required for data: 4379361600
I0331 22:56:21.480774  7281 layer_factory.hpp:77] Creating layer res4f_res4f_relu_0_split
I0331 22:56:21.480782  7281 net.cpp:86] Creating Layer res4f_res4f_relu_0_split
I0331 22:56:21.480785  7281 net.cpp:408] res4f_res4f_relu_0_split <- res4f
I0331 22:56:21.480792  7281 net.cpp:382] res4f_res4f_relu_0_split -> res4f_res4f_relu_0_split_0
I0331 22:56:21.480799  7281 net.cpp:382] res4f_res4f_relu_0_split -> res4f_res4f_relu_0_split_1
I0331 22:56:21.480841  7281 net.cpp:124] Setting up res4f_res4f_relu_0_split
I0331 22:56:21.480849  7281 net.cpp:131] Top shape: 20 1024 14 14 (4014080)
I0331 22:56:21.480851  7281 net.cpp:131] Top shape: 20 1024 14 14 (4014080)
I0331 22:56:21.480855  7281 net.cpp:139] Memory required for data: 4411474240
I0331 22:56:21.480859  7281 layer_factory.hpp:77] Creating layer res5a_branch1
I0331 22:56:21.480891  7281 net.cpp:86] Creating Layer res5a_branch1
I0331 22:56:21.480896  7281 net.cpp:408] res5a_branch1 <- res4f_res4f_relu_0_split_0
I0331 22:56:21.480904  7281 net.cpp:382] res5a_branch1 -> res5a_branch1
I0331 22:56:21.503943  7281 net.cpp:124] Setting up res5a_branch1
I0331 22:56:21.503970  7281 net.cpp:131] Top shape: 20 2048 7 7 (2007040)
I0331 22:56:21.503974  7281 net.cpp:139] Memory required for data: 4419502400
I0331 22:56:21.503983  7281 layer_factory.hpp:77] Creating layer bn5a_branch1
I0331 22:56:21.503994  7281 net.cpp:86] Creating Layer bn5a_branch1
I0331 22:56:21.504000  7281 net.cpp:408] bn5a_branch1 <- res5a_branch1
I0331 22:56:21.504007  7281 net.cpp:369] bn5a_branch1 -> res5a_branch1 (in-place)
I0331 22:56:21.504245  7281 net.cpp:124] Setting up bn5a_branch1
I0331 22:56:21.504253  7281 net.cpp:131] Top shape: 20 2048 7 7 (2007040)
I0331 22:56:21.504257  7281 net.cpp:139] Memory required for data: 4427530560
I0331 22:56:21.504264  7281 layer_factory.hpp:77] Creating layer scale5a_branch1
I0331 22:56:21.504271  7281 net.cpp:86] Creating Layer scale5a_branch1
I0331 22:56:21.504274  7281 net.cpp:408] scale5a_branch1 <- res5a_branch1
I0331 22:56:21.504279  7281 net.cpp:369] scale5a_branch1 -> res5a_branch1 (in-place)
I0331 22:56:21.504336  7281 layer_factory.hpp:77] Creating layer scale5a_branch1
I0331 22:56:21.504456  7281 net.cpp:124] Setting up scale5a_branch1
I0331 22:56:21.504462  7281 net.cpp:131] Top shape: 20 2048 7 7 (2007040)
I0331 22:56:21.504465  7281 net.cpp:139] Memory required for data: 4435558720
I0331 22:56:21.504470  7281 layer_factory.hpp:77] Creating layer res5a_branch2a
I0331 22:56:21.504483  7281 net.cpp:86] Creating Layer res5a_branch2a
I0331 22:56:21.504487  7281 net.cpp:408] res5a_branch2a <- res4f_res4f_relu_0_split_1
I0331 22:56:21.504493  7281 net.cpp:382] res5a_branch2a -> res5a_branch2a
I0331 22:56:21.512212  7281 net.cpp:124] Setting up res5a_branch2a
I0331 22:56:21.512233  7281 net.cpp:131] Top shape: 20 512 7 7 (501760)
I0331 22:56:21.512236  7281 net.cpp:139] Memory required for data: 4437565760
I0331 22:56:21.512243  7281 layer_factory.hpp:77] Creating layer bn5a_branch2a
I0331 22:56:21.512253  7281 net.cpp:86] Creating Layer bn5a_branch2a
I0331 22:56:21.512259  7281 net.cpp:408] bn5a_branch2a <- res5a_branch2a
I0331 22:56:21.512266  7281 net.cpp:369] bn5a_branch2a -> res5a_branch2a (in-place)
I0331 22:56:21.512485  7281 net.cpp:124] Setting up bn5a_branch2a
I0331 22:56:21.512492  7281 net.cpp:131] Top shape: 20 512 7 7 (501760)
I0331 22:56:21.512496  7281 net.cpp:139] Memory required for data: 4439572800
I0331 22:56:21.512503  7281 layer_factory.hpp:77] Creating layer scale5a_branch2a
I0331 22:56:21.512511  7281 net.cpp:86] Creating Layer scale5a_branch2a
I0331 22:56:21.512514  7281 net.cpp:408] scale5a_branch2a <- res5a_branch2a
I0331 22:56:21.512519  7281 net.cpp:369] scale5a_branch2a -> res5a_branch2a (in-place)
I0331 22:56:21.512573  7281 layer_factory.hpp:77] Creating layer scale5a_branch2a
I0331 22:56:21.512692  7281 net.cpp:124] Setting up scale5a_branch2a
I0331 22:56:21.512699  7281 net.cpp:131] Top shape: 20 512 7 7 (501760)
I0331 22:56:21.512702  7281 net.cpp:139] Memory required for data: 4441579840
I0331 22:56:21.512707  7281 layer_factory.hpp:77] Creating layer res5a_branch2a_relu
I0331 22:56:21.512713  7281 net.cpp:86] Creating Layer res5a_branch2a_relu
I0331 22:56:21.512717  7281 net.cpp:408] res5a_branch2a_relu <- res5a_branch2a
I0331 22:56:21.512724  7281 net.cpp:369] res5a_branch2a_relu -> res5a_branch2a (in-place)
I0331 22:56:21.513533  7281 net.cpp:124] Setting up res5a_branch2a_relu
I0331 22:56:21.513545  7281 net.cpp:131] Top shape: 20 512 7 7 (501760)
I0331 22:56:21.513548  7281 net.cpp:139] Memory required for data: 4443586880
I0331 22:56:21.513552  7281 layer_factory.hpp:77] Creating layer res5a_branch2b
I0331 22:56:21.513563  7281 net.cpp:86] Creating Layer res5a_branch2b
I0331 22:56:21.513567  7281 net.cpp:408] res5a_branch2b <- res5a_branch2a
I0331 22:56:21.513574  7281 net.cpp:382] res5a_branch2b -> res5a_branch2b
I0331 22:56:21.539007  7281 net.cpp:124] Setting up res5a_branch2b
I0331 22:56:21.539036  7281 net.cpp:131] Top shape: 20 512 7 7 (501760)
I0331 22:56:21.539039  7281 net.cpp:139] Memory required for data: 4445593920
I0331 22:56:21.539048  7281 layer_factory.hpp:77] Creating layer bn5a_branch2b
I0331 22:56:21.539059  7281 net.cpp:86] Creating Layer bn5a_branch2b
I0331 22:56:21.539065  7281 net.cpp:408] bn5a_branch2b <- res5a_branch2b
I0331 22:56:21.539075  7281 net.cpp:369] bn5a_branch2b -> res5a_branch2b (in-place)
I0331 22:56:21.539309  7281 net.cpp:124] Setting up bn5a_branch2b
I0331 22:56:21.539317  7281 net.cpp:131] Top shape: 20 512 7 7 (501760)
I0331 22:56:21.539320  7281 net.cpp:139] Memory required for data: 4447600960
I0331 22:56:21.539328  7281 layer_factory.hpp:77] Creating layer scale5a_branch2b
I0331 22:56:21.539335  7281 net.cpp:86] Creating Layer scale5a_branch2b
I0331 22:56:21.539338  7281 net.cpp:408] scale5a_branch2b <- res5a_branch2b
I0331 22:56:21.539345  7281 net.cpp:369] scale5a_branch2b -> res5a_branch2b (in-place)
I0331 22:56:21.539399  7281 layer_factory.hpp:77] Creating layer scale5a_branch2b
I0331 22:56:21.539516  7281 net.cpp:124] Setting up scale5a_branch2b
I0331 22:56:21.539523  7281 net.cpp:131] Top shape: 20 512 7 7 (501760)
I0331 22:56:21.539526  7281 net.cpp:139] Memory required for data: 4449608000
I0331 22:56:21.539532  7281 layer_factory.hpp:77] Creating layer res5a_branch2b_relu
I0331 22:56:21.539539  7281 net.cpp:86] Creating Layer res5a_branch2b_relu
I0331 22:56:21.539543  7281 net.cpp:408] res5a_branch2b_relu <- res5a_branch2b
I0331 22:56:21.539548  7281 net.cpp:369] res5a_branch2b_relu -> res5a_branch2b (in-place)
I0331 22:56:21.540148  7281 net.cpp:124] Setting up res5a_branch2b_relu
I0331 22:56:21.540159  7281 net.cpp:131] Top shape: 20 512 7 7 (501760)
I0331 22:56:21.540163  7281 net.cpp:139] Memory required for data: 4451615040
I0331 22:56:21.540166  7281 layer_factory.hpp:77] Creating layer res5a_branch2c
I0331 22:56:21.540177  7281 net.cpp:86] Creating Layer res5a_branch2c
I0331 22:56:21.540182  7281 net.cpp:408] res5a_branch2c <- res5a_branch2b
I0331 22:56:21.540189  7281 net.cpp:382] res5a_branch2c -> res5a_branch2c
I0331 22:56:21.553227  7281 net.cpp:124] Setting up res5a_branch2c
I0331 22:56:21.553251  7281 net.cpp:131] Top shape: 20 2048 7 7 (2007040)
I0331 22:56:21.553254  7281 net.cpp:139] Memory required for data: 4459643200
I0331 22:56:21.553263  7281 layer_factory.hpp:77] Creating layer bn5a_branch2c
I0331 22:56:21.553273  7281 net.cpp:86] Creating Layer bn5a_branch2c
I0331 22:56:21.553278  7281 net.cpp:408] bn5a_branch2c <- res5a_branch2c
I0331 22:56:21.553285  7281 net.cpp:369] bn5a_branch2c -> res5a_branch2c (in-place)
I0331 22:56:21.553519  7281 net.cpp:124] Setting up bn5a_branch2c
I0331 22:56:21.553526  7281 net.cpp:131] Top shape: 20 2048 7 7 (2007040)
I0331 22:56:21.553529  7281 net.cpp:139] Memory required for data: 4467671360
I0331 22:56:21.553537  7281 layer_factory.hpp:77] Creating layer scale5a_branch2c
I0331 22:56:21.553545  7281 net.cpp:86] Creating Layer scale5a_branch2c
I0331 22:56:21.553550  7281 net.cpp:408] scale5a_branch2c <- res5a_branch2c
I0331 22:56:21.553555  7281 net.cpp:369] scale5a_branch2c -> res5a_branch2c (in-place)
I0331 22:56:21.553608  7281 layer_factory.hpp:77] Creating layer scale5a_branch2c
I0331 22:56:21.553731  7281 net.cpp:124] Setting up scale5a_branch2c
I0331 22:56:21.553738  7281 net.cpp:131] Top shape: 20 2048 7 7 (2007040)
I0331 22:56:21.553741  7281 net.cpp:139] Memory required for data: 4475699520
I0331 22:56:21.553747  7281 layer_factory.hpp:77] Creating layer res5a
I0331 22:56:21.553753  7281 net.cpp:86] Creating Layer res5a
I0331 22:56:21.553758  7281 net.cpp:408] res5a <- res5a_branch1
I0331 22:56:21.553762  7281 net.cpp:408] res5a <- res5a_branch2c
I0331 22:56:21.553769  7281 net.cpp:382] res5a -> res5a
I0331 22:56:21.553791  7281 net.cpp:124] Setting up res5a
I0331 22:56:21.553799  7281 net.cpp:131] Top shape: 20 2048 7 7 (2007040)
I0331 22:56:21.553802  7281 net.cpp:139] Memory required for data: 4483727680
I0331 22:56:21.553831  7281 layer_factory.hpp:77] Creating layer res5a_relu
I0331 22:56:21.553838  7281 net.cpp:86] Creating Layer res5a_relu
I0331 22:56:21.553843  7281 net.cpp:408] res5a_relu <- res5a
I0331 22:56:21.553846  7281 net.cpp:369] res5a_relu -> res5a (in-place)
I0331 22:56:21.554416  7281 net.cpp:124] Setting up res5a_relu
I0331 22:56:21.554427  7281 net.cpp:131] Top shape: 20 2048 7 7 (2007040)
I0331 22:56:21.554430  7281 net.cpp:139] Memory required for data: 4491755840
I0331 22:56:21.554435  7281 layer_factory.hpp:77] Creating layer res5a_res5a_relu_0_split
I0331 22:56:21.554441  7281 net.cpp:86] Creating Layer res5a_res5a_relu_0_split
I0331 22:56:21.554446  7281 net.cpp:408] res5a_res5a_relu_0_split <- res5a
I0331 22:56:21.554451  7281 net.cpp:382] res5a_res5a_relu_0_split -> res5a_res5a_relu_0_split_0
I0331 22:56:21.554461  7281 net.cpp:382] res5a_res5a_relu_0_split -> res5a_res5a_relu_0_split_1
I0331 22:56:21.554502  7281 net.cpp:124] Setting up res5a_res5a_relu_0_split
I0331 22:56:21.554509  7281 net.cpp:131] Top shape: 20 2048 7 7 (2007040)
I0331 22:56:21.554513  7281 net.cpp:131] Top shape: 20 2048 7 7 (2007040)
I0331 22:56:21.554517  7281 net.cpp:139] Memory required for data: 4507812160
I0331 22:56:21.554519  7281 layer_factory.hpp:77] Creating layer res5b_branch2a
I0331 22:56:21.554530  7281 net.cpp:86] Creating Layer res5b_branch2a
I0331 22:56:21.554534  7281 net.cpp:408] res5b_branch2a <- res5a_res5a_relu_0_split_0
I0331 22:56:21.554541  7281 net.cpp:382] res5b_branch2a -> res5b_branch2a
I0331 22:56:21.567379  7281 net.cpp:124] Setting up res5b_branch2a
I0331 22:56:21.567404  7281 net.cpp:131] Top shape: 20 512 7 7 (501760)
I0331 22:56:21.567409  7281 net.cpp:139] Memory required for data: 4509819200
I0331 22:56:21.567415  7281 layer_factory.hpp:77] Creating layer bn5b_branch2a
I0331 22:56:21.567426  7281 net.cpp:86] Creating Layer bn5b_branch2a
I0331 22:56:21.567432  7281 net.cpp:408] bn5b_branch2a <- res5b_branch2a
I0331 22:56:21.567438  7281 net.cpp:369] bn5b_branch2a -> res5b_branch2a (in-place)
I0331 22:56:21.567672  7281 net.cpp:124] Setting up bn5b_branch2a
I0331 22:56:21.567680  7281 net.cpp:131] Top shape: 20 512 7 7 (501760)
I0331 22:56:21.567684  7281 net.cpp:139] Memory required for data: 4511826240
I0331 22:56:21.567692  7281 layer_factory.hpp:77] Creating layer scale5b_branch2a
I0331 22:56:21.567699  7281 net.cpp:86] Creating Layer scale5b_branch2a
I0331 22:56:21.567703  7281 net.cpp:408] scale5b_branch2a <- res5b_branch2a
I0331 22:56:21.567708  7281 net.cpp:369] scale5b_branch2a -> res5b_branch2a (in-place)
I0331 22:56:21.567764  7281 layer_factory.hpp:77] Creating layer scale5b_branch2a
I0331 22:56:21.567884  7281 net.cpp:124] Setting up scale5b_branch2a
I0331 22:56:21.567891  7281 net.cpp:131] Top shape: 20 512 7 7 (501760)
I0331 22:56:21.567895  7281 net.cpp:139] Memory required for data: 4513833280
I0331 22:56:21.567900  7281 layer_factory.hpp:77] Creating layer res5b_branch2a_relu
I0331 22:56:21.567908  7281 net.cpp:86] Creating Layer res5b_branch2a_relu
I0331 22:56:21.567911  7281 net.cpp:408] res5b_branch2a_relu <- res5b_branch2a
I0331 22:56:21.567917  7281 net.cpp:369] res5b_branch2a_relu -> res5b_branch2a (in-place)
I0331 22:56:21.568691  7281 net.cpp:124] Setting up res5b_branch2a_relu
I0331 22:56:21.568703  7281 net.cpp:131] Top shape: 20 512 7 7 (501760)
I0331 22:56:21.568707  7281 net.cpp:139] Memory required for data: 4515840320
I0331 22:56:21.568711  7281 layer_factory.hpp:77] Creating layer res5b_branch2b
I0331 22:56:21.568722  7281 net.cpp:86] Creating Layer res5b_branch2b
I0331 22:56:21.568727  7281 net.cpp:408] res5b_branch2b <- res5b_branch2a
I0331 22:56:21.568734  7281 net.cpp:382] res5b_branch2b -> res5b_branch2b
I0331 22:56:21.594338  7281 net.cpp:124] Setting up res5b_branch2b
I0331 22:56:21.594367  7281 net.cpp:131] Top shape: 20 512 7 7 (501760)
I0331 22:56:21.594372  7281 net.cpp:139] Memory required for data: 4517847360
I0331 22:56:21.594379  7281 layer_factory.hpp:77] Creating layer bn5b_branch2b
I0331 22:56:21.594394  7281 net.cpp:86] Creating Layer bn5b_branch2b
I0331 22:56:21.594421  7281 net.cpp:408] bn5b_branch2b <- res5b_branch2b
I0331 22:56:21.594430  7281 net.cpp:369] bn5b_branch2b -> res5b_branch2b (in-place)
I0331 22:56:21.594669  7281 net.cpp:124] Setting up bn5b_branch2b
I0331 22:56:21.594678  7281 net.cpp:131] Top shape: 20 512 7 7 (501760)
I0331 22:56:21.594681  7281 net.cpp:139] Memory required for data: 4519854400
I0331 22:56:21.594688  7281 layer_factory.hpp:77] Creating layer scale5b_branch2b
I0331 22:56:21.594696  7281 net.cpp:86] Creating Layer scale5b_branch2b
I0331 22:56:21.594700  7281 net.cpp:408] scale5b_branch2b <- res5b_branch2b
I0331 22:56:21.594707  7281 net.cpp:369] scale5b_branch2b -> res5b_branch2b (in-place)
I0331 22:56:21.594761  7281 layer_factory.hpp:77] Creating layer scale5b_branch2b
I0331 22:56:21.594885  7281 net.cpp:124] Setting up scale5b_branch2b
I0331 22:56:21.594893  7281 net.cpp:131] Top shape: 20 512 7 7 (501760)
I0331 22:56:21.594897  7281 net.cpp:139] Memory required for data: 4521861440
I0331 22:56:21.594902  7281 layer_factory.hpp:77] Creating layer res5b_branch2b_relu
I0331 22:56:21.594908  7281 net.cpp:86] Creating Layer res5b_branch2b_relu
I0331 22:56:21.594913  7281 net.cpp:408] res5b_branch2b_relu <- res5b_branch2b
I0331 22:56:21.594918  7281 net.cpp:369] res5b_branch2b_relu -> res5b_branch2b (in-place)
I0331 22:56:21.595721  7281 net.cpp:124] Setting up res5b_branch2b_relu
I0331 22:56:21.595734  7281 net.cpp:131] Top shape: 20 512 7 7 (501760)
I0331 22:56:21.595738  7281 net.cpp:139] Memory required for data: 4523868480
I0331 22:56:21.595742  7281 layer_factory.hpp:77] Creating layer res5b_branch2c
I0331 22:56:21.595752  7281 net.cpp:86] Creating Layer res5b_branch2c
I0331 22:56:21.595757  7281 net.cpp:408] res5b_branch2c <- res5b_branch2b
I0331 22:56:21.595764  7281 net.cpp:382] res5b_branch2c -> res5b_branch2c
I0331 22:56:21.608552  7281 net.cpp:124] Setting up res5b_branch2c
I0331 22:56:21.608577  7281 net.cpp:131] Top shape: 20 2048 7 7 (2007040)
I0331 22:56:21.608582  7281 net.cpp:139] Memory required for data: 4531896640
I0331 22:56:21.608589  7281 layer_factory.hpp:77] Creating layer bn5b_branch2c
I0331 22:56:21.608598  7281 net.cpp:86] Creating Layer bn5b_branch2c
I0331 22:56:21.608603  7281 net.cpp:408] bn5b_branch2c <- res5b_branch2c
I0331 22:56:21.608613  7281 net.cpp:369] bn5b_branch2c -> res5b_branch2c (in-place)
I0331 22:56:21.608849  7281 net.cpp:124] Setting up bn5b_branch2c
I0331 22:56:21.608856  7281 net.cpp:131] Top shape: 20 2048 7 7 (2007040)
I0331 22:56:21.608860  7281 net.cpp:139] Memory required for data: 4539924800
I0331 22:56:21.608866  7281 layer_factory.hpp:77] Creating layer scale5b_branch2c
I0331 22:56:21.608877  7281 net.cpp:86] Creating Layer scale5b_branch2c
I0331 22:56:21.608881  7281 net.cpp:408] scale5b_branch2c <- res5b_branch2c
I0331 22:56:21.608886  7281 net.cpp:369] scale5b_branch2c -> res5b_branch2c (in-place)
I0331 22:56:21.608944  7281 layer_factory.hpp:77] Creating layer scale5b_branch2c
I0331 22:56:21.609069  7281 net.cpp:124] Setting up scale5b_branch2c
I0331 22:56:21.609077  7281 net.cpp:131] Top shape: 20 2048 7 7 (2007040)
I0331 22:56:21.609081  7281 net.cpp:139] Memory required for data: 4547952960
I0331 22:56:21.609086  7281 layer_factory.hpp:77] Creating layer res5b
I0331 22:56:21.609092  7281 net.cpp:86] Creating Layer res5b
I0331 22:56:21.609097  7281 net.cpp:408] res5b <- res5a_res5a_relu_0_split_1
I0331 22:56:21.609103  7281 net.cpp:408] res5b <- res5b_branch2c
I0331 22:56:21.609117  7281 net.cpp:382] res5b -> res5b
I0331 22:56:21.609144  7281 net.cpp:124] Setting up res5b
I0331 22:56:21.609150  7281 net.cpp:131] Top shape: 20 2048 7 7 (2007040)
I0331 22:56:21.609153  7281 net.cpp:139] Memory required for data: 4555981120
I0331 22:56:21.609156  7281 layer_factory.hpp:77] Creating layer res5b_relu
I0331 22:56:21.609163  7281 net.cpp:86] Creating Layer res5b_relu
I0331 22:56:21.609166  7281 net.cpp:408] res5b_relu <- res5b
I0331 22:56:21.609172  7281 net.cpp:369] res5b_relu -> res5b (in-place)
I0331 22:56:21.609956  7281 net.cpp:124] Setting up res5b_relu
I0331 22:56:21.609974  7281 net.cpp:131] Top shape: 20 2048 7 7 (2007040)
I0331 22:56:21.609997  7281 net.cpp:139] Memory required for data: 4564009280
I0331 22:56:21.610002  7281 layer_factory.hpp:77] Creating layer res5b_res5b_relu_0_split
I0331 22:56:21.610008  7281 net.cpp:86] Creating Layer res5b_res5b_relu_0_split
I0331 22:56:21.610013  7281 net.cpp:408] res5b_res5b_relu_0_split <- res5b
I0331 22:56:21.610018  7281 net.cpp:382] res5b_res5b_relu_0_split -> res5b_res5b_relu_0_split_0
I0331 22:56:21.610028  7281 net.cpp:382] res5b_res5b_relu_0_split -> res5b_res5b_relu_0_split_1
I0331 22:56:21.610072  7281 net.cpp:124] Setting up res5b_res5b_relu_0_split
I0331 22:56:21.610080  7281 net.cpp:131] Top shape: 20 2048 7 7 (2007040)
I0331 22:56:21.610083  7281 net.cpp:131] Top shape: 20 2048 7 7 (2007040)
I0331 22:56:21.610086  7281 net.cpp:139] Memory required for data: 4580065600
I0331 22:56:21.610090  7281 layer_factory.hpp:77] Creating layer res5c_branch2a
I0331 22:56:21.610102  7281 net.cpp:86] Creating Layer res5c_branch2a
I0331 22:56:21.610106  7281 net.cpp:408] res5c_branch2a <- res5b_res5b_relu_0_split_0
I0331 22:56:21.610111  7281 net.cpp:382] res5c_branch2a -> res5c_branch2a
I0331 22:56:21.623066  7281 net.cpp:124] Setting up res5c_branch2a
I0331 22:56:21.623092  7281 net.cpp:131] Top shape: 20 512 7 7 (501760)
I0331 22:56:21.623095  7281 net.cpp:139] Memory required for data: 4582072640
I0331 22:56:21.623102  7281 layer_factory.hpp:77] Creating layer bn5c_branch2a
I0331 22:56:21.623113  7281 net.cpp:86] Creating Layer bn5c_branch2a
I0331 22:56:21.623119  7281 net.cpp:408] bn5c_branch2a <- res5c_branch2a
I0331 22:56:21.623126  7281 net.cpp:369] bn5c_branch2a -> res5c_branch2a (in-place)
I0331 22:56:21.623361  7281 net.cpp:124] Setting up bn5c_branch2a
I0331 22:56:21.623370  7281 net.cpp:131] Top shape: 20 512 7 7 (501760)
I0331 22:56:21.623374  7281 net.cpp:139] Memory required for data: 4584079680
I0331 22:56:21.623381  7281 layer_factory.hpp:77] Creating layer scale5c_branch2a
I0331 22:56:21.623389  7281 net.cpp:86] Creating Layer scale5c_branch2a
I0331 22:56:21.623391  7281 net.cpp:408] scale5c_branch2a <- res5c_branch2a
I0331 22:56:21.623397  7281 net.cpp:369] scale5c_branch2a -> res5c_branch2a (in-place)
I0331 22:56:21.623452  7281 layer_factory.hpp:77] Creating layer scale5c_branch2a
I0331 22:56:21.623575  7281 net.cpp:124] Setting up scale5c_branch2a
I0331 22:56:21.623582  7281 net.cpp:131] Top shape: 20 512 7 7 (501760)
I0331 22:56:21.623586  7281 net.cpp:139] Memory required for data: 4586086720
I0331 22:56:21.623591  7281 layer_factory.hpp:77] Creating layer res5c_branch2a_relu
I0331 22:56:21.623598  7281 net.cpp:86] Creating Layer res5c_branch2a_relu
I0331 22:56:21.623602  7281 net.cpp:408] res5c_branch2a_relu <- res5c_branch2a
I0331 22:56:21.623607  7281 net.cpp:369] res5c_branch2a_relu -> res5c_branch2a (in-place)
I0331 22:56:21.624212  7281 net.cpp:124] Setting up res5c_branch2a_relu
I0331 22:56:21.624222  7281 net.cpp:131] Top shape: 20 512 7 7 (501760)
I0331 22:56:21.624225  7281 net.cpp:139] Memory required for data: 4588093760
I0331 22:56:21.624229  7281 layer_factory.hpp:77] Creating layer res5c_branch2b
I0331 22:56:21.624240  7281 net.cpp:86] Creating Layer res5c_branch2b
I0331 22:56:21.624244  7281 net.cpp:408] res5c_branch2b <- res5c_branch2a
I0331 22:56:21.624250  7281 net.cpp:382] res5c_branch2b -> res5c_branch2b
I0331 22:56:21.649847  7281 net.cpp:124] Setting up res5c_branch2b
I0331 22:56:21.649875  7281 net.cpp:131] Top shape: 20 512 7 7 (501760)
I0331 22:56:21.649878  7281 net.cpp:139] Memory required for data: 4590100800
I0331 22:56:21.649886  7281 layer_factory.hpp:77] Creating layer bn5c_branch2b
I0331 22:56:21.649897  7281 net.cpp:86] Creating Layer bn5c_branch2b
I0331 22:56:21.649902  7281 net.cpp:408] bn5c_branch2b <- res5c_branch2b
I0331 22:56:21.649911  7281 net.cpp:369] bn5c_branch2b -> res5c_branch2b (in-place)
I0331 22:56:21.650147  7281 net.cpp:124] Setting up bn5c_branch2b
I0331 22:56:21.650156  7281 net.cpp:131] Top shape: 20 512 7 7 (501760)
I0331 22:56:21.650162  7281 net.cpp:139] Memory required for data: 4592107840
I0331 22:56:21.650192  7281 layer_factory.hpp:77] Creating layer scale5c_branch2b
I0331 22:56:21.650200  7281 net.cpp:86] Creating Layer scale5c_branch2b
I0331 22:56:21.650204  7281 net.cpp:408] scale5c_branch2b <- res5c_branch2b
I0331 22:56:21.650209  7281 net.cpp:369] scale5c_branch2b -> res5c_branch2b (in-place)
I0331 22:56:21.650270  7281 layer_factory.hpp:77] Creating layer scale5c_branch2b
I0331 22:56:21.650393  7281 net.cpp:124] Setting up scale5c_branch2b
I0331 22:56:21.650400  7281 net.cpp:131] Top shape: 20 512 7 7 (501760)
I0331 22:56:21.650403  7281 net.cpp:139] Memory required for data: 4594114880
I0331 22:56:21.650408  7281 layer_factory.hpp:77] Creating layer res5c_branch2b_relu
I0331 22:56:21.650415  7281 net.cpp:86] Creating Layer res5c_branch2b_relu
I0331 22:56:21.650420  7281 net.cpp:408] res5c_branch2b_relu <- res5c_branch2b
I0331 22:56:21.650424  7281 net.cpp:369] res5c_branch2b_relu -> res5c_branch2b (in-place)
I0331 22:56:21.651027  7281 net.cpp:124] Setting up res5c_branch2b_relu
I0331 22:56:21.651039  7281 net.cpp:131] Top shape: 20 512 7 7 (501760)
I0331 22:56:21.651043  7281 net.cpp:139] Memory required for data: 4596121920
I0331 22:56:21.651046  7281 layer_factory.hpp:77] Creating layer res5c_branch2c
I0331 22:56:21.651057  7281 net.cpp:86] Creating Layer res5c_branch2c
I0331 22:56:21.651062  7281 net.cpp:408] res5c_branch2c <- res5c_branch2b
I0331 22:56:21.651067  7281 net.cpp:382] res5c_branch2c -> res5c_branch2c
I0331 22:56:21.663887  7281 net.cpp:124] Setting up res5c_branch2c
I0331 22:56:21.663913  7281 net.cpp:131] Top shape: 20 2048 7 7 (2007040)
I0331 22:56:21.663915  7281 net.cpp:139] Memory required for data: 4604150080
I0331 22:56:21.663923  7281 layer_factory.hpp:77] Creating layer bn5c_branch2c
I0331 22:56:21.663933  7281 net.cpp:86] Creating Layer bn5c_branch2c
I0331 22:56:21.663939  7281 net.cpp:408] bn5c_branch2c <- res5c_branch2c
I0331 22:56:21.663947  7281 net.cpp:369] bn5c_branch2c -> res5c_branch2c (in-place)
I0331 22:56:21.664185  7281 net.cpp:124] Setting up bn5c_branch2c
I0331 22:56:21.664192  7281 net.cpp:131] Top shape: 20 2048 7 7 (2007040)
I0331 22:56:21.664196  7281 net.cpp:139] Memory required for data: 4612178240
I0331 22:56:21.664203  7281 layer_factory.hpp:77] Creating layer scale5c_branch2c
I0331 22:56:21.664211  7281 net.cpp:86] Creating Layer scale5c_branch2c
I0331 22:56:21.664216  7281 net.cpp:408] scale5c_branch2c <- res5c_branch2c
I0331 22:56:21.664221  7281 net.cpp:369] scale5c_branch2c -> res5c_branch2c (in-place)
I0331 22:56:21.664278  7281 layer_factory.hpp:77] Creating layer scale5c_branch2c
I0331 22:56:21.664405  7281 net.cpp:124] Setting up scale5c_branch2c
I0331 22:56:21.664413  7281 net.cpp:131] Top shape: 20 2048 7 7 (2007040)
I0331 22:56:21.664417  7281 net.cpp:139] Memory required for data: 4620206400
I0331 22:56:21.664422  7281 layer_factory.hpp:77] Creating layer res5c
I0331 22:56:21.664428  7281 net.cpp:86] Creating Layer res5c
I0331 22:56:21.664433  7281 net.cpp:408] res5c <- res5b_res5b_relu_0_split_1
I0331 22:56:21.664438  7281 net.cpp:408] res5c <- res5c_branch2c
I0331 22:56:21.664444  7281 net.cpp:382] res5c -> res5c
I0331 22:56:21.664470  7281 net.cpp:124] Setting up res5c
I0331 22:56:21.664476  7281 net.cpp:131] Top shape: 20 2048 7 7 (2007040)
I0331 22:56:21.664479  7281 net.cpp:139] Memory required for data: 4628234560
I0331 22:56:21.664482  7281 layer_factory.hpp:77] Creating layer res5c_relu
I0331 22:56:21.664489  7281 net.cpp:86] Creating Layer res5c_relu
I0331 22:56:21.664492  7281 net.cpp:408] res5c_relu <- res5c
I0331 22:56:21.664497  7281 net.cpp:369] res5c_relu -> res5c (in-place)
I0331 22:56:21.665277  7281 net.cpp:124] Setting up res5c_relu
I0331 22:56:21.665289  7281 net.cpp:131] Top shape: 20 2048 7 7 (2007040)
I0331 22:56:21.665293  7281 net.cpp:139] Memory required for data: 4636262720
I0331 22:56:21.665297  7281 layer_factory.hpp:77] Creating layer pool5
I0331 22:56:21.665304  7281 net.cpp:86] Creating Layer pool5
I0331 22:56:21.665309  7281 net.cpp:408] pool5 <- res5c
I0331 22:56:21.665320  7281 net.cpp:382] pool5 -> pool5
I0331 22:56:21.665964  7281 net.cpp:124] Setting up pool5
I0331 22:56:21.665976  7281 net.cpp:131] Top shape: 20 2048 1 1 (40960)
I0331 22:56:21.665979  7281 net.cpp:139] Memory required for data: 4636426560
I0331 22:56:21.665983  7281 layer_factory.hpp:77] Creating layer fc1000
I0331 22:56:21.665992  7281 net.cpp:86] Creating Layer fc1000
I0331 22:56:21.665995  7281 net.cpp:408] fc1000 <- pool5
I0331 22:56:21.666003  7281 net.cpp:382] fc1000 -> fc1000
I0331 22:56:21.677872  7281 net.cpp:124] Setting up fc1000
I0331 22:56:21.677896  7281 net.cpp:131] Top shape: 20 1000 (20000)
I0331 22:56:21.677899  7281 net.cpp:139] Memory required for data: 4636506560
I0331 22:56:21.677909  7281 layer_factory.hpp:77] Creating layer fc1000_fc1000_0_split
I0331 22:56:21.677919  7281 net.cpp:86] Creating Layer fc1000_fc1000_0_split
I0331 22:56:21.677924  7281 net.cpp:408] fc1000_fc1000_0_split <- fc1000
I0331 22:56:21.677932  7281 net.cpp:382] fc1000_fc1000_0_split -> fc1000_fc1000_0_split_0
I0331 22:56:21.677942  7281 net.cpp:382] fc1000_fc1000_0_split -> fc1000_fc1000_0_split_1
I0331 22:56:21.677949  7281 net.cpp:382] fc1000_fc1000_0_split -> fc1000_fc1000_0_split_2
I0331 22:56:21.678004  7281 net.cpp:124] Setting up fc1000_fc1000_0_split
I0331 22:56:21.678010  7281 net.cpp:131] Top shape: 20 1000 (20000)
I0331 22:56:21.678014  7281 net.cpp:131] Top shape: 20 1000 (20000)
I0331 22:56:21.678017  7281 net.cpp:131] Top shape: 20 1000 (20000)
I0331 22:56:21.678020  7281 net.cpp:139] Memory required for data: 4636746560
I0331 22:56:21.678023  7281 layer_factory.hpp:77] Creating layer loss
I0331 22:56:21.678030  7281 net.cpp:86] Creating Layer loss
I0331 22:56:21.678035  7281 net.cpp:408] loss <- fc1000_fc1000_0_split_0
I0331 22:56:21.678040  7281 net.cpp:408] loss <- label_data_1_split_0
I0331 22:56:21.678045  7281 net.cpp:382] loss -> loss
…
