…
I0331 16:32:35.288079  8486 net.cpp:296] The NetState phase (0) differed from the phase (1) specified by a rule in layer acc/top-5
I0331 16:32:35.288594  8486 net.cpp:53] Initializing net from parameters: 
name: "resnet_34"
state {
  phase: TRAIN
  level: 0
  stage: ""
}
layer {
  name: "data"
  type: "Data"
  top: "data"
  top: "label"
  include {
    phase: TRAIN
  }
  transform_param {
    mirror: true
    crop_size: 224
    mean_file: "/scratch/imagenet/lmdb_data/imagenet_mean.binaryproto"
  }
  data_param {
    source: "/scratch/imagenet/lmdb_data/ilsvrc12_train_lmdb"
    batch_size: 32
    backend: LMDB
  }
}
layer {
  name: "conv1"
  type: "Convolution"
  bottom: "data"
  top: "conv1"
  convolution_param {
    num_output: 64
    bias_term: false
    pad: 3
    kernel_size: 7
    stride: 2
    weight_filler {
      type: "msra"
    }
  }
}
layer {
  name: "bn_conv1"
  type: "BatchNorm"
  bottom: "conv1"
  top: "conv1"
  batch_norm_param {
    use_global_stats: false
  }
}
layer {
  name: "scale_conv1"
  type: "Scale"
  bottom: "conv1"
  top: "conv1"
  scale_param {
    bias_term: true
  }
}
layer {
  name: "conv1_relu"
  type: "ReLU"
  bottom: "conv1"
  top: "conv1"
}
layer {
  name: "pool1"
  type: "Pooling"
  bottom: "conv1"
  top: "pool1"
  pooling_param {
    pool: MAX
    kernel_size: 3
    stride: 2
  }
}
layer {
  name: "res2a_branch1"
  type: "Convolution"
  bottom: "pool1"
  top: "res2a_branch1"
  convolution_param {
    num_output: 64
    bias_term: false
    pad: 0
    kernel_size: 1
    stride: 1
    weight_filler {
      type: "msra"
    }
  }
}
layer {
  name: "bn2a_branch1"
  type: "BatchNorm"
  bottom: "res2a_branch1"
  top: "res2a_branch1"
  batch_norm_param {
    use_global_stats: false
  }
}
layer {
  name: "scale2a_branch1"
  type: "Scale"
  bottom: "res2a_branch1"
  top: "res2a_branch1"
  scale_param {
    bias_term: true
  }
}
layer {
  name: "res2a_branch2a"
  type: "Convolution"
  bottom: "pool1"
  top: "res2a_branch2a"
  convolution_param {
    num_output: 64
    bias_term: false
    pad: 1
    kernel_size: 3
    stride: 1
    weight_filler {
      type: "msra"
    }
  }
}
layer {
  name: "bn2a_branch2a"
  type: "BatchNorm"
  bottom: "res2a_branch2a"
  top: "res2a_branch2a"
  batch_norm_param {
    use_global_stats: false
  }
}
layer {
  name: "scale2a_branch2a"
  type: "Scale"
  bottom: "res2a_branch2a"
  top: "res2a_branch2a"
  scale_param {
    bias_term: true
  }
}
layer {
  name: "res2a_branch2a_relu"
  type: "ReLU"
  bottom: "res2a_branch2a"
  top: "res2a_branch2a"
}
layer {
  name: "res2a_branch2b"
  type: "Convolution"
  bottom: "res2a_branch2a"
  top: "res2a_branch2b"
  convolution_param {
    num_output: 64
    bias_term: false
    pad: 1
    kernel_size: 3
    stride: 1
    weight_filler {
      type: "msra"
    }
  }
}
layer {
  name: "bn2a_branch2b"
  type: "BatchNorm"
  bottom: "res2a_branch2b"
  top: "res2a_branch2b"
  batch_norm_param {
    use_global_stats: false
  }
}
layer {
  name: "scale2a_branch2b"
  type: "Scale"
  bottom: "res2a_branch2b"
  top: "res2a_branch2b"
  scale_param {
    bias_term: true
  }
}
layer {
  name: "res2a"
  type: "Eltwise"
  bottom: "res2a_branch1"
  bottom: "res2a_branch2b"
  top: "res2a"
  eltwise_param {
    operation: SUM
  }
}
layer {
  name: "res2a_relu"
  type: "ReLU"
  bottom: "res2a"
  top: "res2a"
}
layer {
  name: "res2b_branch2a"
  type: "Convolution"
  bottom: "res2a"
  top: "res2b_branch2a"
  convolution_param {
    num_output: 64
    bias_term: false
    pad: 1
    kernel_size: 3
    stride: 1
    weight_filler {
      type: "msra"
    }
  }
}
layer {
  name: "bn2b_branch2a"
  type: "BatchNorm"
  bottom: "res2b_branch2a"
  top: "res2b_branch2a"
  batch_norm_param {
    use_global_stats: false
  }
}
layer {
  name: "scale2b_branch2a"
  type: "Scale"
  bottom: "res2b_branch2a"
  top: "res2b_branch2a"
  scale_param {
    bias_term: true
  }
}
layer {
  name: "res2b_branch2a_relu"
  type: "ReLU"
  bottom: "res2b_branch2a"
  top: "res2b_branch2a"
}
layer {
  name: "res2b_branch2b"
  type: "Convolution"
  bottom: "res2b_branch2a"
  top: "res2b_branch2b"
  convolution_param {
    num_output: 64
    bias_term: false
    pad: 1
    kernel_size: 3
    stride: 1
    weight_filler {
      type: "msra"
    }
  }
}
layer {
  name: "bn2b_branch2b"
  type: "BatchNorm"
  bottom: "res2b_branch2b"
  top: "res2b_branch2b"
  batch_norm_param {
    use_global_stats: false
  }
}
layer {
  name: "scale2b_branch2b"
  type: "Scale"
  bottom: "res2b_branch2b"
  top: "res2b_branch2b"
  scale_param {
    bias_term: true
  }
}
layer {
  name: "res2b"
  type: "Eltwise"
  bottom: "res2a"
  bottom: "res2b_branch2b"
  top: "res2b"
  eltwise_param {
    operation: SUM
  }
}
layer {
  name: "res2b_relu"
  type: "ReLU"
  bottom: "res2b"
  top: "res2b"
}
layer {
  name: "res2c_branch2a"
  type: "Convolution"
  bottom: "res2b"
  top: "res2c_branch2a"
  convolution_param {
    num_output: 64
    bias_term: false
    pad: 1
    kernel_size: 3
    stride: 1
    weight_filler {
      type: "msra"
    }
  }
}
layer {
  name: "bn2c_branch2a"
  type: "BatchNorm"
  bottom: "res2c_branch2a"
  top: "res2c_branch2a"
  batch_norm_param {
    use_global_stats: false
  }
}
layer {
  name: "scale2c_branch2a"
  type: "Scale"
  bottom: "res2c_branch2a"
  top: "res2c_branch2a"
  scale_param {
    bias_term: true
  }
}
layer {
  name: "res2c_branch2a_relu"
  type: "ReLU"
  bottom: "res2c_branch2a"
  top: "res2c_branch2a"
}
layer {
  name: "res2c_branch2b"
  type: "Convolution"
  bottom: "res2c_branch2a"
  top: "res2c_branch2b"
  convolution_param {
    num_output: 64
    bias_term: false
    pad: 1
    kernel_size: 3
    stride: 1
    weight_filler {
      type: "msra"
    }
  }
}
layer {
  name: "bn2c_branch2b"
  type: "BatchNorm"
  bottom: "res2c_branch2b"
  top: "res2c_branch2b"
  batch_norm_param {
    use_global_stats: false
  }
}
layer {
  name: "scale2c_branch2b"
  type: "Scale"
  bottom: "res2c_branch2b"
  top: "res2c_branch2b"
  scale_param {
    bias_term: true
  }
}
layer {
  name: "res2c"
  type: "Eltwise"
  bottom: "res2b"
  bottom: "res2c_branch2b"
  top: "res2c"
  eltwise_param {
    operation: SUM
  }
}
layer {
  name: "res2c_relu"
  type: "ReLU"
  bottom: "res2c"
  top: "res2c"
}
layer {
  name: "res3a_branch1"
  type: "Convolution"
  bottom: "res2c"
  top: "res3a_branch1"
  convolution_param {
    num_output: 128
    bias_term: false
    pad: 0
    kernel_size: 1
    stride: 2
    weight_filler {
      type: "msra"
    }
  }
}
layer {
  name: "bn3a_branch1"
  type: "BatchNorm"
  bottom: "res3a_branch1"
  top: "res3a_branch1"
  batch_norm_param {
    use_global_stats: false
  }
}
layer {
  name: "scale3a_branch1"
  type: "Scale"
  bottom: "res3a_branch1"
  top: "res3a_branch1"
  scale_param {
    bias_term: true
  }
}
layer {
  name: "res3a_branch2a"
  type: "Convolution"
  bottom: "res2c"
  top: "res3a_branch2a"
  convolution_param {
    num_output: 128
    bias_term: false
    pad: 1
    kernel_size: 3
    stride: 2
    weight_filler {
      type: "msra"
    }
  }
}
layer {
  name: "bn3a_branch2a"
  type: "BatchNorm"
  bottom: "res3a_branch2a"
  top: "res3a_branch2a"
  batch_norm_param {
    use_global_stats: false
  }
}
layer {
  name: "scale3a_branch2a"
  type: "Scale"
  bottom: "res3a_branch2a"
  top: "res3a_branch2a"
  scale_param {
    bias_term: true
  }
}
layer {
  name: "res3a_branch2a_relu"
  type: "ReLU"
  bottom: "res3a_branch2a"
  top: "res3a_branch2a"
}
layer {
  name: "res3a_branch2b"
  type: "Convolution"
  bottom: "res3a_branch2a"
  top: "res3a_branch2b"
  convolution_param {
    num_output: 128
    bias_term: false
    pad: 1
    kernel_size: 3
    stride: 1
    weight_filler {
      type: "msra"
    }
  }
}
layer {
  name: "bn3a_branch2b"
  type: "BatchNorm"
  bottom: "res3a_branch2b"
  top: "res3a_branch2b"
  batch_norm_param {
    use_global_stats: false
  }
}
layer {
  name: "scale3a_branch2b"
  type: "Scale"
  bottom: "res3a_branch2b"
  top: "res3a_branch2b"
  scale_param {
    bias_term: true
  }
}
layer {
  name: "res3a"
  type: "Eltwise"
  bottom: "res3a_branch1"
  bottom: "res3a_branch2b"
  top: "res3a"
  eltwise_param {
    operation: SUM
  }
}
layer {
  name: "res3a_relu"
  type: "ReLU"
  bottom: "res3a"
  top: "res3a"
}
layer {
  name: "res3b_branch2a"
  type: "Convolution"
  bottom: "res3a"
  top: "res3b_branch2a"
  convolution_param {
    num_output: 128
    bias_term: false
    pad: 1
    kernel_size: 3
    stride: 1
    weight_filler {
      type: "msra"
    }
  }
}
layer {
  name: "bn3b_branch2a"
  type: "BatchNorm"
  bottom: "res3b_branch2a"
  top: "res3b_branch2a"
  batch_norm_param {
    use_global_stats: false
  }
}
layer {
  name: "scale3b_branch2a"
  type: "Scale"
  bottom: "res3b_branch2a"
  top: "res3b_branch2a"
  scale_param {
    bias_term: true
  }
}
layer {
  name: "res3b_branch2a_relu"
  type: "ReLU"
  bottom: "res3b_branch2a"
  top: "res3b_branch2a"
}
layer {
  name: "res3b_branch2b"
  type: "Convolution"
  bottom: "res3b_branch2a"
  top: "res3b_branch2b"
  convolution_param {
    num_output: 128
    bias_term: false
    pad: 1
    kernel_size: 3
    stride: 1
    weight_filler {
      type: "msra"
    }
  }
}
layer {
  name: "bn3b_branch2b"
  type: "BatchNorm"
  bottom: "res3b_branch2b"
  top: "res3b_branch2b"
  batch_norm_param {
    use_global_stats: false
  }
}
layer {
  name: "scale3b_branch2b"
  type: "Scale"
  bottom: "res3b_branch2b"
  top: "res3b_branch2b"
  scale_param {
    bias_term: true
  }
}
layer {
  name: "res3b"
  type: "Eltwise"
  bottom: "res3a"
  bottom: "res3b_branch2b"
  top: "res3b"
  eltwise_param {
    operation: SUM
  }
}
layer {
  name: "res3b_relu"
  type: "ReLU"
  bottom: "res3b"
  top: "res3b"
}
layer {
  name: "res3c_branch2a"
  type: "Convolution"
  bottom: "res3b"
  top: "res3c_branch2a"
  convolution_param {
    num_output: 128
    bias_term: false
    pad: 1
    kernel_size: 3
    stride: 1
    weight_filler {
      type: "msra"
    }
  }
}
layer {
  name: "bn3c_branch2a"
  type: "BatchNorm"
  bottom: "res3c_branch2a"
  top: "res3c_branch2a"
  batch_norm_param {
    use_global_stats: false
  }
}
layer {
  name: "scale3c_branch2a"
  type: "Scale"
  bottom: "res3c_branch2a"
  top: "res3c_branch2a"
  scale_param {
    bias_term: true
  }
}
layer {
  name: "res3c_branch2a_relu"
  type: "ReLU"
  bottom: "res3c_branch2a"
  top: "res3c_branch2a"
}
layer {
  name: "res3c_branch2b"
  type: "Convolution"
  bottom: "res3c_branch2a"
  top: "res3c_branch2b"
  convolution_param {
    num_output: 128
    bias_term: false
    pad: 1
    kernel_size: 3
    stride: 1
    weight_filler {
      type: "msra"
    }
  }
}
layer {
  name: "bn3c_branch2b"
  type: "BatchNorm"
  bottom: "res3c_branch2b"
  top: "res3c_branch2b"
  batch_norm_param {
    use_global_stats: false
  }
}
layer {
  name: "scale3c_branch2b"
  type: "Scale"
  bottom: "res3c_branch2b"
  top: "res3c_branch2b"
  scale_param {
    bias_term: true
  }
}
layer {
  name: "res3c"
  type: "Eltwise"
  bottom: "res3b"
  bottom: "res3c_branch2b"
  top: "res3c"
  eltwise_param {
    operation: SUM
  }
}
layer {
  name: "res3c_relu"
  type: "ReLU"
  bottom: "res3c"
  top: "res3c"
}
layer {
  name: "res3d_branch2a"
  type: "Convolution"
  bottom: "res3c"
  top: "res3d_branch2a"
  convolution_param {
    num_output: 128
    bias_term: false
    pad: 1
    kernel_size: 3
    stride: 1
    weight_filler {
      type: "msra"
    }
  }
}
layer {
  name: "bn3d_branch2a"
  type: "BatchNorm"
  bottom: "res3d_branch2a"
  top: "res3d_branch2a"
  batch_norm_param {
    use_global_stats: false
  }
}
layer {
  name: "scale3d_branch2a"
  type: "Scale"
  bottom: "res3d_branch2a"
  top: "res3d_branch2a"
  scale_param {
    bias_term: true
  }
}
layer {
  name: "res3d_branch2a_relu"
  type: "ReLU"
  bottom: "res3d_branch2a"
  top: "res3d_branch2a"
}
layer {
  name: "res3d_branch2b"
  type: "Convolution"
  bottom: "res3d_branch2a"
  top: "res3d_branch2b"
  convolution_param {
    num_output: 128
    bias_term: false
    pad: 1
    kernel_size: 3
    stride: 1
    weight_filler {
      type: "msra"
    }
  }
}
layer {
  name: "bn3d_branch2b"
  type: "BatchNorm"
  bottom: "res3d_branch2b"
  top: "res3d_branch2b"
  batch_norm_param {
    use_global_stats: false
  }
}
layer {
  name: "scale3d_branch2b"
  type: "Scale"
  bottom: "res3d_branch2b"
  top: "res3d_branch2b"
  scale_param {
    bias_term: true
  }
}
layer {
  name: "res3d"
  type: "Eltwise"
  bottom: "res3c"
  bottom: "res3d_branch2b"
  top: "res3d"
  eltwise_param {
    operation: SUM
  }
}
layer {
  name: "res3d_relu"
  type: "ReLU"
  bottom: "res3d"
  top: "res3d"
}
layer {
  name: "res4a_branch1"
  type: "Convolution"
  bottom: "res3d"
  top: "res4a_branch1"
  convolution_param {
    num_output: 256
    bias_term: false
    pad: 0
    kernel_size: 1
    stride: 2
    weight_filler {
      type: "msra"
    }
  }
}
layer {
  name: "bn4a_branch1"
  type: "BatchNorm"
  bottom: "res4a_branch1"
  top: "res4a_branch1"
  batch_norm_param {
    use_global_stats: false
  }
}
layer {
  name: "scale4a_branch1"
  type: "Scale"
  bottom: "res4a_branch1"
  top: "res4a_branch1"
  scale_param {
    bias_term: true
  }
}
layer {
  name: "res4a_branch2a"
  type: "Convolution"
  bottom: "res3d"
  top: "res4a_branch2a"
  convolution_param {
    num_output: 256
    bias_term: false
    pad: 1
    kernel_size: 3
    stride: 2
    weight_filler {
      type: "msra"
    }
  }
}
layer {
  name: "bn4a_branch2a"
  type: "BatchNorm"
  bottom: "res4a_branch2a"
  top: "res4a_branch2a"
  batch_norm_param {
    use_global_stats: false
  }
}
layer {
  name: "scale4a_branch2a"
  type: "Scale"
  bottom: "res4a_branch2a"
  top: "res4a_branch2a"
  scale_param {
    bias_term: true
  }
}
layer {
  name: "res4a_branch2a_relu"
  type: "ReLU"
  bottom: "res4a_branch2a"
  top: "res4a_branch2a"
}
layer {
  name: "res4a_branch2b"
  type: "Convolution"
  bottom: "res4a_branch2a"
  top: "res4a_branch2b"
  convolution_param {
    num_output: 256
    bias_term: false
    pad: 1
    kernel_size: 3
    stride: 1
    weight_filler {
      type: "msra"
    }
  }
}
layer {
  name: "bn4a_branch2b"
  type: "BatchNorm"
  bottom: "res4a_branch2b"
  top: "res4a_branch2b"
  batch_norm_param {
    use_global_stats: false
  }
}
layer {
  name: "scale4a_branch2b"
  type: "Scale"
  bottom: "res4a_branch2b"
  top: "res4a_branch2b"
  scale_param {
    bias_term: true
  }
}
layer {
  name: "res4a"
  type: "Eltwise"
  bottom: "res4a_branch1"
  bottom: "res4a_branch2b"
  top: "res4a"
  eltwise_param {
    operation: SUM
  }
}
layer {
  name: "res4a_relu"
  type: "ReLU"
  bottom: "res4a"
  top: "res4a"
}
layer {
  name: "res4b_branch2a"
  type: "Convolution"
  bottom: "res4a"
  top: "res4b_branch2a"
  convolution_param {
    num_output: 256
    bias_term: false
    pad: 1
    kernel_size: 3
    stride: 1
    weight_filler {
      type: "msra"
    }
  }
}
layer {
  name: "bn4b_branch2a"
  type: "BatchNorm"
  bottom: "res4b_branch2a"
  top: "res4b_branch2a"
  batch_norm_param {
    use_global_stats: false
  }
}
layer {
  name: "scale4b_branch2a"
  type: "Scale"
  bottom: "res4b_branch2a"
  top: "res4b_branch2a"
  scale_param {
    bias_term: true
  }
}
layer {
  name: "res4b_branch2a_relu"
  type: "ReLU"
  bottom: "res4b_branch2a"
  top: "res4b_branch2a"
}
layer {
  name: "res4b_branch2b"
  type: "Convolution"
  bottom: "res4b_branch2a"
  top: "res4b_branch2b"
  convolution_param {
    num_output: 256
    bias_term: false
    pad: 1
    kernel_size: 3
    stride: 1
    weight_filler {
      type: "msra"
    }
  }
}
layer {
  name: "bn4b_branch2b"
  type: "BatchNorm"
  bottom: "res4b_branch2b"
  top: "res4b_branch2b"
  batch_norm_param {
    use_global_stats: false
  }
}
layer {
  name: "scale4b_branch2b"
  type: "Scale"
  bottom: "res4b_branch2b"
  top: "res4b_branch2b"
  scale_param {
    bias_term: true
  }
}
layer {
  name: "res4b"
  type: "Eltwise"
  bottom: "res4a"
  bottom: "res4b_branch2b"
  top: "res4b"
  eltwise_param {
    operation: SUM
  }
}
layer {
  name: "res4b_relu"
  type: "ReLU"
  bottom: "res4b"
  top: "res4b"
}
layer {
  name: "res4c_branch2a"
  type: "Convolution"
  bottom: "res4b"
  top: "res4c_branch2a"
  convolution_param {
    num_output: 256
    bias_term: false
    pad: 1
    kernel_size: 3
    stride: 1
    weight_filler {
      type: "msra"
    }
  }
}
layer {
  name: "bn4c_branch2a"
  type: "BatchNorm"
  bottom: "res4c_branch2a"
  top: "res4c_branch2a"
  batch_norm_param {
    use_global_stats: false
  }
}
layer {
  name: "scale4c_branch2a"
  type: "Scale"
  bottom: "res4c_branch2a"
  top: "res4c_branch2a"
  scale_param {
    bias_term: true
  }
}
layer {
  name: "res4c_branch2a_relu"
  type: "ReLU"
  bottom: "res4c_branch2a"
  top: "res4c_branch2a"
}
layer {
  name: "res4c_branch2b"
  type: "Convolution"
  bottom: "res4c_branch2a"
  top: "res4c_branch2b"
  convolution_param {
    num_output: 256
    bias_term: false
    pad: 1
    kernel_size: 3
    stride: 1
    weight_filler {
      type: "msra"
    }
  }
}
layer {
  name: "bn4c_branch2b"
  type: "BatchNorm"
  bottom: "res4c_branch2b"
  top: "res4c_branch2b"
  batch_norm_param {
    use_global_stats: false
  }
}
layer {
  name: "scale4c_branch2b"
  type: "Scale"
  bottom: "res4c_branch2b"
  top: "res4c_branch2b"
  scale_param {
    bias_term: true
  }
}
layer {
  name: "res4c"
  type: "Eltwise"
  bottom: "res4b"
  bottom: "res4c_branch2b"
  top: "res4c"
  eltwise_param {
    operation: SUM
  }
}
layer {
  name: "res4c_relu"
  type: "ReLU"
  bottom: "res4c"
  top: "res4c"
}
layer {
  name: "res4d_branch2a"
  type: "Convolution"
  bottom: "res4c"
  top: "res4d_branch2a"
  convolution_param {
    num_output: 256
    bias_term: false
    pad: 1
    kernel_size: 3
    stride: 1
    weight_filler {
      type: "msra"
    }
  }
}
layer {
  name: "bn4d_branch2a"
  type: "BatchNorm"
  bottom: "res4d_branch2a"
  top: "res4d_branch2a"
  batch_norm_param {
    use_global_stats: false
  }
}
layer {
  name: "scale4d_branch2a"
  type: "Scale"
  bottom: "res4d_branch2a"
  top: "res4d_branch2a"
  scale_param {
    bias_term: true
  }
}
layer {
  name: "res4d_branch2a_relu"
  type: "ReLU"
  bottom: "res4d_branch2a"
  top: "res4d_branch2a"
}
layer {
  name: "res4d_branch2b"
  type: "Convolution"
  bottom: "res4d_branch2a"
  top: "res4d_branch2b"
  convolution_param {
    num_output: 256
    bias_term: false
    pad: 1
    kernel_size: 3
    stride: 1
    weight_filler {
      type: "msra"
    }
  }
}
layer {
  name: "bn4d_branch2b"
  type: "BatchNorm"
  bottom: "res4d_branch2b"
  top: "res4d_branch2b"
  batch_norm_param {
    use_global_stats: false
  }
}
layer {
  name: "scale4d_branch2b"
  type: "Scale"
  bottom: "res4d_branch2b"
  top: "res4d_branch2b"
  scale_param {
    bias_term: true
  }
}
layer {
  name: "res4d"
  type: "Eltwise"
  bottom: "res4c"
  bottom: "res4d_branch2b"
  top: "res4d"
  eltwise_param {
    operation: SUM
  }
}
layer {
  name: "res4d_relu"
  type: "ReLU"
  bottom: "res4d"
  top: "res4d"
}
layer {
  name: "res4e_branch2a"
  type: "Convolution"
  bottom: "res4d"
  top: "res4e_branch2a"
  convolution_param {
    num_output: 256
    bias_term: false
    pad: 1
    kernel_size: 3
    stride: 1
    weight_filler {
      type: "msra"
    }
  }
}
layer {
  name: "bn4e_branch2a"
  type: "BatchNorm"
  bottom: "res4e_branch2a"
  top: "res4e_branch2a"
  batch_norm_param {
    use_global_stats: false
  }
}
layer {
  name: "scale4e_branch2a"
  type: "Scale"
  bottom: "res4e_branch2a"
  top: "res4e_branch2a"
  scale_param {
    bias_term: true
  }
}
layer {
  name: "res4e_branch2a_relu"
  type: "ReLU"
  bottom: "res4e_branch2a"
  top: "res4e_branch2a"
}
layer {
  name: "res4e_branch2b"
  type: "Convolution"
  bottom: "res4e_branch2a"
  top: "res4e_branch2b"
  convolution_param {
    num_output: 256
    bias_term: false
    pad: 1
    kernel_size: 3
    stride: 1
    weight_filler {
      type: "msra"
    }
  }
}
layer {
  name: "bn4e_branch2b"
  type: "BatchNorm"
  bottom: "res4e_branch2b"
  top: "res4e_branch2b"
  batch_norm_param {
    use_global_stats: false
  }
}
layer {
  name: "scale4e_branch2b"
  type: "Scale"
  bottom: "res4e_branch2b"
  top: "res4e_branch2b"
  scale_param {
    bias_term: true
  }
}
layer {
  name: "res4e"
  type: "Eltwise"
  bottom: "res4d"
  bottom: "res4e_branch2b"
  top: "res4e"
  eltwise_param {
    operation: SUM
  }
}
layer {
  name: "res4e_relu"
  type: "ReLU"
  bottom: "res4e"
  top: "res4e"
}
layer {
  name: "res4f_branch2a"
  type: "Convolution"
  bottom: "res4e"
  top: "res4f_branch2a"
  convolution_param {
    num_output: 256
    bias_term: false
    pad: 1
    kernel_size: 3
    stride: 1
    weight_filler {
      type: "msra"
    }
  }
}
layer {
  name: "bn4f_branch2a"
  type: "BatchNorm"
  bottom: "res4f_branch2a"
  top: "res4f_branch2a"
  batch_norm_param {
    use_global_stats: false
  }
}
layer {
  name: "scale4f_branch2a"
  type: "Scale"
  bottom: "res4f_branch2a"
  top: "res4f_branch2a"
  scale_param {
    bias_term: true
  }
}
layer {
  name: "res4f_branch2a_relu"
  type: "ReLU"
  bottom: "res4f_branch2a"
  top: "res4f_branch2a"
}
layer {
  name: "res4f_branch2b"
  type: "Convolution"
  bottom: "res4f_branch2a"
  top: "res4f_branch2b"
  convolution_param {
    num_output: 256
    bias_term: false
    pad: 1
    kernel_size: 3
    stride: 1
    weight_filler {
      type: "msra"
    }
  }
}
layer {
  name: "bn4f_branch2b"
  type: "BatchNorm"
  bottom: "res4f_branch2b"
  top: "res4f_branch2b"
  batch_norm_param {
    use_global_stats: false
  }
}
layer {
  name: "scale4f_branch2b"
  type: "Scale"
  bottom: "res4f_branch2b"
  top: "res4f_branch2b"
  scale_param {
    bias_term: true
  }
}
layer {
  name: "res4f"
  type: "Eltwise"
  bottom: "res4e"
  bottom: "res4f_branch2b"
  top: "res4f"
  eltwise_param {
    operation: SUM
  }
}
layer {
  name: "res4f_relu"
  type: "ReLU"
  bottom: "res4f"
  top: "res4f"
}
layer {
  name: "res5a_branch1"
  type: "Convolution"
  bottom: "res4f"
  top: "res5a_branch1"
  convolution_param {
    num_output: 512
    bias_term: false
    pad: 0
    kernel_size: 1
    stride: 2
    weight_filler {
      type: "msra"
    }
  }
}
layer {
  name: "bn5a_branch1"
  type: "BatchNorm"
  bottom: "res5a_branch1"
  top: "res5a_branch1"
  batch_norm_param {
    use_global_stats: false
  }
}
layer {
  name: "scale5a_branch1"
  type: "Scale"
  bottom: "res5a_branch1"
  top: "res5a_branch1"
  scale_param {
    bias_term: true
  }
}
layer {
  name: "res5a_branch2a"
  type: "Convolution"
  bottom: "res4f"
  top: "res5a_branch2a"
  convolution_param {
    num_output: 512
    bias_term: false
    pad: 1
    kernel_size: 3
    stride: 2
    weight_filler {
      type: "msra"
    }
  }
}
layer {
  name: "bn5a_branch2a"
  type: "BatchNorm"
  bottom: "res5a_branch2a"
  top: "res5a_branch2a"
  batch_norm_param {
    use_global_stats: false
  }
}
layer {
  name: "scale5a_branch2a"
  type: "Scale"
  bottom: "res5a_branch2a"
  top: "res5a_branch2a"
  scale_param {
    bias_term: true
  }
}
layer {
  name: "res5a_branch2a_relu"
  type: "ReLU"
  bottom: "res5a_branch2a"
  top: "res5a_branch2a"
}
layer {
  name: "res5a_branch2b"
  type: "Convolution"
  bottom: "res5a_branch2a"
  top: "res5a_branch2b"
  convolution_param {
    num_output: 512
    bias_term: false
    pad: 1
    kernel_size: 3
    stride: 1
    weight_filler {
      type: "msra"
    }
  }
}
layer {
  name: "bn5a_branch2b"
  type: "BatchNorm"
  bottom: "res5a_branch2b"
  top: "res5a_branch2b"
  batch_norm_param {
    use_global_stats: false
  }
}
layer {
  name: "scale5a_branch2b"
  type: "Scale"
  bottom: "res5a_branch2b"
  top: "res5a_branch2b"
  scale_param {
    bias_term: true
  }
}
layer {
  name: "res5a"
  type: "Eltwise"
  bottom: "res5a_branch1"
  bottom: "res5a_branch2b"
  top: "res5a"
  eltwise_param {
    operation: SUM
  }
}
layer {
  name: "res5a_relu"
  type: "ReLU"
  bottom: "res5a"
  top: "res5a"
}
layer {
  name: "res5b_branch2a"
  type: "Convolution"
  bottom: "res5a"
  top: "res5b_branch2a"
  convolution_param {
    num_output: 512
    bias_term: false
    pad: 1
    kernel_size: 3
    stride: 1
    weight_filler {
      type: "msra"
    }
  }
}
layer {
  name: "bn5b_branch2a"
  type: "BatchNorm"
  bottom: "res5b_branch2a"
  top: "res5b_branch2a"
  batch_norm_param {
    use_global_stats: false
  }
}
layer {
  name: "scale5b_branch2a"
  type: "Scale"
  bottom: "res5b_branch2a"
  top: "res5b_branch2a"
  scale_param {
    bias_term: true
  }
}
layer {
  name: "res5b_branch2a_relu"
  type: "ReLU"
  bottom: "res5b_branch2a"
  top: "res5b_branch2a"
}
layer {
  name: "res5b_branch2b"
  type: "Convolution"
  bottom: "res5b_branch2a"
  top: "res5b_branch2b"
  convolution_param {
    num_output: 512
    bias_term: false
    pad: 1
    kernel_size: 3
    stride: 1
    weight_filler {
      type: "msra"
    }
  }
}
layer {
  name: "bn5b_branch2b"
  type: "BatchNorm"
  bottom: "res5b_branch2b"
  top: "res5b_branch2b"
  batch_norm_param {
    use_global_stats: false
  }
}
layer {
  name: "scale5b_branch2b"
  type: "Scale"
  bottom: "res5b_branch2b"
  top: "res5b_branch2b"
  scale_param {
    bias_term: true
  }
}
layer {
  name: "res5b"
  type: "Eltwise"
  bottom: "res5a"
  bottom: "res5b_branch2b"
  top: "res5b"
  eltwise_param {
    operation: SUM
  }
}
layer {
  name: "res5b_relu"
  type: "ReLU"
  bottom: "res5b"
  top: "res5b"
}
layer {
  name: "res5c_branch2a"
  type: "Convolution"
  bottom: "res5b"
  top: "res5c_branch2a"
  convolution_param {
    num_output: 512
    bias_term: false
    pad: 1
    kernel_size: 3
    stride: 1
    weight_filler {
      type: "msra"
    }
  }
}
layer {
  name: "bn5c_branch2a"
  type: "BatchNorm"
  bottom: "res5c_branch2a"
  top: "res5c_branch2a"
  batch_norm_param {
    use_global_stats: false
  }
}
layer {
  name: "scale5c_branch2a"
  type: "Scale"
  bottom: "res5c_branch2a"
  top: "res5c_branch2a"
  scale_param {
    bias_term: true
  }
}
layer {
  name: "res5c_branch2a_relu"
  type: "ReLU"
  bottom: "res5c_branch2a"
  top: "res5c_branch2a"
}
layer {
  name: "res5c_branch2b"
  type: "Convolution"
  bottom: "res5c_branch2a"
  top: "res5c_branch2b"
  convolution_param {
    num_output: 512
    bias_term: false
    pad: 1
    kernel_size: 3
    stride: 1
    weight_filler {
      type: "msra"
    }
  }
}
layer {
  name: "bn5c_branch2b"
  type: "BatchNorm"
  bottom: "res5c_branch2b"
  top: "res5c_branch2b"
  batch_norm_param {
    use_global_stats: false
  }
}
layer {
  name: "scale5c_branch2b"
  type: "Scale"
  bottom: "res5c_branch2b"
  top: "res5c_branch2b"
  scale_param {
    bias_term: true
  }
}
layer {
  name: "res5c"
  type: "Eltwise"
  bottom: "res5b"
  bottom: "res5c_branch2b"
  top: "res5c"
  eltwise_param {
    operation: SUM
  }
}
layer {
  name: "res5c_relu"
  type: "ReLU"
  bottom: "res5c"
  top: "res5c"
}
layer {
  name: "pool5"
  type: "Pooling"
  bottom: "res5c"
  top: "pool5"
  pooling_param {
    pool: AVE
    kernel_size: 7
    stride: 1
  }
}
layer {
  name: "fc1000"
  type: "InnerProduct"
  bottom: "pool5"
  top: "fc1000"
  param {
    lr_mult: 1
    decay_mult: 1
  }
  param {
    lr_mult: 2
    decay_mult: 1
  }
  inner_product_param {
    num_output: 1000
    weight_filler {
      type: "xavier"
    }
    bias_filler {
      type: "constant"
      value: 0
    }
  }
}
layer {
  name: "loss"
  type: "SoftmaxWithLoss"
  bottom: "fc1000"
  bottom: "label"
  top: "loss"
}
I0331 16:32:35.289137  8486 layer_factory.hpp:77] Creating layer data
I0331 16:32:35.289270  8486 db_lmdb.cpp:35] Opened lmdb /scratch/imagenet/lmdb_data/ilsvrc12_train_lmdb
I0331 16:32:35.328740  8486 net.cpp:86] Creating Layer data
I0331 16:32:35.328760  8486 net.cpp:382] data -> data
I0331 16:32:35.328796  8486 net.cpp:382] data -> label
I0331 16:32:35.328828  8486 data_transformer.cpp:25] Loading mean file from: /scratch/imagenet/lmdb_data/imagenet_mean.binaryproto
I0331 16:32:35.332504  8486 data_layer.cpp:45] output data size: 32,3,224,224
I0331 16:32:35.380100  8486 net.cpp:124] Setting up data
I0331 16:32:35.380133  8486 net.cpp:131] Top shape: 32 3 224 224 (4816896)
I0331 16:32:35.380138  8486 net.cpp:131] Top shape: 32 (32)
I0331 16:32:35.380141  8486 net.cpp:139] Memory required for data: 19267712
I0331 16:32:35.380152  8486 layer_factory.hpp:77] Creating layer conv1
I0331 16:32:35.380179  8486 net.cpp:86] Creating Layer conv1
I0331 16:32:35.380187  8486 net.cpp:408] conv1 <- data
I0331 16:32:35.380200  8486 net.cpp:382] conv1 -> conv1
I0331 16:32:44.018307  8486 net.cpp:124] Setting up conv1
I0331 16:32:44.018651  8486 net.cpp:131] Top shape: 32 64 112 112 (25690112)
I0331 16:32:44.018657  8486 net.cpp:139] Memory required for data: 122028160
I0331 16:32:44.018689  8486 layer_factory.hpp:77] Creating layer bn_conv1
I0331 16:32:44.018712  8486 net.cpp:86] Creating Layer bn_conv1
I0331 16:32:44.018716  8486 net.cpp:408] bn_conv1 <- conv1
I0331 16:32:44.018726  8486 net.cpp:369] bn_conv1 -> conv1 (in-place)
I0331 16:32:44.018959  8486 net.cpp:124] Setting up bn_conv1
I0331 16:32:44.018967  8486 net.cpp:131] Top shape: 32 64 112 112 (25690112)
I0331 16:32:44.018970  8486 net.cpp:139] Memory required for data: 224788608
I0331 16:32:44.018983  8486 layer_factory.hpp:77] Creating layer scale_conv1
I0331 16:32:44.018995  8486 net.cpp:86] Creating Layer scale_conv1
I0331 16:32:44.018997  8486 net.cpp:408] scale_conv1 <- conv1
I0331 16:32:44.019002  8486 net.cpp:369] scale_conv1 -> conv1 (in-place)
I0331 16:32:44.019052  8486 layer_factory.hpp:77] Creating layer scale_conv1
I0331 16:32:44.019206  8486 net.cpp:124] Setting up scale_conv1
I0331 16:32:44.019215  8486 net.cpp:131] Top shape: 32 64 112 112 (25690112)
I0331 16:32:44.019218  8486 net.cpp:139] Memory required for data: 327549056
I0331 16:32:44.019227  8486 layer_factory.hpp:77] Creating layer conv1_relu
I0331 16:32:44.019234  8486 net.cpp:86] Creating Layer conv1_relu
I0331 16:32:44.019237  8486 net.cpp:408] conv1_relu <- conv1
I0331 16:32:44.019243  8486 net.cpp:369] conv1_relu -> conv1 (in-place)
I0331 16:32:44.019641  8486 net.cpp:124] Setting up conv1_relu
I0331 16:32:44.019654  8486 net.cpp:131] Top shape: 32 64 112 112 (25690112)
I0331 16:32:44.019656  8486 net.cpp:139] Memory required for data: 430309504
I0331 16:32:44.019663  8486 layer_factory.hpp:77] Creating layer pool1
I0331 16:32:44.019673  8486 net.cpp:86] Creating Layer pool1
I0331 16:32:44.019676  8486 net.cpp:408] pool1 <- conv1
I0331 16:32:44.019682  8486 net.cpp:382] pool1 -> pool1
I0331 16:32:44.019739  8486 net.cpp:124] Setting up pool1
I0331 16:32:44.019748  8486 net.cpp:131] Top shape: 32 64 56 56 (6422528)
I0331 16:32:44.019752  8486 net.cpp:139] Memory required for data: 455999616
I0331 16:32:44.019754  8486 layer_factory.hpp:77] Creating layer pool1_pool1_0_split
I0331 16:32:44.019762  8486 net.cpp:86] Creating Layer pool1_pool1_0_split
I0331 16:32:44.019765  8486 net.cpp:408] pool1_pool1_0_split <- pool1
I0331 16:32:44.019773  8486 net.cpp:382] pool1_pool1_0_split -> pool1_pool1_0_split_0
I0331 16:32:44.019780  8486 net.cpp:382] pool1_pool1_0_split -> pool1_pool1_0_split_1
I0331 16:32:44.019814  8486 net.cpp:124] Setting up pool1_pool1_0_split
I0331 16:32:44.019819  8486 net.cpp:131] Top shape: 32 64 56 56 (6422528)
I0331 16:32:44.019824  8486 net.cpp:131] Top shape: 32 64 56 56 (6422528)
I0331 16:32:44.019826  8486 net.cpp:139] Memory required for data: 507379840
I0331 16:32:44.019829  8486 layer_factory.hpp:77] Creating layer res2a_branch1
I0331 16:32:44.019842  8486 net.cpp:86] Creating Layer res2a_branch1
I0331 16:32:44.019846  8486 net.cpp:408] res2a_branch1 <- pool1_pool1_0_split_0
I0331 16:32:44.019851  8486 net.cpp:382] res2a_branch1 -> res2a_branch1
I0331 16:32:44.022933  8486 net.cpp:124] Setting up res2a_branch1
I0331 16:32:44.022958  8486 net.cpp:131] Top shape: 32 64 56 56 (6422528)
I0331 16:32:44.022997  8486 net.cpp:139] Memory required for data: 533069952
I0331 16:32:44.023005  8486 layer_factory.hpp:77] Creating layer bn2a_branch1
I0331 16:32:44.023015  8486 net.cpp:86] Creating Layer bn2a_branch1
I0331 16:32:44.023018  8486 net.cpp:408] bn2a_branch1 <- res2a_branch1
I0331 16:32:44.023025  8486 net.cpp:369] bn2a_branch1 -> res2a_branch1 (in-place)
I0331 16:32:44.023207  8486 net.cpp:124] Setting up bn2a_branch1
I0331 16:32:44.023216  8486 net.cpp:131] Top shape: 32 64 56 56 (6422528)
I0331 16:32:44.023219  8486 net.cpp:139] Memory required for data: 558760064
I0331 16:32:44.023231  8486 layer_factory.hpp:77] Creating layer scale2a_branch1
I0331 16:32:44.023239  8486 net.cpp:86] Creating Layer scale2a_branch1
I0331 16:32:44.023242  8486 net.cpp:408] scale2a_branch1 <- res2a_branch1
I0331 16:32:44.023248  8486 net.cpp:369] scale2a_branch1 -> res2a_branch1 (in-place)
I0331 16:32:44.023286  8486 layer_factory.hpp:77] Creating layer scale2a_branch1
I0331 16:32:44.023385  8486 net.cpp:124] Setting up scale2a_branch1
I0331 16:32:44.023391  8486 net.cpp:131] Top shape: 32 64 56 56 (6422528)
I0331 16:32:44.023394  8486 net.cpp:139] Memory required for data: 584450176
I0331 16:32:44.023401  8486 layer_factory.hpp:77] Creating layer res2a_branch2a
I0331 16:32:44.023411  8486 net.cpp:86] Creating Layer res2a_branch2a
I0331 16:32:44.023414  8486 net.cpp:408] res2a_branch2a <- pool1_pool1_0_split_1
I0331 16:32:44.023420  8486 net.cpp:382] res2a_branch2a -> res2a_branch2a
I0331 16:32:44.026435  8486 net.cpp:124] Setting up res2a_branch2a
I0331 16:32:44.026450  8486 net.cpp:131] Top shape: 32 64 56 56 (6422528)
I0331 16:32:44.026453  8486 net.cpp:139] Memory required for data: 610140288
I0331 16:32:44.026460  8486 layer_factory.hpp:77] Creating layer bn2a_branch2a
I0331 16:32:44.026468  8486 net.cpp:86] Creating Layer bn2a_branch2a
I0331 16:32:44.026470  8486 net.cpp:408] bn2a_branch2a <- res2a_branch2a
I0331 16:32:44.026476  8486 net.cpp:369] bn2a_branch2a -> res2a_branch2a (in-place)
I0331 16:32:44.026649  8486 net.cpp:124] Setting up bn2a_branch2a
I0331 16:32:44.026657  8486 net.cpp:131] Top shape: 32 64 56 56 (6422528)
I0331 16:32:44.026660  8486 net.cpp:139] Memory required for data: 635830400
I0331 16:32:44.026667  8486 layer_factory.hpp:77] Creating layer scale2a_branch2a
I0331 16:32:44.026674  8486 net.cpp:86] Creating Layer scale2a_branch2a
I0331 16:32:44.026677  8486 net.cpp:408] scale2a_branch2a <- res2a_branch2a
I0331 16:32:44.026685  8486 net.cpp:369] scale2a_branch2a -> res2a_branch2a (in-place)
I0331 16:32:44.026726  8486 layer_factory.hpp:77] Creating layer scale2a_branch2a
I0331 16:32:44.026831  8486 net.cpp:124] Setting up scale2a_branch2a
I0331 16:32:44.026839  8486 net.cpp:131] Top shape: 32 64 56 56 (6422528)
I0331 16:32:44.026840  8486 net.cpp:139] Memory required for data: 661520512
I0331 16:32:44.026851  8486 layer_factory.hpp:77] Creating layer res2a_branch2a_relu
I0331 16:32:44.026859  8486 net.cpp:86] Creating Layer res2a_branch2a_relu
I0331 16:32:44.026861  8486 net.cpp:408] res2a_branch2a_relu <- res2a_branch2a
I0331 16:32:44.026866  8486 net.cpp:369] res2a_branch2a_relu -> res2a_branch2a (in-place)
I0331 16:32:44.027261  8486 net.cpp:124] Setting up res2a_branch2a_relu
I0331 16:32:44.027272  8486 net.cpp:131] Top shape: 32 64 56 56 (6422528)
I0331 16:32:44.027276  8486 net.cpp:139] Memory required for data: 687210624
I0331 16:32:44.027278  8486 layer_factory.hpp:77] Creating layer res2a_branch2b
I0331 16:32:44.027288  8486 net.cpp:86] Creating Layer res2a_branch2b
I0331 16:32:44.027293  8486 net.cpp:408] res2a_branch2b <- res2a_branch2a
I0331 16:32:44.027298  8486 net.cpp:382] res2a_branch2b -> res2a_branch2b
I0331 16:32:44.029047  8486 net.cpp:124] Setting up res2a_branch2b
I0331 16:32:44.029060  8486 net.cpp:131] Top shape: 32 64 56 56 (6422528)
I0331 16:32:44.029063  8486 net.cpp:139] Memory required for data: 712900736
I0331 16:32:44.029069  8486 layer_factory.hpp:77] Creating layer bn2a_branch2b
I0331 16:32:44.029076  8486 net.cpp:86] Creating Layer bn2a_branch2b
I0331 16:32:44.029105  8486 net.cpp:408] bn2a_branch2b <- res2a_branch2b
I0331 16:32:44.029114  8486 net.cpp:369] bn2a_branch2b -> res2a_branch2b (in-place)
I0331 16:32:44.029285  8486 net.cpp:124] Setting up bn2a_branch2b
I0331 16:32:44.029294  8486 net.cpp:131] Top shape: 32 64 56 56 (6422528)
I0331 16:32:44.029296  8486 net.cpp:139] Memory required for data: 738590848
I0331 16:32:44.029304  8486 layer_factory.hpp:77] Creating layer scale2a_branch2b
I0331 16:32:44.029311  8486 net.cpp:86] Creating Layer scale2a_branch2b
I0331 16:32:44.029314  8486 net.cpp:408] scale2a_branch2b <- res2a_branch2b
I0331 16:32:44.029320  8486 net.cpp:369] scale2a_branch2b -> res2a_branch2b (in-place)
I0331 16:32:44.029356  8486 layer_factory.hpp:77] Creating layer scale2a_branch2b
I0331 16:32:44.029459  8486 net.cpp:124] Setting up scale2a_branch2b
I0331 16:32:44.029466  8486 net.cpp:131] Top shape: 32 64 56 56 (6422528)
I0331 16:32:44.029469  8486 net.cpp:139] Memory required for data: 764280960
I0331 16:32:44.029477  8486 layer_factory.hpp:77] Creating layer res2a
I0331 16:32:44.029484  8486 net.cpp:86] Creating Layer res2a
I0331 16:32:44.029487  8486 net.cpp:408] res2a <- res2a_branch1
I0331 16:32:44.029491  8486 net.cpp:408] res2a <- res2a_branch2b
I0331 16:32:44.029498  8486 net.cpp:382] res2a -> res2a
I0331 16:32:44.029530  8486 net.cpp:124] Setting up res2a
I0331 16:32:44.029536  8486 net.cpp:131] Top shape: 32 64 56 56 (6422528)
I0331 16:32:44.029538  8486 net.cpp:139] Memory required for data: 789971072
I0331 16:32:44.029541  8486 layer_factory.hpp:77] Creating layer res2a_relu
I0331 16:32:44.029546  8486 net.cpp:86] Creating Layer res2a_relu
I0331 16:32:44.029549  8486 net.cpp:408] res2a_relu <- res2a
I0331 16:32:44.029556  8486 net.cpp:369] res2a_relu -> res2a (in-place)
I0331 16:32:44.030104  8486 net.cpp:124] Setting up res2a_relu
I0331 16:32:44.030118  8486 net.cpp:131] Top shape: 32 64 56 56 (6422528)
I0331 16:32:44.030122  8486 net.cpp:139] Memory required for data: 815661184
I0331 16:32:44.030125  8486 layer_factory.hpp:77] Creating layer res2a_res2a_relu_0_split
I0331 16:32:44.030133  8486 net.cpp:86] Creating Layer res2a_res2a_relu_0_split
I0331 16:32:44.030135  8486 net.cpp:408] res2a_res2a_relu_0_split <- res2a
I0331 16:32:44.030141  8486 net.cpp:382] res2a_res2a_relu_0_split -> res2a_res2a_relu_0_split_0
I0331 16:32:44.030149  8486 net.cpp:382] res2a_res2a_relu_0_split -> res2a_res2a_relu_0_split_1
I0331 16:32:44.030192  8486 net.cpp:124] Setting up res2a_res2a_relu_0_split
I0331 16:32:44.030198  8486 net.cpp:131] Top shape: 32 64 56 56 (6422528)
I0331 16:32:44.030202  8486 net.cpp:131] Top shape: 32 64 56 56 (6422528)
I0331 16:32:44.030205  8486 net.cpp:139] Memory required for data: 867041408
I0331 16:32:44.030208  8486 layer_factory.hpp:77] Creating layer res2b_branch2a
I0331 16:32:44.030220  8486 net.cpp:86] Creating Layer res2b_branch2a
I0331 16:32:44.030223  8486 net.cpp:408] res2b_branch2a <- res2a_res2a_relu_0_split_0
I0331 16:32:44.030230  8486 net.cpp:382] res2b_branch2a -> res2b_branch2a
I0331 16:32:44.032218  8486 net.cpp:124] Setting up res2b_branch2a
I0331 16:32:44.032234  8486 net.cpp:131] Top shape: 32 64 56 56 (6422528)
I0331 16:32:44.032238  8486 net.cpp:139] Memory required for data: 892731520
I0331 16:32:44.032243  8486 layer_factory.hpp:77] Creating layer bn2b_branch2a
I0331 16:32:44.032250  8486 net.cpp:86] Creating Layer bn2b_branch2a
I0331 16:32:44.032253  8486 net.cpp:408] bn2b_branch2a <- res2b_branch2a
I0331 16:32:44.032258  8486 net.cpp:369] bn2b_branch2a -> res2b_branch2a (in-place)
I0331 16:32:44.032443  8486 net.cpp:124] Setting up bn2b_branch2a
I0331 16:32:44.032450  8486 net.cpp:131] Top shape: 32 64 56 56 (6422528)
I0331 16:32:44.032452  8486 net.cpp:139] Memory required for data: 918421632
I0331 16:32:44.032459  8486 layer_factory.hpp:77] Creating layer scale2b_branch2a
I0331 16:32:44.032464  8486 net.cpp:86] Creating Layer scale2b_branch2a
I0331 16:32:44.032469  8486 net.cpp:408] scale2b_branch2a <- res2b_branch2a
I0331 16:32:44.032476  8486 net.cpp:369] scale2b_branch2a -> res2b_branch2a (in-place)
I0331 16:32:44.032541  8486 layer_factory.hpp:77] Creating layer scale2b_branch2a
I0331 16:32:44.032655  8486 net.cpp:124] Setting up scale2b_branch2a
I0331 16:32:44.032662  8486 net.cpp:131] Top shape: 32 64 56 56 (6422528)
I0331 16:32:44.032665  8486 net.cpp:139] Memory required for data: 944111744
I0331 16:32:44.032670  8486 layer_factory.hpp:77] Creating layer res2b_branch2a_relu
I0331 16:32:44.032675  8486 net.cpp:86] Creating Layer res2b_branch2a_relu
I0331 16:32:44.032678  8486 net.cpp:408] res2b_branch2a_relu <- res2b_branch2a
I0331 16:32:44.032691  8486 net.cpp:369] res2b_branch2a_relu -> res2b_branch2a (in-place)
I0331 16:32:44.033164  8486 net.cpp:124] Setting up res2b_branch2a_relu
I0331 16:32:44.033174  8486 net.cpp:131] Top shape: 32 64 56 56 (6422528)
I0331 16:32:44.033179  8486 net.cpp:139] Memory required for data: 969801856
I0331 16:32:44.033181  8486 layer_factory.hpp:77] Creating layer res2b_branch2b
I0331 16:32:44.033192  8486 net.cpp:86] Creating Layer res2b_branch2b
I0331 16:32:44.033196  8486 net.cpp:408] res2b_branch2b <- res2b_branch2a
I0331 16:32:44.033205  8486 net.cpp:382] res2b_branch2b -> res2b_branch2b
I0331 16:32:44.035464  8486 net.cpp:124] Setting up res2b_branch2b
I0331 16:32:44.035477  8486 net.cpp:131] Top shape: 32 64 56 56 (6422528)
I0331 16:32:44.035480  8486 net.cpp:139] Memory required for data: 995491968
I0331 16:32:44.035486  8486 layer_factory.hpp:77] Creating layer bn2b_branch2b
I0331 16:32:44.035495  8486 net.cpp:86] Creating Layer bn2b_branch2b
I0331 16:32:44.035498  8486 net.cpp:408] bn2b_branch2b <- res2b_branch2b
I0331 16:32:44.035503  8486 net.cpp:369] bn2b_branch2b -> res2b_branch2b (in-place)
I0331 16:32:44.035689  8486 net.cpp:124] Setting up bn2b_branch2b
I0331 16:32:44.035697  8486 net.cpp:131] Top shape: 32 64 56 56 (6422528)
I0331 16:32:44.035701  8486 net.cpp:139] Memory required for data: 1021182080
I0331 16:32:44.035710  8486 layer_factory.hpp:77] Creating layer scale2b_branch2b
I0331 16:32:44.035719  8486 net.cpp:86] Creating Layer scale2b_branch2b
I0331 16:32:44.035722  8486 net.cpp:408] scale2b_branch2b <- res2b_branch2b
I0331 16:32:44.035728  8486 net.cpp:369] scale2b_branch2b -> res2b_branch2b (in-place)
I0331 16:32:44.035769  8486 layer_factory.hpp:77] Creating layer scale2b_branch2b
I0331 16:32:44.035881  8486 net.cpp:124] Setting up scale2b_branch2b
I0331 16:32:44.035888  8486 net.cpp:131] Top shape: 32 64 56 56 (6422528)
I0331 16:32:44.035890  8486 net.cpp:139] Memory required for data: 1046872192
I0331 16:32:44.035895  8486 layer_factory.hpp:77] Creating layer res2b
I0331 16:32:44.035902  8486 net.cpp:86] Creating Layer res2b
I0331 16:32:44.035905  8486 net.cpp:408] res2b <- res2a_res2a_relu_0_split_1
I0331 16:32:44.035909  8486 net.cpp:408] res2b <- res2b_branch2b
I0331 16:32:44.035915  8486 net.cpp:382] res2b -> res2b
I0331 16:32:44.035940  8486 net.cpp:124] Setting up res2b
I0331 16:32:44.035945  8486 net.cpp:131] Top shape: 32 64 56 56 (6422528)
I0331 16:32:44.035948  8486 net.cpp:139] Memory required for data: 1072562304
I0331 16:32:44.035953  8486 layer_factory.hpp:77] Creating layer res2b_relu
I0331 16:32:44.035960  8486 net.cpp:86] Creating Layer res2b_relu
I0331 16:32:44.035964  8486 net.cpp:408] res2b_relu <- res2b
I0331 16:32:44.035969  8486 net.cpp:369] res2b_relu -> res2b (in-place)
I0331 16:32:44.036429  8486 net.cpp:124] Setting up res2b_relu
I0331 16:32:44.036440  8486 net.cpp:131] Top shape: 32 64 56 56 (6422528)
I0331 16:32:44.036442  8486 net.cpp:139] Memory required for data: 1098252416
I0331 16:32:44.036447  8486 layer_factory.hpp:77] Creating layer res2b_res2b_relu_0_split
I0331 16:32:44.036453  8486 net.cpp:86] Creating Layer res2b_res2b_relu_0_split
I0331 16:32:44.036458  8486 net.cpp:408] res2b_res2b_relu_0_split <- res2b
I0331 16:32:44.036463  8486 net.cpp:382] res2b_res2b_relu_0_split -> res2b_res2b_relu_0_split_0
I0331 16:32:44.036471  8486 net.cpp:382] res2b_res2b_relu_0_split -> res2b_res2b_relu_0_split_1
I0331 16:32:44.036520  8486 net.cpp:124] Setting up res2b_res2b_relu_0_split
I0331 16:32:44.036530  8486 net.cpp:131] Top shape: 32 64 56 56 (6422528)
I0331 16:32:44.036547  8486 net.cpp:131] Top shape: 32 64 56 56 (6422528)
I0331 16:32:44.036550  8486 net.cpp:139] Memory required for data: 1149632640
I0331 16:32:44.036553  8486 layer_factory.hpp:77] Creating layer res2c_branch2a
I0331 16:32:44.036564  8486 net.cpp:86] Creating Layer res2c_branch2a
I0331 16:32:44.036567  8486 net.cpp:408] res2c_branch2a <- res2b_res2b_relu_0_split_0
I0331 16:32:44.036572  8486 net.cpp:382] res2c_branch2a -> res2c_branch2a
I0331 16:32:44.038760  8486 net.cpp:124] Setting up res2c_branch2a
I0331 16:32:44.038774  8486 net.cpp:131] Top shape: 32 64 56 56 (6422528)
I0331 16:32:44.038777  8486 net.cpp:139] Memory required for data: 1175322752
I0331 16:32:44.038782  8486 layer_factory.hpp:77] Creating layer bn2c_branch2a
I0331 16:32:44.038794  8486 net.cpp:86] Creating Layer bn2c_branch2a
I0331 16:32:44.038799  8486 net.cpp:408] bn2c_branch2a <- res2c_branch2a
I0331 16:32:44.038803  8486 net.cpp:369] bn2c_branch2a -> res2c_branch2a (in-place)
I0331 16:32:44.038990  8486 net.cpp:124] Setting up bn2c_branch2a
I0331 16:32:44.038998  8486 net.cpp:131] Top shape: 32 64 56 56 (6422528)
I0331 16:32:44.039001  8486 net.cpp:139] Memory required for data: 1201012864
I0331 16:32:44.039010  8486 layer_factory.hpp:77] Creating layer scale2c_branch2a
I0331 16:32:44.039021  8486 net.cpp:86] Creating Layer scale2c_branch2a
I0331 16:32:44.039023  8486 net.cpp:408] scale2c_branch2a <- res2c_branch2a
I0331 16:32:44.039028  8486 net.cpp:369] scale2c_branch2a -> res2c_branch2a (in-place)
I0331 16:32:44.039072  8486 layer_factory.hpp:77] Creating layer scale2c_branch2a
I0331 16:32:44.039199  8486 net.cpp:124] Setting up scale2c_branch2a
I0331 16:32:44.039207  8486 net.cpp:131] Top shape: 32 64 56 56 (6422528)
I0331 16:32:44.039211  8486 net.cpp:139] Memory required for data: 1226702976
I0331 16:32:44.039216  8486 layer_factory.hpp:77] Creating layer res2c_branch2a_relu
I0331 16:32:44.039224  8486 net.cpp:86] Creating Layer res2c_branch2a_relu
I0331 16:32:44.039227  8486 net.cpp:408] res2c_branch2a_relu <- res2c_branch2a
I0331 16:32:44.039232  8486 net.cpp:369] res2c_branch2a_relu -> res2c_branch2a (in-place)
I0331 16:32:44.039860  8486 net.cpp:124] Setting up res2c_branch2a_relu
I0331 16:32:44.039873  8486 net.cpp:131] Top shape: 32 64 56 56 (6422528)
I0331 16:32:44.039876  8486 net.cpp:139] Memory required for data: 1252393088
I0331 16:32:44.039880  8486 layer_factory.hpp:77] Creating layer res2c_branch2b
I0331 16:32:44.039891  8486 net.cpp:86] Creating Layer res2c_branch2b
I0331 16:32:44.039894  8486 net.cpp:408] res2c_branch2b <- res2c_branch2a
I0331 16:32:44.039901  8486 net.cpp:382] res2c_branch2b -> res2c_branch2b
I0331 16:32:44.042110  8486 net.cpp:124] Setting up res2c_branch2b
I0331 16:32:44.042124  8486 net.cpp:131] Top shape: 32 64 56 56 (6422528)
I0331 16:32:44.042126  8486 net.cpp:139] Memory required for data: 1278083200
I0331 16:32:44.042132  8486 layer_factory.hpp:77] Creating layer bn2c_branch2b
I0331 16:32:44.042141  8486 net.cpp:86] Creating Layer bn2c_branch2b
I0331 16:32:44.042145  8486 net.cpp:408] bn2c_branch2b <- res2c_branch2b
I0331 16:32:44.042150  8486 net.cpp:369] bn2c_branch2b -> res2c_branch2b (in-place)
I0331 16:32:44.042346  8486 net.cpp:124] Setting up bn2c_branch2b
I0331 16:32:44.042354  8486 net.cpp:131] Top shape: 32 64 56 56 (6422528)
I0331 16:32:44.042357  8486 net.cpp:139] Memory required for data: 1303773312
I0331 16:32:44.042364  8486 layer_factory.hpp:77] Creating layer scale2c_branch2b
I0331 16:32:44.042373  8486 net.cpp:86] Creating Layer scale2c_branch2b
I0331 16:32:44.042377  8486 net.cpp:408] scale2c_branch2b <- res2c_branch2b
I0331 16:32:44.042382  8486 net.cpp:369] scale2c_branch2b -> res2c_branch2b (in-place)
I0331 16:32:44.042423  8486 layer_factory.hpp:77] Creating layer scale2c_branch2b
I0331 16:32:44.042544  8486 net.cpp:124] Setting up scale2c_branch2b
I0331 16:32:44.042551  8486 net.cpp:131] Top shape: 32 64 56 56 (6422528)
I0331 16:32:44.042554  8486 net.cpp:139] Memory required for data: 1329463424
I0331 16:32:44.042577  8486 layer_factory.hpp:77] Creating layer res2c
I0331 16:32:44.042583  8486 net.cpp:86] Creating Layer res2c
I0331 16:32:44.042587  8486 net.cpp:408] res2c <- res2b_res2b_relu_0_split_1
I0331 16:32:44.042590  8486 net.cpp:408] res2c <- res2c_branch2b
I0331 16:32:44.042598  8486 net.cpp:382] res2c -> res2c
I0331 16:32:44.042625  8486 net.cpp:124] Setting up res2c
I0331 16:32:44.042632  8486 net.cpp:131] Top shape: 32 64 56 56 (6422528)
I0331 16:32:44.042634  8486 net.cpp:139] Memory required for data: 1355153536
I0331 16:32:44.042637  8486 layer_factory.hpp:77] Creating layer res2c_relu
I0331 16:32:44.042644  8486 net.cpp:86] Creating Layer res2c_relu
I0331 16:32:44.042649  8486 net.cpp:408] res2c_relu <- res2c
I0331 16:32:44.042652  8486 net.cpp:369] res2c_relu -> res2c (in-place)
I0331 16:32:44.043130  8486 net.cpp:124] Setting up res2c_relu
I0331 16:32:44.043141  8486 net.cpp:131] Top shape: 32 64 56 56 (6422528)
I0331 16:32:44.043145  8486 net.cpp:139] Memory required for data: 1380843648
I0331 16:32:44.043148  8486 layer_factory.hpp:77] Creating layer res2c_res2c_relu_0_split
I0331 16:32:44.043156  8486 net.cpp:86] Creating Layer res2c_res2c_relu_0_split
I0331 16:32:44.043159  8486 net.cpp:408] res2c_res2c_relu_0_split <- res2c
I0331 16:32:44.043165  8486 net.cpp:382] res2c_res2c_relu_0_split -> res2c_res2c_relu_0_split_0
I0331 16:32:44.043176  8486 net.cpp:382] res2c_res2c_relu_0_split -> res2c_res2c_relu_0_split_1
I0331 16:32:44.043220  8486 net.cpp:124] Setting up res2c_res2c_relu_0_split
I0331 16:32:44.043226  8486 net.cpp:131] Top shape: 32 64 56 56 (6422528)
I0331 16:32:44.043231  8486 net.cpp:131] Top shape: 32 64 56 56 (6422528)
I0331 16:32:44.043233  8486 net.cpp:139] Memory required for data: 1432223872
I0331 16:32:44.043237  8486 layer_factory.hpp:77] Creating layer res3a_branch1
I0331 16:32:44.043247  8486 net.cpp:86] Creating Layer res3a_branch1
I0331 16:32:44.043251  8486 net.cpp:408] res3a_branch1 <- res2c_res2c_relu_0_split_0
I0331 16:32:44.043258  8486 net.cpp:382] res3a_branch1 -> res3a_branch1
I0331 16:32:44.045110  8486 net.cpp:124] Setting up res3a_branch1
I0331 16:32:44.045125  8486 net.cpp:131] Top shape: 32 128 28 28 (3211264)
I0331 16:32:44.045128  8486 net.cpp:139] Memory required for data: 1445068928
I0331 16:32:44.045135  8486 layer_factory.hpp:77] Creating layer bn3a_branch1
I0331 16:32:44.045140  8486 net.cpp:86] Creating Layer bn3a_branch1
I0331 16:32:44.045143  8486 net.cpp:408] bn3a_branch1 <- res3a_branch1
I0331 16:32:44.045148  8486 net.cpp:369] bn3a_branch1 -> res3a_branch1 (in-place)
I0331 16:32:44.046478  8486 net.cpp:124] Setting up bn3a_branch1
I0331 16:32:44.046491  8486 net.cpp:131] Top shape: 32 128 28 28 (3211264)
I0331 16:32:44.046494  8486 net.cpp:139] Memory required for data: 1457913984
I0331 16:32:44.046501  8486 layer_factory.hpp:77] Creating layer scale3a_branch1
I0331 16:32:44.046510  8486 net.cpp:86] Creating Layer scale3a_branch1
I0331 16:32:44.046514  8486 net.cpp:408] scale3a_branch1 <- res3a_branch1
I0331 16:32:44.046519  8486 net.cpp:369] scale3a_branch1 -> res3a_branch1 (in-place)
I0331 16:32:44.046566  8486 layer_factory.hpp:77] Creating layer scale3a_branch1
I0331 16:32:44.046671  8486 net.cpp:124] Setting up scale3a_branch1
I0331 16:32:44.046679  8486 net.cpp:131] Top shape: 32 128 28 28 (3211264)
I0331 16:32:44.046680  8486 net.cpp:139] Memory required for data: 1470759040
I0331 16:32:44.046686  8486 layer_factory.hpp:77] Creating layer res3a_branch2a
I0331 16:32:44.046695  8486 net.cpp:86] Creating Layer res3a_branch2a
I0331 16:32:44.046700  8486 net.cpp:408] res3a_branch2a <- res2c_res2c_relu_0_split_1
I0331 16:32:44.046705  8486 net.cpp:382] res3a_branch2a -> res3a_branch2a
I0331 16:32:44.049214  8486 net.cpp:124] Setting up res3a_branch2a
I0331 16:32:44.049229  8486 net.cpp:131] Top shape: 32 128 28 28 (3211264)
I0331 16:32:44.049232  8486 net.cpp:139] Memory required for data: 1483604096
I0331 16:32:44.049239  8486 layer_factory.hpp:77] Creating layer bn3a_branch2a
I0331 16:32:44.049247  8486 net.cpp:86] Creating Layer bn3a_branch2a
I0331 16:32:44.049265  8486 net.cpp:408] bn3a_branch2a <- res3a_branch2a
I0331 16:32:44.049273  8486 net.cpp:369] bn3a_branch2a -> res3a_branch2a (in-place)
I0331 16:32:44.049453  8486 net.cpp:124] Setting up bn3a_branch2a
I0331 16:32:44.049460  8486 net.cpp:131] Top shape: 32 128 28 28 (3211264)
I0331 16:32:44.049463  8486 net.cpp:139] Memory required for data: 1496449152
I0331 16:32:44.049469  8486 layer_factory.hpp:77] Creating layer scale3a_branch2a
I0331 16:32:44.049476  8486 net.cpp:86] Creating Layer scale3a_branch2a
I0331 16:32:44.049480  8486 net.cpp:408] scale3a_branch2a <- res3a_branch2a
I0331 16:32:44.049484  8486 net.cpp:369] scale3a_branch2a -> res3a_branch2a (in-place)
I0331 16:32:44.049522  8486 layer_factory.hpp:77] Creating layer scale3a_branch2a
I0331 16:32:44.049623  8486 net.cpp:124] Setting up scale3a_branch2a
I0331 16:32:44.049630  8486 net.cpp:131] Top shape: 32 128 28 28 (3211264)
I0331 16:32:44.049633  8486 net.cpp:139] Memory required for data: 1509294208
I0331 16:32:44.049638  8486 layer_factory.hpp:77] Creating layer res3a_branch2a_relu
I0331 16:32:44.049645  8486 net.cpp:86] Creating Layer res3a_branch2a_relu
I0331 16:32:44.049649  8486 net.cpp:408] res3a_branch2a_relu <- res3a_branch2a
I0331 16:32:44.049652  8486 net.cpp:369] res3a_branch2a_relu -> res3a_branch2a (in-place)
I0331 16:32:44.050122  8486 net.cpp:124] Setting up res3a_branch2a_relu
I0331 16:32:44.050132  8486 net.cpp:131] Top shape: 32 128 28 28 (3211264)
I0331 16:32:44.050137  8486 net.cpp:139] Memory required for data: 1522139264
I0331 16:32:44.050139  8486 layer_factory.hpp:77] Creating layer res3a_branch2b
I0331 16:32:44.050149  8486 net.cpp:86] Creating Layer res3a_branch2b
I0331 16:32:44.050153  8486 net.cpp:408] res3a_branch2b <- res3a_branch2a
I0331 16:32:44.050160  8486 net.cpp:382] res3a_branch2b -> res3a_branch2b
I0331 16:32:44.053237  8486 net.cpp:124] Setting up res3a_branch2b
I0331 16:32:44.053253  8486 net.cpp:131] Top shape: 32 128 28 28 (3211264)
I0331 16:32:44.053256  8486 net.cpp:139] Memory required for data: 1534984320
I0331 16:32:44.053263  8486 layer_factory.hpp:77] Creating layer bn3a_branch2b
I0331 16:32:44.053269  8486 net.cpp:86] Creating Layer bn3a_branch2b
I0331 16:32:44.053273  8486 net.cpp:408] bn3a_branch2b <- res3a_branch2b
I0331 16:32:44.053278  8486 net.cpp:369] bn3a_branch2b -> res3a_branch2b (in-place)
I0331 16:32:44.053467  8486 net.cpp:124] Setting up bn3a_branch2b
I0331 16:32:44.053473  8486 net.cpp:131] Top shape: 32 128 28 28 (3211264)
I0331 16:32:44.053477  8486 net.cpp:139] Memory required for data: 1547829376
I0331 16:32:44.053483  8486 layer_factory.hpp:77] Creating layer scale3a_branch2b
I0331 16:32:44.053488  8486 net.cpp:86] Creating Layer scale3a_branch2b
I0331 16:32:44.053491  8486 net.cpp:408] scale3a_branch2b <- res3a_branch2b
I0331 16:32:44.053495  8486 net.cpp:369] scale3a_branch2b -> res3a_branch2b (in-place)
I0331 16:32:44.053537  8486 layer_factory.hpp:77] Creating layer scale3a_branch2b
I0331 16:32:44.053639  8486 net.cpp:124] Setting up scale3a_branch2b
I0331 16:32:44.053647  8486 net.cpp:131] Top shape: 32 128 28 28 (3211264)
I0331 16:32:44.053648  8486 net.cpp:139] Memory required for data: 1560674432
I0331 16:32:44.053666  8486 layer_factory.hpp:77] Creating layer res3a
I0331 16:32:44.053673  8486 net.cpp:86] Creating Layer res3a
I0331 16:32:44.053676  8486 net.cpp:408] res3a <- res3a_branch1
I0331 16:32:44.053680  8486 net.cpp:408] res3a <- res3a_branch2b
I0331 16:32:44.053686  8486 net.cpp:382] res3a -> res3a
I0331 16:32:44.053712  8486 net.cpp:124] Setting up res3a
I0331 16:32:44.053717  8486 net.cpp:131] Top shape: 32 128 28 28 (3211264)
I0331 16:32:44.053720  8486 net.cpp:139] Memory required for data: 1573519488
I0331 16:32:44.053723  8486 layer_factory.hpp:77] Creating layer res3a_relu
I0331 16:32:44.053728  8486 net.cpp:86] Creating Layer res3a_relu
I0331 16:32:44.053731  8486 net.cpp:408] res3a_relu <- res3a
I0331 16:32:44.053735  8486 net.cpp:369] res3a_relu -> res3a (in-place)
I0331 16:32:44.054373  8486 net.cpp:124] Setting up res3a_relu
I0331 16:32:44.054388  8486 net.cpp:131] Top shape: 32 128 28 28 (3211264)
I0331 16:32:44.054404  8486 net.cpp:139] Memory required for data: 1586364544
I0331 16:32:44.054409  8486 layer_factory.hpp:77] Creating layer res3a_res3a_relu_0_split
I0331 16:32:44.054416  8486 net.cpp:86] Creating Layer res3a_res3a_relu_0_split
I0331 16:32:44.054419  8486 net.cpp:408] res3a_res3a_relu_0_split <- res3a
I0331 16:32:44.054427  8486 net.cpp:382] res3a_res3a_relu_0_split -> res3a_res3a_relu_0_split_0
I0331 16:32:44.054435  8486 net.cpp:382] res3a_res3a_relu_0_split -> res3a_res3a_relu_0_split_1
I0331 16:32:44.054481  8486 net.cpp:124] Setting up res3a_res3a_relu_0_split
I0331 16:32:44.054488  8486 net.cpp:131] Top shape: 32 128 28 28 (3211264)
I0331 16:32:44.054491  8486 net.cpp:131] Top shape: 32 128 28 28 (3211264)
I0331 16:32:44.054493  8486 net.cpp:139] Memory required for data: 1612054656
I0331 16:32:44.054497  8486 layer_factory.hpp:77] Creating layer res3b_branch2a
I0331 16:32:44.054507  8486 net.cpp:86] Creating Layer res3b_branch2a
I0331 16:32:44.054509  8486 net.cpp:408] res3b_branch2a <- res3a_res3a_relu_0_split_0
I0331 16:32:44.054514  8486 net.cpp:382] res3b_branch2a -> res3b_branch2a
I0331 16:32:44.058593  8486 net.cpp:124] Setting up res3b_branch2a
I0331 16:32:44.058606  8486 net.cpp:131] Top shape: 32 128 28 28 (3211264)
I0331 16:32:44.058609  8486 net.cpp:139] Memory required for data: 1624899712
I0331 16:32:44.058614  8486 layer_factory.hpp:77] Creating layer bn3b_branch2a
I0331 16:32:44.058622  8486 net.cpp:86] Creating Layer bn3b_branch2a
I0331 16:32:44.058626  8486 net.cpp:408] bn3b_branch2a <- res3b_branch2a
I0331 16:32:44.058631  8486 net.cpp:369] bn3b_branch2a -> res3b_branch2a (in-place)
I0331 16:32:44.058820  8486 net.cpp:124] Setting up bn3b_branch2a
I0331 16:32:44.058828  8486 net.cpp:131] Top shape: 32 128 28 28 (3211264)
I0331 16:32:44.058831  8486 net.cpp:139] Memory required for data: 1637744768
I0331 16:32:44.058837  8486 layer_factory.hpp:77] Creating layer scale3b_branch2a
I0331 16:32:44.058845  8486 net.cpp:86] Creating Layer scale3b_branch2a
I0331 16:32:44.058847  8486 net.cpp:408] scale3b_branch2a <- res3b_branch2a
I0331 16:32:44.058852  8486 net.cpp:369] scale3b_branch2a -> res3b_branch2a (in-place)
I0331 16:32:44.058893  8486 layer_factory.hpp:77] Creating layer scale3b_branch2a
I0331 16:32:44.058995  8486 net.cpp:124] Setting up scale3b_branch2a
I0331 16:32:44.059001  8486 net.cpp:131] Top shape: 32 128 28 28 (3211264)
I0331 16:32:44.059005  8486 net.cpp:139] Memory required for data: 1650589824
I0331 16:32:44.059010  8486 layer_factory.hpp:77] Creating layer res3b_branch2a_relu
I0331 16:32:44.059016  8486 net.cpp:86] Creating Layer res3b_branch2a_relu
I0331 16:32:44.059020  8486 net.cpp:408] res3b_branch2a_relu <- res3b_branch2a
I0331 16:32:44.059026  8486 net.cpp:369] res3b_branch2a_relu -> res3b_branch2a (in-place)
I0331 16:32:44.059545  8486 net.cpp:124] Setting up res3b_branch2a_relu
I0331 16:32:44.059558  8486 net.cpp:131] Top shape: 32 128 28 28 (3211264)
I0331 16:32:44.059561  8486 net.cpp:139] Memory required for data: 1663434880
I0331 16:32:44.059564  8486 layer_factory.hpp:77] Creating layer res3b_branch2b
I0331 16:32:44.059573  8486 net.cpp:86] Creating Layer res3b_branch2b
I0331 16:32:44.059577  8486 net.cpp:408] res3b_branch2b <- res3b_branch2a
I0331 16:32:44.059582  8486 net.cpp:382] res3b_branch2b -> res3b_branch2b
I0331 16:32:44.062512  8486 net.cpp:124] Setting up res3b_branch2b
I0331 16:32:44.062525  8486 net.cpp:131] Top shape: 32 128 28 28 (3211264)
I0331 16:32:44.062528  8486 net.cpp:139] Memory required for data: 1676279936
I0331 16:32:44.062533  8486 layer_factory.hpp:77] Creating layer bn3b_branch2b
I0331 16:32:44.062539  8486 net.cpp:86] Creating Layer bn3b_branch2b
I0331 16:32:44.062543  8486 net.cpp:408] bn3b_branch2b <- res3b_branch2b
I0331 16:32:44.062551  8486 net.cpp:369] bn3b_branch2b -> res3b_branch2b (in-place)
I0331 16:32:44.062737  8486 net.cpp:124] Setting up bn3b_branch2b
I0331 16:32:44.062744  8486 net.cpp:131] Top shape: 32 128 28 28 (3211264)
I0331 16:32:44.062752  8486 net.cpp:139] Memory required for data: 1689124992
I0331 16:32:44.062770  8486 layer_factory.hpp:77] Creating layer scale3b_branch2b
I0331 16:32:44.062777  8486 net.cpp:86] Creating Layer scale3b_branch2b
I0331 16:32:44.062781  8486 net.cpp:408] scale3b_branch2b <- res3b_branch2b
I0331 16:32:44.062789  8486 net.cpp:369] scale3b_branch2b -> res3b_branch2b (in-place)
I0331 16:32:44.062830  8486 layer_factory.hpp:77] Creating layer scale3b_branch2b
I0331 16:32:44.062937  8486 net.cpp:124] Setting up scale3b_branch2b
I0331 16:32:44.062943  8486 net.cpp:131] Top shape: 32 128 28 28 (3211264)
I0331 16:32:44.062947  8486 net.cpp:139] Memory required for data: 1701970048
I0331 16:32:44.062952  8486 layer_factory.hpp:77] Creating layer res3b
I0331 16:32:44.062958  8486 net.cpp:86] Creating Layer res3b
I0331 16:32:44.062963  8486 net.cpp:408] res3b <- res3a_res3a_relu_0_split_1
I0331 16:32:44.062968  8486 net.cpp:408] res3b <- res3b_branch2b
I0331 16:32:44.062971  8486 net.cpp:382] res3b -> res3b
I0331 16:32:44.062999  8486 net.cpp:124] Setting up res3b
I0331 16:32:44.063004  8486 net.cpp:131] Top shape: 32 128 28 28 (3211264)
I0331 16:32:44.063006  8486 net.cpp:139] Memory required for data: 1714815104
I0331 16:32:44.063009  8486 layer_factory.hpp:77] Creating layer res3b_relu
I0331 16:32:44.063014  8486 net.cpp:86] Creating Layer res3b_relu
I0331 16:32:44.063017  8486 net.cpp:408] res3b_relu <- res3b
I0331 16:32:44.063022  8486 net.cpp:369] res3b_relu -> res3b (in-place)
I0331 16:32:44.063643  8486 net.cpp:124] Setting up res3b_relu
I0331 16:32:44.063657  8486 net.cpp:131] Top shape: 32 128 28 28 (3211264)
I0331 16:32:44.063661  8486 net.cpp:139] Memory required for data: 1727660160
I0331 16:32:44.063664  8486 layer_factory.hpp:77] Creating layer res3b_res3b_relu_0_split
I0331 16:32:44.063670  8486 net.cpp:86] Creating Layer res3b_res3b_relu_0_split
I0331 16:32:44.063674  8486 net.cpp:408] res3b_res3b_relu_0_split <- res3b
I0331 16:32:44.063683  8486 net.cpp:382] res3b_res3b_relu_0_split -> res3b_res3b_relu_0_split_0
I0331 16:32:44.063689  8486 net.cpp:382] res3b_res3b_relu_0_split -> res3b_res3b_relu_0_split_1
I0331 16:32:44.063741  8486 net.cpp:124] Setting up res3b_res3b_relu_0_split
I0331 16:32:44.063750  8486 net.cpp:131] Top shape: 32 128 28 28 (3211264)
I0331 16:32:44.063755  8486 net.cpp:131] Top shape: 32 128 28 28 (3211264)
I0331 16:32:44.063756  8486 net.cpp:139] Memory required for data: 1753350272
I0331 16:32:44.063760  8486 layer_factory.hpp:77] Creating layer res3c_branch2a
I0331 16:32:44.063767  8486 net.cpp:86] Creating Layer res3c_branch2a
I0331 16:32:44.063771  8486 net.cpp:408] res3c_branch2a <- res3b_res3b_relu_0_split_0
I0331 16:32:44.063778  8486 net.cpp:382] res3c_branch2a -> res3c_branch2a
I0331 16:32:44.066759  8486 net.cpp:124] Setting up res3c_branch2a
I0331 16:32:44.066777  8486 net.cpp:131] Top shape: 32 128 28 28 (3211264)
I0331 16:32:44.066781  8486 net.cpp:139] Memory required for data: 1766195328
I0331 16:32:44.066787  8486 layer_factory.hpp:77] Creating layer bn3c_branch2a
I0331 16:32:44.066807  8486 net.cpp:86] Creating Layer bn3c_branch2a
I0331 16:32:44.066810  8486 net.cpp:408] bn3c_branch2a <- res3c_branch2a
I0331 16:32:44.066817  8486 net.cpp:369] bn3c_branch2a -> res3c_branch2a (in-place)
I0331 16:32:44.067003  8486 net.cpp:124] Setting up bn3c_branch2a
I0331 16:32:44.067009  8486 net.cpp:131] Top shape: 32 128 28 28 (3211264)
I0331 16:32:44.067013  8486 net.cpp:139] Memory required for data: 1779040384
I0331 16:32:44.067019  8486 layer_factory.hpp:77] Creating layer scale3c_branch2a
I0331 16:32:44.067024  8486 net.cpp:86] Creating Layer scale3c_branch2a
I0331 16:32:44.067028  8486 net.cpp:408] scale3c_branch2a <- res3c_branch2a
I0331 16:32:44.067034  8486 net.cpp:369] scale3c_branch2a -> res3c_branch2a (in-place)
I0331 16:32:44.067070  8486 layer_factory.hpp:77] Creating layer scale3c_branch2a
I0331 16:32:44.067185  8486 net.cpp:124] Setting up scale3c_branch2a
I0331 16:32:44.067193  8486 net.cpp:131] Top shape: 32 128 28 28 (3211264)
I0331 16:32:44.067199  8486 net.cpp:139] Memory required for data: 1791885440
I0331 16:32:44.067221  8486 layer_factory.hpp:77] Creating layer res3c_branch2a_relu
I0331 16:32:44.067226  8486 net.cpp:86] Creating Layer res3c_branch2a_relu
I0331 16:32:44.067229  8486 net.cpp:408] res3c_branch2a_relu <- res3c_branch2a
I0331 16:32:44.067234  8486 net.cpp:369] res3c_branch2a_relu -> res3c_branch2a (in-place)
I0331 16:32:44.067698  8486 net.cpp:124] Setting up res3c_branch2a_relu
I0331 16:32:44.067708  8486 net.cpp:131] Top shape: 32 128 28 28 (3211264)
I0331 16:32:44.067711  8486 net.cpp:139] Memory required for data: 1804730496
I0331 16:32:44.067716  8486 layer_factory.hpp:77] Creating layer res3c_branch2b
I0331 16:32:44.067724  8486 net.cpp:86] Creating Layer res3c_branch2b
I0331 16:32:44.067728  8486 net.cpp:408] res3c_branch2b <- res3c_branch2a
I0331 16:32:44.067735  8486 net.cpp:382] res3c_branch2b -> res3c_branch2b
I0331 16:32:44.071939  8486 net.cpp:124] Setting up res3c_branch2b
I0331 16:32:44.071954  8486 net.cpp:131] Top shape: 32 128 28 28 (3211264)
I0331 16:32:44.071956  8486 net.cpp:139] Memory required for data: 1817575552
I0331 16:32:44.071961  8486 layer_factory.hpp:77] Creating layer bn3c_branch2b
I0331 16:32:44.071969  8486 net.cpp:86] Creating Layer bn3c_branch2b
I0331 16:32:44.071974  8486 net.cpp:408] bn3c_branch2b <- res3c_branch2b
I0331 16:32:44.071979  8486 net.cpp:369] bn3c_branch2b -> res3c_branch2b (in-place)
I0331 16:32:44.072166  8486 net.cpp:124] Setting up bn3c_branch2b
I0331 16:32:44.072176  8486 net.cpp:131] Top shape: 32 128 28 28 (3211264)
I0331 16:32:44.072180  8486 net.cpp:139] Memory required for data: 1830420608
I0331 16:32:44.072185  8486 layer_factory.hpp:77] Creating layer scale3c_branch2b
I0331 16:32:44.072191  8486 net.cpp:86] Creating Layer scale3c_branch2b
I0331 16:32:44.072194  8486 net.cpp:408] scale3c_branch2b <- res3c_branch2b
I0331 16:32:44.072198  8486 net.cpp:369] scale3c_branch2b -> res3c_branch2b (in-place)
I0331 16:32:44.072238  8486 layer_factory.hpp:77] Creating layer scale3c_branch2b
I0331 16:32:44.072346  8486 net.cpp:124] Setting up scale3c_branch2b
I0331 16:32:44.072353  8486 net.cpp:131] Top shape: 32 128 28 28 (3211264)
I0331 16:32:44.072356  8486 net.cpp:139] Memory required for data: 1843265664
I0331 16:32:44.072361  8486 layer_factory.hpp:77] Creating layer res3c
I0331 16:32:44.072371  8486 net.cpp:86] Creating Layer res3c
I0331 16:32:44.072373  8486 net.cpp:408] res3c <- res3b_res3b_relu_0_split_1
I0331 16:32:44.072378  8486 net.cpp:408] res3c <- res3c_branch2b
I0331 16:32:44.072382  8486 net.cpp:382] res3c -> res3c
I0331 16:32:44.072408  8486 net.cpp:124] Setting up res3c
I0331 16:32:44.072414  8486 net.cpp:131] Top shape: 32 128 28 28 (3211264)
I0331 16:32:44.072417  8486 net.cpp:139] Memory required for data: 1856110720
I0331 16:32:44.072422  8486 layer_factory.hpp:77] Creating layer res3c_relu
I0331 16:32:44.072427  8486 net.cpp:86] Creating Layer res3c_relu
I0331 16:32:44.072428  8486 net.cpp:408] res3c_relu <- res3c
I0331 16:32:44.072435  8486 net.cpp:369] res3c_relu -> res3c (in-place)
I0331 16:32:44.072890  8486 net.cpp:124] Setting up res3c_relu
I0331 16:32:44.072899  8486 net.cpp:131] Top shape: 32 128 28 28 (3211264)
I0331 16:32:44.072901  8486 net.cpp:139] Memory required for data: 1868955776
I0331 16:32:44.072906  8486 layer_factory.hpp:77] Creating layer res3c_res3c_relu_0_split
I0331 16:32:44.072911  8486 net.cpp:86] Creating Layer res3c_res3c_relu_0_split
I0331 16:32:44.072913  8486 net.cpp:408] res3c_res3c_relu_0_split <- res3c
I0331 16:32:44.072921  8486 net.cpp:382] res3c_res3c_relu_0_split -> res3c_res3c_relu_0_split_0
I0331 16:32:44.072927  8486 net.cpp:382] res3c_res3c_relu_0_split -> res3c_res3c_relu_0_split_1
I0331 16:32:44.072971  8486 net.cpp:124] Setting up res3c_res3c_relu_0_split
I0331 16:32:44.072978  8486 net.cpp:131] Top shape: 32 128 28 28 (3211264)
I0331 16:32:44.072980  8486 net.cpp:131] Top shape: 32 128 28 28 (3211264)
I0331 16:32:44.072983  8486 net.cpp:139] Memory required for data: 1894645888
I0331 16:32:44.072986  8486 layer_factory.hpp:77] Creating layer res3d_branch2a
I0331 16:32:44.073011  8486 net.cpp:86] Creating Layer res3d_branch2a
I0331 16:32:44.073015  8486 net.cpp:408] res3d_branch2a <- res3c_res3c_relu_0_split_0
I0331 16:32:44.073021  8486 net.cpp:382] res3d_branch2a -> res3d_branch2a
I0331 16:32:44.076086  8486 net.cpp:124] Setting up res3d_branch2a
I0331 16:32:44.076098  8486 net.cpp:131] Top shape: 32 128 28 28 (3211264)
I0331 16:32:44.076102  8486 net.cpp:139] Memory required for data: 1907490944
I0331 16:32:44.076107  8486 layer_factory.hpp:77] Creating layer bn3d_branch2a
I0331 16:32:44.076115  8486 net.cpp:86] Creating Layer bn3d_branch2a
I0331 16:32:44.076118  8486 net.cpp:408] bn3d_branch2a <- res3d_branch2a
I0331 16:32:44.076123  8486 net.cpp:369] bn3d_branch2a -> res3d_branch2a (in-place)
I0331 16:32:44.076308  8486 net.cpp:124] Setting up bn3d_branch2a
I0331 16:32:44.076318  8486 net.cpp:131] Top shape: 32 128 28 28 (3211264)
I0331 16:32:44.076320  8486 net.cpp:139] Memory required for data: 1920336000
I0331 16:32:44.076328  8486 layer_factory.hpp:77] Creating layer scale3d_branch2a
I0331 16:32:44.076333  8486 net.cpp:86] Creating Layer scale3d_branch2a
I0331 16:32:44.076336  8486 net.cpp:408] scale3d_branch2a <- res3d_branch2a
I0331 16:32:44.076340  8486 net.cpp:369] scale3d_branch2a -> res3d_branch2a (in-place)
I0331 16:32:44.076381  8486 layer_factory.hpp:77] Creating layer scale3d_branch2a
I0331 16:32:44.076485  8486 net.cpp:124] Setting up scale3d_branch2a
I0331 16:32:44.076493  8486 net.cpp:131] Top shape: 32 128 28 28 (3211264)
I0331 16:32:44.076494  8486 net.cpp:139] Memory required for data: 1933181056
I0331 16:32:44.076499  8486 layer_factory.hpp:77] Creating layer res3d_branch2a_relu
I0331 16:32:44.076506  8486 net.cpp:86] Creating Layer res3d_branch2a_relu
I0331 16:32:44.076509  8486 net.cpp:408] res3d_branch2a_relu <- res3d_branch2a
I0331 16:32:44.076514  8486 net.cpp:369] res3d_branch2a_relu -> res3d_branch2a (in-place)
I0331 16:32:44.077119  8486 net.cpp:124] Setting up res3d_branch2a_relu
I0331 16:32:44.077131  8486 net.cpp:131] Top shape: 32 128 28 28 (3211264)
I0331 16:32:44.077133  8486 net.cpp:139] Memory required for data: 1946026112
I0331 16:32:44.077136  8486 layer_factory.hpp:77] Creating layer res3d_branch2b
I0331 16:32:44.077147  8486 net.cpp:86] Creating Layer res3d_branch2b
I0331 16:32:44.077150  8486 net.cpp:408] res3d_branch2b <- res3d_branch2a
I0331 16:32:44.077158  8486 net.cpp:382] res3d_branch2b -> res3d_branch2b
I0331 16:32:44.080085  8486 net.cpp:124] Setting up res3d_branch2b
I0331 16:32:44.080097  8486 net.cpp:131] Top shape: 32 128 28 28 (3211264)
I0331 16:32:44.080101  8486 net.cpp:139] Memory required for data: 1958871168
I0331 16:32:44.080106  8486 layer_factory.hpp:77] Creating layer bn3d_branch2b
I0331 16:32:44.080116  8486 net.cpp:86] Creating Layer bn3d_branch2b
I0331 16:32:44.080118  8486 net.cpp:408] bn3d_branch2b <- res3d_branch2b
I0331 16:32:44.080126  8486 net.cpp:369] bn3d_branch2b -> res3d_branch2b (in-place)
I0331 16:32:44.080310  8486 net.cpp:124] Setting up bn3d_branch2b
I0331 16:32:44.080317  8486 net.cpp:131] Top shape: 32 128 28 28 (3211264)
I0331 16:32:44.080319  8486 net.cpp:139] Memory required for data: 1971716224
I0331 16:32:44.080327  8486 layer_factory.hpp:77] Creating layer scale3d_branch2b
I0331 16:32:44.080335  8486 net.cpp:86] Creating Layer scale3d_branch2b
I0331 16:32:44.080338  8486 net.cpp:408] scale3d_branch2b <- res3d_branch2b
I0331 16:32:44.080343  8486 net.cpp:369] scale3d_branch2b -> res3d_branch2b (in-place)
I0331 16:32:44.080381  8486 layer_factory.hpp:77] Creating layer scale3d_branch2b
I0331 16:32:44.080488  8486 net.cpp:124] Setting up scale3d_branch2b
I0331 16:32:44.080494  8486 net.cpp:131] Top shape: 32 128 28 28 (3211264)
I0331 16:32:44.080497  8486 net.cpp:139] Memory required for data: 1984561280
I0331 16:32:44.080502  8486 layer_factory.hpp:77] Creating layer res3d
I0331 16:32:44.080508  8486 net.cpp:86] Creating Layer res3d
I0331 16:32:44.080512  8486 net.cpp:408] res3d <- res3c_res3c_relu_0_split_1
I0331 16:32:44.080514  8486 net.cpp:408] res3d <- res3d_branch2b
I0331 16:32:44.080535  8486 net.cpp:382] res3d -> res3d
I0331 16:32:44.080564  8486 net.cpp:124] Setting up res3d
I0331 16:32:44.080569  8486 net.cpp:131] Top shape: 32 128 28 28 (3211264)
I0331 16:32:44.080572  8486 net.cpp:139] Memory required for data: 1997406336
I0331 16:32:44.080575  8486 layer_factory.hpp:77] Creating layer res3d_relu
I0331 16:32:44.080580  8486 net.cpp:86] Creating Layer res3d_relu
I0331 16:32:44.080582  8486 net.cpp:408] res3d_relu <- res3d
I0331 16:32:44.080586  8486 net.cpp:369] res3d_relu -> res3d (in-place)
I0331 16:32:44.081044  8486 net.cpp:124] Setting up res3d_relu
I0331 16:32:44.081055  8486 net.cpp:131] Top shape: 32 128 28 28 (3211264)
I0331 16:32:44.081058  8486 net.cpp:139] Memory required for data: 2010251392
I0331 16:32:44.081061  8486 layer_factory.hpp:77] Creating layer res3d_res3d_relu_0_split
I0331 16:32:44.081066  8486 net.cpp:86] Creating Layer res3d_res3d_relu_0_split
I0331 16:32:44.081069  8486 net.cpp:408] res3d_res3d_relu_0_split <- res3d
I0331 16:32:44.081074  8486 net.cpp:382] res3d_res3d_relu_0_split -> res3d_res3d_relu_0_split_0
I0331 16:32:44.081082  8486 net.cpp:382] res3d_res3d_relu_0_split -> res3d_res3d_relu_0_split_1
I0331 16:32:44.081125  8486 net.cpp:124] Setting up res3d_res3d_relu_0_split
I0331 16:32:44.081130  8486 net.cpp:131] Top shape: 32 128 28 28 (3211264)
I0331 16:32:44.081135  8486 net.cpp:131] Top shape: 32 128 28 28 (3211264)
I0331 16:32:44.081136  8486 net.cpp:139] Memory required for data: 2035941504
I0331 16:32:44.081141  8486 layer_factory.hpp:77] Creating layer res4a_branch1
I0331 16:32:44.081151  8486 net.cpp:86] Creating Layer res4a_branch1
I0331 16:32:44.081156  8486 net.cpp:408] res4a_branch1 <- res3d_res3d_relu_0_split_0
I0331 16:32:44.081159  8486 net.cpp:382] res4a_branch1 -> res4a_branch1
I0331 16:32:44.083158  8486 net.cpp:124] Setting up res4a_branch1
I0331 16:32:44.083171  8486 net.cpp:131] Top shape: 32 256 14 14 (1605632)
I0331 16:32:44.083174  8486 net.cpp:139] Memory required for data: 2042364032
I0331 16:32:44.083179  8486 layer_factory.hpp:77] Creating layer bn4a_branch1
I0331 16:32:44.083186  8486 net.cpp:86] Creating Layer bn4a_branch1
I0331 16:32:44.083189  8486 net.cpp:408] bn4a_branch1 <- res4a_branch1
I0331 16:32:44.083195  8486 net.cpp:369] bn4a_branch1 -> res4a_branch1 (in-place)
I0331 16:32:44.083389  8486 net.cpp:124] Setting up bn4a_branch1
I0331 16:32:44.083396  8486 net.cpp:131] Top shape: 32 256 14 14 (1605632)
I0331 16:32:44.083400  8486 net.cpp:139] Memory required for data: 2048786560
I0331 16:32:44.083405  8486 layer_factory.hpp:77] Creating layer scale4a_branch1
I0331 16:32:44.083412  8486 net.cpp:86] Creating Layer scale4a_branch1
I0331 16:32:44.083415  8486 net.cpp:408] scale4a_branch1 <- res4a_branch1
I0331 16:32:44.083420  8486 net.cpp:369] scale4a_branch1 -> res4a_branch1 (in-place)
I0331 16:32:44.083457  8486 layer_factory.hpp:77] Creating layer scale4a_branch1
I0331 16:32:44.083559  8486 net.cpp:124] Setting up scale4a_branch1
I0331 16:32:44.083566  8486 net.cpp:131] Top shape: 32 256 14 14 (1605632)
I0331 16:32:44.083570  8486 net.cpp:139] Memory required for data: 2055209088
I0331 16:32:44.083575  8486 layer_factory.hpp:77] Creating layer res4a_branch2a
I0331 16:32:44.083582  8486 net.cpp:86] Creating Layer res4a_branch2a
I0331 16:32:44.083586  8486 net.cpp:408] res4a_branch2a <- res3d_res3d_relu_0_split_1
I0331 16:32:44.083592  8486 net.cpp:382] res4a_branch2a -> res4a_branch2a
I0331 16:32:44.088591  8486 net.cpp:124] Setting up res4a_branch2a
I0331 16:32:44.088603  8486 net.cpp:131] Top shape: 32 256 14 14 (1605632)
I0331 16:32:44.088606  8486 net.cpp:139] Memory required for data: 2061631616
I0331 16:32:44.088614  8486 layer_factory.hpp:77] Creating layer bn4a_branch2a
I0331 16:32:44.088623  8486 net.cpp:86] Creating Layer bn4a_branch2a
I0331 16:32:44.088625  8486 net.cpp:408] bn4a_branch2a <- res4a_branch2a
I0331 16:32:44.088632  8486 net.cpp:369] bn4a_branch2a -> res4a_branch2a (in-place)
I0331 16:32:44.088814  8486 net.cpp:124] Setting up bn4a_branch2a
I0331 16:32:44.088824  8486 net.cpp:131] Top shape: 32 256 14 14 (1605632)
I0331 16:32:44.088836  8486 net.cpp:139] Memory required for data: 2068054144
I0331 16:32:44.088843  8486 layer_factory.hpp:77] Creating layer scale4a_branch2a
I0331 16:32:44.088851  8486 net.cpp:86] Creating Layer scale4a_branch2a
I0331 16:32:44.088855  8486 net.cpp:408] scale4a_branch2a <- res4a_branch2a
I0331 16:32:44.088858  8486 net.cpp:369] scale4a_branch2a -> res4a_branch2a (in-place)
I0331 16:32:44.088901  8486 layer_factory.hpp:77] Creating layer scale4a_branch2a
I0331 16:32:44.089004  8486 net.cpp:124] Setting up scale4a_branch2a
I0331 16:32:44.089011  8486 net.cpp:131] Top shape: 32 256 14 14 (1605632)
I0331 16:32:44.089013  8486 net.cpp:139] Memory required for data: 2074476672
I0331 16:32:44.089020  8486 layer_factory.hpp:77] Creating layer res4a_branch2a_relu
I0331 16:32:44.089023  8486 net.cpp:86] Creating Layer res4a_branch2a_relu
I0331 16:32:44.089026  8486 net.cpp:408] res4a_branch2a_relu <- res4a_branch2a
I0331 16:32:44.089032  8486 net.cpp:369] res4a_branch2a_relu -> res4a_branch2a (in-place)
I0331 16:32:44.089495  8486 net.cpp:124] Setting up res4a_branch2a_relu
I0331 16:32:44.089504  8486 net.cpp:131] Top shape: 32 256 14 14 (1605632)
I0331 16:32:44.089507  8486 net.cpp:139] Memory required for data: 2080899200
I0331 16:32:44.089510  8486 layer_factory.hpp:77] Creating layer res4a_branch2b
I0331 16:32:44.089520  8486 net.cpp:86] Creating Layer res4a_branch2b
I0331 16:32:44.089524  8486 net.cpp:408] res4a_branch2b <- res4a_branch2a
I0331 16:32:44.089529  8486 net.cpp:382] res4a_branch2b -> res4a_branch2b
I0331 16:32:44.096586  8486 net.cpp:124] Setting up res4a_branch2b
I0331 16:32:44.096599  8486 net.cpp:131] Top shape: 32 256 14 14 (1605632)
I0331 16:32:44.096602  8486 net.cpp:139] Memory required for data: 2087321728
I0331 16:32:44.096609  8486 layer_factory.hpp:77] Creating layer bn4a_branch2b
I0331 16:32:44.096614  8486 net.cpp:86] Creating Layer bn4a_branch2b
I0331 16:32:44.096618  8486 net.cpp:408] bn4a_branch2b <- res4a_branch2b
I0331 16:32:44.096626  8486 net.cpp:369] bn4a_branch2b -> res4a_branch2b (in-place)
I0331 16:32:44.096807  8486 net.cpp:124] Setting up bn4a_branch2b
I0331 16:32:44.096814  8486 net.cpp:131] Top shape: 32 256 14 14 (1605632)
I0331 16:32:44.096817  8486 net.cpp:139] Memory required for data: 2093744256
I0331 16:32:44.096823  8486 layer_factory.hpp:77] Creating layer scale4a_branch2b
I0331 16:32:44.096828  8486 net.cpp:86] Creating Layer scale4a_branch2b
I0331 16:32:44.096832  8486 net.cpp:408] scale4a_branch2b <- res4a_branch2b
I0331 16:32:44.096838  8486 net.cpp:369] scale4a_branch2b -> res4a_branch2b (in-place)
I0331 16:32:44.096874  8486 layer_factory.hpp:77] Creating layer scale4a_branch2b
I0331 16:32:44.096974  8486 net.cpp:124] Setting up scale4a_branch2b
I0331 16:32:44.096982  8486 net.cpp:131] Top shape: 32 256 14 14 (1605632)
I0331 16:32:44.096985  8486 net.cpp:139] Memory required for data: 2100166784
I0331 16:32:44.096990  8486 layer_factory.hpp:77] Creating layer res4a
I0331 16:32:44.096995  8486 net.cpp:86] Creating Layer res4a
I0331 16:32:44.096999  8486 net.cpp:408] res4a <- res4a_branch1
I0331 16:32:44.097003  8486 net.cpp:408] res4a <- res4a_branch2b
I0331 16:32:44.097007  8486 net.cpp:382] res4a -> res4a
I0331 16:32:44.097033  8486 net.cpp:124] Setting up res4a
I0331 16:32:44.097039  8486 net.cpp:131] Top shape: 32 256 14 14 (1605632)
I0331 16:32:44.097043  8486 net.cpp:139] Memory required for data: 2106589312
I0331 16:32:44.097045  8486 layer_factory.hpp:77] Creating layer res4a_relu
I0331 16:32:44.097051  8486 net.cpp:86] Creating Layer res4a_relu
I0331 16:32:44.097054  8486 net.cpp:408] res4a_relu <- res4a
I0331 16:32:44.097060  8486 net.cpp:369] res4a_relu -> res4a (in-place)
I0331 16:32:44.097667  8486 net.cpp:124] Setting up res4a_relu
I0331 16:32:44.097678  8486 net.cpp:131] Top shape: 32 256 14 14 (1605632)
I0331 16:32:44.097681  8486 net.cpp:139] Memory required for data: 2113011840
I0331 16:32:44.097684  8486 layer_factory.hpp:77] Creating layer res4a_res4a_relu_0_split
I0331 16:32:44.097694  8486 net.cpp:86] Creating Layer res4a_res4a_relu_0_split
I0331 16:32:44.097709  8486 net.cpp:408] res4a_res4a_relu_0_split <- res4a
I0331 16:32:44.097719  8486 net.cpp:382] res4a_res4a_relu_0_split -> res4a_res4a_relu_0_split_0
I0331 16:32:44.097726  8486 net.cpp:382] res4a_res4a_relu_0_split -> res4a_res4a_relu_0_split_1
I0331 16:32:44.097770  8486 net.cpp:124] Setting up res4a_res4a_relu_0_split
I0331 16:32:44.097776  8486 net.cpp:131] Top shape: 32 256 14 14 (1605632)
I0331 16:32:44.097780  8486 net.cpp:131] Top shape: 32 256 14 14 (1605632)
I0331 16:32:44.097784  8486 net.cpp:139] Memory required for data: 2125856896
I0331 16:32:44.097786  8486 layer_factory.hpp:77] Creating layer res4b_branch2a
I0331 16:32:44.097797  8486 net.cpp:86] Creating Layer res4b_branch2a
I0331 16:32:44.097800  8486 net.cpp:408] res4b_branch2a <- res4a_res4a_relu_0_split_0
I0331 16:32:44.097806  8486 net.cpp:382] res4b_branch2a -> res4b_branch2a
I0331 16:32:44.104873  8486 net.cpp:124] Setting up res4b_branch2a
I0331 16:32:44.104887  8486 net.cpp:131] Top shape: 32 256 14 14 (1605632)
I0331 16:32:44.104889  8486 net.cpp:139] Memory required for data: 2132279424
I0331 16:32:44.104895  8486 layer_factory.hpp:77] Creating layer bn4b_branch2a
I0331 16:32:44.104902  8486 net.cpp:86] Creating Layer bn4b_branch2a
I0331 16:32:44.104907  8486 net.cpp:408] bn4b_branch2a <- res4b_branch2a
I0331 16:32:44.104910  8486 net.cpp:369] bn4b_branch2a -> res4b_branch2a (in-place)
I0331 16:32:44.105098  8486 net.cpp:124] Setting up bn4b_branch2a
I0331 16:32:44.105105  8486 net.cpp:131] Top shape: 32 256 14 14 (1605632)
I0331 16:32:44.105108  8486 net.cpp:139] Memory required for data: 2138701952
I0331 16:32:44.105113  8486 layer_factory.hpp:77] Creating layer scale4b_branch2a
I0331 16:32:44.105121  8486 net.cpp:86] Creating Layer scale4b_branch2a
I0331 16:32:44.105124  8486 net.cpp:408] scale4b_branch2a <- res4b_branch2a
I0331 16:32:44.105130  8486 net.cpp:369] scale4b_branch2a -> res4b_branch2a (in-place)
I0331 16:32:44.105167  8486 layer_factory.hpp:77] Creating layer scale4b_branch2a
I0331 16:32:44.105273  8486 net.cpp:124] Setting up scale4b_branch2a
I0331 16:32:44.105278  8486 net.cpp:131] Top shape: 32 256 14 14 (1605632)
I0331 16:32:44.105280  8486 net.cpp:139] Memory required for data: 2145124480
I0331 16:32:44.105285  8486 layer_factory.hpp:77] Creating layer res4b_branch2a_relu
I0331 16:32:44.105291  8486 net.cpp:86] Creating Layer res4b_branch2a_relu
I0331 16:32:44.105294  8486 net.cpp:408] res4b_branch2a_relu <- res4b_branch2a
I0331 16:32:44.105298  8486 net.cpp:369] res4b_branch2a_relu -> res4b_branch2a (in-place)
I0331 16:32:44.105742  8486 net.cpp:124] Setting up res4b_branch2a_relu
I0331 16:32:44.105753  8486 net.cpp:131] Top shape: 32 256 14 14 (1605632)
I0331 16:32:44.105756  8486 net.cpp:139] Memory required for data: 2151547008
I0331 16:32:44.105758  8486 layer_factory.hpp:77] Creating layer res4b_branch2b
I0331 16:32:44.105767  8486 net.cpp:86] Creating Layer res4b_branch2b
I0331 16:32:44.105772  8486 net.cpp:408] res4b_branch2b <- res4b_branch2a
I0331 16:32:44.105777  8486 net.cpp:382] res4b_branch2b -> res4b_branch2b
I0331 16:32:44.112709  8486 net.cpp:124] Setting up res4b_branch2b
I0331 16:32:44.112721  8486 net.cpp:131] Top shape: 32 256 14 14 (1605632)
I0331 16:32:44.112725  8486 net.cpp:139] Memory required for data: 2157969536
I0331 16:32:44.112730  8486 layer_factory.hpp:77] Creating layer bn4b_branch2b
I0331 16:32:44.112737  8486 net.cpp:86] Creating Layer bn4b_branch2b
I0331 16:32:44.112741  8486 net.cpp:408] bn4b_branch2b <- res4b_branch2b
I0331 16:32:44.112746  8486 net.cpp:369] bn4b_branch2b -> res4b_branch2b (in-place)
I0331 16:32:44.112927  8486 net.cpp:124] Setting up bn4b_branch2b
I0331 16:32:44.112936  8486 net.cpp:131] Top shape: 32 256 14 14 (1605632)
I0331 16:32:44.112938  8486 net.cpp:139] Memory required for data: 2164392064
I0331 16:32:44.112967  8486 layer_factory.hpp:77] Creating layer scale4b_branch2b
I0331 16:32:44.112973  8486 net.cpp:86] Creating Layer scale4b_branch2b
I0331 16:32:44.112979  8486 net.cpp:408] scale4b_branch2b <- res4b_branch2b
I0331 16:32:44.112996  8486 net.cpp:369] scale4b_branch2b -> res4b_branch2b (in-place)
I0331 16:32:44.113039  8486 layer_factory.hpp:77] Creating layer scale4b_branch2b
I0331 16:32:44.113142  8486 net.cpp:124] Setting up scale4b_branch2b
I0331 16:32:44.113147  8486 net.cpp:131] Top shape: 32 256 14 14 (1605632)
I0331 16:32:44.113150  8486 net.cpp:139] Memory required for data: 2170814592
I0331 16:32:44.113155  8486 layer_factory.hpp:77] Creating layer res4b
I0331 16:32:44.113160  8486 net.cpp:86] Creating Layer res4b
I0331 16:32:44.113163  8486 net.cpp:408] res4b <- res4a_res4a_relu_0_split_1
I0331 16:32:44.113168  8486 net.cpp:408] res4b <- res4b_branch2b
I0331 16:32:44.113173  8486 net.cpp:382] res4b -> res4b
I0331 16:32:44.113198  8486 net.cpp:124] Setting up res4b
I0331 16:32:44.113203  8486 net.cpp:131] Top shape: 32 256 14 14 (1605632)
I0331 16:32:44.113205  8486 net.cpp:139] Memory required for data: 2177237120
I0331 16:32:44.113209  8486 layer_factory.hpp:77] Creating layer res4b_relu
I0331 16:32:44.113214  8486 net.cpp:86] Creating Layer res4b_relu
I0331 16:32:44.113217  8486 net.cpp:408] res4b_relu <- res4b
I0331 16:32:44.113220  8486 net.cpp:369] res4b_relu -> res4b (in-place)
I0331 16:32:44.113831  8486 net.cpp:124] Setting up res4b_relu
I0331 16:32:44.113842  8486 net.cpp:131] Top shape: 32 256 14 14 (1605632)
I0331 16:32:44.113844  8486 net.cpp:139] Memory required for data: 2183659648
I0331 16:32:44.113847  8486 layer_factory.hpp:77] Creating layer res4b_res4b_relu_0_split
I0331 16:32:44.113853  8486 net.cpp:86] Creating Layer res4b_res4b_relu_0_split
I0331 16:32:44.113857  8486 net.cpp:408] res4b_res4b_relu_0_split <- res4b
I0331 16:32:44.113863  8486 net.cpp:382] res4b_res4b_relu_0_split -> res4b_res4b_relu_0_split_0
I0331 16:32:44.113870  8486 net.cpp:382] res4b_res4b_relu_0_split -> res4b_res4b_relu_0_split_1
I0331 16:32:44.113915  8486 net.cpp:124] Setting up res4b_res4b_relu_0_split
I0331 16:32:44.113920  8486 net.cpp:131] Top shape: 32 256 14 14 (1605632)
I0331 16:32:44.113924  8486 net.cpp:131] Top shape: 32 256 14 14 (1605632)
I0331 16:32:44.113926  8486 net.cpp:139] Memory required for data: 2196504704
I0331 16:32:44.113931  8486 layer_factory.hpp:77] Creating layer res4c_branch2a
I0331 16:32:44.113940  8486 net.cpp:86] Creating Layer res4c_branch2a
I0331 16:32:44.113943  8486 net.cpp:408] res4c_branch2a <- res4b_res4b_relu_0_split_0
I0331 16:32:44.113948  8486 net.cpp:382] res4c_branch2a -> res4c_branch2a
I0331 16:32:44.120909  8486 net.cpp:124] Setting up res4c_branch2a
I0331 16:32:44.120921  8486 net.cpp:131] Top shape: 32 256 14 14 (1605632)
I0331 16:32:44.120924  8486 net.cpp:139] Memory required for data: 2202927232
I0331 16:32:44.120929  8486 layer_factory.hpp:77] Creating layer bn4c_branch2a
I0331 16:32:44.120939  8486 net.cpp:86] Creating Layer bn4c_branch2a
I0331 16:32:44.120942  8486 net.cpp:408] bn4c_branch2a <- res4c_branch2a
I0331 16:32:44.120946  8486 net.cpp:369] bn4c_branch2a -> res4c_branch2a (in-place)
I0331 16:32:44.121131  8486 net.cpp:124] Setting up bn4c_branch2a
I0331 16:32:44.121138  8486 net.cpp:131] Top shape: 32 256 14 14 (1605632)
I0331 16:32:44.121141  8486 net.cpp:139] Memory required for data: 2209349760
I0331 16:32:44.121146  8486 layer_factory.hpp:77] Creating layer scale4c_branch2a
I0331 16:32:44.121151  8486 net.cpp:86] Creating Layer scale4c_branch2a
I0331 16:32:44.121155  8486 net.cpp:408] scale4c_branch2a <- res4c_branch2a
I0331 16:32:44.121162  8486 net.cpp:369] scale4c_branch2a -> res4c_branch2a (in-place)
I0331 16:32:44.121201  8486 layer_factory.hpp:77] Creating layer scale4c_branch2a
I0331 16:32:44.121306  8486 net.cpp:124] Setting up scale4c_branch2a
I0331 16:32:44.121312  8486 net.cpp:131] Top shape: 32 256 14 14 (1605632)
I0331 16:32:44.121315  8486 net.cpp:139] Memory required for data: 2215772288
I0331 16:32:44.121320  8486 layer_factory.hpp:77] Creating layer res4c_branch2a_relu
I0331 16:32:44.121325  8486 net.cpp:86] Creating Layer res4c_branch2a_relu
I0331 16:32:44.121328  8486 net.cpp:408] res4c_branch2a_relu <- res4c_branch2a
I0331 16:32:44.121348  8486 net.cpp:369] res4c_branch2a_relu -> res4c_branch2a (in-place)
I0331 16:32:44.121791  8486 net.cpp:124] Setting up res4c_branch2a_relu
I0331 16:32:44.121800  8486 net.cpp:131] Top shape: 32 256 14 14 (1605632)
I0331 16:32:44.121803  8486 net.cpp:139] Memory required for data: 2222194816
I0331 16:32:44.121809  8486 layer_factory.hpp:77] Creating layer res4c_branch2b
I0331 16:32:44.121817  8486 net.cpp:86] Creating Layer res4c_branch2b
I0331 16:32:44.121820  8486 net.cpp:408] res4c_branch2b <- res4c_branch2a
I0331 16:32:44.121826  8486 net.cpp:382] res4c_branch2b -> res4c_branch2b
I0331 16:32:44.129015  8486 net.cpp:124] Setting up res4c_branch2b
I0331 16:32:44.129027  8486 net.cpp:131] Top shape: 32 256 14 14 (1605632)
I0331 16:32:44.129030  8486 net.cpp:139] Memory required for data: 2228617344
I0331 16:32:44.129035  8486 layer_factory.hpp:77] Creating layer bn4c_branch2b
I0331 16:32:44.129042  8486 net.cpp:86] Creating Layer bn4c_branch2b
I0331 16:32:44.129046  8486 net.cpp:408] bn4c_branch2b <- res4c_branch2b
I0331 16:32:44.129050  8486 net.cpp:369] bn4c_branch2b -> res4c_branch2b (in-place)
I0331 16:32:44.129240  8486 net.cpp:124] Setting up bn4c_branch2b
I0331 16:32:44.129245  8486 net.cpp:131] Top shape: 32 256 14 14 (1605632)
I0331 16:32:44.129248  8486 net.cpp:139] Memory required for data: 2235039872
I0331 16:32:44.129254  8486 layer_factory.hpp:77] Creating layer scale4c_branch2b
I0331 16:32:44.129261  8486 net.cpp:86] Creating Layer scale4c_branch2b
I0331 16:32:44.129263  8486 net.cpp:408] scale4c_branch2b <- res4c_branch2b
I0331 16:32:44.129267  8486 net.cpp:369] scale4c_branch2b -> res4c_branch2b (in-place)
I0331 16:32:44.129307  8486 layer_factory.hpp:77] Creating layer scale4c_branch2b
I0331 16:32:44.129415  8486 net.cpp:124] Setting up scale4c_branch2b
I0331 16:32:44.129420  8486 net.cpp:131] Top shape: 32 256 14 14 (1605632)
I0331 16:32:44.129423  8486 net.cpp:139] Memory required for data: 2241462400
I0331 16:32:44.129428  8486 layer_factory.hpp:77] Creating layer res4c
I0331 16:32:44.129436  8486 net.cpp:86] Creating Layer res4c
I0331 16:32:44.129438  8486 net.cpp:408] res4c <- res4b_res4b_relu_0_split_1
I0331 16:32:44.129442  8486 net.cpp:408] res4c <- res4c_branch2b
I0331 16:32:44.129448  8486 net.cpp:382] res4c -> res4c
I0331 16:32:44.129472  8486 net.cpp:124] Setting up res4c
I0331 16:32:44.129477  8486 net.cpp:131] Top shape: 32 256 14 14 (1605632)
I0331 16:32:44.129480  8486 net.cpp:139] Memory required for data: 2247884928
I0331 16:32:44.129484  8486 layer_factory.hpp:77] Creating layer res4c_relu
I0331 16:32:44.129492  8486 net.cpp:86] Creating Layer res4c_relu
I0331 16:32:44.129494  8486 net.cpp:408] res4c_relu <- res4c
I0331 16:32:44.129498  8486 net.cpp:369] res4c_relu -> res4c (in-place)
I0331 16:32:44.129925  8486 net.cpp:124] Setting up res4c_relu
I0331 16:32:44.129933  8486 net.cpp:131] Top shape: 32 256 14 14 (1605632)
I0331 16:32:44.129936  8486 net.cpp:139] Memory required for data: 2254307456
I0331 16:32:44.129940  8486 layer_factory.hpp:77] Creating layer res4c_res4c_relu_0_split
I0331 16:32:44.129947  8486 net.cpp:86] Creating Layer res4c_res4c_relu_0_split
I0331 16:32:44.129951  8486 net.cpp:408] res4c_res4c_relu_0_split <- res4c
I0331 16:32:44.129956  8486 net.cpp:382] res4c_res4c_relu_0_split -> res4c_res4c_relu_0_split_0
I0331 16:32:44.129961  8486 net.cpp:382] res4c_res4c_relu_0_split -> res4c_res4c_relu_0_split_1
I0331 16:32:44.130004  8486 net.cpp:124] Setting up res4c_res4c_relu_0_split
I0331 16:32:44.130010  8486 net.cpp:131] Top shape: 32 256 14 14 (1605632)
I0331 16:32:44.130014  8486 net.cpp:131] Top shape: 32 256 14 14 (1605632)
I0331 16:32:44.130017  8486 net.cpp:139] Memory required for data: 2267152512
I0331 16:32:44.130018  8486 layer_factory.hpp:77] Creating layer res4d_branch2a
I0331 16:32:44.130028  8486 net.cpp:86] Creating Layer res4d_branch2a
I0331 16:32:44.130031  8486 net.cpp:408] res4d_branch2a <- res4c_res4c_relu_0_split_0
I0331 16:32:44.130038  8486 net.cpp:382] res4d_branch2a -> res4d_branch2a
I0331 16:32:44.136910  8486 net.cpp:124] Setting up res4d_branch2a
I0331 16:32:44.136937  8486 net.cpp:131] Top shape: 32 256 14 14 (1605632)
I0331 16:32:44.136940  8486 net.cpp:139] Memory required for data: 2273575040
I0331 16:32:44.136945  8486 layer_factory.hpp:77] Creating layer bn4d_branch2a
I0331 16:32:44.136951  8486 net.cpp:86] Creating Layer bn4d_branch2a
I0331 16:32:44.136955  8486 net.cpp:408] bn4d_branch2a <- res4d_branch2a
I0331 16:32:44.136961  8486 net.cpp:369] bn4d_branch2a -> res4d_branch2a (in-place)
I0331 16:32:44.137148  8486 net.cpp:124] Setting up bn4d_branch2a
I0331 16:32:44.137154  8486 net.cpp:131] Top shape: 32 256 14 14 (1605632)
I0331 16:32:44.137157  8486 net.cpp:139] Memory required for data: 2279997568
I0331 16:32:44.137166  8486 layer_factory.hpp:77] Creating layer scale4d_branch2a
I0331 16:32:44.137173  8486 net.cpp:86] Creating Layer scale4d_branch2a
I0331 16:32:44.137176  8486 net.cpp:408] scale4d_branch2a <- res4d_branch2a
I0331 16:32:44.137181  8486 net.cpp:369] scale4d_branch2a -> res4d_branch2a (in-place)
I0331 16:32:44.137220  8486 layer_factory.hpp:77] Creating layer scale4d_branch2a
I0331 16:32:44.137326  8486 net.cpp:124] Setting up scale4d_branch2a
I0331 16:32:44.137331  8486 net.cpp:131] Top shape: 32 256 14 14 (1605632)
I0331 16:32:44.137334  8486 net.cpp:139] Memory required for data: 2286420096
I0331 16:32:44.137338  8486 layer_factory.hpp:77] Creating layer res4d_branch2a_relu
I0331 16:32:44.137343  8486 net.cpp:86] Creating Layer res4d_branch2a_relu
I0331 16:32:44.137346  8486 net.cpp:408] res4d_branch2a_relu <- res4d_branch2a
I0331 16:32:44.137351  8486 net.cpp:369] res4d_branch2a_relu -> res4d_branch2a (in-place)
I0331 16:32:44.137925  8486 net.cpp:124] Setting up res4d_branch2a_relu
I0331 16:32:44.137936  8486 net.cpp:131] Top shape: 32 256 14 14 (1605632)
I0331 16:32:44.137938  8486 net.cpp:139] Memory required for data: 2292842624
I0331 16:32:44.137943  8486 layer_factory.hpp:77] Creating layer res4d_branch2b
I0331 16:32:44.137951  8486 net.cpp:86] Creating Layer res4d_branch2b
I0331 16:32:44.137955  8486 net.cpp:408] res4d_branch2b <- res4d_branch2a
I0331 16:32:44.137960  8486 net.cpp:382] res4d_branch2b -> res4d_branch2b
I0331 16:32:44.148371  8486 net.cpp:124] Setting up res4d_branch2b
I0331 16:32:44.148387  8486 net.cpp:131] Top shape: 32 256 14 14 (1605632)
I0331 16:32:44.148391  8486 net.cpp:139] Memory required for data: 2299265152
I0331 16:32:44.148401  8486 layer_factory.hpp:77] Creating layer bn4d_branch2b
I0331 16:32:44.148411  8486 net.cpp:86] Creating Layer bn4d_branch2b
I0331 16:32:44.148420  8486 net.cpp:408] bn4d_branch2b <- res4d_branch2b
I0331 16:32:44.148425  8486 net.cpp:369] bn4d_branch2b -> res4d_branch2b (in-place)
I0331 16:32:44.148627  8486 net.cpp:124] Setting up bn4d_branch2b
I0331 16:32:44.148633  8486 net.cpp:131] Top shape: 32 256 14 14 (1605632)
I0331 16:32:44.148635  8486 net.cpp:139] Memory required for data: 2305687680
I0331 16:32:44.148643  8486 layer_factory.hpp:77] Creating layer scale4d_branch2b
I0331 16:32:44.148648  8486 net.cpp:86] Creating Layer scale4d_branch2b
I0331 16:32:44.148653  8486 net.cpp:408] scale4d_branch2b <- res4d_branch2b
I0331 16:32:44.148658  8486 net.cpp:369] scale4d_branch2b -> res4d_branch2b (in-place)
I0331 16:32:44.148728  8486 layer_factory.hpp:77] Creating layer scale4d_branch2b
I0331 16:32:44.148838  8486 net.cpp:124] Setting up scale4d_branch2b
I0331 16:32:44.148844  8486 net.cpp:131] Top shape: 32 256 14 14 (1605632)
I0331 16:32:44.148846  8486 net.cpp:139] Memory required for data: 2312110208
I0331 16:32:44.148851  8486 layer_factory.hpp:77] Creating layer res4d
I0331 16:32:44.148857  8486 net.cpp:86] Creating Layer res4d
I0331 16:32:44.148861  8486 net.cpp:408] res4d <- res4c_res4c_relu_0_split_1
I0331 16:32:44.148866  8486 net.cpp:408] res4d <- res4d_branch2b
I0331 16:32:44.148872  8486 net.cpp:382] res4d -> res4d
I0331 16:32:44.148900  8486 net.cpp:124] Setting up res4d
I0331 16:32:44.148906  8486 net.cpp:131] Top shape: 32 256 14 14 (1605632)
I0331 16:32:44.148910  8486 net.cpp:139] Memory required for data: 2318532736
I0331 16:32:44.148928  8486 layer_factory.hpp:77] Creating layer res4d_relu
I0331 16:32:44.148933  8486 net.cpp:86] Creating Layer res4d_relu
I0331 16:32:44.148936  8486 net.cpp:408] res4d_relu <- res4d
I0331 16:32:44.148941  8486 net.cpp:369] res4d_relu -> res4d (in-place)
I0331 16:32:44.149389  8486 net.cpp:124] Setting up res4d_relu
I0331 16:32:44.149399  8486 net.cpp:131] Top shape: 32 256 14 14 (1605632)
I0331 16:32:44.149401  8486 net.cpp:139] Memory required for data: 2324955264
I0331 16:32:44.149405  8486 layer_factory.hpp:77] Creating layer res4d_res4d_relu_0_split
I0331 16:32:44.149411  8486 net.cpp:86] Creating Layer res4d_res4d_relu_0_split
I0331 16:32:44.149415  8486 net.cpp:408] res4d_res4d_relu_0_split <- res4d
I0331 16:32:44.149420  8486 net.cpp:382] res4d_res4d_relu_0_split -> res4d_res4d_relu_0_split_0
I0331 16:32:44.149425  8486 net.cpp:382] res4d_res4d_relu_0_split -> res4d_res4d_relu_0_split_1
I0331 16:32:44.149469  8486 net.cpp:124] Setting up res4d_res4d_relu_0_split
I0331 16:32:44.149474  8486 net.cpp:131] Top shape: 32 256 14 14 (1605632)
I0331 16:32:44.149478  8486 net.cpp:131] Top shape: 32 256 14 14 (1605632)
I0331 16:32:44.149482  8486 net.cpp:139] Memory required for data: 2337800320
I0331 16:32:44.149484  8486 layer_factory.hpp:77] Creating layer res4e_branch2a
I0331 16:32:44.149493  8486 net.cpp:86] Creating Layer res4e_branch2a
I0331 16:32:44.149497  8486 net.cpp:408] res4e_branch2a <- res4d_res4d_relu_0_split_0
I0331 16:32:44.149503  8486 net.cpp:382] res4e_branch2a -> res4e_branch2a
I0331 16:32:44.156374  8486 net.cpp:124] Setting up res4e_branch2a
I0331 16:32:44.156388  8486 net.cpp:131] Top shape: 32 256 14 14 (1605632)
I0331 16:32:44.156391  8486 net.cpp:139] Memory required for data: 2344222848
I0331 16:32:44.156396  8486 layer_factory.hpp:77] Creating layer bn4e_branch2a
I0331 16:32:44.156401  8486 net.cpp:86] Creating Layer bn4e_branch2a
I0331 16:32:44.156405  8486 net.cpp:408] bn4e_branch2a <- res4e_branch2a
I0331 16:32:44.156410  8486 net.cpp:369] bn4e_branch2a -> res4e_branch2a (in-place)
I0331 16:32:44.156597  8486 net.cpp:124] Setting up bn4e_branch2a
I0331 16:32:44.156603  8486 net.cpp:131] Top shape: 32 256 14 14 (1605632)
I0331 16:32:44.156606  8486 net.cpp:139] Memory required for data: 2350645376
I0331 16:32:44.156612  8486 layer_factory.hpp:77] Creating layer scale4e_branch2a
I0331 16:32:44.156677  8486 net.cpp:86] Creating Layer scale4e_branch2a
I0331 16:32:44.156680  8486 net.cpp:408] scale4e_branch2a <- res4e_branch2a
I0331 16:32:44.156684  8486 net.cpp:369] scale4e_branch2a -> res4e_branch2a (in-place)
I0331 16:32:44.156723  8486 layer_factory.hpp:77] Creating layer scale4e_branch2a
I0331 16:32:44.156828  8486 net.cpp:124] Setting up scale4e_branch2a
I0331 16:32:44.156834  8486 net.cpp:131] Top shape: 32 256 14 14 (1605632)
I0331 16:32:44.156836  8486 net.cpp:139] Memory required for data: 2357067904
I0331 16:32:44.156842  8486 layer_factory.hpp:77] Creating layer res4e_branch2a_relu
I0331 16:32:44.156848  8486 net.cpp:86] Creating Layer res4e_branch2a_relu
I0331 16:32:44.156852  8486 net.cpp:408] res4e_branch2a_relu <- res4e_branch2a
I0331 16:32:44.156857  8486 net.cpp:369] res4e_branch2a_relu -> res4e_branch2a (in-place)
I0331 16:32:44.157429  8486 net.cpp:124] Setting up res4e_branch2a_relu
I0331 16:32:44.157441  8486 net.cpp:131] Top shape: 32 256 14 14 (1605632)
I0331 16:32:44.157444  8486 net.cpp:139] Memory required for data: 2363490432
I0331 16:32:44.157447  8486 layer_factory.hpp:77] Creating layer res4e_branch2b
I0331 16:32:44.157456  8486 net.cpp:86] Creating Layer res4e_branch2b
I0331 16:32:44.157459  8486 net.cpp:408] res4e_branch2b <- res4e_branch2a
I0331 16:32:44.157465  8486 net.cpp:382] res4e_branch2b -> res4e_branch2b
I0331 16:32:44.164326  8486 net.cpp:124] Setting up res4e_branch2b
I0331 16:32:44.164338  8486 net.cpp:131] Top shape: 32 256 14 14 (1605632)
I0331 16:32:44.164341  8486 net.cpp:139] Memory required for data: 2369912960
I0331 16:32:44.164346  8486 layer_factory.hpp:77] Creating layer bn4e_branch2b
I0331 16:32:44.164358  8486 net.cpp:86] Creating Layer bn4e_branch2b
I0331 16:32:44.164372  8486 net.cpp:408] bn4e_branch2b <- res4e_branch2b
I0331 16:32:44.164377  8486 net.cpp:369] bn4e_branch2b -> res4e_branch2b (in-place)
I0331 16:32:44.164567  8486 net.cpp:124] Setting up bn4e_branch2b
I0331 16:32:44.164573  8486 net.cpp:131] Top shape: 32 256 14 14 (1605632)
I0331 16:32:44.164577  8486 net.cpp:139] Memory required for data: 2376335488
I0331 16:32:44.164582  8486 layer_factory.hpp:77] Creating layer scale4e_branch2b
I0331 16:32:44.164587  8486 net.cpp:86] Creating Layer scale4e_branch2b
I0331 16:32:44.164589  8486 net.cpp:408] scale4e_branch2b <- res4e_branch2b
I0331 16:32:44.164595  8486 net.cpp:369] scale4e_branch2b -> res4e_branch2b (in-place)
I0331 16:32:44.164633  8486 layer_factory.hpp:77] Creating layer scale4e_branch2b
I0331 16:32:44.164743  8486 net.cpp:124] Setting up scale4e_branch2b
I0331 16:32:44.164748  8486 net.cpp:131] Top shape: 32 256 14 14 (1605632)
I0331 16:32:44.164752  8486 net.cpp:139] Memory required for data: 2382758016
I0331 16:32:44.164757  8486 layer_factory.hpp:77] Creating layer res4e
I0331 16:32:44.164762  8486 net.cpp:86] Creating Layer res4e
I0331 16:32:44.164765  8486 net.cpp:408] res4e <- res4d_res4d_relu_0_split_1
I0331 16:32:44.164769  8486 net.cpp:408] res4e <- res4e_branch2b
I0331 16:32:44.164775  8486 net.cpp:382] res4e -> res4e
I0331 16:32:44.164798  8486 net.cpp:124] Setting up res4e
I0331 16:32:44.164805  8486 net.cpp:131] Top shape: 32 256 14 14 (1605632)
I0331 16:32:44.164808  8486 net.cpp:139] Memory required for data: 2389180544
I0331 16:32:44.164811  8486 layer_factory.hpp:77] Creating layer res4e_relu
I0331 16:32:44.164816  8486 net.cpp:86] Creating Layer res4e_relu
I0331 16:32:44.164819  8486 net.cpp:408] res4e_relu <- res4e
I0331 16:32:44.164824  8486 net.cpp:369] res4e_relu -> res4e (in-place)
I0331 16:32:44.165248  8486 net.cpp:124] Setting up res4e_relu
I0331 16:32:44.165256  8486 net.cpp:131] Top shape: 32 256 14 14 (1605632)
I0331 16:32:44.165259  8486 net.cpp:139] Memory required for data: 2395603072
I0331 16:32:44.165262  8486 layer_factory.hpp:77] Creating layer res4e_res4e_relu_0_split
I0331 16:32:44.165269  8486 net.cpp:86] Creating Layer res4e_res4e_relu_0_split
I0331 16:32:44.165272  8486 net.cpp:408] res4e_res4e_relu_0_split <- res4e
I0331 16:32:44.165277  8486 net.cpp:382] res4e_res4e_relu_0_split -> res4e_res4e_relu_0_split_0
I0331 16:32:44.165283  8486 net.cpp:382] res4e_res4e_relu_0_split -> res4e_res4e_relu_0_split_1
I0331 16:32:44.165326  8486 net.cpp:124] Setting up res4e_res4e_relu_0_split
I0331 16:32:44.165331  8486 net.cpp:131] Top shape: 32 256 14 14 (1605632)
I0331 16:32:44.165334  8486 net.cpp:131] Top shape: 32 256 14 14 (1605632)
I0331 16:32:44.165338  8486 net.cpp:139] Memory required for data: 2408448128
I0331 16:32:44.165340  8486 layer_factory.hpp:77] Creating layer res4f_branch2a
I0331 16:32:44.165349  8486 net.cpp:86] Creating Layer res4f_branch2a
I0331 16:32:44.165352  8486 net.cpp:408] res4f_branch2a <- res4e_res4e_relu_0_split_0
I0331 16:32:44.165360  8486 net.cpp:382] res4f_branch2a -> res4f_branch2a
I0331 16:32:44.172365  8486 net.cpp:124] Setting up res4f_branch2a
I0331 16:32:44.172379  8486 net.cpp:131] Top shape: 32 256 14 14 (1605632)
I0331 16:32:44.172382  8486 net.cpp:139] Memory required for data: 2414870656
I0331 16:32:44.172389  8486 layer_factory.hpp:77] Creating layer bn4f_branch2a
I0331 16:32:44.172395  8486 net.cpp:86] Creating Layer bn4f_branch2a
I0331 16:32:44.172399  8486 net.cpp:408] bn4f_branch2a <- res4f_branch2a
I0331 16:32:44.172405  8486 net.cpp:369] bn4f_branch2a -> res4f_branch2a (in-place)
I0331 16:32:44.172592  8486 net.cpp:124] Setting up bn4f_branch2a
I0331 16:32:44.172597  8486 net.cpp:131] Top shape: 32 256 14 14 (1605632)
I0331 16:32:44.172600  8486 net.cpp:139] Memory required for data: 2421293184
I0331 16:32:44.172606  8486 layer_factory.hpp:77] Creating layer scale4f_branch2a
I0331 16:32:44.172614  8486 net.cpp:86] Creating Layer scale4f_branch2a
I0331 16:32:44.172617  8486 net.cpp:408] scale4f_branch2a <- res4f_branch2a
I0331 16:32:44.172626  8486 net.cpp:369] scale4f_branch2a -> res4f_branch2a (in-place)
I0331 16:32:44.172677  8486 layer_factory.hpp:77] Creating layer scale4f_branch2a
I0331 16:32:44.172785  8486 net.cpp:124] Setting up scale4f_branch2a
I0331 16:32:44.172791  8486 net.cpp:131] Top shape: 32 256 14 14 (1605632)
I0331 16:32:44.172793  8486 net.cpp:139] Memory required for data: 2427715712
I0331 16:32:44.172798  8486 layer_factory.hpp:77] Creating layer res4f_branch2a_relu
I0331 16:32:44.172803  8486 net.cpp:86] Creating Layer res4f_branch2a_relu
I0331 16:32:44.172806  8486 net.cpp:408] res4f_branch2a_relu <- res4f_branch2a
I0331 16:32:44.172811  8486 net.cpp:369] res4f_branch2a_relu -> res4f_branch2a (in-place)
I0331 16:32:44.173243  8486 net.cpp:124] Setting up res4f_branch2a_relu
I0331 16:32:44.173251  8486 net.cpp:131] Top shape: 32 256 14 14 (1605632)
I0331 16:32:44.173254  8486 net.cpp:139] Memory required for data: 2434138240
I0331 16:32:44.173257  8486 layer_factory.hpp:77] Creating layer res4f_branch2b
I0331 16:32:44.173265  8486 net.cpp:86] Creating Layer res4f_branch2b
I0331 16:32:44.173269  8486 net.cpp:408] res4f_branch2b <- res4f_branch2a
I0331 16:32:44.173276  8486 net.cpp:382] res4f_branch2b -> res4f_branch2b
I0331 16:32:44.180063  8486 net.cpp:124] Setting up res4f_branch2b
I0331 16:32:44.180073  8486 net.cpp:131] Top shape: 32 256 14 14 (1605632)
I0331 16:32:44.180078  8486 net.cpp:139] Memory required for data: 2440560768
I0331 16:32:44.180084  8486 layer_factory.hpp:77] Creating layer bn4f_branch2b
I0331 16:32:44.180089  8486 net.cpp:86] Creating Layer bn4f_branch2b
I0331 16:32:44.180092  8486 net.cpp:408] bn4f_branch2b <- res4f_branch2b
I0331 16:32:44.180097  8486 net.cpp:369] bn4f_branch2b -> res4f_branch2b (in-place)
I0331 16:32:44.180291  8486 net.cpp:124] Setting up bn4f_branch2b
I0331 16:32:44.180297  8486 net.cpp:131] Top shape: 32 256 14 14 (1605632)
I0331 16:32:44.180300  8486 net.cpp:139] Memory required for data: 2446983296
I0331 16:32:44.180306  8486 layer_factory.hpp:77] Creating layer scale4f_branch2b
I0331 16:32:44.180311  8486 net.cpp:86] Creating Layer scale4f_branch2b
I0331 16:32:44.180315  8486 net.cpp:408] scale4f_branch2b <- res4f_branch2b
I0331 16:32:44.180318  8486 net.cpp:369] scale4f_branch2b -> res4f_branch2b (in-place)
I0331 16:32:44.180361  8486 layer_factory.hpp:77] Creating layer scale4f_branch2b
I0331 16:32:44.180470  8486 net.cpp:124] Setting up scale4f_branch2b
I0331 16:32:44.180476  8486 net.cpp:131] Top shape: 32 256 14 14 (1605632)
I0331 16:32:44.180478  8486 net.cpp:139] Memory required for data: 2453405824
I0331 16:32:44.180483  8486 layer_factory.hpp:77] Creating layer res4f
I0331 16:32:44.180488  8486 net.cpp:86] Creating Layer res4f
I0331 16:32:44.180491  8486 net.cpp:408] res4f <- res4e_res4e_relu_0_split_1
I0331 16:32:44.180495  8486 net.cpp:408] res4f <- res4f_branch2b
I0331 16:32:44.180501  8486 net.cpp:382] res4f -> res4f
I0331 16:32:44.180526  8486 net.cpp:124] Setting up res4f
I0331 16:32:44.180531  8486 net.cpp:131] Top shape: 32 256 14 14 (1605632)
I0331 16:32:44.180532  8486 net.cpp:139] Memory required for data: 2459828352
I0331 16:32:44.180536  8486 layer_factory.hpp:77] Creating layer res4f_relu
I0331 16:32:44.180542  8486 net.cpp:86] Creating Layer res4f_relu
I0331 16:32:44.180546  8486 net.cpp:408] res4f_relu <- res4f
I0331 16:32:44.180548  8486 net.cpp:369] res4f_relu -> res4f (in-place)
I0331 16:32:44.180976  8486 net.cpp:124] Setting up res4f_relu
I0331 16:32:44.180984  8486 net.cpp:131] Top shape: 32 256 14 14 (1605632)
I0331 16:32:44.180987  8486 net.cpp:139] Memory required for data: 2466250880
I0331 16:32:44.180991  8486 layer_factory.hpp:77] Creating layer res4f_res4f_relu_0_split
I0331 16:32:44.180999  8486 net.cpp:86] Creating Layer res4f_res4f_relu_0_split
I0331 16:32:44.181001  8486 net.cpp:408] res4f_res4f_relu_0_split <- res4f
I0331 16:32:44.181006  8486 net.cpp:382] res4f_res4f_relu_0_split -> res4f_res4f_relu_0_split_0
I0331 16:32:44.181013  8486 net.cpp:382] res4f_res4f_relu_0_split -> res4f_res4f_relu_0_split_1
I0331 16:32:44.181059  8486 net.cpp:124] Setting up res4f_res4f_relu_0_split
I0331 16:32:44.181077  8486 net.cpp:131] Top shape: 32 256 14 14 (1605632)
I0331 16:32:44.181080  8486 net.cpp:131] Top shape: 32 256 14 14 (1605632)
I0331 16:32:44.181083  8486 net.cpp:139] Memory required for data: 2479095936
I0331 16:32:44.181087  8486 layer_factory.hpp:77] Creating layer res5a_branch1
I0331 16:32:44.181093  8486 net.cpp:86] Creating Layer res5a_branch1
I0331 16:32:44.181097  8486 net.cpp:408] res5a_branch1 <- res4f_res4f_relu_0_split_0
I0331 16:32:44.181103  8486 net.cpp:382] res5a_branch1 -> res5a_branch1
I0331 16:32:44.183879  8486 net.cpp:124] Setting up res5a_branch1
I0331 16:32:44.183890  8486 net.cpp:131] Top shape: 32 512 7 7 (802816)
I0331 16:32:44.183893  8486 net.cpp:139] Memory required for data: 2482307200
I0331 16:32:44.183897  8486 layer_factory.hpp:77] Creating layer bn5a_branch1
I0331 16:32:44.183905  8486 net.cpp:86] Creating Layer bn5a_branch1
I0331 16:32:44.183908  8486 net.cpp:408] bn5a_branch1 <- res5a_branch1
I0331 16:32:44.183914  8486 net.cpp:369] bn5a_branch1 -> res5a_branch1 (in-place)
I0331 16:32:44.184165  8486 net.cpp:124] Setting up bn5a_branch1
I0331 16:32:44.184170  8486 net.cpp:131] Top shape: 32 512 7 7 (802816)
I0331 16:32:44.184173  8486 net.cpp:139] Memory required for data: 2485518464
I0331 16:32:44.184180  8486 layer_factory.hpp:77] Creating layer scale5a_branch1
I0331 16:32:44.184185  8486 net.cpp:86] Creating Layer scale5a_branch1
I0331 16:32:44.184188  8486 net.cpp:408] scale5a_branch1 <- res5a_branch1
I0331 16:32:44.184192  8486 net.cpp:369] scale5a_branch1 -> res5a_branch1 (in-place)
I0331 16:32:44.184227  8486 layer_factory.hpp:77] Creating layer scale5a_branch1
I0331 16:32:44.184339  8486 net.cpp:124] Setting up scale5a_branch1
I0331 16:32:44.184345  8486 net.cpp:131] Top shape: 32 512 7 7 (802816)
I0331 16:32:44.184347  8486 net.cpp:139] Memory required for data: 2488729728
I0331 16:32:44.184353  8486 layer_factory.hpp:77] Creating layer res5a_branch2a
I0331 16:32:44.184362  8486 net.cpp:86] Creating Layer res5a_branch2a
I0331 16:32:44.184366  8486 net.cpp:408] res5a_branch2a <- res4f_res4f_relu_0_split_1
I0331 16:32:44.184372  8486 net.cpp:382] res5a_branch2a -> res5a_branch2a
I0331 16:32:44.196105  8486 net.cpp:124] Setting up res5a_branch2a
I0331 16:32:44.196115  8486 net.cpp:131] Top shape: 32 512 7 7 (802816)
I0331 16:32:44.196120  8486 net.cpp:139] Memory required for data: 2491940992
I0331 16:32:44.196125  8486 layer_factory.hpp:77] Creating layer bn5a_branch2a
I0331 16:32:44.196130  8486 net.cpp:86] Creating Layer bn5a_branch2a
I0331 16:32:44.196133  8486 net.cpp:408] bn5a_branch2a <- res5a_branch2a
I0331 16:32:44.196141  8486 net.cpp:369] bn5a_branch2a -> res5a_branch2a (in-place)
I0331 16:32:44.196338  8486 net.cpp:124] Setting up bn5a_branch2a
I0331 16:32:44.196344  8486 net.cpp:131] Top shape: 32 512 7 7 (802816)
I0331 16:32:44.196347  8486 net.cpp:139] Memory required for data: 2495152256
I0331 16:32:44.196354  8486 layer_factory.hpp:77] Creating layer scale5a_branch2a
I0331 16:32:44.196360  8486 net.cpp:86] Creating Layer scale5a_branch2a
I0331 16:32:44.196363  8486 net.cpp:408] scale5a_branch2a <- res5a_branch2a
I0331 16:32:44.196367  8486 net.cpp:369] scale5a_branch2a -> res5a_branch2a (in-place)
I0331 16:32:44.196404  8486 layer_factory.hpp:77] Creating layer scale5a_branch2a
I0331 16:32:44.196516  8486 net.cpp:124] Setting up scale5a_branch2a
I0331 16:32:44.196521  8486 net.cpp:131] Top shape: 32 512 7 7 (802816)
I0331 16:32:44.196523  8486 net.cpp:139] Memory required for data: 2498363520
I0331 16:32:44.196528  8486 layer_factory.hpp:77] Creating layer res5a_branch2a_relu
I0331 16:32:44.196534  8486 net.cpp:86] Creating Layer res5a_branch2a_relu
I0331 16:32:44.196537  8486 net.cpp:408] res5a_branch2a_relu <- res5a_branch2a
I0331 16:32:44.196542  8486 net.cpp:369] res5a_branch2a_relu -> res5a_branch2a (in-place)
I0331 16:32:44.196975  8486 net.cpp:124] Setting up res5a_branch2a_relu
I0331 16:32:44.196983  8486 net.cpp:131] Top shape: 32 512 7 7 (802816)
I0331 16:32:44.196990  8486 net.cpp:139] Memory required for data: 2501574784
I0331 16:32:44.197003  8486 layer_factory.hpp:77] Creating layer res5a_branch2b
I0331 16:32:44.197013  8486 net.cpp:86] Creating Layer res5a_branch2b
I0331 16:32:44.197016  8486 net.cpp:408] res5a_branch2b <- res5a_branch2a
I0331 16:32:44.197023  8486 net.cpp:382] res5a_branch2b -> res5a_branch2b
I0331 16:32:44.219276  8486 net.cpp:124] Setting up res5a_branch2b
I0331 16:32:44.219296  8486 net.cpp:131] Top shape: 32 512 7 7 (802816)
I0331 16:32:44.219300  8486 net.cpp:139] Memory required for data: 2504786048
I0331 16:32:44.219305  8486 layer_factory.hpp:77] Creating layer bn5a_branch2b
I0331 16:32:44.219314  8486 net.cpp:86] Creating Layer bn5a_branch2b
I0331 16:32:44.219318  8486 net.cpp:408] bn5a_branch2b <- res5a_branch2b
I0331 16:32:44.219324  8486 net.cpp:369] bn5a_branch2b -> res5a_branch2b (in-place)
I0331 16:32:44.219525  8486 net.cpp:124] Setting up bn5a_branch2b
I0331 16:32:44.219533  8486 net.cpp:131] Top shape: 32 512 7 7 (802816)
I0331 16:32:44.219537  8486 net.cpp:139] Memory required for data: 2507997312
I0331 16:32:44.219543  8486 layer_factory.hpp:77] Creating layer scale5a_branch2b
I0331 16:32:44.219548  8486 net.cpp:86] Creating Layer scale5a_branch2b
I0331 16:32:44.219552  8486 net.cpp:408] scale5a_branch2b <- res5a_branch2b
I0331 16:32:44.219555  8486 net.cpp:369] scale5a_branch2b -> res5a_branch2b (in-place)
I0331 16:32:44.219595  8486 layer_factory.hpp:77] Creating layer scale5a_branch2b
I0331 16:32:44.219712  8486 net.cpp:124] Setting up scale5a_branch2b
I0331 16:32:44.219717  8486 net.cpp:131] Top shape: 32 512 7 7 (802816)
I0331 16:32:44.219720  8486 net.cpp:139] Memory required for data: 2511208576
I0331 16:32:44.219724  8486 layer_factory.hpp:77] Creating layer res5a
I0331 16:32:44.219733  8486 net.cpp:86] Creating Layer res5a
I0331 16:32:44.219736  8486 net.cpp:408] res5a <- res5a_branch1
I0331 16:32:44.219740  8486 net.cpp:408] res5a <- res5a_branch2b
I0331 16:32:44.219744  8486 net.cpp:382] res5a -> res5a
I0331 16:32:44.219771  8486 net.cpp:124] Setting up res5a
I0331 16:32:44.219776  8486 net.cpp:131] Top shape: 32 512 7 7 (802816)
I0331 16:32:44.219779  8486 net.cpp:139] Memory required for data: 2514419840
I0331 16:32:44.219784  8486 layer_factory.hpp:77] Creating layer res5a_relu
I0331 16:32:44.219789  8486 net.cpp:86] Creating Layer res5a_relu
I0331 16:32:44.219791  8486 net.cpp:408] res5a_relu <- res5a
I0331 16:32:44.219797  8486 net.cpp:369] res5a_relu -> res5a (in-place)
I0331 16:32:44.220227  8486 net.cpp:124] Setting up res5a_relu
I0331 16:32:44.220234  8486 net.cpp:131] Top shape: 32 512 7 7 (802816)
I0331 16:32:44.220237  8486 net.cpp:139] Memory required for data: 2517631104
I0331 16:32:44.220240  8486 layer_factory.hpp:77] Creating layer res5a_res5a_relu_0_split
I0331 16:32:44.220245  8486 net.cpp:86] Creating Layer res5a_res5a_relu_0_split
I0331 16:32:44.220248  8486 net.cpp:408] res5a_res5a_relu_0_split <- res5a
I0331 16:32:44.220255  8486 net.cpp:382] res5a_res5a_relu_0_split -> res5a_res5a_relu_0_split_0
I0331 16:32:44.220261  8486 net.cpp:382] res5a_res5a_relu_0_split -> res5a_res5a_relu_0_split_1
I0331 16:32:44.220306  8486 net.cpp:124] Setting up res5a_res5a_relu_0_split
I0331 16:32:44.220311  8486 net.cpp:131] Top shape: 32 512 7 7 (802816)
I0331 16:32:44.220315  8486 net.cpp:131] Top shape: 32 512 7 7 (802816)
I0331 16:32:44.220317  8486 net.cpp:139] Memory required for data: 2524053632
I0331 16:32:44.220320  8486 layer_factory.hpp:77] Creating layer res5b_branch2a
I0331 16:32:44.220329  8486 net.cpp:86] Creating Layer res5b_branch2a
I0331 16:32:44.220332  8486 net.cpp:408] res5b_branch2a <- res5a_res5a_relu_0_split_0
I0331 16:32:44.220337  8486 net.cpp:382] res5b_branch2a -> res5b_branch2a
I0331 16:32:44.242319  8486 net.cpp:124] Setting up res5b_branch2a
I0331 16:32:44.242341  8486 net.cpp:131] Top shape: 32 512 7 7 (802816)
I0331 16:32:44.242344  8486 net.cpp:139] Memory required for data: 2527264896
I0331 16:32:44.242352  8486 layer_factory.hpp:77] Creating layer bn5b_branch2a
I0331 16:32:44.242367  8486 net.cpp:86] Creating Layer bn5b_branch2a
I0331 16:32:44.242393  8486 net.cpp:408] bn5b_branch2a <- res5b_branch2a
I0331 16:32:44.242401  8486 net.cpp:369] bn5b_branch2a -> res5b_branch2a (in-place)
I0331 16:32:44.242609  8486 net.cpp:124] Setting up bn5b_branch2a
I0331 16:32:44.242615  8486 net.cpp:131] Top shape: 32 512 7 7 (802816)
I0331 16:32:44.242617  8486 net.cpp:139] Memory required for data: 2530476160
I0331 16:32:44.242625  8486 layer_factory.hpp:77] Creating layer scale5b_branch2a
I0331 16:32:44.242635  8486 net.cpp:86] Creating Layer scale5b_branch2a
I0331 16:32:44.242638  8486 net.cpp:408] scale5b_branch2a <- res5b_branch2a
I0331 16:32:44.242642  8486 net.cpp:369] scale5b_branch2a -> res5b_branch2a (in-place)
I0331 16:32:44.242681  8486 layer_factory.hpp:77] Creating layer scale5b_branch2a
I0331 16:32:44.242796  8486 net.cpp:124] Setting up scale5b_branch2a
I0331 16:32:44.242802  8486 net.cpp:131] Top shape: 32 512 7 7 (802816)
I0331 16:32:44.242805  8486 net.cpp:139] Memory required for data: 2533687424
I0331 16:32:44.242810  8486 layer_factory.hpp:77] Creating layer res5b_branch2a_relu
I0331 16:32:44.242815  8486 net.cpp:86] Creating Layer res5b_branch2a_relu
I0331 16:32:44.242817  8486 net.cpp:408] res5b_branch2a_relu <- res5b_branch2a
I0331 16:32:44.242823  8486 net.cpp:369] res5b_branch2a_relu -> res5b_branch2a (in-place)
I0331 16:32:44.243268  8486 net.cpp:124] Setting up res5b_branch2a_relu
I0331 16:32:44.243276  8486 net.cpp:131] Top shape: 32 512 7 7 (802816)
I0331 16:32:44.243279  8486 net.cpp:139] Memory required for data: 2536898688
I0331 16:32:44.243283  8486 layer_factory.hpp:77] Creating layer res5b_branch2b
I0331 16:32:44.243294  8486 net.cpp:86] Creating Layer res5b_branch2b
I0331 16:32:44.243297  8486 net.cpp:408] res5b_branch2b <- res5b_branch2a
I0331 16:32:44.243302  8486 net.cpp:382] res5b_branch2b -> res5b_branch2b
I0331 16:32:44.265386  8486 net.cpp:124] Setting up res5b_branch2b
I0331 16:32:44.265406  8486 net.cpp:131] Top shape: 32 512 7 7 (802816)
I0331 16:32:44.265410  8486 net.cpp:139] Memory required for data: 2540109952
I0331 16:32:44.265417  8486 layer_factory.hpp:77] Creating layer bn5b_branch2b
I0331 16:32:44.265424  8486 net.cpp:86] Creating Layer bn5b_branch2b
I0331 16:32:44.265427  8486 net.cpp:408] bn5b_branch2b <- res5b_branch2b
I0331 16:32:44.265435  8486 net.cpp:369] bn5b_branch2b -> res5b_branch2b (in-place)
I0331 16:32:44.265640  8486 net.cpp:124] Setting up bn5b_branch2b
I0331 16:32:44.265646  8486 net.cpp:131] Top shape: 32 512 7 7 (802816)
I0331 16:32:44.265648  8486 net.cpp:139] Memory required for data: 2543321216
I0331 16:32:44.265656  8486 layer_factory.hpp:77] Creating layer scale5b_branch2b
I0331 16:32:44.265663  8486 net.cpp:86] Creating Layer scale5b_branch2b
I0331 16:32:44.265666  8486 net.cpp:408] scale5b_branch2b <- res5b_branch2b
I0331 16:32:44.265671  8486 net.cpp:369] scale5b_branch2b -> res5b_branch2b (in-place)
I0331 16:32:44.265713  8486 layer_factory.hpp:77] Creating layer scale5b_branch2b
I0331 16:32:44.265830  8486 net.cpp:124] Setting up scale5b_branch2b
I0331 16:32:44.265836  8486 net.cpp:131] Top shape: 32 512 7 7 (802816)
I0331 16:32:44.265838  8486 net.cpp:139] Memory required for data: 2546532480
I0331 16:32:44.265843  8486 layer_factory.hpp:77] Creating layer res5b
I0331 16:32:44.265854  8486 net.cpp:86] Creating Layer res5b
I0331 16:32:44.265857  8486 net.cpp:408] res5b <- res5a_res5a_relu_0_split_1
I0331 16:32:44.265863  8486 net.cpp:408] res5b <- res5b_branch2b
I0331 16:32:44.265868  8486 net.cpp:382] res5b -> res5b
I0331 16:32:44.265897  8486 net.cpp:124] Setting up res5b
I0331 16:32:44.265902  8486 net.cpp:131] Top shape: 32 512 7 7 (802816)
I0331 16:32:44.265904  8486 net.cpp:139] Memory required for data: 2549743744
I0331 16:32:44.265908  8486 layer_factory.hpp:77] Creating layer res5b_relu
I0331 16:32:44.265911  8486 net.cpp:86] Creating Layer res5b_relu
I0331 16:32:44.265914  8486 net.cpp:408] res5b_relu <- res5b
I0331 16:32:44.265920  8486 net.cpp:369] res5b_relu -> res5b (in-place)
I0331 16:32:44.266351  8486 net.cpp:124] Setting up res5b_relu
I0331 16:32:44.266379  8486 net.cpp:131] Top shape: 32 512 7 7 (802816)
I0331 16:32:44.266382  8486 net.cpp:139] Memory required for data: 2552955008
I0331 16:32:44.266386  8486 layer_factory.hpp:77] Creating layer res5b_res5b_relu_0_split
I0331 16:32:44.266391  8486 net.cpp:86] Creating Layer res5b_res5b_relu_0_split
I0331 16:32:44.266394  8486 net.cpp:408] res5b_res5b_relu_0_split <- res5b
I0331 16:32:44.266402  8486 net.cpp:382] res5b_res5b_relu_0_split -> res5b_res5b_relu_0_split_0
I0331 16:32:44.266407  8486 net.cpp:382] res5b_res5b_relu_0_split -> res5b_res5b_relu_0_split_1
I0331 16:32:44.266454  8486 net.cpp:124] Setting up res5b_res5b_relu_0_split
I0331 16:32:44.266460  8486 net.cpp:131] Top shape: 32 512 7 7 (802816)
I0331 16:32:44.266463  8486 net.cpp:131] Top shape: 32 512 7 7 (802816)
I0331 16:32:44.266466  8486 net.cpp:139] Memory required for data: 2559377536
I0331 16:32:44.266469  8486 layer_factory.hpp:77] Creating layer res5c_branch2a
I0331 16:32:44.266480  8486 net.cpp:86] Creating Layer res5c_branch2a
I0331 16:32:44.266484  8486 net.cpp:408] res5c_branch2a <- res5b_res5b_relu_0_split_0
I0331 16:32:44.266489  8486 net.cpp:382] res5c_branch2a -> res5c_branch2a
I0331 16:32:44.288327  8486 net.cpp:124] Setting up res5c_branch2a
I0331 16:32:44.288345  8486 net.cpp:131] Top shape: 32 512 7 7 (802816)
I0331 16:32:44.288348  8486 net.cpp:139] Memory required for data: 2562588800
I0331 16:32:44.288355  8486 layer_factory.hpp:77] Creating layer bn5c_branch2a
I0331 16:32:44.288364  8486 net.cpp:86] Creating Layer bn5c_branch2a
I0331 16:32:44.288369  8486 net.cpp:408] bn5c_branch2a <- res5c_branch2a
I0331 16:32:44.288374  8486 net.cpp:369] bn5c_branch2a -> res5c_branch2a (in-place)
I0331 16:32:44.288584  8486 net.cpp:124] Setting up bn5c_branch2a
I0331 16:32:44.288590  8486 net.cpp:131] Top shape: 32 512 7 7 (802816)
I0331 16:32:44.288594  8486 net.cpp:139] Memory required for data: 2565800064
I0331 16:32:44.288599  8486 layer_factory.hpp:77] Creating layer scale5c_branch2a
I0331 16:32:44.288604  8486 net.cpp:86] Creating Layer scale5c_branch2a
I0331 16:32:44.288607  8486 net.cpp:408] scale5c_branch2a <- res5c_branch2a
I0331 16:32:44.288614  8486 net.cpp:369] scale5c_branch2a -> res5c_branch2a (in-place)
I0331 16:32:44.288653  8486 layer_factory.hpp:77] Creating layer scale5c_branch2a
I0331 16:32:44.288769  8486 net.cpp:124] Setting up scale5c_branch2a
I0331 16:32:44.288775  8486 net.cpp:131] Top shape: 32 512 7 7 (802816)
I0331 16:32:44.288779  8486 net.cpp:139] Memory required for data: 2569011328
I0331 16:32:44.288784  8486 layer_factory.hpp:77] Creating layer res5c_branch2a_relu
I0331 16:32:44.288789  8486 net.cpp:86] Creating Layer res5c_branch2a_relu
I0331 16:32:44.288791  8486 net.cpp:408] res5c_branch2a_relu <- res5c_branch2a
I0331 16:32:44.288795  8486 net.cpp:369] res5c_branch2a_relu -> res5c_branch2a (in-place)
I0331 16:32:44.289409  8486 net.cpp:124] Setting up res5c_branch2a_relu
I0331 16:32:44.289419  8486 net.cpp:131] Top shape: 32 512 7 7 (802816)
I0331 16:32:44.289422  8486 net.cpp:139] Memory required for data: 2572222592
I0331 16:32:44.289427  8486 layer_factory.hpp:77] Creating layer res5c_branch2b
I0331 16:32:44.289438  8486 net.cpp:86] Creating Layer res5c_branch2b
I0331 16:32:44.289441  8486 net.cpp:408] res5c_branch2b <- res5c_branch2a
I0331 16:32:44.289448  8486 net.cpp:382] res5c_branch2b -> res5c_branch2b
I0331 16:32:44.311319  8486 net.cpp:124] Setting up res5c_branch2b
I0331 16:32:44.311337  8486 net.cpp:131] Top shape: 32 512 7 7 (802816)
I0331 16:32:44.311341  8486 net.cpp:139] Memory required for data: 2575433856
I0331 16:32:44.311348  8486 layer_factory.hpp:77] Creating layer bn5c_branch2b
I0331 16:32:44.311360  8486 net.cpp:86] Creating Layer bn5c_branch2b
I0331 16:32:44.311364  8486 net.cpp:408] bn5c_branch2b <- res5c_branch2b
I0331 16:32:44.311369  8486 net.cpp:369] bn5c_branch2b -> res5c_branch2b (in-place)
I0331 16:32:44.311578  8486 net.cpp:124] Setting up bn5c_branch2b
I0331 16:32:44.311584  8486 net.cpp:131] Top shape: 32 512 7 7 (802816)
I0331 16:32:44.311592  8486 net.cpp:139] Memory required for data: 2578645120
I0331 16:32:44.311621  8486 layer_factory.hpp:77] Creating layer scale5c_branch2b
I0331 16:32:44.311627  8486 net.cpp:86] Creating Layer scale5c_branch2b
I0331 16:32:44.311631  8486 net.cpp:408] scale5c_branch2b <- res5c_branch2b
I0331 16:32:44.311637  8486 net.cpp:369] scale5c_branch2b -> res5c_branch2b (in-place)
I0331 16:32:44.311681  8486 layer_factory.hpp:77] Creating layer scale5c_branch2b
I0331 16:32:44.311802  8486 net.cpp:124] Setting up scale5c_branch2b
I0331 16:32:44.311808  8486 net.cpp:131] Top shape: 32 512 7 7 (802816)
I0331 16:32:44.311810  8486 net.cpp:139] Memory required for data: 2581856384
I0331 16:32:44.311815  8486 layer_factory.hpp:77] Creating layer res5c
I0331 16:32:44.311822  8486 net.cpp:86] Creating Layer res5c
I0331 16:32:44.311826  8486 net.cpp:408] res5c <- res5b_res5b_relu_0_split_1
I0331 16:32:44.311830  8486 net.cpp:408] res5c <- res5c_branch2b
I0331 16:32:44.311836  8486 net.cpp:382] res5c -> res5c
I0331 16:32:44.311861  8486 net.cpp:124] Setting up res5c
I0331 16:32:44.311869  8486 net.cpp:131] Top shape: 32 512 7 7 (802816)
I0331 16:32:44.311872  8486 net.cpp:139] Memory required for data: 2585067648
I0331 16:32:44.311874  8486 layer_factory.hpp:77] Creating layer res5c_relu
I0331 16:32:44.311879  8486 net.cpp:86] Creating Layer res5c_relu
I0331 16:32:44.311883  8486 net.cpp:408] res5c_relu <- res5c
I0331 16:32:44.311887  8486 net.cpp:369] res5c_relu -> res5c (in-place)
I0331 16:32:44.312326  8486 net.cpp:124] Setting up res5c_relu
I0331 16:32:44.312335  8486 net.cpp:131] Top shape: 32 512 7 7 (802816)
I0331 16:32:44.312340  8486 net.cpp:139] Memory required for data: 2588278912
I0331 16:32:44.312342  8486 layer_factory.hpp:77] Creating layer pool5
I0331 16:32:44.312350  8486 net.cpp:86] Creating Layer pool5
I0331 16:32:44.312352  8486 net.cpp:408] pool5 <- res5c
I0331 16:32:44.312360  8486 net.cpp:382] pool5 -> pool5
I0331 16:32:44.312994  8486 net.cpp:124] Setting up pool5
I0331 16:32:44.313002  8486 net.cpp:131] Top shape: 32 512 1 1 (16384)
I0331 16:32:44.313005  8486 net.cpp:139] Memory required for data: 2588344448
I0331 16:32:44.313009  8486 layer_factory.hpp:77] Creating layer fc1000
I0331 16:32:44.313019  8486 net.cpp:86] Creating Layer fc1000
I0331 16:32:44.313021  8486 net.cpp:408] fc1000 <- pool5
I0331 16:32:44.313028  8486 net.cpp:382] fc1000 -> fc1000
I0331 16:32:44.316082  8486 net.cpp:124] Setting up fc1000
I0331 16:32:44.316093  8486 net.cpp:131] Top shape: 32 1000 (32000)
I0331 16:32:44.316095  8486 net.cpp:139] Memory required for data: 2588472448
I0331 16:32:44.316102  8486 layer_factory.hpp:77] Creating layer loss
I0331 16:32:44.316110  8486 net.cpp:86] Creating Layer loss
I0331 16:32:44.316113  8486 net.cpp:408] loss <- fc1000
I0331 16:32:44.316118  8486 net.cpp:408] loss <- label
I0331 16:32:44.316123  8486 net.cpp:382] loss -> loss
I0331 16:32:44.316133  8486 layer_factory.hpp:77] Creating layer loss
…
I0331 16:32:44.319279  8486 net.cpp:296] The NetState phase (1) differed from the phase (0) specified by a rule in layer data
I0331 16:32:44.319788  8486 net.cpp:53] Initializing net from parameters: 
name: "resnet_34"
state {
  phase: TEST
}
layer {
  name: "data"
  type: "Data"
  top: "data"
  top: "label"
  include {
    phase: TEST
  }
  transform_param {
    mirror: false
    crop_size: 224
    mean_file: "/scratch/imagenet/lmdb_data/imagenet_mean.binaryproto"
  }
  data_param {
    source: "/scratch/imagenet/lmdb_data/ilsvrc12_val_lmdb"
    batch_size: 20
    backend: LMDB
  }
}
layer {
  name: "conv1"
  type: "Convolution"
  bottom: "data"
  top: "conv1"
  convolution_param {
    num_output: 64
    bias_term: false
    pad: 3
    kernel_size: 7
    stride: 2
    weight_filler {
      type: "msra"
    }
  }
}
layer {
  name: "bn_conv1"
  type: "BatchNorm"
  bottom: "conv1"
  top: "conv1"
  batch_norm_param {
    use_global_stats: false
  }
}
layer {
  name: "scale_conv1"
  type: "Scale"
  bottom: "conv1"
  top: "conv1"
  scale_param {
    bias_term: true
  }
}
layer {
  name: "conv1_relu"
  type: "ReLU"
  bottom: "conv1"
  top: "conv1"
}
layer {
  name: "pool1"
  type: "Pooling"
  bottom: "conv1"
  top: "pool1"
  pooling_param {
    pool: MAX
    kernel_size: 3
    stride: 2
  }
}
layer {
  name: "res2a_branch1"
  type: "Convolution"
  bottom: "pool1"
  top: "res2a_branch1"
  convolution_param {
    num_output: 64
    bias_term: false
    pad: 0
    kernel_size: 1
    stride: 1
    weight_filler {
      type: "msra"
    }
  }
}
layer {
  name: "bn2a_branch1"
  type: "BatchNorm"
  bottom: "res2a_branch1"
  top: "res2a_branch1"
  batch_norm_param {
    use_global_stats: false
  }
}
layer {
  name: "scale2a_branch1"
  type: "Scale"
  bottom: "res2a_branch1"
  top: "res2a_branch1"
  scale_param {
    bias_term: true
  }
}
layer {
  name: "res2a_branch2a"
  type: "Convolution"
  bottom: "pool1"
  top: "res2a_branch2a"
  convolution_param {
    num_output: 64
    bias_term: false
    pad: 1
    kernel_size: 3
    stride: 1
    weight_filler {
      type: "msra"
    }
  }
}
layer {
  name: "bn2a_branch2a"
  type: "BatchNorm"
  bottom: "res2a_branch2a"
  top: "res2a_branch2a"
  batch_norm_param {
    use_global_stats: false
  }
}
layer {
  name: "scale2a_branch2a"
  type: "Scale"
  bottom: "res2a_branch2a"
  top: "res2a_branch2a"
  scale_param {
    bias_term: true
  }
}
layer {
  name: "res2a_branch2a_relu"
  type: "ReLU"
  bottom: "res2a_branch2a"
  top: "res2a_branch2a"
}
layer {
  name: "res2a_branch2b"
  type: "Convolution"
  bottom: "res2a_branch2a"
  top: "res2a_branch2b"
  convolution_param {
    num_output: 64
    bias_term: false
    pad: 1
    kernel_size: 3
    stride: 1
    weight_filler {
      type: "msra"
    }
  }
}
layer {
  name: "bn2a_branch2b"
  type: "BatchNorm"
  bottom: "res2a_branch2b"
  top: "res2a_branch2b"
  batch_norm_param {
    use_global_stats: false
  }
}
layer {
  name: "scale2a_branch2b"
  type: "Scale"
  bottom: "res2a_branch2b"
  top: "res2a_branch2b"
  scale_param {
    bias_term: true
  }
}
layer {
  name: "res2a"
  type: "Eltwise"
  bottom: "res2a_branch1"
  bottom: "res2a_branch2b"
  top: "res2a"
  eltwise_param {
    operation: SUM
  }
}
layer {
  name: "res2a_relu"
  type: "ReLU"
  bottom: "res2a"
  top: "res2a"
}
layer {
  name: "res2b_branch2a"
  type: "Convolution"
  bottom: "res2a"
  top: "res2b_branch2a"
  convolution_param {
    num_output: 64
    bias_term: false
    pad: 1
    kernel_size: 3
    stride: 1
    weight_filler {
      type: "msra"
    }
  }
}
layer {
  name: "bn2b_branch2a"
  type: "BatchNorm"
  bottom: "res2b_branch2a"
  top: "res2b_branch2a"
  batch_norm_param {
    use_global_stats: false
  }
}
layer {
  name: "scale2b_branch2a"
  type: "Scale"
  bottom: "res2b_branch2a"
  top: "res2b_branch2a"
  scale_param {
    bias_term: true
  }
}
layer {
  name: "res2b_branch2a_relu"
  type: "ReLU"
  bottom: "res2b_branch2a"
  top: "res2b_branch2a"
}
layer {
  name: "res2b_branch2b"
  type: "Convolution"
  bottom: "res2b_branch2a"
  top: "res2b_branch2b"
  convolution_param {
    num_output: 64
    bias_term: false
    pad: 1
    kernel_size: 3
    stride: 1
    weight_filler {
      type: "msra"
    }
  }
}
layer {
  name: "bn2b_branch2b"
  type: "BatchNorm"
  bottom: "res2b_branch2b"
  top: "res2b_branch2b"
  batch_norm_param {
    use_global_stats: false
  }
}
layer {
  name: "scale2b_branch2b"
  type: "Scale"
  bottom: "res2b_branch2b"
  top: "res2b_branch2b"
  scale_param {
    bias_term: true
  }
}
layer {
  name: "res2b"
  type: "Eltwise"
  bottom: "res2a"
  bottom: "res2b_branch2b"
  top: "res2b"
  eltwise_param {
    operation: SUM
  }
}
layer {
  name: "res2b_relu"
  type: "ReLU"
  bottom: "res2b"
  top: "res2b"
}
layer {
  name: "res2c_branch2a"
  type: "Convolution"
  bottom: "res2b"
  top: "res2c_branch2a"
  convolution_param {
    num_output: 64
    bias_term: false
    pad: 1
    kernel_size: 3
    stride: 1
    weight_filler {
      type: "msra"
    }
  }
}
layer {
  name: "bn2c_branch2a"
  type: "BatchNorm"
  bottom: "res2c_branch2a"
  top: "res2c_branch2a"
  batch_norm_param {
    use_global_stats: false
  }
}
layer {
  name: "scale2c_branch2a"
  type: "Scale"
  bottom: "res2c_branch2a"
  top: "res2c_branch2a"
  scale_param {
    bias_term: true
  }
}
layer {
  name: "res2c_branch2a_relu"
  type: "ReLU"
  bottom: "res2c_branch2a"
  top: "res2c_branch2a"
}
layer {
  name: "res2c_branch2b"
  type: "Convolution"
  bottom: "res2c_branch2a"
  top: "res2c_branch2b"
  convolution_param {
    num_output: 64
    bias_term: false
    pad: 1
    kernel_size: 3
    stride: 1
    weight_filler {
      type: "msra"
    }
  }
}
layer {
  name: "bn2c_branch2b"
  type: "BatchNorm"
  bottom: "res2c_branch2b"
  top: "res2c_branch2b"
  batch_norm_param {
    use_global_stats: false
  }
}
layer {
  name: "scale2c_branch2b"
  type: "Scale"
  bottom: "res2c_branch2b"
  top: "res2c_branch2b"
  scale_param {
    bias_term: true
  }
}
layer {
  name: "res2c"
  type: "Eltwise"
  bottom: "res2b"
  bottom: "res2c_branch2b"
  top: "res2c"
  eltwise_param {
    operation: SUM
  }
}
layer {
  name: "res2c_relu"
  type: "ReLU"
  bottom: "res2c"
  top: "res2c"
}
layer {
  name: "res3a_branch1"
  type: "Convolution"
  bottom: "res2c"
  top: "res3a_branch1"
  convolution_param {
    num_output: 128
    bias_term: false
    pad: 0
    kernel_size: 1
    stride: 2
    weight_filler {
      type: "msra"
    }
  }
}
layer {
  name: "bn3a_branch1"
  type: "BatchNorm"
  bottom: "res3a_branch1"
  top: "res3a_branch1"
  batch_norm_param {
    use_global_stats: false
  }
}
layer {
  name: "scale3a_branch1"
  type: "Scale"
  bottom: "res3a_branch1"
  top: "res3a_branch1"
  scale_param {
    bias_term: true
  }
}
layer {
  name: "res3a_branch2a"
  type: "Convolution"
  bottom: "res2c"
  top: "res3a_branch2a"
  convolution_param {
    num_output: 128
    bias_term: false
    pad: 1
    kernel_size: 3
    stride: 2
    weight_filler {
      type: "msra"
    }
  }
}
layer {
  name: "bn3a_branch2a"
  type: "BatchNorm"
  bottom: "res3a_branch2a"
  top: "res3a_branch2a"
  batch_norm_param {
    use_global_stats: false
  }
}
layer {
  name: "scale3a_branch2a"
  type: "Scale"
  bottom: "res3a_branch2a"
  top: "res3a_branch2a"
  scale_param {
    bias_term: true
  }
}
layer {
  name: "res3a_branch2a_relu"
  type: "ReLU"
  bottom: "res3a_branch2a"
  top: "res3a_branch2a"
}
layer {
  name: "res3a_branch2b"
  type: "Convolution"
  bottom: "res3a_branch2a"
  top: "res3a_branch2b"
  convolution_param {
    num_output: 128
    bias_term: false
    pad: 1
    kernel_size: 3
    stride: 1
    weight_filler {
      type: "msra"
    }
  }
}
layer {
  name: "bn3a_branch2b"
  type: "BatchNorm"
  bottom: "res3a_branch2b"
  top: "res3a_branch2b"
  batch_norm_param {
    use_global_stats: false
  }
}
layer {
  name: "scale3a_branch2b"
  type: "Scale"
  bottom: "res3a_branch2b"
  top: "res3a_branch2b"
  scale_param {
    bias_term: true
  }
}
layer {
  name: "res3a"
  type: "Eltwise"
  bottom: "res3a_branch1"
  bottom: "res3a_branch2b"
  top: "res3a"
  eltwise_param {
    operation: SUM
  }
}
layer {
  name: "res3a_relu"
  type: "ReLU"
  bottom: "res3a"
  top: "res3a"
}
layer {
  name: "res3b_branch2a"
  type: "Convolution"
  bottom: "res3a"
  top: "res3b_branch2a"
  convolution_param {
    num_output: 128
    bias_term: false
    pad: 1
    kernel_size: 3
    stride: 1
    weight_filler {
      type: "msra"
    }
  }
}
layer {
  name: "bn3b_branch2a"
  type: "BatchNorm"
  bottom: "res3b_branch2a"
  top: "res3b_branch2a"
  batch_norm_param {
    use_global_stats: false
  }
}
layer {
  name: "scale3b_branch2a"
  type: "Scale"
  bottom: "res3b_branch2a"
  top: "res3b_branch2a"
  scale_param {
    bias_term: true
  }
}
layer {
  name: "res3b_branch2a_relu"
  type: "ReLU"
  bottom: "res3b_branch2a"
  top: "res3b_branch2a"
}
layer {
  name: "res3b_branch2b"
  type: "Convolution"
  bottom: "res3b_branch2a"
  top: "res3b_branch2b"
  convolution_param {
    num_output: 128
    bias_term: false
    pad: 1
    kernel_size: 3
    stride: 1
    weight_filler {
      type: "msra"
    }
  }
}
layer {
  name: "bn3b_branch2b"
  type: "BatchNorm"
  bottom: "res3b_branch2b"
  top: "res3b_branch2b"
  batch_norm_param {
    use_global_stats: false
  }
}
layer {
  name: "scale3b_branch2b"
  type: "Scale"
  bottom: "res3b_branch2b"
  top: "res3b_branch2b"
  scale_param {
    bias_term: true
  }
}
layer {
  name: "res3b"
  type: "Eltwise"
  bottom: "res3a"
  bottom: "res3b_branch2b"
  top: "res3b"
  eltwise_param {
    operation: SUM
  }
}
layer {
  name: "res3b_relu"
  type: "ReLU"
  bottom: "res3b"
  top: "res3b"
}
layer {
  name: "res3c_branch2a"
  type: "Convolution"
  bottom: "res3b"
  top: "res3c_branch2a"
  convolution_param {
    num_output: 128
    bias_term: false
    pad: 1
    kernel_size: 3
    stride: 1
    weight_filler {
      type: "msra"
    }
  }
}
layer {
  name: "bn3c_branch2a"
  type: "BatchNorm"
  bottom: "res3c_branch2a"
  top: "res3c_branch2a"
  batch_norm_param {
    use_global_stats: false
  }
}
layer {
  name: "scale3c_branch2a"
  type: "Scale"
  bottom: "res3c_branch2a"
  top: "res3c_branch2a"
  scale_param {
    bias_term: true
  }
}
layer {
  name: "res3c_branch2a_relu"
  type: "ReLU"
  bottom: "res3c_branch2a"
  top: "res3c_branch2a"
}
layer {
  name: "res3c_branch2b"
  type: "Convolution"
  bottom: "res3c_branch2a"
  top: "res3c_branch2b"
  convolution_param {
    num_output: 128
    bias_term: false
    pad: 1
    kernel_size: 3
    stride: 1
    weight_filler {
      type: "msra"
    }
  }
}
layer {
  name: "bn3c_branch2b"
  type: "BatchNorm"
  bottom: "res3c_branch2b"
  top: "res3c_branch2b"
  batch_norm_param {
    use_global_stats: false
  }
}
layer {
  name: "scale3c_branch2b"
  type: "Scale"
  bottom: "res3c_branch2b"
  top: "res3c_branch2b"
  scale_param {
    bias_term: true
  }
}
layer {
  name: "res3c"
  type: "Eltwise"
  bottom: "res3b"
  bottom: "res3c_branch2b"
  top: "res3c"
  eltwise_param {
    operation: SUM
  }
}
layer {
  name: "res3c_relu"
  type: "ReLU"
  bottom: "res3c"
  top: "res3c"
}
layer {
  name: "res3d_branch2a"
  type: "Convolution"
  bottom: "res3c"
  top: "res3d_branch2a"
  convolution_param {
    num_output: 128
    bias_term: false
    pad: 1
    kernel_size: 3
    stride: 1
    weight_filler {
      type: "msra"
    }
  }
}
layer {
  name: "bn3d_branch2a"
  type: "BatchNorm"
  bottom: "res3d_branch2a"
  top: "res3d_branch2a"
  batch_norm_param {
    use_global_stats: false
  }
}
layer {
  name: "scale3d_branch2a"
  type: "Scale"
  bottom: "res3d_branch2a"
  top: "res3d_branch2a"
  scale_param {
    bias_term: true
  }
}
layer {
  name: "res3d_branch2a_relu"
  type: "ReLU"
  bottom: "res3d_branch2a"
  top: "res3d_branch2a"
}
layer {
  name: "res3d_branch2b"
  type: "Convolution"
  bottom: "res3d_branch2a"
  top: "res3d_branch2b"
  convolution_param {
    num_output: 128
    bias_term: false
    pad: 1
    kernel_size: 3
    stride: 1
    weight_filler {
      type: "msra"
    }
  }
}
layer {
  name: "bn3d_branch2b"
  type: "BatchNorm"
  bottom: "res3d_branch2b"
  top: "res3d_branch2b"
  batch_norm_param {
    use_global_stats: false
  }
}
layer {
  name: "scale3d_branch2b"
  type: "Scale"
  bottom: "res3d_branch2b"
  top: "res3d_branch2b"
  scale_param {
    bias_term: true
  }
}
layer {
  name: "res3d"
  type: "Eltwise"
  bottom: "res3c"
  bottom: "res3d_branch2b"
  top: "res3d"
  eltwise_param {
    operation: SUM
  }
}
layer {
  name: "res3d_relu"
  type: "ReLU"
  bottom: "res3d"
  top: "res3d"
}
layer {
  name: "res4a_branch1"
  type: "Convolution"
  bottom: "res3d"
  top: "res4a_branch1"
  convolution_param {
    num_output: 256
    bias_term: false
    pad: 0
    kernel_size: 1
    stride: 2
    weight_filler {
      type: "msra"
    }
  }
}
layer {
  name: "bn4a_branch1"
  type: "BatchNorm"
  bottom: "res4a_branch1"
  top: "res4a_branch1"
  batch_norm_param {
    use_global_stats: false
  }
}
layer {
  name: "scale4a_branch1"
  type: "Scale"
  bottom: "res4a_branch1"
  top: "res4a_branch1"
  scale_param {
    bias_term: true
  }
}
layer {
  name: "res4a_branch2a"
  type: "Convolution"
  bottom: "res3d"
  top: "res4a_branch2a"
  convolution_param {
    num_output: 256
    bias_term: false
    pad: 1
    kernel_size: 3
    stride: 2
    weight_filler {
      type: "msra"
    }
  }
}
layer {
  name: "bn4a_branch2a"
  type: "BatchNorm"
  bottom: "res4a_branch2a"
  top: "res4a_branch2a"
  batch_norm_param {
    use_global_stats: false
  }
}
layer {
  name: "scale4a_branch2a"
  type: "Scale"
  bottom: "res4a_branch2a"
  top: "res4a_branch2a"
  scale_param {
    bias_term: true
  }
}
layer {
  name: "res4a_branch2a_relu"
  type: "ReLU"
  bottom: "res4a_branch2a"
  top: "res4a_branch2a"
}
layer {
  name: "res4a_branch2b"
  type: "Convolution"
  bottom: "res4a_branch2a"
  top: "res4a_branch2b"
  convolution_param {
    num_output: 256
    bias_term: false
    pad: 1
    kernel_size: 3
    stride: 1
    weight_filler {
      type: "msra"
    }
  }
}
layer {
  name: "bn4a_branch2b"
  type: "BatchNorm"
  bottom: "res4a_branch2b"
  top: "res4a_branch2b"
  batch_norm_param {
    use_global_stats: false
  }
}
layer {
  name: "scale4a_branch2b"
  type: "Scale"
  bottom: "res4a_branch2b"
  top: "res4a_branch2b"
  scale_param {
    bias_term: true
  }
}
layer {
  name: "res4a"
  type: "Eltwise"
  bottom: "res4a_branch1"
  bottom: "res4a_branch2b"
  top: "res4a"
  eltwise_param {
    operation: SUM
  }
}
layer {
  name: "res4a_relu"
  type: "ReLU"
  bottom: "res4a"
  top: "res4a"
}
layer {
  name: "res4b_branch2a"
  type: "Convolution"
  bottom: "res4a"
  top: "res4b_branch2a"
  convolution_param {
    num_output: 256
    bias_term: false
    pad: 1
    kernel_size: 3
    stride: 1
    weight_filler {
      type: "msra"
    }
  }
}
layer {
  name: "bn4b_branch2a"
  type: "BatchNorm"
  bottom: "res4b_branch2a"
  top: "res4b_branch2a"
  batch_norm_param {
    use_global_stats: false
  }
}
layer {
  name: "scale4b_branch2a"
  type: "Scale"
  bottom: "res4b_branch2a"
  top: "res4b_branch2a"
  scale_param {
    bias_term: true
  }
}
layer {
  name: "res4b_branch2a_relu"
  type: "ReLU"
  bottom: "res4b_branch2a"
  top: "res4b_branch2a"
}
layer {
  name: "res4b_branch2b"
  type: "Convolution"
  bottom: "res4b_branch2a"
  top: "res4b_branch2b"
  convolution_param {
    num_output: 256
    bias_term: false
    pad: 1
    kernel_size: 3
    stride: 1
    weight_filler {
      type: "msra"
    }
  }
}
layer {
  name: "bn4b_branch2b"
  type: "BatchNorm"
  bottom: "res4b_branch2b"
  top: "res4b_branch2b"
  batch_norm_param {
    use_global_stats: false
  }
}
layer {
  name: "scale4b_branch2b"
  type: "Scale"
  bottom: "res4b_branch2b"
  top: "res4b_branch2b"
  scale_param {
    bias_term: true
  }
}
layer {
  name: "res4b"
  type: "Eltwise"
  bottom: "res4a"
  bottom: "res4b_branch2b"
  top: "res4b"
  eltwise_param {
    operation: SUM
  }
}
layer {
  name: "res4b_relu"
  type: "ReLU"
  bottom: "res4b"
  top: "res4b"
}
layer {
  name: "res4c_branch2a"
  type: "Convolution"
  bottom: "res4b"
  top: "res4c_branch2a"
  convolution_param {
    num_output: 256
    bias_term: false
    pad: 1
    kernel_size: 3
    stride: 1
    weight_filler {
      type: "msra"
    }
  }
}
layer {
  name: "bn4c_branch2a"
  type: "BatchNorm"
  bottom: "res4c_branch2a"
  top: "res4c_branch2a"
  batch_norm_param {
    use_global_stats: false
  }
}
layer {
  name: "scale4c_branch2a"
  type: "Scale"
  bottom: "res4c_branch2a"
  top: "res4c_branch2a"
  scale_param {
    bias_term: true
  }
}
layer {
  name: "res4c_branch2a_relu"
  type: "ReLU"
  bottom: "res4c_branch2a"
  top: "res4c_branch2a"
}
layer {
  name: "res4c_branch2b"
  type: "Convolution"
  bottom: "res4c_branch2a"
  top: "res4c_branch2b"
  convolution_param {
    num_output: 256
    bias_term: false
    pad: 1
    kernel_size: 3
    stride: 1
    weight_filler {
      type: "msra"
    }
  }
}
layer {
  name: "bn4c_branch2b"
  type: "BatchNorm"
  bottom: "res4c_branch2b"
  top: "res4c_branch2b"
  batch_norm_param {
    use_global_stats: false
  }
}
layer {
  name: "scale4c_branch2b"
  type: "Scale"
  bottom: "res4c_branch2b"
  top: "res4c_branch2b"
  scale_param {
    bias_term: true
  }
}
layer {
  name: "res4c"
  type: "Eltwise"
  bottom: "res4b"
  bottom: "res4c_branch2b"
  top: "res4c"
  eltwise_param {
    operation: SUM
  }
}
layer {
  name: "res4c_relu"
  type: "ReLU"
  bottom: "res4c"
  top: "res4c"
}
layer {
  name: "res4d_branch2a"
  type: "Convolution"
  bottom: "res4c"
  top: "res4d_branch2a"
  convolution_param {
    num_output: 256
    bias_term: false
    pad: 1
    kernel_size: 3
    stride: 1
    weight_filler {
      type: "msra"
    }
  }
}
layer {
  name: "bn4d_branch2a"
  type: "BatchNorm"
  bottom: "res4d_branch2a"
  top: "res4d_branch2a"
  batch_norm_param {
    use_global_stats: false
  }
}
layer {
  name: "scale4d_branch2a"
  type: "Scale"
  bottom: "res4d_branch2a"
  top: "res4d_branch2a"
  scale_param {
    bias_term: true
  }
}
layer {
  name: "res4d_branch2a_relu"
  type: "ReLU"
  bottom: "res4d_branch2a"
  top: "res4d_branch2a"
}
layer {
  name: "res4d_branch2b"
  type: "Convolution"
  bottom: "res4d_branch2a"
  top: "res4d_branch2b"
  convolution_param {
    num_output: 256
    bias_term: false
    pad: 1
    kernel_size: 3
    stride: 1
    weight_filler {
      type: "msra"
    }
  }
}
layer {
  name: "bn4d_branch2b"
  type: "BatchNorm"
  bottom: "res4d_branch2b"
  top: "res4d_branch2b"
  batch_norm_param {
    use_global_stats: false
  }
}
layer {
  name: "scale4d_branch2b"
  type: "Scale"
  bottom: "res4d_branch2b"
  top: "res4d_branch2b"
  scale_param {
    bias_term: true
  }
}
layer {
  name: "res4d"
  type: "Eltwise"
  bottom: "res4c"
  bottom: "res4d_branch2b"
  top: "res4d"
  eltwise_param {
    operation: SUM
  }
}
layer {
  name: "res4d_relu"
  type: "ReLU"
  bottom: "res4d"
  top: "res4d"
}
layer {
  name: "res4e_branch2a"
  type: "Convolution"
  bottom: "res4d"
  top: "res4e_branch2a"
  convolution_param {
    num_output: 256
    bias_term: false
    pad: 1
    kernel_size: 3
    stride: 1
    weight_filler {
      type: "msra"
    }
  }
}
layer {
  name: "bn4e_branch2a"
  type: "BatchNorm"
  bottom: "res4e_branch2a"
  top: "res4e_branch2a"
  batch_norm_param {
    use_global_stats: false
  }
}
layer {
  name: "scale4e_branch2a"
  type: "Scale"
  bottom: "res4e_branch2a"
  top: "res4e_branch2a"
  scale_param {
    bias_term: true
  }
}
layer {
  name: "res4e_branch2a_relu"
  type: "ReLU"
  bottom: "res4e_branch2a"
  top: "res4e_branch2a"
}
layer {
  name: "res4e_branch2b"
  type: "Convolution"
  bottom: "res4e_branch2a"
  top: "res4e_branch2b"
  convolution_param {
    num_output: 256
    bias_term: false
    pad: 1
    kernel_size: 3
    stride: 1
    weight_filler {
      type: "msra"
    }
  }
}
layer {
  name: "bn4e_branch2b"
  type: "BatchNorm"
  bottom: "res4e_branch2b"
  top: "res4e_branch2b"
  batch_norm_param {
    use_global_stats: false
  }
}
layer {
  name: "scale4e_branch2b"
  type: "Scale"
  bottom: "res4e_branch2b"
  top: "res4e_branch2b"
  scale_param {
    bias_term: true
  }
}
layer {
  name: "res4e"
  type: "Eltwise"
  bottom: "res4d"
  bottom: "res4e_branch2b"
  top: "res4e"
  eltwise_param {
    operation: SUM
  }
}
layer {
  name: "res4e_relu"
  type: "ReLU"
  bottom: "res4e"
  top: "res4e"
}
layer {
  name: "res4f_branch2a"
  type: "Convolution"
  bottom: "res4e"
  top: "res4f_branch2a"
  convolution_param {
    num_output: 256
    bias_term: false
    pad: 1
    kernel_size: 3
    stride: 1
    weight_filler {
      type: "msra"
    }
  }
}
layer {
  name: "bn4f_branch2a"
  type: "BatchNorm"
  bottom: "res4f_branch2a"
  top: "res4f_branch2a"
  batch_norm_param {
    use_global_stats: false
  }
}
layer {
  name: "scale4f_branch2a"
  type: "Scale"
  bottom: "res4f_branch2a"
  top: "res4f_branch2a"
  scale_param {
    bias_term: true
  }
}
layer {
  name: "res4f_branch2a_relu"
  type: "ReLU"
  bottom: "res4f_branch2a"
…
I0331 16:32:44.493146  8486 net.cpp:139] Memory required for data: 1312604480
I0331 16:32:44.493151  8486 layer_factory.hpp:77] Creating layer res4a
I0331 16:32:44.493156  8486 net.cpp:86] Creating Layer res4a
I0331 16:32:44.493160  8486 net.cpp:408] res4a <- res4a_branch1
I0331 16:32:44.493163  8486 net.cpp:408] res4a <- res4a_branch2b
I0331 16:32:44.493170  8486 net.cpp:382] res4a -> res4a
I0331 16:32:44.493196  8486 net.cpp:124] Setting up res4a
I0331 16:32:44.493202  8486 net.cpp:131] Top shape: 20 256 14 14 (1003520)
I0331 16:32:44.493206  8486 net.cpp:139] Memory required for data: 1316618560
I0331 16:32:44.493208  8486 layer_factory.hpp:77] Creating layer res4a_relu
I0331 16:32:44.493212  8486 net.cpp:86] Creating Layer res4a_relu
I0331 16:32:44.493216  8486 net.cpp:408] res4a_relu <- res4a
I0331 16:32:44.493219  8486 net.cpp:369] res4a_relu -> res4a (in-place)
I0331 16:32:44.493810  8486 net.cpp:124] Setting up res4a_relu
I0331 16:32:44.493820  8486 net.cpp:131] Top shape: 20 256 14 14 (1003520)
I0331 16:32:44.493824  8486 net.cpp:139] Memory required for data: 1320632640
I0331 16:32:44.493826  8486 layer_factory.hpp:77] Creating layer res4a_res4a_relu_0_split
I0331 16:32:44.493834  8486 net.cpp:86] Creating Layer res4a_res4a_relu_0_split
I0331 16:32:44.493839  8486 net.cpp:408] res4a_res4a_relu_0_split <- res4a
I0331 16:32:44.493844  8486 net.cpp:382] res4a_res4a_relu_0_split -> res4a_res4a_relu_0_split_0
I0331 16:32:44.493849  8486 net.cpp:382] res4a_res4a_relu_0_split -> res4a_res4a_relu_0_split_1
I0331 16:32:44.493899  8486 net.cpp:124] Setting up res4a_res4a_relu_0_split
I0331 16:32:44.493906  8486 net.cpp:131] Top shape: 20 256 14 14 (1003520)
I0331 16:32:44.493909  8486 net.cpp:131] Top shape: 20 256 14 14 (1003520)
I0331 16:32:44.493911  8486 net.cpp:139] Memory required for data: 1328660800
I0331 16:32:44.493914  8486 layer_factory.hpp:77] Creating layer res4b_branch2a
I0331 16:32:44.493923  8486 net.cpp:86] Creating Layer res4b_branch2a
I0331 16:32:44.493927  8486 net.cpp:408] res4b_branch2a <- res4a_res4a_relu_0_split_0
I0331 16:32:44.493933  8486 net.cpp:382] res4b_branch2a -> res4b_branch2a
I0331 16:32:44.500928  8486 net.cpp:124] Setting up res4b_branch2a
I0331 16:32:44.500939  8486 net.cpp:131] Top shape: 20 256 14 14 (1003520)
I0331 16:32:44.500942  8486 net.cpp:139] Memory required for data: 1332674880
I0331 16:32:44.500947  8486 layer_factory.hpp:77] Creating layer bn4b_branch2a
I0331 16:32:44.500953  8486 net.cpp:86] Creating Layer bn4b_branch2a
I0331 16:32:44.500957  8486 net.cpp:408] bn4b_branch2a <- res4b_branch2a
I0331 16:32:44.500963  8486 net.cpp:369] bn4b_branch2a -> res4b_branch2a (in-place)
I0331 16:32:44.501188  8486 net.cpp:124] Setting up bn4b_branch2a
I0331 16:32:44.501194  8486 net.cpp:131] Top shape: 20 256 14 14 (1003520)
I0331 16:32:44.501197  8486 net.cpp:139] Memory required for data: 1336688960
I0331 16:32:44.501207  8486 layer_factory.hpp:77] Creating layer scale4b_branch2a
I0331 16:32:44.501220  8486 net.cpp:86] Creating Layer scale4b_branch2a
I0331 16:32:44.501224  8486 net.cpp:408] scale4b_branch2a <- res4b_branch2a
I0331 16:32:44.501230  8486 net.cpp:369] scale4b_branch2a -> res4b_branch2a (in-place)
I0331 16:32:44.501274  8486 layer_factory.hpp:77] Creating layer scale4b_branch2a
I0331 16:32:44.501399  8486 net.cpp:124] Setting up scale4b_branch2a
I0331 16:32:44.501405  8486 net.cpp:131] Top shape: 20 256 14 14 (1003520)
I0331 16:32:44.501407  8486 net.cpp:139] Memory required for data: 1340703040
I0331 16:32:44.501412  8486 layer_factory.hpp:77] Creating layer res4b_branch2a_relu
I0331 16:32:44.501418  8486 net.cpp:86] Creating Layer res4b_branch2a_relu
I0331 16:32:44.501421  8486 net.cpp:408] res4b_branch2a_relu <- res4b_branch2a
I0331 16:32:44.501426  8486 net.cpp:369] res4b_branch2a_relu -> res4b_branch2a (in-place)
I0331 16:32:44.501878  8486 net.cpp:124] Setting up res4b_branch2a_relu
I0331 16:32:44.501886  8486 net.cpp:131] Top shape: 20 256 14 14 (1003520)
I0331 16:32:44.501889  8486 net.cpp:139] Memory required for data: 1344717120
I0331 16:32:44.501893  8486 layer_factory.hpp:77] Creating layer res4b_branch2b
I0331 16:32:44.501901  8486 net.cpp:86] Creating Layer res4b_branch2b
I0331 16:32:44.501904  8486 net.cpp:408] res4b_branch2b <- res4b_branch2a
I0331 16:32:44.501911  8486 net.cpp:382] res4b_branch2b -> res4b_branch2b
I0331 16:32:44.509023  8486 net.cpp:124] Setting up res4b_branch2b
I0331 16:32:44.509034  8486 net.cpp:131] Top shape: 20 256 14 14 (1003520)
I0331 16:32:44.509037  8486 net.cpp:139] Memory required for data: 1348731200
I0331 16:32:44.509042  8486 layer_factory.hpp:77] Creating layer bn4b_branch2b
I0331 16:32:44.509050  8486 net.cpp:86] Creating Layer bn4b_branch2b
I0331 16:32:44.509053  8486 net.cpp:408] bn4b_branch2b <- res4b_branch2b
I0331 16:32:44.509058  8486 net.cpp:369] bn4b_branch2b -> res4b_branch2b (in-place)
I0331 16:32:44.509279  8486 net.cpp:124] Setting up bn4b_branch2b
I0331 16:32:44.509287  8486 net.cpp:131] Top shape: 20 256 14 14 (1003520)
I0331 16:32:44.509289  8486 net.cpp:139] Memory required for data: 1352745280
I0331 16:32:44.509315  8486 layer_factory.hpp:77] Creating layer scale4b_branch2b
I0331 16:32:44.509322  8486 net.cpp:86] Creating Layer scale4b_branch2b
I0331 16:32:44.509325  8486 net.cpp:408] scale4b_branch2b <- res4b_branch2b
I0331 16:32:44.509331  8486 net.cpp:369] scale4b_branch2b -> res4b_branch2b (in-place)
I0331 16:32:44.509374  8486 layer_factory.hpp:77] Creating layer scale4b_branch2b
I0331 16:32:44.509496  8486 net.cpp:124] Setting up scale4b_branch2b
I0331 16:32:44.509502  8486 net.cpp:131] Top shape: 20 256 14 14 (1003520)
I0331 16:32:44.509505  8486 net.cpp:139] Memory required for data: 1356759360
I0331 16:32:44.509510  8486 layer_factory.hpp:77] Creating layer res4b
I0331 16:32:44.509515  8486 net.cpp:86] Creating Layer res4b
I0331 16:32:44.509518  8486 net.cpp:408] res4b <- res4a_res4a_relu_0_split_1
I0331 16:32:44.509522  8486 net.cpp:408] res4b <- res4b_branch2b
I0331 16:32:44.509526  8486 net.cpp:382] res4b -> res4b
I0331 16:32:44.509554  8486 net.cpp:124] Setting up res4b
I0331 16:32:44.509559  8486 net.cpp:131] Top shape: 20 256 14 14 (1003520)
I0331 16:32:44.509562  8486 net.cpp:139] Memory required for data: 1360773440
I0331 16:32:44.509564  8486 layer_factory.hpp:77] Creating layer res4b_relu
I0331 16:32:44.509572  8486 net.cpp:86] Creating Layer res4b_relu
I0331 16:32:44.509574  8486 net.cpp:408] res4b_relu <- res4b
I0331 16:32:44.509578  8486 net.cpp:369] res4b_relu -> res4b (in-place)
I0331 16:32:44.510030  8486 net.cpp:124] Setting up res4b_relu
I0331 16:32:44.510038  8486 net.cpp:131] Top shape: 20 256 14 14 (1003520)
I0331 16:32:44.510042  8486 net.cpp:139] Memory required for data: 1364787520
I0331 16:32:44.510046  8486 layer_factory.hpp:77] Creating layer res4b_res4b_relu_0_split
I0331 16:32:44.510049  8486 net.cpp:86] Creating Layer res4b_res4b_relu_0_split
I0331 16:32:44.510054  8486 net.cpp:408] res4b_res4b_relu_0_split <- res4b
I0331 16:32:44.510063  8486 net.cpp:382] res4b_res4b_relu_0_split -> res4b_res4b_relu_0_split_0
I0331 16:32:44.510078  8486 net.cpp:382] res4b_res4b_relu_0_split -> res4b_res4b_relu_0_split_1
I0331 16:32:44.510130  8486 net.cpp:124] Setting up res4b_res4b_relu_0_split
I0331 16:32:44.510135  8486 net.cpp:131] Top shape: 20 256 14 14 (1003520)
I0331 16:32:44.510139  8486 net.cpp:131] Top shape: 20 256 14 14 (1003520)
I0331 16:32:44.510143  8486 net.cpp:139] Memory required for data: 1372815680
I0331 16:32:44.510144  8486 layer_factory.hpp:77] Creating layer res4c_branch2a
I0331 16:32:44.510154  8486 net.cpp:86] Creating Layer res4c_branch2a
I0331 16:32:44.510159  8486 net.cpp:408] res4c_branch2a <- res4b_res4b_relu_0_split_0
I0331 16:32:44.510164  8486 net.cpp:382] res4c_branch2a -> res4c_branch2a
I0331 16:32:44.517185  8486 net.cpp:124] Setting up res4c_branch2a
I0331 16:32:44.517199  8486 net.cpp:131] Top shape: 20 256 14 14 (1003520)
I0331 16:32:44.517202  8486 net.cpp:139] Memory required for data: 1376829760
I0331 16:32:44.517207  8486 layer_factory.hpp:77] Creating layer bn4c_branch2a
I0331 16:32:44.517212  8486 net.cpp:86] Creating Layer bn4c_branch2a
I0331 16:32:44.517216  8486 net.cpp:408] bn4c_branch2a <- res4c_branch2a
I0331 16:32:44.517223  8486 net.cpp:369] bn4c_branch2a -> res4c_branch2a (in-place)
I0331 16:32:44.517447  8486 net.cpp:124] Setting up bn4c_branch2a
I0331 16:32:44.517455  8486 net.cpp:131] Top shape: 20 256 14 14 (1003520)
I0331 16:32:44.517457  8486 net.cpp:139] Memory required for data: 1380843840
I0331 16:32:44.517463  8486 layer_factory.hpp:77] Creating layer scale4c_branch2a
I0331 16:32:44.517468  8486 net.cpp:86] Creating Layer scale4c_branch2a
I0331 16:32:44.517472  8486 net.cpp:408] scale4c_branch2a <- res4c_branch2a
I0331 16:32:44.517475  8486 net.cpp:369] scale4c_branch2a -> res4c_branch2a (in-place)
I0331 16:32:44.517521  8486 layer_factory.hpp:77] Creating layer scale4c_branch2a
I0331 16:32:44.517647  8486 net.cpp:124] Setting up scale4c_branch2a
I0331 16:32:44.517652  8486 net.cpp:131] Top shape: 20 256 14 14 (1003520)
I0331 16:32:44.517654  8486 net.cpp:139] Memory required for data: 1384857920
I0331 16:32:44.517659  8486 layer_factory.hpp:77] Creating layer res4c_branch2a_relu
I0331 16:32:44.517666  8486 net.cpp:86] Creating Layer res4c_branch2a_relu
I0331 16:32:44.517669  8486 net.cpp:408] res4c_branch2a_relu <- res4c_branch2a
I0331 16:32:44.517673  8486 net.cpp:369] res4c_branch2a_relu -> res4c_branch2a (in-place)
I0331 16:32:44.518272  8486 net.cpp:124] Setting up res4c_branch2a_relu
I0331 16:32:44.518282  8486 net.cpp:131] Top shape: 20 256 14 14 (1003520)
I0331 16:32:44.518285  8486 net.cpp:139] Memory required for data: 1388872000
I0331 16:32:44.518288  8486 layer_factory.hpp:77] Creating layer res4c_branch2b
I0331 16:32:44.518297  8486 net.cpp:86] Creating Layer res4c_branch2b
I0331 16:32:44.518301  8486 net.cpp:408] res4c_branch2b <- res4c_branch2a
I0331 16:32:44.518308  8486 net.cpp:382] res4c_branch2b -> res4c_branch2b
I0331 16:32:44.525403  8486 net.cpp:124] Setting up res4c_branch2b
I0331 16:32:44.525415  8486 net.cpp:131] Top shape: 20 256 14 14 (1003520)
I0331 16:32:44.525418  8486 net.cpp:139] Memory required for data: 1392886080
I0331 16:32:44.525424  8486 layer_factory.hpp:77] Creating layer bn4c_branch2b
I0331 16:32:44.525429  8486 net.cpp:86] Creating Layer bn4c_branch2b
I0331 16:32:44.525432  8486 net.cpp:408] bn4c_branch2b <- res4c_branch2b
I0331 16:32:44.525441  8486 net.cpp:369] bn4c_branch2b -> res4c_branch2b (in-place)
I0331 16:32:44.525671  8486 net.cpp:124] Setting up bn4c_branch2b
I0331 16:32:44.525676  8486 net.cpp:131] Top shape: 20 256 14 14 (1003520)
I0331 16:32:44.525681  8486 net.cpp:139] Memory required for data: 1396900160
I0331 16:32:44.525686  8486 layer_factory.hpp:77] Creating layer scale4c_branch2b
I0331 16:32:44.525691  8486 net.cpp:86] Creating Layer scale4c_branch2b
I0331 16:32:44.525694  8486 net.cpp:408] scale4c_branch2b <- res4c_branch2b
I0331 16:32:44.525701  8486 net.cpp:369] scale4c_branch2b -> res4c_branch2b (in-place)
I0331 16:32:44.525748  8486 layer_factory.hpp:77] Creating layer scale4c_branch2b
I0331 16:32:44.525889  8486 net.cpp:124] Setting up scale4c_branch2b
I0331 16:32:44.525897  8486 net.cpp:131] Top shape: 20 256 14 14 (1003520)
I0331 16:32:44.525900  8486 net.cpp:139] Memory required for data: 1400914240
I0331 16:32:44.525905  8486 layer_factory.hpp:77] Creating layer res4c
I0331 16:32:44.525909  8486 net.cpp:86] Creating Layer res4c
I0331 16:32:44.525913  8486 net.cpp:408] res4c <- res4b_res4b_relu_0_split_1
I0331 16:32:44.525918  8486 net.cpp:408] res4c <- res4c_branch2b
I0331 16:32:44.525921  8486 net.cpp:382] res4c -> res4c
I0331 16:32:44.525950  8486 net.cpp:124] Setting up res4c
I0331 16:32:44.525955  8486 net.cpp:131] Top shape: 20 256 14 14 (1003520)
I0331 16:32:44.525959  8486 net.cpp:139] Memory required for data: 1404928320
I0331 16:32:44.525961  8486 layer_factory.hpp:77] Creating layer res4c_relu
I0331 16:32:44.525967  8486 net.cpp:86] Creating Layer res4c_relu
I0331 16:32:44.525970  8486 net.cpp:408] res4c_relu <- res4c
I0331 16:32:44.525975  8486 net.cpp:369] res4c_relu -> res4c (in-place)
I0331 16:32:44.526428  8486 net.cpp:124] Setting up res4c_relu
I0331 16:32:44.526437  8486 net.cpp:131] Top shape: 20 256 14 14 (1003520)
I0331 16:32:44.526439  8486 net.cpp:139] Memory required for data: 1408942400
I0331 16:32:44.526443  8486 layer_factory.hpp:77] Creating layer res4c_res4c_relu_0_split
I0331 16:32:44.526448  8486 net.cpp:86] Creating Layer res4c_res4c_relu_0_split
I0331 16:32:44.526454  8486 net.cpp:408] res4c_res4c_relu_0_split <- res4c
I0331 16:32:44.526459  8486 net.cpp:382] res4c_res4c_relu_0_split -> res4c_res4c_relu_0_split_0
I0331 16:32:44.526466  8486 net.cpp:382] res4c_res4c_relu_0_split -> res4c_res4c_relu_0_split_1
I0331 16:32:44.526517  8486 net.cpp:124] Setting up res4c_res4c_relu_0_split
I0331 16:32:44.526522  8486 net.cpp:131] Top shape: 20 256 14 14 (1003520)
I0331 16:32:44.526526  8486 net.cpp:131] Top shape: 20 256 14 14 (1003520)
I0331 16:32:44.526530  8486 net.cpp:139] Memory required for data: 1416970560
I0331 16:32:44.526531  8486 layer_factory.hpp:77] Creating layer res4d_branch2a
I0331 16:32:44.526540  8486 net.cpp:86] Creating Layer res4d_branch2a
I0331 16:32:44.526543  8486 net.cpp:408] res4d_branch2a <- res4c_res4c_relu_0_split_0
I0331 16:32:44.526551  8486 net.cpp:382] res4d_branch2a -> res4d_branch2a
I0331 16:32:44.533586  8486 net.cpp:124] Setting up res4d_branch2a
I0331 16:32:44.533599  8486 net.cpp:131] Top shape: 20 256 14 14 (1003520)
I0331 16:32:44.533602  8486 net.cpp:139] Memory required for data: 1420984640
I0331 16:32:44.533608  8486 layer_factory.hpp:77] Creating layer bn4d_branch2a
I0331 16:32:44.533613  8486 net.cpp:86] Creating Layer bn4d_branch2a
I0331 16:32:44.533617  8486 net.cpp:408] bn4d_branch2a <- res4d_branch2a
I0331 16:32:44.533623  8486 net.cpp:369] bn4d_branch2a -> res4d_branch2a (in-place)
I0331 16:32:44.533852  8486 net.cpp:124] Setting up bn4d_branch2a
I0331 16:32:44.533860  8486 net.cpp:131] Top shape: 20 256 14 14 (1003520)
I0331 16:32:44.533864  8486 net.cpp:139] Memory required for data: 1424998720
I0331 16:32:44.533869  8486 layer_factory.hpp:77] Creating layer scale4d_branch2a
I0331 16:32:44.533874  8486 net.cpp:86] Creating Layer scale4d_branch2a
I0331 16:32:44.533877  8486 net.cpp:408] scale4d_branch2a <- res4d_branch2a
I0331 16:32:44.533881  8486 net.cpp:369] scale4d_branch2a -> res4d_branch2a (in-place)
I0331 16:32:44.533926  8486 layer_factory.hpp:77] Creating layer scale4d_branch2a
I0331 16:32:44.534054  8486 net.cpp:124] Setting up scale4d_branch2a
I0331 16:32:44.534060  8486 net.cpp:131] Top shape: 20 256 14 14 (1003520)
I0331 16:32:44.534062  8486 net.cpp:139] Memory required for data: 1429012800
I0331 16:32:44.534067  8486 layer_factory.hpp:77] Creating layer res4d_branch2a_relu
I0331 16:32:44.534075  8486 net.cpp:86] Creating Layer res4d_branch2a_relu
I0331 16:32:44.534077  8486 net.cpp:408] res4d_branch2a_relu <- res4d_branch2a
I0331 16:32:44.534081  8486 net.cpp:369] res4d_branch2a_relu -> res4d_branch2a (in-place)
I0331 16:32:44.534687  8486 net.cpp:124] Setting up res4d_branch2a_relu
I0331 16:32:44.534706  8486 net.cpp:131] Top shape: 20 256 14 14 (1003520)
I0331 16:32:44.534709  8486 net.cpp:139] Memory required for data: 1433026880
I0331 16:32:44.534713  8486 layer_factory.hpp:77] Creating layer res4d_branch2b
I0331 16:32:44.534721  8486 net.cpp:86] Creating Layer res4d_branch2b
I0331 16:32:44.534725  8486 net.cpp:408] res4d_branch2b <- res4d_branch2a
I0331 16:32:44.534732  8486 net.cpp:382] res4d_branch2b -> res4d_branch2b
I0331 16:32:44.541745  8486 net.cpp:124] Setting up res4d_branch2b
I0331 16:32:44.541756  8486 net.cpp:131] Top shape: 20 256 14 14 (1003520)
I0331 16:32:44.541759  8486 net.cpp:139] Memory required for data: 1437040960
I0331 16:32:44.541764  8486 layer_factory.hpp:77] Creating layer bn4d_branch2b
I0331 16:32:44.541770  8486 net.cpp:86] Creating Layer bn4d_branch2b
I0331 16:32:44.541774  8486 net.cpp:408] bn4d_branch2b <- res4d_branch2b
I0331 16:32:44.541782  8486 net.cpp:369] bn4d_branch2b -> res4d_branch2b (in-place)
I0331 16:32:44.542016  8486 net.cpp:124] Setting up bn4d_branch2b
I0331 16:32:44.542021  8486 net.cpp:131] Top shape: 20 256 14 14 (1003520)
I0331 16:32:44.542024  8486 net.cpp:139] Memory required for data: 1441055040
I0331 16:32:44.542030  8486 layer_factory.hpp:77] Creating layer scale4d_branch2b
I0331 16:32:44.542035  8486 net.cpp:86] Creating Layer scale4d_branch2b
I0331 16:32:44.542038  8486 net.cpp:408] scale4d_branch2b <- res4d_branch2b
I0331 16:32:44.542047  8486 net.cpp:369] scale4d_branch2b -> res4d_branch2b (in-place)
I0331 16:32:44.542093  8486 layer_factory.hpp:77] Creating layer scale4d_branch2b
I0331 16:32:44.542218  8486 net.cpp:124] Setting up scale4d_branch2b
I0331 16:32:44.542227  8486 net.cpp:131] Top shape: 20 256 14 14 (1003520)
I0331 16:32:44.542229  8486 net.cpp:139] Memory required for data: 1445069120
I0331 16:32:44.542234  8486 layer_factory.hpp:77] Creating layer res4d
I0331 16:32:44.542239  8486 net.cpp:86] Creating Layer res4d
I0331 16:32:44.542243  8486 net.cpp:408] res4d <- res4c_res4c_relu_0_split_1
I0331 16:32:44.542246  8486 net.cpp:408] res4d <- res4d_branch2b
I0331 16:32:44.542251  8486 net.cpp:382] res4d -> res4d
I0331 16:32:44.542294  8486 net.cpp:124] Setting up res4d
I0331 16:32:44.542300  8486 net.cpp:131] Top shape: 20 256 14 14 (1003520)
I0331 16:32:44.542302  8486 net.cpp:139] Memory required for data: 1449083200
I0331 16:32:44.542305  8486 layer_factory.hpp:77] Creating layer res4d_relu
I0331 16:32:44.542310  8486 net.cpp:86] Creating Layer res4d_relu
I0331 16:32:44.542313  8486 net.cpp:408] res4d_relu <- res4d
I0331 16:32:44.542317  8486 net.cpp:369] res4d_relu -> res4d (in-place)
I0331 16:32:44.542778  8486 net.cpp:124] Setting up res4d_relu
I0331 16:32:44.542788  8486 net.cpp:131] Top shape: 20 256 14 14 (1003520)
I0331 16:32:44.542790  8486 net.cpp:139] Memory required for data: 1453097280
I0331 16:32:44.542793  8486 layer_factory.hpp:77] Creating layer res4d_res4d_relu_0_split
I0331 16:32:44.542798  8486 net.cpp:86] Creating Layer res4d_res4d_relu_0_split
I0331 16:32:44.542801  8486 net.cpp:408] res4d_res4d_relu_0_split <- res4d
I0331 16:32:44.542807  8486 net.cpp:382] res4d_res4d_relu_0_split -> res4d_res4d_relu_0_split_0
I0331 16:32:44.542814  8486 net.cpp:382] res4d_res4d_relu_0_split -> res4d_res4d_relu_0_split_1
I0331 16:32:44.542866  8486 net.cpp:124] Setting up res4d_res4d_relu_0_split
I0331 16:32:44.542871  8486 net.cpp:131] Top shape: 20 256 14 14 (1003520)
I0331 16:32:44.542876  8486 net.cpp:131] Top shape: 20 256 14 14 (1003520)
I0331 16:32:44.542877  8486 net.cpp:139] Memory required for data: 1461125440
I0331 16:32:44.542881  8486 layer_factory.hpp:77] Creating layer res4e_branch2a
I0331 16:32:44.542889  8486 net.cpp:86] Creating Layer res4e_branch2a
I0331 16:32:44.542892  8486 net.cpp:408] res4e_branch2a <- res4d_res4d_relu_0_split_0
I0331 16:32:44.542897  8486 net.cpp:382] res4e_branch2a -> res4e_branch2a
I0331 16:32:44.550166  8486 net.cpp:124] Setting up res4e_branch2a
I0331 16:32:44.550179  8486 net.cpp:131] Top shape: 20 256 14 14 (1003520)
I0331 16:32:44.550184  8486 net.cpp:139] Memory required for data: 1465139520
I0331 16:32:44.550199  8486 layer_factory.hpp:77] Creating layer bn4e_branch2a
I0331 16:32:44.550230  8486 net.cpp:86] Creating Layer bn4e_branch2a
I0331 16:32:44.550233  8486 net.cpp:408] bn4e_branch2a <- res4e_branch2a
I0331 16:32:44.550238  8486 net.cpp:369] bn4e_branch2a -> res4e_branch2a (in-place)
I0331 16:32:44.550475  8486 net.cpp:124] Setting up bn4e_branch2a
I0331 16:32:44.550482  8486 net.cpp:131] Top shape: 20 256 14 14 (1003520)
I0331 16:32:44.550484  8486 net.cpp:139] Memory required for data: 1469153600
I0331 16:32:44.550492  8486 layer_factory.hpp:77] Creating layer scale4e_branch2a
I0331 16:32:44.550498  8486 net.cpp:86] Creating Layer scale4e_branch2a
I0331 16:32:44.550501  8486 net.cpp:408] scale4e_branch2a <- res4e_branch2a
I0331 16:32:44.550505  8486 net.cpp:369] scale4e_branch2a -> res4e_branch2a (in-place)
I0331 16:32:44.550550  8486 layer_factory.hpp:77] Creating layer scale4e_branch2a
I0331 16:32:44.550676  8486 net.cpp:124] Setting up scale4e_branch2a
I0331 16:32:44.550683  8486 net.cpp:131] Top shape: 20 256 14 14 (1003520)
I0331 16:32:44.550685  8486 net.cpp:139] Memory required for data: 1473167680
I0331 16:32:44.550690  8486 layer_factory.hpp:77] Creating layer res4e_branch2a_relu
I0331 16:32:44.550694  8486 net.cpp:86] Creating Layer res4e_branch2a_relu
I0331 16:32:44.550698  8486 net.cpp:408] res4e_branch2a_relu <- res4e_branch2a
I0331 16:32:44.550704  8486 net.cpp:369] res4e_branch2a_relu -> res4e_branch2a (in-place)
I0331 16:32:44.551295  8486 net.cpp:124] Setting up res4e_branch2a_relu
I0331 16:32:44.551309  8486 net.cpp:131] Top shape: 20 256 14 14 (1003520)
I0331 16:32:44.551312  8486 net.cpp:139] Memory required for data: 1477181760
I0331 16:32:44.551321  8486 layer_factory.hpp:77] Creating layer res4e_branch2b
I0331 16:32:44.551333  8486 net.cpp:86] Creating Layer res4e_branch2b
I0331 16:32:44.551337  8486 net.cpp:408] res4e_branch2b <- res4e_branch2a
I0331 16:32:44.551344  8486 net.cpp:382] res4e_branch2b -> res4e_branch2b
I0331 16:32:44.558387  8486 net.cpp:124] Setting up res4e_branch2b
I0331 16:32:44.558398  8486 net.cpp:131] Top shape: 20 256 14 14 (1003520)
I0331 16:32:44.558400  8486 net.cpp:139] Memory required for data: 1481195840
I0331 16:32:44.558406  8486 layer_factory.hpp:77] Creating layer bn4e_branch2b
I0331 16:32:44.558413  8486 net.cpp:86] Creating Layer bn4e_branch2b
I0331 16:32:44.558418  8486 net.cpp:408] bn4e_branch2b <- res4e_branch2b
I0331 16:32:44.558421  8486 net.cpp:369] bn4e_branch2b -> res4e_branch2b (in-place)
I0331 16:32:44.558660  8486 net.cpp:124] Setting up bn4e_branch2b
I0331 16:32:44.558665  8486 net.cpp:131] Top shape: 20 256 14 14 (1003520)
I0331 16:32:44.558668  8486 net.cpp:139] Memory required for data: 1485209920
I0331 16:32:44.558674  8486 layer_factory.hpp:77] Creating layer scale4e_branch2b
I0331 16:32:44.558679  8486 net.cpp:86] Creating Layer scale4e_branch2b
I0331 16:32:44.558682  8486 net.cpp:408] scale4e_branch2b <- res4e_branch2b
I0331 16:32:44.558686  8486 net.cpp:369] scale4e_branch2b -> res4e_branch2b (in-place)
I0331 16:32:44.558735  8486 layer_factory.hpp:77] Creating layer scale4e_branch2b
I0331 16:32:44.558867  8486 net.cpp:124] Setting up scale4e_branch2b
I0331 16:32:44.558873  8486 net.cpp:131] Top shape: 20 256 14 14 (1003520)
I0331 16:32:44.558876  8486 net.cpp:139] Memory required for data: 1489224000
I0331 16:32:44.558881  8486 layer_factory.hpp:77] Creating layer res4e
I0331 16:32:44.558885  8486 net.cpp:86] Creating Layer res4e
I0331 16:32:44.558888  8486 net.cpp:408] res4e <- res4d_res4d_relu_0_split_1
I0331 16:32:44.558892  8486 net.cpp:408] res4e <- res4e_branch2b
I0331 16:32:44.558898  8486 net.cpp:382] res4e -> res4e
I0331 16:32:44.558926  8486 net.cpp:124] Setting up res4e
I0331 16:32:44.558933  8486 net.cpp:131] Top shape: 20 256 14 14 (1003520)
I0331 16:32:44.558934  8486 net.cpp:139] Memory required for data: 1493238080
I0331 16:32:44.558938  8486 layer_factory.hpp:77] Creating layer res4e_relu
I0331 16:32:44.558943  8486 net.cpp:86] Creating Layer res4e_relu
I0331 16:32:44.558959  8486 net.cpp:408] res4e_relu <- res4e
I0331 16:32:44.558962  8486 net.cpp:369] res4e_relu -> res4e (in-place)
I0331 16:32:44.559567  8486 net.cpp:124] Setting up res4e_relu
I0331 16:32:44.559581  8486 net.cpp:131] Top shape: 20 256 14 14 (1003520)
I0331 16:32:44.559583  8486 net.cpp:139] Memory required for data: 1497252160
I0331 16:32:44.559587  8486 layer_factory.hpp:77] Creating layer res4e_res4e_relu_0_split
I0331 16:32:44.559592  8486 net.cpp:86] Creating Layer res4e_res4e_relu_0_split
I0331 16:32:44.559595  8486 net.cpp:408] res4e_res4e_relu_0_split <- res4e
I0331 16:32:44.559600  8486 net.cpp:382] res4e_res4e_relu_0_split -> res4e_res4e_relu_0_split_0
I0331 16:32:44.559608  8486 net.cpp:382] res4e_res4e_relu_0_split -> res4e_res4e_relu_0_split_1
I0331 16:32:44.559659  8486 net.cpp:124] Setting up res4e_res4e_relu_0_split
I0331 16:32:44.559665  8486 net.cpp:131] Top shape: 20 256 14 14 (1003520)
I0331 16:32:44.559669  8486 net.cpp:131] Top shape: 20 256 14 14 (1003520)
I0331 16:32:44.559671  8486 net.cpp:139] Memory required for data: 1505280320
I0331 16:32:44.559674  8486 layer_factory.hpp:77] Creating layer res4f_branch2a
I0331 16:32:44.559684  8486 net.cpp:86] Creating Layer res4f_branch2a
I0331 16:32:44.559687  8486 net.cpp:408] res4f_branch2a <- res4e_res4e_relu_0_split_0
I0331 16:32:44.559693  8486 net.cpp:382] res4f_branch2a -> res4f_branch2a
I0331 16:32:44.566747  8486 net.cpp:124] Setting up res4f_branch2a
I0331 16:32:44.566761  8486 net.cpp:131] Top shape: 20 256 14 14 (1003520)
I0331 16:32:44.566763  8486 net.cpp:139] Memory required for data: 1509294400
I0331 16:32:44.566768  8486 layer_factory.hpp:77] Creating layer bn4f_branch2a
I0331 16:32:44.566777  8486 net.cpp:86] Creating Layer bn4f_branch2a
I0331 16:32:44.566781  8486 net.cpp:408] bn4f_branch2a <- res4f_branch2a
I0331 16:32:44.566785  8486 net.cpp:369] bn4f_branch2a -> res4f_branch2a (in-place)
I0331 16:32:44.567020  8486 net.cpp:124] Setting up bn4f_branch2a
I0331 16:32:44.567028  8486 net.cpp:131] Top shape: 20 256 14 14 (1003520)
I0331 16:32:44.567031  8486 net.cpp:139] Memory required for data: 1513308480
I0331 16:32:44.567037  8486 layer_factory.hpp:77] Creating layer scale4f_branch2a
I0331 16:32:44.567042  8486 net.cpp:86] Creating Layer scale4f_branch2a
I0331 16:32:44.567045  8486 net.cpp:408] scale4f_branch2a <- res4f_branch2a
I0331 16:32:44.567049  8486 net.cpp:369] scale4f_branch2a -> res4f_branch2a (in-place)
I0331 16:32:44.567096  8486 layer_factory.hpp:77] Creating layer scale4f_branch2a
I0331 16:32:44.567240  8486 net.cpp:124] Setting up scale4f_branch2a
I0331 16:32:44.567246  8486 net.cpp:131] Top shape: 20 256 14 14 (1003520)
I0331 16:32:44.567250  8486 net.cpp:139] Memory required for data: 1517322560
I0331 16:32:44.567255  8486 layer_factory.hpp:77] Creating layer res4f_branch2a_relu
I0331 16:32:44.567261  8486 net.cpp:86] Creating Layer res4f_branch2a_relu
I0331 16:32:44.567265  8486 net.cpp:408] res4f_branch2a_relu <- res4f_branch2a
I0331 16:32:44.567268  8486 net.cpp:369] res4f_branch2a_relu -> res4f_branch2a (in-place)
I0331 16:32:44.567724  8486 net.cpp:124] Setting up res4f_branch2a_relu
I0331 16:32:44.567734  8486 net.cpp:131] Top shape: 20 256 14 14 (1003520)
I0331 16:32:44.567736  8486 net.cpp:139] Memory required for data: 1521336640
I0331 16:32:44.567739  8486 layer_factory.hpp:77] Creating layer res4f_branch2b
I0331 16:32:44.567749  8486 net.cpp:86] Creating Layer res4f_branch2b
I0331 16:32:44.567754  8486 net.cpp:408] res4f_branch2b <- res4f_branch2a
I0331 16:32:44.567759  8486 net.cpp:382] res4f_branch2b -> res4f_branch2b
I0331 16:32:44.574815  8486 net.cpp:124] Setting up res4f_branch2b
I0331 16:32:44.574826  8486 net.cpp:131] Top shape: 20 256 14 14 (1003520)
I0331 16:32:44.574828  8486 net.cpp:139] Memory required for data: 1525350720
I0331 16:32:44.574833  8486 layer_factory.hpp:77] Creating layer bn4f_branch2b
I0331 16:32:44.574841  8486 net.cpp:86] Creating Layer bn4f_branch2b
I0331 16:32:44.574846  8486 net.cpp:408] bn4f_branch2b <- res4f_branch2b
I0331 16:32:44.574852  8486 net.cpp:369] bn4f_branch2b -> res4f_branch2b (in-place)
I0331 16:32:44.575106  8486 net.cpp:124] Setting up bn4f_branch2b
I0331 16:32:44.575114  8486 net.cpp:131] Top shape: 20 256 14 14 (1003520)
I0331 16:32:44.575124  8486 net.cpp:139] Memory required for data: 1529364800
I0331 16:32:44.575130  8486 layer_factory.hpp:77] Creating layer scale4f_branch2b
I0331 16:32:44.575135  8486 net.cpp:86] Creating Layer scale4f_branch2b
I0331 16:32:44.575139  8486 net.cpp:408] scale4f_branch2b <- res4f_branch2b
I0331 16:32:44.575143  8486 net.cpp:369] scale4f_branch2b -> res4f_branch2b (in-place)
I0331 16:32:44.575194  8486 layer_factory.hpp:77] Creating layer scale4f_branch2b
I0331 16:32:44.575327  8486 net.cpp:124] Setting up scale4f_branch2b
I0331 16:32:44.575333  8486 net.cpp:131] Top shape: 20 256 14 14 (1003520)
I0331 16:32:44.575336  8486 net.cpp:139] Memory required for data: 1533378880
I0331 16:32:44.575341  8486 layer_factory.hpp:77] Creating layer res4f
I0331 16:32:44.575346  8486 net.cpp:86] Creating Layer res4f
I0331 16:32:44.575350  8486 net.cpp:408] res4f <- res4e_res4e_relu_0_split_1
I0331 16:32:44.575354  8486 net.cpp:408] res4f <- res4f_branch2b
I0331 16:32:44.575359  8486 net.cpp:382] res4f -> res4f
I0331 16:32:44.575387  8486 net.cpp:124] Setting up res4f
I0331 16:32:44.575393  8486 net.cpp:131] Top shape: 20 256 14 14 (1003520)
I0331 16:32:44.575397  8486 net.cpp:139] Memory required for data: 1537392960
I0331 16:32:44.575398  8486 layer_factory.hpp:77] Creating layer res4f_relu
I0331 16:32:44.575404  8486 net.cpp:86] Creating Layer res4f_relu
I0331 16:32:44.575408  8486 net.cpp:408] res4f_relu <- res4f
I0331 16:32:44.575412  8486 net.cpp:369] res4f_relu -> res4f (in-place)
I0331 16:32:44.576020  8486 net.cpp:124] Setting up res4f_relu
I0331 16:32:44.576030  8486 net.cpp:131] Top shape: 20 256 14 14 (1003520)
I0331 16:32:44.576035  8486 net.cpp:139] Memory required for data: 1541407040
I0331 16:32:44.576037  8486 layer_factory.hpp:77] Creating layer res4f_res4f_relu_0_split
I0331 16:32:44.576042  8486 net.cpp:86] Creating Layer res4f_res4f_relu_0_split
I0331 16:32:44.576045  8486 net.cpp:408] res4f_res4f_relu_0_split <- res4f
I0331 16:32:44.576051  8486 net.cpp:382] res4f_res4f_relu_0_split -> res4f_res4f_relu_0_split_0
I0331 16:32:44.576059  8486 net.cpp:382] res4f_res4f_relu_0_split -> res4f_res4f_relu_0_split_1
I0331 16:32:44.576112  8486 net.cpp:124] Setting up res4f_res4f_relu_0_split
I0331 16:32:44.576117  8486 net.cpp:131] Top shape: 20 256 14 14 (1003520)
I0331 16:32:44.576120  8486 net.cpp:131] Top shape: 20 256 14 14 (1003520)
I0331 16:32:44.576123  8486 net.cpp:139] Memory required for data: 1549435200
I0331 16:32:44.576125  8486 layer_factory.hpp:77] Creating layer res5a_branch1
I0331 16:32:44.576134  8486 net.cpp:86] Creating Layer res5a_branch1
I0331 16:32:44.576138  8486 net.cpp:408] res5a_branch1 <- res4f_res4f_relu_0_split_0
I0331 16:32:44.576144  8486 net.cpp:382] res5a_branch1 -> res5a_branch1
I0331 16:32:44.578903  8486 net.cpp:124] Setting up res5a_branch1
I0331 16:32:44.578917  8486 net.cpp:131] Top shape: 20 512 7 7 (501760)
I0331 16:32:44.578919  8486 net.cpp:139] Memory required for data: 1551442240
I0331 16:32:44.578924  8486 layer_factory.hpp:77] Creating layer bn5a_branch1
I0331 16:32:44.578929  8486 net.cpp:86] Creating Layer bn5a_branch1
I0331 16:32:44.578933  8486 net.cpp:408] bn5a_branch1 <- res5a_branch1
I0331 16:32:44.578939  8486 net.cpp:369] bn5a_branch1 -> res5a_branch1 (in-place)
I0331 16:32:44.579210  8486 net.cpp:124] Setting up bn5a_branch1
I0331 16:32:44.579221  8486 net.cpp:131] Top shape: 20 512 7 7 (501760)
I0331 16:32:44.579223  8486 net.cpp:139] Memory required for data: 1553449280
I0331 16:32:44.579229  8486 layer_factory.hpp:77] Creating layer scale5a_branch1
I0331 16:32:44.579234  8486 net.cpp:86] Creating Layer scale5a_branch1
I0331 16:32:44.579237  8486 net.cpp:408] scale5a_branch1 <- res5a_branch1
I0331 16:32:44.579241  8486 net.cpp:369] scale5a_branch1 -> res5a_branch1 (in-place)
I0331 16:32:44.579286  8486 layer_factory.hpp:77] Creating layer scale5a_branch1
I0331 16:32:44.579430  8486 net.cpp:124] Setting up scale5a_branch1
I0331 16:32:44.579445  8486 net.cpp:131] Top shape: 20 512 7 7 (501760)
I0331 16:32:44.579447  8486 net.cpp:139] Memory required for data: 1555456320
I0331 16:32:44.579453  8486 layer_factory.hpp:77] Creating layer res5a_branch2a
I0331 16:32:44.579461  8486 net.cpp:86] Creating Layer res5a_branch2a
I0331 16:32:44.579465  8486 net.cpp:408] res5a_branch2a <- res4f_res4f_relu_0_split_1
I0331 16:32:44.579471  8486 net.cpp:382] res5a_branch2a -> res5a_branch2a
I0331 16:32:44.591486  8486 net.cpp:124] Setting up res5a_branch2a
I0331 16:32:44.591498  8486 net.cpp:131] Top shape: 20 512 7 7 (501760)
I0331 16:32:44.591501  8486 net.cpp:139] Memory required for data: 1557463360
I0331 16:32:44.591506  8486 layer_factory.hpp:77] Creating layer bn5a_branch2a
I0331 16:32:44.591514  8486 net.cpp:86] Creating Layer bn5a_branch2a
I0331 16:32:44.591518  8486 net.cpp:408] bn5a_branch2a <- res5a_branch2a
I0331 16:32:44.591522  8486 net.cpp:369] bn5a_branch2a -> res5a_branch2a (in-place)
I0331 16:32:44.591763  8486 net.cpp:124] Setting up bn5a_branch2a
I0331 16:32:44.591769  8486 net.cpp:131] Top shape: 20 512 7 7 (501760)
I0331 16:32:44.591771  8486 net.cpp:139] Memory required for data: 1559470400
I0331 16:32:44.591778  8486 layer_factory.hpp:77] Creating layer scale5a_branch2a
I0331 16:32:44.591783  8486 net.cpp:86] Creating Layer scale5a_branch2a
I0331 16:32:44.591786  8486 net.cpp:408] scale5a_branch2a <- res5a_branch2a
I0331 16:32:44.591791  8486 net.cpp:369] scale5a_branch2a -> res5a_branch2a (in-place)
I0331 16:32:44.591836  8486 layer_factory.hpp:77] Creating layer scale5a_branch2a
I0331 16:32:44.591975  8486 net.cpp:124] Setting up scale5a_branch2a
I0331 16:32:44.591981  8486 net.cpp:131] Top shape: 20 512 7 7 (501760)
I0331 16:32:44.591984  8486 net.cpp:139] Memory required for data: 1561477440
I0331 16:32:44.591989  8486 layer_factory.hpp:77] Creating layer res5a_branch2a_relu
I0331 16:32:44.591994  8486 net.cpp:86] Creating Layer res5a_branch2a_relu
I0331 16:32:44.591996  8486 net.cpp:408] res5a_branch2a_relu <- res5a_branch2a
I0331 16:32:44.592002  8486 net.cpp:369] res5a_branch2a_relu -> res5a_branch2a (in-place)
I0331 16:32:44.592610  8486 net.cpp:124] Setting up res5a_branch2a_relu
I0331 16:32:44.592622  8486 net.cpp:131] Top shape: 20 512 7 7 (501760)
I0331 16:32:44.592625  8486 net.cpp:139] Memory required for data: 1563484480
I0331 16:32:44.592628  8486 layer_factory.hpp:77] Creating layer res5a_branch2b
I0331 16:32:44.592638  8486 net.cpp:86] Creating Layer res5a_branch2b
I0331 16:32:44.592640  8486 net.cpp:408] res5a_branch2b <- res5a_branch2a
I0331 16:32:44.592646  8486 net.cpp:382] res5a_branch2b -> res5a_branch2b
I0331 16:32:44.614701  8486 net.cpp:124] Setting up res5a_branch2b
I0331 16:32:44.614722  8486 net.cpp:131] Top shape: 20 512 7 7 (501760)
I0331 16:32:44.614725  8486 net.cpp:139] Memory required for data: 1565491520
I0331 16:32:44.614733  8486 layer_factory.hpp:77] Creating layer bn5a_branch2b
I0331 16:32:44.614740  8486 net.cpp:86] Creating Layer bn5a_branch2b
I0331 16:32:44.614744  8486 net.cpp:408] bn5a_branch2b <- res5a_branch2b
I0331 16:32:44.614753  8486 net.cpp:369] bn5a_branch2b -> res5a_branch2b (in-place)
I0331 16:32:44.615001  8486 net.cpp:124] Setting up bn5a_branch2b
I0331 16:32:44.615008  8486 net.cpp:131] Top shape: 20 512 7 7 (501760)
I0331 16:32:44.615011  8486 net.cpp:139] Memory required for data: 1567498560
I0331 16:32:44.615017  8486 layer_factory.hpp:77] Creating layer scale5a_branch2b
I0331 16:32:44.615025  8486 net.cpp:86] Creating Layer scale5a_branch2b
I0331 16:32:44.615027  8486 net.cpp:408] scale5a_branch2b <- res5a_branch2b
I0331 16:32:44.615031  8486 net.cpp:369] scale5a_branch2b -> res5a_branch2b (in-place)
I0331 16:32:44.615082  8486 layer_factory.hpp:77] Creating layer scale5a_branch2b
I0331 16:32:44.615234  8486 net.cpp:124] Setting up scale5a_branch2b
I0331 16:32:44.615240  8486 net.cpp:131] Top shape: 20 512 7 7 (501760)
I0331 16:32:44.615243  8486 net.cpp:139] Memory required for data: 1569505600
I0331 16:32:44.615255  8486 layer_factory.hpp:77] Creating layer res5a
I0331 16:32:44.615283  8486 net.cpp:86] Creating Layer res5a
I0331 16:32:44.615286  8486 net.cpp:408] res5a <- res5a_branch1
I0331 16:32:44.615290  8486 net.cpp:408] res5a <- res5a_branch2b
I0331 16:32:44.615296  8486 net.cpp:382] res5a -> res5a
I0331 16:32:44.615331  8486 net.cpp:124] Setting up res5a
I0331 16:32:44.615337  8486 net.cpp:131] Top shape: 20 512 7 7 (501760)
I0331 16:32:44.615339  8486 net.cpp:139] Memory required for data: 1571512640
I0331 16:32:44.615342  8486 layer_factory.hpp:77] Creating layer res5a_relu
I0331 16:32:44.615347  8486 net.cpp:86] Creating Layer res5a_relu
I0331 16:32:44.615350  8486 net.cpp:408] res5a_relu <- res5a
I0331 16:32:44.615355  8486 net.cpp:369] res5a_relu -> res5a (in-place)
I0331 16:32:44.615819  8486 net.cpp:124] Setting up res5a_relu
I0331 16:32:44.615829  8486 net.cpp:131] Top shape: 20 512 7 7 (501760)
I0331 16:32:44.615833  8486 net.cpp:139] Memory required for data: 1573519680
I0331 16:32:44.615835  8486 layer_factory.hpp:77] Creating layer res5a_res5a_relu_0_split
I0331 16:32:44.615840  8486 net.cpp:86] Creating Layer res5a_res5a_relu_0_split
I0331 16:32:44.615844  8486 net.cpp:408] res5a_res5a_relu_0_split <- res5a
I0331 16:32:44.615851  8486 net.cpp:382] res5a_res5a_relu_0_split -> res5a_res5a_relu_0_split_0
I0331 16:32:44.615857  8486 net.cpp:382] res5a_res5a_relu_0_split -> res5a_res5a_relu_0_split_1
I0331 16:32:44.615911  8486 net.cpp:124] Setting up res5a_res5a_relu_0_split
I0331 16:32:44.615916  8486 net.cpp:131] Top shape: 20 512 7 7 (501760)
I0331 16:32:44.615919  8486 net.cpp:131] Top shape: 20 512 7 7 (501760)
I0331 16:32:44.615922  8486 net.cpp:139] Memory required for data: 1577533760
I0331 16:32:44.615924  8486 layer_factory.hpp:77] Creating layer res5b_branch2a
I0331 16:32:44.615936  8486 net.cpp:86] Creating Layer res5b_branch2a
I0331 16:32:44.615939  8486 net.cpp:408] res5b_branch2a <- res5a_res5a_relu_0_split_0
I0331 16:32:44.615944  8486 net.cpp:382] res5b_branch2a -> res5b_branch2a
I0331 16:32:44.638025  8486 net.cpp:124] Setting up res5b_branch2a
I0331 16:32:44.638046  8486 net.cpp:131] Top shape: 20 512 7 7 (501760)
I0331 16:32:44.638049  8486 net.cpp:139] Memory required for data: 1579540800
I0331 16:32:44.638054  8486 layer_factory.hpp:77] Creating layer bn5b_branch2a
I0331 16:32:44.638062  8486 net.cpp:86] Creating Layer bn5b_branch2a
I0331 16:32:44.638067  8486 net.cpp:408] bn5b_branch2a <- res5b_branch2a
I0331 16:32:44.638074  8486 net.cpp:369] bn5b_branch2a -> res5b_branch2a (in-place)
I0331 16:32:44.638342  8486 net.cpp:124] Setting up bn5b_branch2a
I0331 16:32:44.638350  8486 net.cpp:131] Top shape: 20 512 7 7 (501760)
I0331 16:32:44.638352  8486 net.cpp:139] Memory required for data: 1581547840
I0331 16:32:44.638358  8486 layer_factory.hpp:77] Creating layer scale5b_branch2a
I0331 16:32:44.638365  8486 net.cpp:86] Creating Layer scale5b_branch2a
I0331 16:32:44.638368  8486 net.cpp:408] scale5b_branch2a <- res5b_branch2a
I0331 16:32:44.638375  8486 net.cpp:369] scale5b_branch2a -> res5b_branch2a (in-place)
I0331 16:32:44.638425  8486 layer_factory.hpp:77] Creating layer scale5b_branch2a
I0331 16:32:44.638573  8486 net.cpp:124] Setting up scale5b_branch2a
I0331 16:32:44.638581  8486 net.cpp:131] Top shape: 20 512 7 7 (501760)
I0331 16:32:44.638586  8486 net.cpp:139] Memory required for data: 1583554880
I0331 16:32:44.638590  8486 layer_factory.hpp:77] Creating layer res5b_branch2a_relu
I0331 16:32:44.638595  8486 net.cpp:86] Creating Layer res5b_branch2a_relu
I0331 16:32:44.638597  8486 net.cpp:408] res5b_branch2a_relu <- res5b_branch2a
I0331 16:32:44.638602  8486 net.cpp:369] res5b_branch2a_relu -> res5b_branch2a (in-place)
I0331 16:32:44.639219  8486 net.cpp:124] Setting up res5b_branch2a_relu
I0331 16:32:44.639230  8486 net.cpp:131] Top shape: 20 512 7 7 (501760)
I0331 16:32:44.639232  8486 net.cpp:139] Memory required for data: 1585561920
I0331 16:32:44.639235  8486 layer_factory.hpp:77] Creating layer res5b_branch2b
I0331 16:32:44.639247  8486 net.cpp:86] Creating Layer res5b_branch2b
I0331 16:32:44.639271  8486 net.cpp:408] res5b_branch2b <- res5b_branch2a
I0331 16:32:44.639279  8486 net.cpp:382] res5b_branch2b -> res5b_branch2b
I0331 16:32:44.661208  8486 net.cpp:124] Setting up res5b_branch2b
I0331 16:32:44.661228  8486 net.cpp:131] Top shape: 20 512 7 7 (501760)
I0331 16:32:44.661231  8486 net.cpp:139] Memory required for data: 1587568960
I0331 16:32:44.661237  8486 layer_factory.hpp:77] Creating layer bn5b_branch2b
I0331 16:32:44.661247  8486 net.cpp:86] Creating Layer bn5b_branch2b
I0331 16:32:44.661250  8486 net.cpp:408] bn5b_branch2b <- res5b_branch2b
I0331 16:32:44.661255  8486 net.cpp:369] bn5b_branch2b -> res5b_branch2b (in-place)
I0331 16:32:44.661522  8486 net.cpp:124] Setting up bn5b_branch2b
I0331 16:32:44.661530  8486 net.cpp:131] Top shape: 20 512 7 7 (501760)
I0331 16:32:44.661531  8486 net.cpp:139] Memory required for data: 1589576000
I0331 16:32:44.661537  8486 layer_factory.hpp:77] Creating layer scale5b_branch2b
I0331 16:32:44.661543  8486 net.cpp:86] Creating Layer scale5b_branch2b
I0331 16:32:44.661547  8486 net.cpp:408] scale5b_branch2b <- res5b_branch2b
I0331 16:32:44.661552  8486 net.cpp:369] scale5b_branch2b -> res5b_branch2b (in-place)
I0331 16:32:44.661602  8486 layer_factory.hpp:77] Creating layer scale5b_branch2b
I0331 16:32:44.661753  8486 net.cpp:124] Setting up scale5b_branch2b
I0331 16:32:44.661761  8486 net.cpp:131] Top shape: 20 512 7 7 (501760)
I0331 16:32:44.661762  8486 net.cpp:139] Memory required for data: 1591583040
I0331 16:32:44.661768  8486 layer_factory.hpp:77] Creating layer res5b
I0331 16:32:44.661774  8486 net.cpp:86] Creating Layer res5b
I0331 16:32:44.661777  8486 net.cpp:408] res5b <- res5a_res5a_relu_0_split_1
I0331 16:32:44.661782  8486 net.cpp:408] res5b <- res5b_branch2b
I0331 16:32:44.661787  8486 net.cpp:382] res5b -> res5b
I0331 16:32:44.661818  8486 net.cpp:124] Setting up res5b
I0331 16:32:44.661826  8486 net.cpp:131] Top shape: 20 512 7 7 (501760)
I0331 16:32:44.661829  8486 net.cpp:139] Memory required for data: 1593590080
I0331 16:32:44.661831  8486 layer_factory.hpp:77] Creating layer res5b_relu
I0331 16:32:44.661837  8486 net.cpp:86] Creating Layer res5b_relu
I0331 16:32:44.661840  8486 net.cpp:408] res5b_relu <- res5b
I0331 16:32:44.661844  8486 net.cpp:369] res5b_relu -> res5b (in-place)
I0331 16:32:44.662295  8486 net.cpp:124] Setting up res5b_relu
I0331 16:32:44.662303  8486 net.cpp:131] Top shape: 20 512 7 7 (501760)
I0331 16:32:44.662307  8486 net.cpp:139] Memory required for data: 1595597120
I0331 16:32:44.662309  8486 layer_factory.hpp:77] Creating layer res5b_res5b_relu_0_split
I0331 16:32:44.662317  8486 net.cpp:86] Creating Layer res5b_res5b_relu_0_split
I0331 16:32:44.662319  8486 net.cpp:408] res5b_res5b_relu_0_split <- res5b
I0331 16:32:44.662324  8486 net.cpp:382] res5b_res5b_relu_0_split -> res5b_res5b_relu_0_split_0
I0331 16:32:44.662330  8486 net.cpp:382] res5b_res5b_relu_0_split -> res5b_res5b_relu_0_split_1
I0331 16:32:44.662385  8486 net.cpp:124] Setting up res5b_res5b_relu_0_split
I0331 16:32:44.662390  8486 net.cpp:131] Top shape: 20 512 7 7 (501760)
I0331 16:32:44.662395  8486 net.cpp:131] Top shape: 20 512 7 7 (501760)
I0331 16:32:44.662397  8486 net.cpp:139] Memory required for data: 1599611200
I0331 16:32:44.662400  8486 layer_factory.hpp:77] Creating layer res5c_branch2a
I0331 16:32:44.662411  8486 net.cpp:86] Creating Layer res5c_branch2a
I0331 16:32:44.662415  8486 net.cpp:408] res5c_branch2a <- res5b_res5b_relu_0_split_0
I0331 16:32:44.662421  8486 net.cpp:382] res5c_branch2a -> res5c_branch2a
I0331 16:32:44.684485  8486 net.cpp:124] Setting up res5c_branch2a
I0331 16:32:44.684504  8486 net.cpp:131] Top shape: 20 512 7 7 (501760)
I0331 16:32:44.684507  8486 net.cpp:139] Memory required for data: 1601618240
I0331 16:32:44.684514  8486 layer_factory.hpp:77] Creating layer bn5c_branch2a
I0331 16:32:44.684523  8486 net.cpp:86] Creating Layer bn5c_branch2a
I0331 16:32:44.684527  8486 net.cpp:408] bn5c_branch2a <- res5c_branch2a
I0331 16:32:44.684535  8486 net.cpp:369] bn5c_branch2a -> res5c_branch2a (in-place)
I0331 16:32:44.684828  8486 net.cpp:124] Setting up bn5c_branch2a
I0331 16:32:44.684835  8486 net.cpp:131] Top shape: 20 512 7 7 (501760)
I0331 16:32:44.684837  8486 net.cpp:139] Memory required for data: 1603625280
I0331 16:32:44.684844  8486 layer_factory.hpp:77] Creating layer scale5c_branch2a
I0331 16:32:44.684852  8486 net.cpp:86] Creating Layer scale5c_branch2a
I0331 16:32:44.684855  8486 net.cpp:408] scale5c_branch2a <- res5c_branch2a
I0331 16:32:44.684859  8486 net.cpp:369] scale5c_branch2a -> res5c_branch2a (in-place)
I0331 16:32:44.684911  8486 layer_factory.hpp:77] Creating layer scale5c_branch2a
I0331 16:32:44.685063  8486 net.cpp:124] Setting up scale5c_branch2a
I0331 16:32:44.685070  8486 net.cpp:131] Top shape: 20 512 7 7 (501760)
I0331 16:32:44.685072  8486 net.cpp:139] Memory required for data: 1605632320
I0331 16:32:44.685077  8486 layer_factory.hpp:77] Creating layer res5c_branch2a_relu
I0331 16:32:44.685082  8486 net.cpp:86] Creating Layer res5c_branch2a_relu
I0331 16:32:44.685084  8486 net.cpp:408] res5c_branch2a_relu <- res5c_branch2a
I0331 16:32:44.685091  8486 net.cpp:369] res5c_branch2a_relu -> res5c_branch2a (in-place)
I0331 16:32:44.685544  8486 net.cpp:124] Setting up res5c_branch2a_relu
I0331 16:32:44.685551  8486 net.cpp:131] Top shape: 20 512 7 7 (501760)
I0331 16:32:44.685554  8486 net.cpp:139] Memory required for data: 1607639360
I0331 16:32:44.685557  8486 layer_factory.hpp:77] Creating layer res5c_branch2b
I0331 16:32:44.685567  8486 net.cpp:86] Creating Layer res5c_branch2b
I0331 16:32:44.685570  8486 net.cpp:408] res5c_branch2b <- res5c_branch2a
I0331 16:32:44.685580  8486 net.cpp:382] res5c_branch2b -> res5c_branch2b
I0331 16:32:44.707458  8486 net.cpp:124] Setting up res5c_branch2b
I0331 16:32:44.707479  8486 net.cpp:131] Top shape: 20 512 7 7 (501760)
I0331 16:32:44.707482  8486 net.cpp:139] Memory required for data: 1609646400
I0331 16:32:44.707489  8486 layer_factory.hpp:77] Creating layer bn5c_branch2b
I0331 16:32:44.707495  8486 net.cpp:86] Creating Layer bn5c_branch2b
I0331 16:32:44.707499  8486 net.cpp:408] bn5c_branch2b <- res5c_branch2b
I0331 16:32:44.707509  8486 net.cpp:369] bn5c_branch2b -> res5c_branch2b (in-place)
I0331 16:32:44.707777  8486 net.cpp:124] Setting up bn5c_branch2b
I0331 16:32:44.707783  8486 net.cpp:131] Top shape: 20 512 7 7 (501760)
I0331 16:32:44.707787  8486 net.cpp:139] Memory required for data: 1611653440
I0331 16:32:44.707792  8486 layer_factory.hpp:77] Creating layer scale5c_branch2b
I0331 16:32:44.707798  8486 net.cpp:86] Creating Layer scale5c_branch2b
I0331 16:32:44.707801  8486 net.cpp:408] scale5c_branch2b <- res5c_branch2b
I0331 16:32:44.707808  8486 net.cpp:369] scale5c_branch2b -> res5c_branch2b (in-place)
I0331 16:32:44.707855  8486 layer_factory.hpp:77] Creating layer scale5c_branch2b
I0331 16:32:44.708007  8486 net.cpp:124] Setting up scale5c_branch2b
I0331 16:32:44.708015  8486 net.cpp:131] Top shape: 20 512 7 7 (501760)
I0331 16:32:44.708019  8486 net.cpp:139] Memory required for data: 1613660480
I0331 16:32:44.708024  8486 layer_factory.hpp:77] Creating layer res5c
I0331 16:32:44.708031  8486 net.cpp:86] Creating Layer res5c
I0331 16:32:44.708035  8486 net.cpp:408] res5c <- res5b_res5b_relu_0_split_1
I0331 16:32:44.708039  8486 net.cpp:408] res5c <- res5c_branch2b
I0331 16:32:44.708043  8486 net.cpp:382] res5c -> res5c
I0331 16:32:44.708077  8486 net.cpp:124] Setting up res5c
I0331 16:32:44.708082  8486 net.cpp:131] Top shape: 20 512 7 7 (501760)
I0331 16:32:44.708086  8486 net.cpp:139] Memory required for data: 1615667520
I0331 16:32:44.708088  8486 layer_factory.hpp:77] Creating layer res5c_relu
I0331 16:32:44.708093  8486 net.cpp:86] Creating Layer res5c_relu
I0331 16:32:44.708096  8486 net.cpp:408] res5c_relu <- res5c
I0331 16:32:44.708103  8486 net.cpp:369] res5c_relu -> res5c (in-place)
I0331 16:32:44.708708  8486 net.cpp:124] Setting up res5c_relu
I0331 16:32:44.708717  8486 net.cpp:131] Top shape: 20 512 7 7 (501760)
I0331 16:32:44.708720  8486 net.cpp:139] Memory required for data: 1617674560
I0331 16:32:44.708729  8486 layer_factory.hpp:77] Creating layer pool5
I0331 16:32:44.708752  8486 net.cpp:86] Creating Layer pool5
I0331 16:32:44.708755  8486 net.cpp:408] pool5 <- res5c
I0331 16:32:44.708762  8486 net.cpp:382] pool5 -> pool5
I0331 16:32:44.709256  8486 net.cpp:124] Setting up pool5
I0331 16:32:44.709265  8486 net.cpp:131] Top shape: 20 512 1 1 (10240)
I0331 16:32:44.709267  8486 net.cpp:139] Memory required for data: 1617715520
I0331 16:32:44.709270  8486 layer_factory.hpp:77] Creating layer fc1000
I0331 16:32:44.709280  8486 net.cpp:86] Creating Layer fc1000
I0331 16:32:44.709285  8486 net.cpp:408] fc1000 <- pool5
I0331 16:32:44.709290  8486 net.cpp:382] fc1000 -> fc1000
I0331 16:32:44.712357  8486 net.cpp:124] Setting up fc1000
I0331 16:32:44.712368  8486 net.cpp:131] Top shape: 20 1000 (20000)
I0331 16:32:44.712370  8486 net.cpp:139] Memory required for data: 1617795520
I0331 16:32:44.712375  8486 layer_factory.hpp:77] Creating layer fc1000_fc1000_0_split
I0331 16:32:44.712385  8486 net.cpp:86] Creating Layer fc1000_fc1000_0_split
I0331 16:32:44.712389  8486 net.cpp:408] fc1000_fc1000_0_split <- fc1000
I0331 16:32:44.712397  8486 net.cpp:382] fc1000_fc1000_0_split -> fc1000_fc1000_0_split_0
I0331 16:32:44.712404  8486 net.cpp:382] fc1000_fc1000_0_split -> fc1000_fc1000_0_split_1
I0331 16:32:44.712409  8486 net.cpp:382] fc1000_fc1000_0_split -> fc1000_fc1000_0_split_2
I0331 16:32:44.712478  8486 net.cpp:124] Setting up fc1000_fc1000_0_split
I0331 16:32:44.712483  8486 net.cpp:131] Top shape: 20 1000 (20000)
I0331 16:32:44.712487  8486 net.cpp:131] Top shape: 20 1000 (20000)
I0331 16:32:44.712489  8486 net.cpp:131] Top shape: 20 1000 (20000)
I0331 16:32:44.712492  8486 net.cpp:139] Memory required for data: 1618035520
I0331 16:32:44.712496  8486 layer_factory.hpp:77] Creating layer loss
I0331 16:32:44.712502  8486 net.cpp:86] Creating Layer loss
I0331 16:32:44.712505  8486 net.cpp:408] loss <- fc1000_fc1000_0_split_0
I0331 16:32:44.712510  8486 net.cpp:408] loss <- label_data_1_split_0
I0331 16:32:44.712514  8486 net.cpp:382] loss -> loss
…
