…
I0327 18:01:23.548713 17258 net.cpp:296] The NetState phase (0) differed from the phase (1) specified by a rule in layer acc/top-5
I0327 18:01:23.549214 17258 net.cpp:53] Initializing net from parameters: 
name: "resnet_34"
state {
  phase: TRAIN
  level: 0
  stage: ""
}
layer {
  name: "data"
  type: "Data"
  top: "data"
  top: "label"
  include {
    phase: TRAIN
  }
  transform_param {
    mirror: true
    crop_size: 224
    mean_file: "/shared/datasets/ImageNet2012/lmdb_data/imagenet_mean.binaryproto"
  }
  data_param {
    source: "/shared/datasets/ImageNet2012/lmdb_data/ilsvrc12_train_lmdb"
    batch_size: 32
    backend: LMDB
  }
}
layer {
  name: "conv1"
  type: "Convolution"
  bottom: "data"
  top: "conv1"
  convolution_param {
    num_output: 64
    bias_term: false
    pad: 3
    kernel_size: 7
    stride: 2
    weight_filler {
      type: "msra"
    }
  }
}
layer {
  name: "bn_conv1"
  type: "BatchNorm"
  bottom: "conv1"
  top: "conv1"
  batch_norm_param {
    use_global_stats: false
  }
}
layer {
  name: "scale_conv1"
  type: "Scale"
  bottom: "conv1"
  top: "conv1"
  scale_param {
    bias_term: true
  }
}
layer {
  name: "conv1_relu"
  type: "ReLU"
  bottom: "conv1"
  top: "conv1"
}
layer {
  name: "pool1"
  type: "Pooling"
  bottom: "conv1"
  top: "pool1"
  pooling_param {
    pool: MAX
    kernel_size: 3
    stride: 2
  }
}
layer {
  name: "res2a_branch1"
  type: "Convolution"
  bottom: "pool1"
  top: "res2a_branch1"
  convolution_param {
    num_output: 64
    bias_term: false
    pad: 0
    kernel_size: 1
    stride: 1
    weight_filler {
      type: "msra"
    }
  }
}
layer {
  name: "bn2a_branch1"
  type: "BatchNorm"
  bottom: "res2a_branch1"
  top: "res2a_branch1"
  batch_norm_param {
    use_global_stats: false
  }
}
layer {
  name: "scale2a_branch1"
  type: "Scale"
  bottom: "res2a_branch1"
  top: "res2a_branch1"
  scale_param {
    bias_term: true
  }
}
layer {
  name: "res2a_branch2a"
  type: "Convolution"
  bottom: "pool1"
  top: "res2a_branch2a"
  convolution_param {
    num_output: 64
    bias_term: false
    pad: 1
    kernel_size: 3
    stride: 1
    weight_filler {
      type: "msra"
    }
  }
}
layer {
  name: "bn2a_branch2a"
  type: "BatchNorm"
  bottom: "res2a_branch2a"
  top: "res2a_branch2a"
  batch_norm_param {
    use_global_stats: false
  }
}
layer {
  name: "scale2a_branch2a"
  type: "Scale"
  bottom: "res2a_branch2a"
  top: "res2a_branch2a"
  scale_param {
    bias_term: true
  }
}
layer {
  name: "res2a_branch2a_relu"
  type: "ReLU"
  bottom: "res2a_branch2a"
  top: "res2a_branch2a"
}
layer {
  name: "res2a_branch2b"
  type: "Convolution"
  bottom: "res2a_branch2a"
  top: "res2a_branch2b"
  convolution_param {
    num_output: 64
    bias_term: false
    pad: 1
    kernel_size: 3
    stride: 1
    weight_filler {
      type: "msra"
    }
  }
}
layer {
  name: "bn2a_branch2b"
  type: "BatchNorm"
  bottom: "res2a_branch2b"
  top: "res2a_branch2b"
  batch_norm_param {
    use_global_stats: false
  }
}
layer {
  name: "scale2a_branch2b"
  type: "Scale"
  bottom: "res2a_branch2b"
  top: "res2a_branch2b"
  scale_param {
    bias_term: true
  }
}
layer {
  name: "res2a"
  type: "Eltwise"
  bottom: "res2a_branch1"
  bottom: "res2a_branch2b"
  top: "res2a"
  eltwise_param {
    operation: SUM
  }
}
layer {
  name: "res2a_relu"
  type: "ReLU"
  bottom: "res2a"
  top: "res2a"
}
layer {
  name: "res2b_branch2a"
  type: "Convolution"
  bottom: "res2a"
  top: "res2b_branch2a"
  convolution_param {
    num_output: 64
    bias_term: false
    pad: 1
    kernel_size: 3
    stride: 1
    weight_filler {
      type: "msra"
    }
  }
}
layer {
  name: "bn2b_branch2a"
  type: "BatchNorm"
  bottom: "res2b_branch2a"
  top: "res2b_branch2a"
  batch_norm_param {
    use_global_stats: false
  }
}
layer {
  name: "scale2b_branch2a"
  type: "Scale"
  bottom: "res2b_branch2a"
  top: "res2b_branch2a"
  scale_param {
    bias_term: true
  }
}
layer {
  name: "res2b_branch2a_relu"
  type: "ReLU"
  bottom: "res2b_branch2a"
  top: "res2b_branch2a"
}
layer {
  name: "res2b_branch2b"
  type: "Convolution"
  bottom: "res2b_branch2a"
  top: "res2b_branch2b"
  convolution_param {
    num_output: 64
    bias_term: false
    pad: 1
    kernel_size: 3
    stride: 1
    weight_filler {
      type: "msra"
    }
  }
}
layer {
  name: "bn2b_branch2b"
  type: "BatchNorm"
  bottom: "res2b_branch2b"
  top: "res2b_branch2b"
  batch_norm_param {
    use_global_stats: false
  }
}
layer {
  name: "scale2b_branch2b"
  type: "Scale"
  bottom: "res2b_branch2b"
  top: "res2b_branch2b"
  scale_param {
    bias_term: true
  }
}
layer {
  name: "res2b"
  type: "Eltwise"
  bottom: "res2a"
  bottom: "res2b_branch2b"
  top: "res2b"
  eltwise_param {
    operation: SUM
  }
}
layer {
  name: "res2b_relu"
  type: "ReLU"
  bottom: "res2b"
  top: "res2b"
}
layer {
  name: "res2c_branch2a"
  type: "Convolution"
  bottom: "res2b"
  top: "res2c_branch2a"
  convolution_param {
    num_output: 64
    bias_term: false
    pad: 1
    kernel_size: 3
    stride: 1
    weight_filler {
      type: "msra"
    }
  }
}
layer {
  name: "bn2c_branch2a"
  type: "BatchNorm"
  bottom: "res2c_branch2a"
  top: "res2c_branch2a"
  batch_norm_param {
    use_global_stats: false
  }
}
layer {
  name: "scale2c_branch2a"
  type: "Scale"
  bottom: "res2c_branch2a"
  top: "res2c_branch2a"
  scale_param {
    bias_term: true
  }
}
layer {
  name: "res2c_branch2a_relu"
  type: "ReLU"
  bottom: "res2c_branch2a"
  top: "res2c_branch2a"
}
layer {
  name: "res2c_branch2b"
  type: "Convolution"
  bottom: "res2c_branch2a"
  top: "res2c_branch2b"
  convolution_param {
    num_output: 64
    bias_term: false
    pad: 1
    kernel_size: 3
    stride: 1
    weight_filler {
      type: "msra"
    }
  }
}
layer {
  name: "bn2c_branch2b"
  type: "BatchNorm"
  bottom: "res2c_branch2b"
  top: "res2c_branch2b"
  batch_norm_param {
    use_global_stats: false
  }
}
layer {
  name: "scale2c_branch2b"
  type: "Scale"
  bottom: "res2c_branch2b"
  top: "res2c_branch2b"
  scale_param {
    bias_term: true
  }
}
layer {
  name: "res2c"
  type: "Eltwise"
  bottom: "res2b"
  bottom: "res2c_branch2b"
  top: "res2c"
  eltwise_param {
    operation: SUM
  }
}
layer {
  name: "res2c_relu"
  type: "ReLU"
  bottom: "res2c"
  top: "res2c"
}
layer {
  name: "res3a_branch1"
  type: "Convolution"
  bottom: "res2c"
  top: "res3a_branch1"
  convolution_param {
    num_output: 128
    bias_term: false
    pad: 0
    kernel_size: 1
    stride: 2
    weight_filler {
      type: "msra"
    }
  }
}
layer {
  name: "bn3a_branch1"
  type: "BatchNorm"
  bottom: "res3a_branch1"
  top: "res3a_branch1"
  batch_norm_param {
    use_global_stats: false
  }
}
layer {
  name: "scale3a_branch1"
  type: "Scale"
  bottom: "res3a_branch1"
  top: "res3a_branch1"
  scale_param {
    bias_term: true
  }
}
layer {
  name: "res3a_branch2a"
  type: "Convolution"
  bottom: "res2c"
  top: "res3a_branch2a"
  convolution_param {
    num_output: 128
    bias_term: false
    pad: 1
    kernel_size: 3
    stride: 2
    weight_filler {
      type: "msra"
    }
  }
}
layer {
  name: "bn3a_branch2a"
  type: "BatchNorm"
  bottom: "res3a_branch2a"
  top: "res3a_branch2a"
  batch_norm_param {
    use_global_stats: false
  }
}
layer {
  name: "scale3a_branch2a"
  type: "Scale"
  bottom: "res3a_branch2a"
  top: "res3a_branch2a"
  scale_param {
    bias_term: true
  }
}
layer {
  name: "res3a_branch2a_relu"
  type: "ReLU"
  bottom: "res3a_branch2a"
  top: "res3a_branch2a"
}
layer {
  name: "res3a_branch2b"
  type: "Convolution"
  bottom: "res3a_branch2a"
  top: "res3a_branch2b"
  convolution_param {
    num_output: 128
    bias_term: false
    pad: 1
    kernel_size: 3
    stride: 1
    weight_filler {
      type: "msra"
    }
  }
}
layer {
  name: "bn3a_branch2b"
  type: "BatchNorm"
  bottom: "res3a_branch2b"
  top: "res3a_branch2b"
  batch_norm_param {
    use_global_stats: false
  }
}
layer {
  name: "scale3a_branch2b"
  type: "Scale"
  bottom: "res3a_branch2b"
  top: "res3a_branch2b"
  scale_param {
    bias_term: true
  }
}
layer {
  name: "res3a"
  type: "Eltwise"
  bottom: "res3a_branch1"
  bottom: "res3a_branch2b"
  top: "res3a"
  eltwise_param {
    operation: SUM
  }
}
layer {
  name: "res3a_relu"
  type: "ReLU"
  bottom: "res3a"
  top: "res3a"
}
layer {
  name: "res3b_branch2a"
  type: "Convolution"
  bottom: "res3a"
  top: "res3b_branch2a"
  convolution_param {
    num_output: 128
    bias_term: false
    pad: 1
    kernel_size: 3
    stride: 1
    weight_filler {
      type: "msra"
    }
  }
}
layer {
  name: "bn3b_branch2a"
  type: "BatchNorm"
  bottom: "res3b_branch2a"
  top: "res3b_branch2a"
  batch_norm_param {
    use_global_stats: false
  }
}
layer {
  name: "scale3b_branch2a"
  type: "Scale"
  bottom: "res3b_branch2a"
  top: "res3b_branch2a"
  scale_param {
    bias_term: true
  }
}
layer {
  name: "res3b_branch2a_relu"
  type: "ReLU"
  bottom: "res3b_branch2a"
  top: "res3b_branch2a"
}
layer {
  name: "res3b_branch2b"
  type: "Convolution"
  bottom: "res3b_branch2a"
  top: "res3b_branch2b"
  convolution_param {
    num_output: 128
    bias_term: false
    pad: 1
    kernel_size: 3
    stride: 1
    weight_filler {
      type: "msra"
    }
  }
}
layer {
  name: "bn3b_branch2b"
  type: "BatchNorm"
  bottom: "res3b_branch2b"
  top: "res3b_branch2b"
  batch_norm_param {
    use_global_stats: false
  }
}
layer {
  name: "scale3b_branch2b"
  type: "Scale"
  bottom: "res3b_branch2b"
  top: "res3b_branch2b"
  scale_param {
    bias_term: true
  }
}
layer {
  name: "res3b"
  type: "Eltwise"
  bottom: "res3a"
  bottom: "res3b_branch2b"
  top: "res3b"
  eltwise_param {
    operation: SUM
  }
}
layer {
  name: "res3b_relu"
  type: "ReLU"
  bottom: "res3b"
  top: "res3b"
}
layer {
  name: "res3c_branch2a"
  type: "Convolution"
  bottom: "res3b"
  top: "res3c_branch2a"
  convolution_param {
    num_output: 128
    bias_term: false
    pad: 1
    kernel_size: 3
    stride: 1
    weight_filler {
      type: "msra"
    }
  }
}
layer {
  name: "bn3c_branch2a"
  type: "BatchNorm"
  bottom: "res3c_branch2a"
  top: "res3c_branch2a"
  batch_norm_param {
    use_global_stats: false
  }
}
layer {
  name: "scale3c_branch2a"
  type: "Scale"
  bottom: "res3c_branch2a"
  top: "res3c_branch2a"
  scale_param {
    bias_term: true
  }
}
layer {
  name: "res3c_branch2a_relu"
  type: "ReLU"
  bottom: "res3c_branch2a"
  top: "res3c_branch2a"
}
layer {
  name: "res3c_branch2b"
  type: "Convolution"
  bottom: "res3c_branch2a"
  top: "res3c_branch2b"
  convolution_param {
    num_output: 128
    bias_term: false
    pad: 1
    kernel_size: 3
    stride: 1
    weight_filler {
      type: "msra"
    }
  }
}
layer {
  name: "bn3c_branch2b"
  type: "BatchNorm"
  bottom: "res3c_branch2b"
  top: "res3c_branch2b"
  batch_norm_param {
    use_global_stats: false
  }
}
layer {
  name: "scale3c_branch2b"
  type: "Scale"
  bottom: "res3c_branch2b"
  top: "res3c_branch2b"
  scale_param {
    bias_term: true
  }
}
layer {
  name: "res3c"
  type: "Eltwise"
  bottom: "res3b"
  bottom: "res3c_branch2b"
  top: "res3c"
  eltwise_param {
    operation: SUM
  }
}
layer {
  name: "res3c_relu"
  type: "ReLU"
  bottom: "res3c"
  top: "res3c"
}
layer {
  name: "res3d_branch2a"
  type: "Convolution"
  bottom: "res3c"
  top: "res3d_branch2a"
  convolution_param {
    num_output: 128
    bias_term: false
    pad: 1
    kernel_size: 3
    stride: 1
    weight_filler {
      type: "msra"
    }
  }
}
layer {
  name: "bn3d_branch2a"
  type: "BatchNorm"
  bottom: "res3d_branch2a"
  top: "res3d_branch2a"
  batch_norm_param {
    use_global_stats: false
  }
}
layer {
  name: "scale3d_branch2a"
  type: "Scale"
  bottom: "res3d_branch2a"
  top: "res3d_branch2a"
  scale_param {
    bias_term: true
  }
}
layer {
  name: "res3d_branch2a_relu"
  type: "ReLU"
  bottom: "res3d_branch2a"
  top: "res3d_branch2a"
}
layer {
  name: "res3d_branch2b"
  type: "Convolution"
  bottom: "res3d_branch2a"
  top: "res3d_branch2b"
  convolution_param {
    num_output: 128
    bias_term: false
    pad: 1
    kernel_size: 3
    stride: 1
    weight_filler {
      type: "msra"
    }
  }
}
layer {
  name: "bn3d_branch2b"
  type: "BatchNorm"
  bottom: "res3d_branch2b"
  top: "res3d_branch2b"
  batch_norm_param {
    use_global_stats: false
  }
}
layer {
  name: "scale3d_branch2b"
  type: "Scale"
  bottom: "res3d_branch2b"
  top: "res3d_branch2b"
  scale_param {
    bias_term: true
  }
}
layer {
  name: "res3d"
  type: "Eltwise"
  bottom: "res3c"
  bottom: "res3d_branch2b"
  top: "res3d"
  eltwise_param {
    operation: SUM
  }
}
layer {
  name: "res3d_relu"
  type: "ReLU"
  bottom: "res3d"
  top: "res3d"
}
layer {
  name: "res4a_branch1"
  type: "Convolution"
  bottom: "res3d"
  top: "res4a_branch1"
  convolution_param {
    num_output: 256
    bias_term: false
    pad: 0
    kernel_size: 1
    stride: 2
    weight_filler {
      type: "msra"
    }
  }
}
layer {
  name: "bn4a_branch1"
  type: "BatchNorm"
  bottom: "res4a_branch1"
  top: "res4a_branch1"
  batch_norm_param {
    use_global_stats: false
  }
}
layer {
  name: "scale4a_branch1"
  type: "Scale"
  bottom: "res4a_branch1"
  top: "res4a_branch1"
  scale_param {
    bias_term: true
  }
}
layer {
  name: "res4a_branch2a"
  type: "Convolution"
  bottom: "res3d"
  top: "res4a_branch2a"
  convolution_param {
    num_output: 256
    bias_term: false
    pad: 1
    kernel_size: 3
    stride: 2
    weight_filler {
      type: "msra"
    }
  }
}
layer {
  name: "bn4a_branch2a"
  type: "BatchNorm"
  bottom: "res4a_branch2a"
  top: "res4a_branch2a"
  batch_norm_param {
    use_global_stats: false
  }
}
layer {
  name: "scale4a_branch2a"
  type: "Scale"
  bottom: "res4a_branch2a"
  top: "res4a_branch2a"
  scale_param {
    bias_term: true
  }
}
layer {
  name: "res4a_branch2a_relu"
  type: "ReLU"
  bottom: "res4a_branch2a"
  top: "res4a_branch2a"
}
layer {
  name: "res4a_branch2b"
  type: "Convolution"
  bottom: "res4a_branch2a"
  top: "res4a_branch2b"
  convolution_param {
    num_output: 256
    bias_term: false
    pad: 1
    kernel_size: 3
    stride: 1
    weight_filler {
      type: "msra"
    }
  }
}
layer {
  name: "bn4a_branch2b"
  type: "BatchNorm"
  bottom: "res4a_branch2b"
  top: "res4a_branch2b"
  batch_norm_param {
    use_global_stats: false
  }
}
layer {
  name: "scale4a_branch2b"
  type: "Scale"
  bottom: "res4a_branch2b"
  top: "res4a_branch2b"
  scale_param {
    bias_term: true
  }
}
layer {
  name: "res4a"
  type: "Eltwise"
  bottom: "res4a_branch1"
  bottom: "res4a_branch2b"
  top: "res4a"
  eltwise_param {
    operation: SUM
  }
}
layer {
  name: "res4a_relu"
  type: "ReLU"
  bottom: "res4a"
  top: "res4a"
}
layer {
  name: "res4b_branch2a"
  type: "Convolution"
  bottom: "res4a"
  top: "res4b_branch2a"
  convolution_param {
    num_output: 256
    bias_term: false
    pad: 1
    kernel_size: 3
    stride: 1
    weight_filler {
      type: "msra"
    }
  }
}
layer {
  name: "bn4b_branch2a"
  type: "BatchNorm"
  bottom: "res4b_branch2a"
  top: "res4b_branch2a"
  batch_norm_param {
    use_global_stats: false
  }
}
layer {
  name: "scale4b_branch2a"
  type: "Scale"
  bottom: "res4b_branch2a"
  top: "res4b_branch2a"
  scale_param {
    bias_term: true
  }
}
layer {
  name: "res4b_branch2a_relu"
  type: "ReLU"
  bottom: "res4b_branch2a"
  top: "res4b_branch2a"
}
layer {
  name: "res4b_branch2b"
  type: "Convolution"
  bottom: "res4b_branch2a"
  top: "res4b_branch2b"
  convolution_param {
    num_output: 256
    bias_term: false
    pad: 1
    kernel_size: 3
    stride: 1
    weight_filler {
      type: "msra"
    }
  }
}
layer {
  name: "bn4b_branch2b"
  type: "BatchNorm"
  bottom: "res4b_branch2b"
  top: "res4b_branch2b"
  batch_norm_param {
    use_global_stats: false
  }
}
layer {
  name: "scale4b_branch2b"
  type: "Scale"
  bottom: "res4b_branch2b"
  top: "res4b_branch2b"
  scale_param {
    bias_term: true
  }
}
layer {
  name: "res4b"
  type: "Eltwise"
  bottom: "res4a"
  bottom: "res4b_branch2b"
  top: "res4b"
  eltwise_param {
    operation: SUM
  }
}
layer {
  name: "res4b_relu"
  type: "ReLU"
  bottom: "res4b"
  top: "res4b"
}
layer {
  name: "res4c_branch2a"
  type: "Convolution"
  bottom: "res4b"
  top: "res4c_branch2a"
  convolution_param {
    num_output: 256
    bias_term: false
    pad: 1
    kernel_size: 3
    stride: 1
    weight_filler {
      type: "msra"
    }
  }
}
layer {
  name: "bn4c_branch2a"
  type: "BatchNorm"
  bottom: "res4c_branch2a"
  top: "res4c_branch2a"
  batch_norm_param {
    use_global_stats: false
  }
}
layer {
  name: "scale4c_branch2a"
  type: "Scale"
  bottom: "res4c_branch2a"
  top: "res4c_branch2a"
  scale_param {
    bias_term: true
  }
}
layer {
  name: "res4c_branch2a_relu"
  type: "ReLU"
  bottom: "res4c_branch2a"
  top: "res4c_branch2a"
}
layer {
  name: "res4c_branch2b"
  type: "Convolution"
  bottom: "res4c_branch2a"
  top: "res4c_branch2b"
  convolution_param {
    num_output: 256
    bias_term: false
    pad: 1
    kernel_size: 3
    stride: 1
    weight_filler {
      type: "msra"
    }
  }
}
layer {
  name: "bn4c_branch2b"
  type: "BatchNorm"
  bottom: "res4c_branch2b"
  top: "res4c_branch2b"
  batch_norm_param {
    use_global_stats: false
  }
}
layer {
  name: "scale4c_branch2b"
  type: "Scale"
  bottom: "res4c_branch2b"
  top: "res4c_branch2b"
  scale_param {
    bias_term: true
  }
}
layer {
  name: "res4c"
  type: "Eltwise"
  bottom: "res4b"
  bottom: "res4c_branch2b"
  top: "res4c"
  eltwise_param {
    operation: SUM
  }
}
layer {
  name: "res4c_relu"
  type: "ReLU"
  bottom: "res4c"
  top: "res4c"
}
layer {
  name: "res4d_branch2a"
  type: "Convolution"
  bottom: "res4c"
  top: "res4d_branch2a"
  convolution_param {
    num_output: 256
    bias_term: false
    pad: 1
    kernel_size: 3
    stride: 1
    weight_filler {
      type: "msra"
    }
  }
}
layer {
  name: "bn4d_branch2a"
  type: "BatchNorm"
  bottom: "res4d_branch2a"
  top: "res4d_branch2a"
  batch_norm_param {
    use_global_stats: false
  }
}
layer {
  name: "scale4d_branch2a"
  type: "Scale"
  bottom: "res4d_branch2a"
  top: "res4d_branch2a"
  scale_param {
    bias_term: true
  }
}
layer {
  name: "res4d_branch2a_relu"
  type: "ReLU"
  bottom: "res4d_branch2a"
  top: "res4d_branch2a"
}
layer {
  name: "res4d_branch2b"
  type: "Convolution"
  bottom: "res4d_branch2a"
  top: "res4d_branch2b"
  convolution_param {
    num_output: 256
    bias_term: false
    pad: 1
    kernel_size: 3
    stride: 1
    weight_filler {
      type: "msra"
    }
  }
}
layer {
  name: "bn4d_branch2b"
  type: "BatchNorm"
  bottom: "res4d_branch2b"
  top: "res4d_branch2b"
  batch_norm_param {
    use_global_stats: false
  }
}
layer {
  name: "scale4d_branch2b"
  type: "Scale"
  bottom: "res4d_branch2b"
  top: "res4d_branch2b"
  scale_param {
    bias_term: true
  }
}
layer {
  name: "res4d"
  type: "Eltwise"
  bottom: "res4c"
  bottom: "res4d_branch2b"
  top: "res4d"
  eltwise_param {
    operation: SUM
  }
}
layer {
  name: "res4d_relu"
  type: "ReLU"
  bottom: "res4d"
  top: "res4d"
}
layer {
  name: "res4e_branch2a"
  type: "Convolution"
  bottom: "res4d"
  top: "res4e_branch2a"
  convolution_param {
    num_output: 256
    bias_term: false
    pad: 1
    kernel_size: 3
    stride: 1
    weight_filler {
      type: "msra"
    }
  }
}
layer {
  name: "bn4e_branch2a"
  type: "BatchNorm"
  bottom: "res4e_branch2a"
  top: "res4e_branch2a"
  batch_norm_param {
    use_global_stats: false
  }
}
layer {
  name: "scale4e_branch2a"
  type: "Scale"
  bottom: "res4e_branch2a"
  top: "res4e_branch2a"
  scale_param {
    bias_term: true
  }
}
layer {
  name: "res4e_branch2a_relu"
  type: "ReLU"
  bottom: "res4e_branch2a"
  top: "res4e_branch2a"
}
layer {
  name: "res4e_branch2b"
  type: "Convolution"
  bottom: "res4e_branch2a"
  top: "res4e_branch2b"
  convolution_param {
    num_output: 256
    bias_term: false
    pad: 1
    kernel_size: 3
    stride: 1
    weight_filler {
      type: "msra"
    }
  }
}
layer {
  name: "bn4e_branch2b"
  type: "BatchNorm"
  bottom: "res4e_branch2b"
  top: "res4e_branch2b"
  batch_norm_param {
    use_global_stats: false
  }
}
layer {
  name: "scale4e_branch2b"
  type: "Scale"
  bottom: "res4e_branch2b"
  top: "res4e_branch2b"
  scale_param {
    bias_term: true
  }
}
layer {
  name: "res4e"
  type: "Eltwise"
  bottom: "res4d"
  bottom: "res4e_branch2b"
  top: "res4e"
  eltwise_param {
    operation: SUM
  }
}
layer {
  name: "res4e_relu"
  type: "ReLU"
  bottom: "res4e"
  top: "res4e"
}
layer {
  name: "res4f_branch2a"
  type: "Convolution"
  bottom: "res4e"
  top: "res4f_branch2a"
  convolution_param {
    num_output: 256
    bias_term: false
    pad: 1
    kernel_size: 3
    stride: 1
    weight_filler {
      type: "msra"
    }
  }
}
layer {
  name: "bn4f_branch2a"
  type: "BatchNorm"
  bottom: "res4f_branch2a"
  top: "res4f_branch2a"
  batch_norm_param {
    use_global_stats: false
  }
}
layer {
  name: "scale4f_branch2a"
  type: "Scale"
  bottom: "res4f_branch2a"
  top: "res4f_branch2a"
  scale_param {
    bias_term: true
  }
}
layer {
  name: "res4f_branch2a_relu"
  type: "ReLU"
  bottom: "res4f_branch2a"
  top: "res4f_branch2a"
}
layer {
  name: "res4f_branch2b"
  type: "Convolution"
  bottom: "res4f_branch2a"
  top: "res4f_branch2b"
  convolution_param {
    num_output: 256
    bias_term: false
    pad: 1
    kernel_size: 3
    stride: 1
    weight_filler {
      type: "msra"
    }
  }
}
layer {
  name: "bn4f_branch2b"
  type: "BatchNorm"
  bottom: "res4f_branch2b"
  top: "res4f_branch2b"
  batch_norm_param {
    use_global_stats: false
  }
}
layer {
  name: "scale4f_branch2b"
  type: "Scale"
  bottom: "res4f_branch2b"
  top: "res4f_branch2b"
  scale_param {
    bias_term: true
  }
}
layer {
  name: "res4f"
  type: "Eltwise"
  bottom: "res4e"
  bottom: "res4f_branch2b"
  top: "res4f"
  eltwise_param {
    operation: SUM
  }
}
layer {
  name: "res4f_relu"
  type: "ReLU"
  bottom: "res4f"
  top: "res4f"
}
layer {
  name: "res5a_branch1"
  type: "Convolution"
  bottom: "res4f"
  top: "res5a_branch1"
  convolution_param {
    num_output: 512
    bias_term: false
    pad: 0
    kernel_size: 1
    stride: 2
    weight_filler {
      type: "msra"
    }
  }
}
layer {
  name: "bn5a_branch1"
  type: "BatchNorm"
  bottom: "res5a_branch1"
  top: "res5a_branch1"
  batch_norm_param {
    use_global_stats: false
  }
}
layer {
  name: "scale5a_branch1"
  type: "Scale"
  bottom: "res5a_branch1"
  top: "res5a_branch1"
  scale_param {
    bias_term: true
  }
}
layer {
  name: "res5a_branch2a"
  type: "Convolution"
  bottom: "res4f"
  top: "res5a_branch2a"
  convolution_param {
    num_output: 512
    bias_term: false
    pad: 1
    kernel_size: 3
    stride: 2
    weight_filler {
      type: "msra"
    }
  }
}
layer {
  name: "bn5a_branch2a"
  type: "BatchNorm"
  bottom: "res5a_branch2a"
  top: "res5a_branch2a"
  batch_norm_param {
    use_global_stats: false
  }
}
layer {
  name: "scale5a_branch2a"
  type: "Scale"
  bottom: "res5a_branch2a"
  top: "res5a_branch2a"
  scale_param {
    bias_term: true
  }
}
layer {
  name: "res5a_branch2a_relu"
  type: "ReLU"
  bottom: "res5a_branch2a"
  top: "res5a_branch2a"
}
layer {
  name: "res5a_branch2b"
  type: "Convolution"
  bottom: "res5a_branch2a"
  top: "res5a_branch2b"
  convolution_param {
    num_output: 512
    bias_term: false
    pad: 1
    kernel_size: 3
    stride: 1
    weight_filler {
      type: "msra"
    }
  }
}
layer {
  name: "bn5a_branch2b"
  type: "BatchNorm"
  bottom: "res5a_branch2b"
  top: "res5a_branch2b"
  batch_norm_param {
    use_global_stats: false
  }
}
layer {
  name: "scale5a_branch2b"
  type: "Scale"
  bottom: "res5a_branch2b"
  top: "res5a_branch2b"
  scale_param {
    bias_term: true
  }
}
layer {
  name: "res5a"
  type: "Eltwise"
  bottom: "res5a_branch1"
  bottom: "res5a_branch2b"
  top: "res5a"
  eltwise_param {
    operation: SUM
  }
}
layer {
  name: "res5a_relu"
  type: "ReLU"
  bottom: "res5a"
  top: "res5a"
}
layer {
  name: "res5b_branch2a"
  type: "Convolution"
  bottom: "res5a"
  top: "res5b_branch2a"
  convolution_param {
    num_output: 512
    bias_term: false
    pad: 1
    kernel_size: 3
    stride: 1
    weight_filler {
      type: "msra"
    }
  }
}
layer {
  name: "bn5b_branch2a"
  type: "BatchNorm"
  bottom: "res5b_branch2a"
  top: "res5b_branch2a"
  batch_norm_param {
    use_global_stats: false
  }
}
layer {
  name: "scale5b_branch2a"
  type: "Scale"
  bottom: "res5b_branch2a"
  top: "res5b_branch2a"
  scale_param {
    bias_term: true
  }
}
layer {
  name: "res5b_branch2a_relu"
  type: "ReLU"
  bottom: "res5b_branch2a"
  top: "res5b_branch2a"
}
layer {
  name: "res5b_branch2b"
  type: "Convolution"
  bottom: "res5b_branch2a"
  top: "res5b_branch2b"
  convolution_param {
    num_output: 512
    bias_term: false
    pad: 1
    kernel_size: 3
    stride: 1
    weight_filler {
      type: "msra"
    }
  }
}
layer {
  name: "bn5b_branch2b"
  type: "BatchNorm"
  bottom: "res5b_branch2b"
  top: "res5b_branch2b"
  batch_norm_param {
    use_global_stats: false
  }
}
layer {
  name: "scale5b_branch2b"
  type: "Scale"
  bottom: "res5b_branch2b"
  top: "res5b_branch2b"
  scale_param {
    bias_term: true
  }
}
layer {
  name: "res5b"
  type: "Eltwise"
  bottom: "res5a"
  bottom: "res5b_branch2b"
  top: "res5b"
  eltwise_param {
    operation: SUM
  }
}
layer {
  name: "res5b_relu"
  type: "ReLU"
  bottom: "res5b"
  top: "res5b"
}
layer {
  name: "res5c_branch2a"
  type: "Convolution"
  bottom: "res5b"
  top: "res5c_branch2a"
  convolution_param {
    num_output: 512
    bias_term: false
    pad: 1
    kernel_size: 3
    stride: 1
    weight_filler {
      type: "msra"
    }
  }
}
layer {
  name: "bn5c_branch2a"
  type: "BatchNorm"
  bottom: "res5c_branch2a"
  top: "res5c_branch2a"
  batch_norm_param {
    use_global_stats: false
  }
}
layer {
  name: "scale5c_branch2a"
  type: "Scale"
  bottom: "res5c_branch2a"
  top: "res5c_branch2a"
  scale_param {
    bias_term: true
  }
}
layer {
  name: "res5c_branch2a_relu"
  type: "ReLU"
  bottom: "res5c_branch2a"
  top: "res5c_branch2a"
}
layer {
  name: "res5c_branch2b"
  type: "Convolution"
  bottom: "res5c_branch2a"
  top: "res5c_branch2b"
  convolution_param {
    num_output: 512
    bias_term: false
    pad: 1
    kernel_size: 3
    stride: 1
    weight_filler {
      type: "msra"
    }
  }
}
layer {
  name: "bn5c_branch2b"
  type: "BatchNorm"
  bottom: "res5c_branch2b"
  top: "res5c_branch2b"
  batch_norm_param {
    use_global_stats: false
  }
}
layer {
  name: "scale5c_branch2b"
  type: "Scale"
  bottom: "res5c_branch2b"
  top: "res5c_branch2b"
  scale_param {
    bias_term: true
  }
}
layer {
  name: "res5c"
  type: "Eltwise"
  bottom: "res5b"
  bottom: "res5c_branch2b"
  top: "res5c"
  eltwise_param {
    operation: SUM
  }
}
layer {
  name: "res5c_relu"
  type: "ReLU"
  bottom: "res5c"
  top: "res5c"
}
layer {
  name: "pool5"
  type: "Pooling"
  bottom: "res5c"
  top: "pool5"
  pooling_param {
    pool: AVE
    kernel_size: 7
    stride: 1
  }
}
layer {
  name: "fc1000"
  type: "InnerProduct"
  bottom: "pool5"
  top: "fc1000"
  param {
    lr_mult: 1
    decay_mult: 1
  }
  param {
    lr_mult: 2
    decay_mult: 1
  }
  inner_product_param {
    num_output: 1000
    weight_filler {
      type: "xavier"
    }
    bias_filler {
      type: "constant"
      value: 0
    }
  }
}
layer {
  name: "loss"
  type: "SoftmaxWithLoss"
  bottom: "fc1000"
  bottom: "label"
  top: "loss"
}
I0327 18:01:23.549742 17258 layer_factory.hpp:77] Creating layer data
I0327 18:01:29.280148 17258 db_lmdb.cpp:35] Opened lmdb /shared/datasets/ImageNet2012/lmdb_data/ilsvrc12_train_lmdb
I0327 18:01:29.641671 17258 net.cpp:86] Creating Layer data
I0327 18:01:29.642602 17258 net.cpp:382] data -> data
I0327 18:01:29.642668 17258 net.cpp:382] data -> label
I0327 18:01:29.642686 17258 data_transformer.cpp:25] Loading mean file from: /shared/datasets/ImageNet2012/lmdb_data/imagenet_mean.binaryproto
I0327 18:01:29.802338 17258 data_layer.cpp:45] output data size: 32,3,224,224
I0327 18:01:29.856858 17258 net.cpp:124] Setting up data
I0327 18:01:29.856892 17258 net.cpp:131] Top shape: 32 3 224 224 (4816896)
I0327 18:01:29.856897 17258 net.cpp:131] Top shape: 32 (32)
I0327 18:01:29.856900 17258 net.cpp:139] Memory required for data: 19267712
I0327 18:01:29.856911 17258 layer_factory.hpp:77] Creating layer conv1
I0327 18:01:29.856936 17258 net.cpp:86] Creating Layer conv1
I0327 18:01:29.856942 17258 net.cpp:408] conv1 <- data
I0327 18:01:29.856954 17258 net.cpp:382] conv1 -> conv1
I0327 18:01:29.858351 17258 net.cpp:124] Setting up conv1
I0327 18:01:29.858366 17258 net.cpp:131] Top shape: 32 64 112 112 (25690112)
I0327 18:01:29.858369 17258 net.cpp:139] Memory required for data: 122028160
I0327 18:01:29.858386 17258 layer_factory.hpp:77] Creating layer bn_conv1
I0327 18:01:29.858397 17258 net.cpp:86] Creating Layer bn_conv1
I0327 18:01:29.858400 17258 net.cpp:408] bn_conv1 <- conv1
I0327 18:01:29.858409 17258 net.cpp:369] bn_conv1 -> conv1 (in-place)
I0327 18:01:29.858592 17258 net.cpp:124] Setting up bn_conv1
I0327 18:01:29.858598 17258 net.cpp:131] Top shape: 32 64 112 112 (25690112)
I0327 18:01:29.858602 17258 net.cpp:139] Memory required for data: 224788608
I0327 18:01:29.858610 17258 layer_factory.hpp:77] Creating layer scale_conv1
I0327 18:01:29.858618 17258 net.cpp:86] Creating Layer scale_conv1
I0327 18:01:29.858623 17258 net.cpp:408] scale_conv1 <- conv1
I0327 18:01:29.858626 17258 net.cpp:369] scale_conv1 -> conv1 (in-place)
I0327 18:01:29.858659 17258 layer_factory.hpp:77] Creating layer scale_conv1
I0327 18:01:29.858749 17258 net.cpp:124] Setting up scale_conv1
I0327 18:01:29.858757 17258 net.cpp:131] Top shape: 32 64 112 112 (25690112)
I0327 18:01:29.858759 17258 net.cpp:139] Memory required for data: 327549056
I0327 18:01:29.858767 17258 layer_factory.hpp:77] Creating layer conv1_relu
I0327 18:01:29.858773 17258 net.cpp:86] Creating Layer conv1_relu
I0327 18:01:29.858777 17258 net.cpp:408] conv1_relu <- conv1
I0327 18:01:29.858781 17258 net.cpp:369] conv1_relu -> conv1 (in-place)
I0327 18:01:29.858788 17258 net.cpp:124] Setting up conv1_relu
I0327 18:01:29.858790 17258 net.cpp:131] Top shape: 32 64 112 112 (25690112)
I0327 18:01:29.858793 17258 net.cpp:139] Memory required for data: 430309504
I0327 18:01:29.858796 17258 layer_factory.hpp:77] Creating layer pool1
I0327 18:01:29.858803 17258 net.cpp:86] Creating Layer pool1
I0327 18:01:29.858806 17258 net.cpp:408] pool1 <- conv1
I0327 18:01:29.858811 17258 net.cpp:382] pool1 -> pool1
I0327 18:01:29.858844 17258 net.cpp:124] Setting up pool1
I0327 18:01:29.858850 17258 net.cpp:131] Top shape: 32 64 56 56 (6422528)
I0327 18:01:29.858853 17258 net.cpp:139] Memory required for data: 455999616
I0327 18:01:29.858856 17258 layer_factory.hpp:77] Creating layer pool1_pool1_0_split
I0327 18:01:29.858862 17258 net.cpp:86] Creating Layer pool1_pool1_0_split
I0327 18:01:29.858866 17258 net.cpp:408] pool1_pool1_0_split <- pool1
I0327 18:01:29.858871 17258 net.cpp:382] pool1_pool1_0_split -> pool1_pool1_0_split_0
I0327 18:01:29.858878 17258 net.cpp:382] pool1_pool1_0_split -> pool1_pool1_0_split_1
I0327 18:01:29.858907 17258 net.cpp:124] Setting up pool1_pool1_0_split
I0327 18:01:29.858914 17258 net.cpp:131] Top shape: 32 64 56 56 (6422528)
I0327 18:01:29.858918 17258 net.cpp:131] Top shape: 32 64 56 56 (6422528)
I0327 18:01:29.858922 17258 net.cpp:139] Memory required for data: 507379840
I0327 18:01:29.858923 17258 layer_factory.hpp:77] Creating layer res2a_branch1
I0327 18:01:29.858932 17258 net.cpp:86] Creating Layer res2a_branch1
I0327 18:01:29.858937 17258 net.cpp:408] res2a_branch1 <- pool1_pool1_0_split_0
I0327 18:01:29.858942 17258 net.cpp:382] res2a_branch1 -> res2a_branch1
I0327 18:01:29.860033 17258 net.cpp:124] Setting up res2a_branch1
I0327 18:01:29.860078 17258 net.cpp:131] Top shape: 32 64 56 56 (6422528)
I0327 18:01:29.860082 17258 net.cpp:139] Memory required for data: 533069952
I0327 18:01:29.860087 17258 layer_factory.hpp:77] Creating layer bn2a_branch1
I0327 18:01:29.860095 17258 net.cpp:86] Creating Layer bn2a_branch1
I0327 18:01:29.860100 17258 net.cpp:408] bn2a_branch1 <- res2a_branch1
I0327 18:01:29.860103 17258 net.cpp:369] bn2a_branch1 -> res2a_branch1 (in-place)
I0327 18:01:29.860236 17258 net.cpp:124] Setting up bn2a_branch1
I0327 18:01:29.860242 17258 net.cpp:131] Top shape: 32 64 56 56 (6422528)
I0327 18:01:29.860246 17258 net.cpp:139] Memory required for data: 558760064
I0327 18:01:29.860255 17258 layer_factory.hpp:77] Creating layer scale2a_branch1
I0327 18:01:29.860261 17258 net.cpp:86] Creating Layer scale2a_branch1
I0327 18:01:29.860265 17258 net.cpp:408] scale2a_branch1 <- res2a_branch1
I0327 18:01:29.860270 17258 net.cpp:369] scale2a_branch1 -> res2a_branch1 (in-place)
I0327 18:01:29.861758 17258 layer_factory.hpp:77] Creating layer scale2a_branch1
I0327 18:01:29.861840 17258 net.cpp:124] Setting up scale2a_branch1
I0327 18:01:29.861845 17258 net.cpp:131] Top shape: 32 64 56 56 (6422528)
I0327 18:01:29.861848 17258 net.cpp:139] Memory required for data: 584450176
I0327 18:01:29.861853 17258 layer_factory.hpp:77] Creating layer res2a_branch2a
I0327 18:01:29.861860 17258 net.cpp:86] Creating Layer res2a_branch2a
I0327 18:01:29.861863 17258 net.cpp:408] res2a_branch2a <- pool1_pool1_0_split_1
I0327 18:01:29.861871 17258 net.cpp:382] res2a_branch2a -> res2a_branch2a
I0327 18:01:29.863153 17258 net.cpp:124] Setting up res2a_branch2a
I0327 18:01:29.863163 17258 net.cpp:131] Top shape: 32 64 56 56 (6422528)
I0327 18:01:29.863167 17258 net.cpp:139] Memory required for data: 610140288
I0327 18:01:29.863173 17258 layer_factory.hpp:77] Creating layer bn2a_branch2a
I0327 18:01:29.863178 17258 net.cpp:86] Creating Layer bn2a_branch2a
I0327 18:01:29.863183 17258 net.cpp:408] bn2a_branch2a <- res2a_branch2a
I0327 18:01:29.863188 17258 net.cpp:369] bn2a_branch2a -> res2a_branch2a (in-place)
I0327 18:01:29.863317 17258 net.cpp:124] Setting up bn2a_branch2a
I0327 18:01:29.863323 17258 net.cpp:131] Top shape: 32 64 56 56 (6422528)
I0327 18:01:29.863327 17258 net.cpp:139] Memory required for data: 635830400
I0327 18:01:29.863332 17258 layer_factory.hpp:77] Creating layer scale2a_branch2a
I0327 18:01:29.863338 17258 net.cpp:86] Creating Layer scale2a_branch2a
I0327 18:01:29.863342 17258 net.cpp:408] scale2a_branch2a <- res2a_branch2a
I0327 18:01:29.863346 17258 net.cpp:369] scale2a_branch2a -> res2a_branch2a (in-place)
I0327 18:01:29.863374 17258 layer_factory.hpp:77] Creating layer scale2a_branch2a
I0327 18:01:29.863453 17258 net.cpp:124] Setting up scale2a_branch2a
I0327 18:01:29.863458 17258 net.cpp:131] Top shape: 32 64 56 56 (6422528)
I0327 18:01:29.863461 17258 net.cpp:139] Memory required for data: 661520512
I0327 18:01:29.863469 17258 layer_factory.hpp:77] Creating layer res2a_branch2a_relu
I0327 18:01:29.863476 17258 net.cpp:86] Creating Layer res2a_branch2a_relu
I0327 18:01:29.863479 17258 net.cpp:408] res2a_branch2a_relu <- res2a_branch2a
I0327 18:01:29.863485 17258 net.cpp:369] res2a_branch2a_relu -> res2a_branch2a (in-place)
I0327 18:01:29.863490 17258 net.cpp:124] Setting up res2a_branch2a_relu
I0327 18:01:29.863494 17258 net.cpp:131] Top shape: 32 64 56 56 (6422528)
I0327 18:01:29.863497 17258 net.cpp:139] Memory required for data: 687210624
I0327 18:01:29.863500 17258 layer_factory.hpp:77] Creating layer res2a_branch2b
I0327 18:01:29.863507 17258 net.cpp:86] Creating Layer res2a_branch2b
I0327 18:01:29.863510 17258 net.cpp:408] res2a_branch2b <- res2a_branch2a
I0327 18:01:29.863515 17258 net.cpp:382] res2a_branch2b -> res2a_branch2b
I0327 18:01:29.863905 17258 net.cpp:124] Setting up res2a_branch2b
I0327 18:01:29.863912 17258 net.cpp:131] Top shape: 32 64 56 56 (6422528)
I0327 18:01:29.863915 17258 net.cpp:139] Memory required for data: 712900736
I0327 18:01:29.863919 17258 layer_factory.hpp:77] Creating layer bn2a_branch2b
I0327 18:01:29.863929 17258 net.cpp:86] Creating Layer bn2a_branch2b
I0327 18:01:29.863945 17258 net.cpp:408] bn2a_branch2b <- res2a_branch2b
I0327 18:01:29.863951 17258 net.cpp:369] bn2a_branch2b -> res2a_branch2b (in-place)
I0327 18:01:29.864074 17258 net.cpp:124] Setting up bn2a_branch2b
I0327 18:01:29.864080 17258 net.cpp:131] Top shape: 32 64 56 56 (6422528)
I0327 18:01:29.864084 17258 net.cpp:139] Memory required for data: 738590848
I0327 18:01:29.864090 17258 layer_factory.hpp:77] Creating layer scale2a_branch2b
I0327 18:01:29.864099 17258 net.cpp:86] Creating Layer scale2a_branch2b
I0327 18:01:29.864101 17258 net.cpp:408] scale2a_branch2b <- res2a_branch2b
I0327 18:01:29.864106 17258 net.cpp:369] scale2a_branch2b -> res2a_branch2b (in-place)
I0327 18:01:29.864133 17258 layer_factory.hpp:77] Creating layer scale2a_branch2b
I0327 18:01:29.864210 17258 net.cpp:124] Setting up scale2a_branch2b
I0327 18:01:29.864215 17258 net.cpp:131] Top shape: 32 64 56 56 (6422528)
I0327 18:01:29.864218 17258 net.cpp:139] Memory required for data: 764280960
I0327 18:01:29.864224 17258 layer_factory.hpp:77] Creating layer res2a
I0327 18:01:29.864229 17258 net.cpp:86] Creating Layer res2a
I0327 18:01:29.864233 17258 net.cpp:408] res2a <- res2a_branch1
I0327 18:01:29.864236 17258 net.cpp:408] res2a <- res2a_branch2b
I0327 18:01:29.864241 17258 net.cpp:382] res2a -> res2a
I0327 18:01:29.864262 17258 net.cpp:124] Setting up res2a
I0327 18:01:29.864267 17258 net.cpp:131] Top shape: 32 64 56 56 (6422528)
I0327 18:01:29.864269 17258 net.cpp:139] Memory required for data: 789971072
I0327 18:01:29.864274 17258 layer_factory.hpp:77] Creating layer res2a_relu
I0327 18:01:29.864279 17258 net.cpp:86] Creating Layer res2a_relu
I0327 18:01:29.864281 17258 net.cpp:408] res2a_relu <- res2a
I0327 18:01:29.864286 17258 net.cpp:369] res2a_relu -> res2a (in-place)
I0327 18:01:29.864291 17258 net.cpp:124] Setting up res2a_relu
I0327 18:01:29.864295 17258 net.cpp:131] Top shape: 32 64 56 56 (6422528)
I0327 18:01:29.864297 17258 net.cpp:139] Memory required for data: 815661184
I0327 18:01:29.864300 17258 layer_factory.hpp:77] Creating layer res2a_res2a_relu_0_split
I0327 18:01:29.864305 17258 net.cpp:86] Creating Layer res2a_res2a_relu_0_split
I0327 18:01:29.864308 17258 net.cpp:408] res2a_res2a_relu_0_split <- res2a
I0327 18:01:29.864312 17258 net.cpp:382] res2a_res2a_relu_0_split -> res2a_res2a_relu_0_split_0
I0327 18:01:29.864318 17258 net.cpp:382] res2a_res2a_relu_0_split -> res2a_res2a_relu_0_split_1
I0327 18:01:29.864341 17258 net.cpp:124] Setting up res2a_res2a_relu_0_split
I0327 18:01:29.864346 17258 net.cpp:131] Top shape: 32 64 56 56 (6422528)
I0327 18:01:29.864351 17258 net.cpp:131] Top shape: 32 64 56 56 (6422528)
I0327 18:01:29.864352 17258 net.cpp:139] Memory required for data: 867041408
I0327 18:01:29.864356 17258 layer_factory.hpp:77] Creating layer res2b_branch2a
I0327 18:01:29.864363 17258 net.cpp:86] Creating Layer res2b_branch2a
I0327 18:01:29.864367 17258 net.cpp:408] res2b_branch2a <- res2a_res2a_relu_0_split_0
I0327 18:01:29.864372 17258 net.cpp:382] res2b_branch2a -> res2b_branch2a
I0327 18:01:29.864755 17258 net.cpp:124] Setting up res2b_branch2a
I0327 18:01:29.864761 17258 net.cpp:131] Top shape: 32 64 56 56 (6422528)
I0327 18:01:29.864764 17258 net.cpp:139] Memory required for data: 892731520
I0327 18:01:29.864768 17258 layer_factory.hpp:77] Creating layer bn2b_branch2a
I0327 18:01:29.864774 17258 net.cpp:86] Creating Layer bn2b_branch2a
I0327 18:01:29.864778 17258 net.cpp:408] bn2b_branch2a <- res2b_branch2a
I0327 18:01:29.864783 17258 net.cpp:369] bn2b_branch2a -> res2b_branch2a (in-place)
I0327 18:01:29.864905 17258 net.cpp:124] Setting up bn2b_branch2a
I0327 18:01:29.864912 17258 net.cpp:131] Top shape: 32 64 56 56 (6422528)
I0327 18:01:29.864914 17258 net.cpp:139] Memory required for data: 918421632
I0327 18:01:29.864920 17258 layer_factory.hpp:77] Creating layer scale2b_branch2a
I0327 18:01:29.864925 17258 net.cpp:86] Creating Layer scale2b_branch2a
I0327 18:01:29.864929 17258 net.cpp:408] scale2b_branch2a <- res2b_branch2a
I0327 18:01:29.864938 17258 net.cpp:369] scale2b_branch2a -> res2b_branch2a (in-place)
I0327 18:01:29.864972 17258 layer_factory.hpp:77] Creating layer scale2b_branch2a
I0327 18:01:29.865053 17258 net.cpp:124] Setting up scale2b_branch2a
I0327 18:01:29.865059 17258 net.cpp:131] Top shape: 32 64 56 56 (6422528)
I0327 18:01:29.865062 17258 net.cpp:139] Memory required for data: 944111744
I0327 18:01:29.865067 17258 layer_factory.hpp:77] Creating layer res2b_branch2a_relu
I0327 18:01:29.865073 17258 net.cpp:86] Creating Layer res2b_branch2a_relu
I0327 18:01:29.865077 17258 net.cpp:408] res2b_branch2a_relu <- res2b_branch2a
I0327 18:01:29.865082 17258 net.cpp:369] res2b_branch2a_relu -> res2b_branch2a (in-place)
I0327 18:01:29.865085 17258 net.cpp:124] Setting up res2b_branch2a_relu
I0327 18:01:29.865089 17258 net.cpp:131] Top shape: 32 64 56 56 (6422528)
I0327 18:01:29.865092 17258 net.cpp:139] Memory required for data: 969801856
I0327 18:01:29.865095 17258 layer_factory.hpp:77] Creating layer res2b_branch2b
I0327 18:01:29.865101 17258 net.cpp:86] Creating Layer res2b_branch2b
I0327 18:01:29.865104 17258 net.cpp:408] res2b_branch2b <- res2b_branch2a
I0327 18:01:29.865109 17258 net.cpp:382] res2b_branch2b -> res2b_branch2b
I0327 18:01:29.865495 17258 net.cpp:124] Setting up res2b_branch2b
I0327 18:01:29.865502 17258 net.cpp:131] Top shape: 32 64 56 56 (6422528)
I0327 18:01:29.865504 17258 net.cpp:139] Memory required for data: 995491968
I0327 18:01:29.865509 17258 layer_factory.hpp:77] Creating layer bn2b_branch2b
I0327 18:01:29.865514 17258 net.cpp:86] Creating Layer bn2b_branch2b
I0327 18:01:29.865517 17258 net.cpp:408] bn2b_branch2b <- res2b_branch2b
I0327 18:01:29.865522 17258 net.cpp:369] bn2b_branch2b -> res2b_branch2b (in-place)
I0327 18:01:29.865650 17258 net.cpp:124] Setting up bn2b_branch2b
I0327 18:01:29.865656 17258 net.cpp:131] Top shape: 32 64 56 56 (6422528)
I0327 18:01:29.865659 17258 net.cpp:139] Memory required for data: 1021182080
I0327 18:01:29.865669 17258 layer_factory.hpp:77] Creating layer scale2b_branch2b
I0327 18:01:29.865674 17258 net.cpp:86] Creating Layer scale2b_branch2b
I0327 18:01:29.865677 17258 net.cpp:408] scale2b_branch2b <- res2b_branch2b
I0327 18:01:29.865684 17258 net.cpp:369] scale2b_branch2b -> res2b_branch2b (in-place)
I0327 18:01:29.865711 17258 layer_factory.hpp:77] Creating layer scale2b_branch2b
I0327 18:01:29.865790 17258 net.cpp:124] Setting up scale2b_branch2b
I0327 18:01:29.865797 17258 net.cpp:131] Top shape: 32 64 56 56 (6422528)
I0327 18:01:29.865798 17258 net.cpp:139] Memory required for data: 1046872192
I0327 18:01:29.865803 17258 layer_factory.hpp:77] Creating layer res2b
I0327 18:01:29.865809 17258 net.cpp:86] Creating Layer res2b
I0327 18:01:29.865813 17258 net.cpp:408] res2b <- res2a_res2a_relu_0_split_1
I0327 18:01:29.865815 17258 net.cpp:408] res2b <- res2b_branch2b
I0327 18:01:29.865820 17258 net.cpp:382] res2b -> res2b
I0327 18:01:29.865839 17258 net.cpp:124] Setting up res2b
I0327 18:01:29.865842 17258 net.cpp:131] Top shape: 32 64 56 56 (6422528)
I0327 18:01:29.865845 17258 net.cpp:139] Memory required for data: 1072562304
I0327 18:01:29.865849 17258 layer_factory.hpp:77] Creating layer res2b_relu
I0327 18:01:29.865854 17258 net.cpp:86] Creating Layer res2b_relu
I0327 18:01:29.865857 17258 net.cpp:408] res2b_relu <- res2b
I0327 18:01:29.865862 17258 net.cpp:369] res2b_relu -> res2b (in-place)
I0327 18:01:29.865866 17258 net.cpp:124] Setting up res2b_relu
I0327 18:01:29.865870 17258 net.cpp:131] Top shape: 32 64 56 56 (6422528)
I0327 18:01:29.865873 17258 net.cpp:139] Memory required for data: 1098252416
I0327 18:01:29.865876 17258 layer_factory.hpp:77] Creating layer res2b_res2b_relu_0_split
I0327 18:01:29.865880 17258 net.cpp:86] Creating Layer res2b_res2b_relu_0_split
I0327 18:01:29.865883 17258 net.cpp:408] res2b_res2b_relu_0_split <- res2b
I0327 18:01:29.865888 17258 net.cpp:382] res2b_res2b_relu_0_split -> res2b_res2b_relu_0_split_0
I0327 18:01:29.865895 17258 net.cpp:382] res2b_res2b_relu_0_split -> res2b_res2b_relu_0_split_1
I0327 18:01:29.865923 17258 net.cpp:124] Setting up res2b_res2b_relu_0_split
I0327 18:01:29.865936 17258 net.cpp:131] Top shape: 32 64 56 56 (6422528)
I0327 18:01:29.865941 17258 net.cpp:131] Top shape: 32 64 56 56 (6422528)
I0327 18:01:29.865943 17258 net.cpp:139] Memory required for data: 1149632640
I0327 18:01:29.865947 17258 layer_factory.hpp:77] Creating layer res2c_branch2a
I0327 18:01:29.865954 17258 net.cpp:86] Creating Layer res2c_branch2a
I0327 18:01:29.865958 17258 net.cpp:408] res2c_branch2a <- res2b_res2b_relu_0_split_0
I0327 18:01:29.865963 17258 net.cpp:382] res2c_branch2a -> res2c_branch2a
I0327 18:01:29.866349 17258 net.cpp:124] Setting up res2c_branch2a
I0327 18:01:29.866356 17258 net.cpp:131] Top shape: 32 64 56 56 (6422528)
I0327 18:01:29.866359 17258 net.cpp:139] Memory required for data: 1175322752
I0327 18:01:29.866364 17258 layer_factory.hpp:77] Creating layer bn2c_branch2a
I0327 18:01:29.866370 17258 net.cpp:86] Creating Layer bn2c_branch2a
I0327 18:01:29.866374 17258 net.cpp:408] bn2c_branch2a <- res2c_branch2a
I0327 18:01:29.866379 17258 net.cpp:369] bn2c_branch2a -> res2c_branch2a (in-place)
I0327 18:01:29.866505 17258 net.cpp:124] Setting up bn2c_branch2a
I0327 18:01:29.866511 17258 net.cpp:131] Top shape: 32 64 56 56 (6422528)
I0327 18:01:29.866515 17258 net.cpp:139] Memory required for data: 1201012864
I0327 18:01:29.866520 17258 layer_factory.hpp:77] Creating layer scale2c_branch2a
I0327 18:01:29.866529 17258 net.cpp:86] Creating Layer scale2c_branch2a
I0327 18:01:29.866533 17258 net.cpp:408] scale2c_branch2a <- res2c_branch2a
I0327 18:01:29.866538 17258 net.cpp:369] scale2c_branch2a -> res2c_branch2a (in-place)
I0327 18:01:29.866565 17258 layer_factory.hpp:77] Creating layer scale2c_branch2a
I0327 18:01:29.866643 17258 net.cpp:124] Setting up scale2c_branch2a
I0327 18:01:29.866648 17258 net.cpp:131] Top shape: 32 64 56 56 (6422528)
I0327 18:01:29.866652 17258 net.cpp:139] Memory required for data: 1226702976
I0327 18:01:29.866657 17258 layer_factory.hpp:77] Creating layer res2c_branch2a_relu
I0327 18:01:29.866662 17258 net.cpp:86] Creating Layer res2c_branch2a_relu
I0327 18:01:29.866664 17258 net.cpp:408] res2c_branch2a_relu <- res2c_branch2a
I0327 18:01:29.866670 17258 net.cpp:369] res2c_branch2a_relu -> res2c_branch2a (in-place)
I0327 18:01:29.866674 17258 net.cpp:124] Setting up res2c_branch2a_relu
I0327 18:01:29.866678 17258 net.cpp:131] Top shape: 32 64 56 56 (6422528)
I0327 18:01:29.866681 17258 net.cpp:139] Memory required for data: 1252393088
I0327 18:01:29.866684 17258 layer_factory.hpp:77] Creating layer res2c_branch2b
I0327 18:01:29.866690 17258 net.cpp:86] Creating Layer res2c_branch2b
I0327 18:01:29.866693 17258 net.cpp:408] res2c_branch2b <- res2c_branch2a
I0327 18:01:29.866698 17258 net.cpp:382] res2c_branch2b -> res2c_branch2b
I0327 18:01:29.867084 17258 net.cpp:124] Setting up res2c_branch2b
I0327 18:01:29.867090 17258 net.cpp:131] Top shape: 32 64 56 56 (6422528)
I0327 18:01:29.867092 17258 net.cpp:139] Memory required for data: 1278083200
I0327 18:01:29.867096 17258 layer_factory.hpp:77] Creating layer bn2c_branch2b
I0327 18:01:29.867103 17258 net.cpp:86] Creating Layer bn2c_branch2b
I0327 18:01:29.867106 17258 net.cpp:408] bn2c_branch2b <- res2c_branch2b
I0327 18:01:29.867111 17258 net.cpp:369] bn2c_branch2b -> res2c_branch2b (in-place)
I0327 18:01:29.867244 17258 net.cpp:124] Setting up bn2c_branch2b
I0327 18:01:29.867251 17258 net.cpp:131] Top shape: 32 64 56 56 (6422528)
I0327 18:01:29.867254 17258 net.cpp:139] Memory required for data: 1303773312
I0327 18:01:29.867259 17258 layer_factory.hpp:77] Creating layer scale2c_branch2b
I0327 18:01:29.867265 17258 net.cpp:86] Creating Layer scale2c_branch2b
I0327 18:01:29.867269 17258 net.cpp:408] scale2c_branch2b <- res2c_branch2b
I0327 18:01:29.867274 17258 net.cpp:369] scale2c_branch2b -> res2c_branch2b (in-place)
I0327 18:01:29.867300 17258 layer_factory.hpp:77] Creating layer scale2c_branch2b
I0327 18:01:29.867383 17258 net.cpp:124] Setting up scale2c_branch2b
I0327 18:01:29.867388 17258 net.cpp:131] Top shape: 32 64 56 56 (6422528)
I0327 18:01:29.867394 17258 net.cpp:139] Memory required for data: 1329463424
I0327 18:01:29.867408 17258 layer_factory.hpp:77] Creating layer res2c
I0327 18:01:29.867413 17258 net.cpp:86] Creating Layer res2c
I0327 18:01:29.867417 17258 net.cpp:408] res2c <- res2b_res2b_relu_0_split_1
I0327 18:01:29.867421 17258 net.cpp:408] res2c <- res2c_branch2b
I0327 18:01:29.867426 17258 net.cpp:382] res2c -> res2c
I0327 18:01:29.867445 17258 net.cpp:124] Setting up res2c
I0327 18:01:29.867450 17258 net.cpp:131] Top shape: 32 64 56 56 (6422528)
I0327 18:01:29.867453 17258 net.cpp:139] Memory required for data: 1355153536
I0327 18:01:29.867456 17258 layer_factory.hpp:77] Creating layer res2c_relu
I0327 18:01:29.867461 17258 net.cpp:86] Creating Layer res2c_relu
I0327 18:01:29.867465 17258 net.cpp:408] res2c_relu <- res2c
I0327 18:01:29.867470 17258 net.cpp:369] res2c_relu -> res2c (in-place)
I0327 18:01:29.867475 17258 net.cpp:124] Setting up res2c_relu
I0327 18:01:29.867478 17258 net.cpp:131] Top shape: 32 64 56 56 (6422528)
I0327 18:01:29.867481 17258 net.cpp:139] Memory required for data: 1380843648
I0327 18:01:29.867485 17258 layer_factory.hpp:77] Creating layer res2c_res2c_relu_0_split
I0327 18:01:29.867489 17258 net.cpp:86] Creating Layer res2c_res2c_relu_0_split
I0327 18:01:29.867492 17258 net.cpp:408] res2c_res2c_relu_0_split <- res2c
I0327 18:01:29.867496 17258 net.cpp:382] res2c_res2c_relu_0_split -> res2c_res2c_relu_0_split_0
I0327 18:01:29.867502 17258 net.cpp:382] res2c_res2c_relu_0_split -> res2c_res2c_relu_0_split_1
I0327 18:01:29.867525 17258 net.cpp:124] Setting up res2c_res2c_relu_0_split
I0327 18:01:29.867530 17258 net.cpp:131] Top shape: 32 64 56 56 (6422528)
I0327 18:01:29.867534 17258 net.cpp:131] Top shape: 32 64 56 56 (6422528)
I0327 18:01:29.867537 17258 net.cpp:139] Memory required for data: 1432223872
I0327 18:01:29.867539 17258 layer_factory.hpp:77] Creating layer res3a_branch1
I0327 18:01:29.867547 17258 net.cpp:86] Creating Layer res3a_branch1
I0327 18:01:29.867550 17258 net.cpp:408] res3a_branch1 <- res2c_res2c_relu_0_split_0
I0327 18:01:29.867555 17258 net.cpp:382] res3a_branch1 -> res3a_branch1
I0327 18:01:29.867738 17258 net.cpp:124] Setting up res3a_branch1
I0327 18:01:29.867743 17258 net.cpp:131] Top shape: 32 128 28 28 (3211264)
I0327 18:01:29.867746 17258 net.cpp:139] Memory required for data: 1445068928
I0327 18:01:29.867750 17258 layer_factory.hpp:77] Creating layer bn3a_branch1
I0327 18:01:29.867755 17258 net.cpp:86] Creating Layer bn3a_branch1
I0327 18:01:29.867758 17258 net.cpp:408] bn3a_branch1 <- res3a_branch1
I0327 18:01:29.867764 17258 net.cpp:369] bn3a_branch1 -> res3a_branch1 (in-place)
I0327 18:01:29.868767 17258 net.cpp:124] Setting up bn3a_branch1
I0327 18:01:29.868777 17258 net.cpp:131] Top shape: 32 128 28 28 (3211264)
I0327 18:01:29.868780 17258 net.cpp:139] Memory required for data: 1457913984
I0327 18:01:29.868788 17258 layer_factory.hpp:77] Creating layer scale3a_branch1
I0327 18:01:29.868794 17258 net.cpp:86] Creating Layer scale3a_branch1
I0327 18:01:29.868798 17258 net.cpp:408] scale3a_branch1 <- res3a_branch1
I0327 18:01:29.868803 17258 net.cpp:369] scale3a_branch1 -> res3a_branch1 (in-place)
I0327 18:01:29.868834 17258 layer_factory.hpp:77] Creating layer scale3a_branch1
I0327 18:01:29.868911 17258 net.cpp:124] Setting up scale3a_branch1
I0327 18:01:29.868917 17258 net.cpp:131] Top shape: 32 128 28 28 (3211264)
I0327 18:01:29.868919 17258 net.cpp:139] Memory required for data: 1470759040
I0327 18:01:29.868926 17258 layer_factory.hpp:77] Creating layer res3a_branch2a
I0327 18:01:29.868932 17258 net.cpp:86] Creating Layer res3a_branch2a
I0327 18:01:29.868937 17258 net.cpp:408] res3a_branch2a <- res2c_res2c_relu_0_split_1
I0327 18:01:29.868942 17258 net.cpp:382] res3a_branch2a -> res3a_branch2a
I0327 18:01:29.869635 17258 net.cpp:124] Setting up res3a_branch2a
I0327 18:01:29.869642 17258 net.cpp:131] Top shape: 32 128 28 28 (3211264)
I0327 18:01:29.869644 17258 net.cpp:139] Memory required for data: 1483604096
I0327 18:01:29.869648 17258 layer_factory.hpp:77] Creating layer bn3a_branch2a
I0327 18:01:29.869658 17258 net.cpp:86] Creating Layer bn3a_branch2a
I0327 18:01:29.869668 17258 net.cpp:408] bn3a_branch2a <- res3a_branch2a
I0327 18:01:29.869674 17258 net.cpp:369] bn3a_branch2a -> res3a_branch2a (in-place)
I0327 18:01:29.869797 17258 net.cpp:124] Setting up bn3a_branch2a
I0327 18:01:29.869804 17258 net.cpp:131] Top shape: 32 128 28 28 (3211264)
I0327 18:01:29.869807 17258 net.cpp:139] Memory required for data: 1496449152
I0327 18:01:29.869813 17258 layer_factory.hpp:77] Creating layer scale3a_branch2a
I0327 18:01:29.869818 17258 net.cpp:86] Creating Layer scale3a_branch2a
I0327 18:01:29.869822 17258 net.cpp:408] scale3a_branch2a <- res3a_branch2a
I0327 18:01:29.869827 17258 net.cpp:369] scale3a_branch2a -> res3a_branch2a (in-place)
I0327 18:01:29.869853 17258 layer_factory.hpp:77] Creating layer scale3a_branch2a
I0327 18:01:29.869928 17258 net.cpp:124] Setting up scale3a_branch2a
I0327 18:01:29.869935 17258 net.cpp:131] Top shape: 32 128 28 28 (3211264)
I0327 18:01:29.869936 17258 net.cpp:139] Memory required for data: 1509294208
I0327 18:01:29.869941 17258 layer_factory.hpp:77] Creating layer res3a_branch2a_relu
I0327 18:01:29.869946 17258 net.cpp:86] Creating Layer res3a_branch2a_relu
I0327 18:01:29.869951 17258 net.cpp:408] res3a_branch2a_relu <- res3a_branch2a
I0327 18:01:29.869954 17258 net.cpp:369] res3a_branch2a_relu -> res3a_branch2a (in-place)
I0327 18:01:29.869959 17258 net.cpp:124] Setting up res3a_branch2a_relu
I0327 18:01:29.869963 17258 net.cpp:131] Top shape: 32 128 28 28 (3211264)
I0327 18:01:29.869966 17258 net.cpp:139] Memory required for data: 1522139264
I0327 18:01:29.869969 17258 layer_factory.hpp:77] Creating layer res3a_branch2b
I0327 18:01:29.869976 17258 net.cpp:86] Creating Layer res3a_branch2b
I0327 18:01:29.869978 17258 net.cpp:408] res3a_branch2b <- res3a_branch2a
I0327 18:01:29.869983 17258 net.cpp:382] res3a_branch2b -> res3a_branch2b
I0327 18:01:29.871238 17258 net.cpp:124] Setting up res3a_branch2b
I0327 18:01:29.871245 17258 net.cpp:131] Top shape: 32 128 28 28 (3211264)
I0327 18:01:29.871248 17258 net.cpp:139] Memory required for data: 1534984320
I0327 18:01:29.871253 17258 layer_factory.hpp:77] Creating layer bn3a_branch2b
I0327 18:01:29.871258 17258 net.cpp:86] Creating Layer bn3a_branch2b
I0327 18:01:29.871261 17258 net.cpp:408] bn3a_branch2b <- res3a_branch2b
I0327 18:01:29.871266 17258 net.cpp:369] bn3a_branch2b -> res3a_branch2b (in-place)
I0327 18:01:29.871390 17258 net.cpp:124] Setting up bn3a_branch2b
I0327 18:01:29.871395 17258 net.cpp:131] Top shape: 32 128 28 28 (3211264)
I0327 18:01:29.871398 17258 net.cpp:139] Memory required for data: 1547829376
I0327 18:01:29.871404 17258 layer_factory.hpp:77] Creating layer scale3a_branch2b
I0327 18:01:29.871410 17258 net.cpp:86] Creating Layer scale3a_branch2b
I0327 18:01:29.871413 17258 net.cpp:408] scale3a_branch2b <- res3a_branch2b
I0327 18:01:29.871418 17258 net.cpp:369] scale3a_branch2b -> res3a_branch2b (in-place)
I0327 18:01:29.871444 17258 layer_factory.hpp:77] Creating layer scale3a_branch2b
I0327 18:01:29.871520 17258 net.cpp:124] Setting up scale3a_branch2b
I0327 18:01:29.871526 17258 net.cpp:131] Top shape: 32 128 28 28 (3211264)
I0327 18:01:29.871527 17258 net.cpp:139] Memory required for data: 1560674432
I0327 18:01:29.871539 17258 layer_factory.hpp:77] Creating layer res3a
I0327 18:01:29.871546 17258 net.cpp:86] Creating Layer res3a
I0327 18:01:29.871549 17258 net.cpp:408] res3a <- res3a_branch1
I0327 18:01:29.871552 17258 net.cpp:408] res3a <- res3a_branch2b
I0327 18:01:29.871557 17258 net.cpp:382] res3a -> res3a
I0327 18:01:29.871575 17258 net.cpp:124] Setting up res3a
I0327 18:01:29.871580 17258 net.cpp:131] Top shape: 32 128 28 28 (3211264)
I0327 18:01:29.871583 17258 net.cpp:139] Memory required for data: 1573519488
I0327 18:01:29.871587 17258 layer_factory.hpp:77] Creating layer res3a_relu
I0327 18:01:29.871592 17258 net.cpp:86] Creating Layer res3a_relu
I0327 18:01:29.871594 17258 net.cpp:408] res3a_relu <- res3a
I0327 18:01:29.871598 17258 net.cpp:369] res3a_relu -> res3a (in-place)
I0327 18:01:29.871606 17258 net.cpp:124] Setting up res3a_relu
I0327 18:01:29.871619 17258 net.cpp:131] Top shape: 32 128 28 28 (3211264)
I0327 18:01:29.871623 17258 net.cpp:139] Memory required for data: 1586364544
I0327 18:01:29.871625 17258 layer_factory.hpp:77] Creating layer res3a_res3a_relu_0_split
I0327 18:01:29.871630 17258 net.cpp:86] Creating Layer res3a_res3a_relu_0_split
I0327 18:01:29.871634 17258 net.cpp:408] res3a_res3a_relu_0_split <- res3a
I0327 18:01:29.871639 17258 net.cpp:382] res3a_res3a_relu_0_split -> res3a_res3a_relu_0_split_0
I0327 18:01:29.871644 17258 net.cpp:382] res3a_res3a_relu_0_split -> res3a_res3a_relu_0_split_1
I0327 18:01:29.871670 17258 net.cpp:124] Setting up res3a_res3a_relu_0_split
I0327 18:01:29.871676 17258 net.cpp:131] Top shape: 32 128 28 28 (3211264)
I0327 18:01:29.871680 17258 net.cpp:131] Top shape: 32 128 28 28 (3211264)
I0327 18:01:29.871682 17258 net.cpp:139] Memory required for data: 1612054656
I0327 18:01:29.871685 17258 layer_factory.hpp:77] Creating layer res3b_branch2a
I0327 18:01:29.871692 17258 net.cpp:86] Creating Layer res3b_branch2a
I0327 18:01:29.871695 17258 net.cpp:408] res3b_branch2a <- res3a_res3a_relu_0_split_0
I0327 18:01:29.871701 17258 net.cpp:382] res3b_branch2a -> res3b_branch2a
I0327 18:01:29.873764 17258 net.cpp:124] Setting up res3b_branch2a
I0327 18:01:29.873775 17258 net.cpp:131] Top shape: 32 128 28 28 (3211264)
I0327 18:01:29.873776 17258 net.cpp:139] Memory required for data: 1624899712
I0327 18:01:29.873781 17258 layer_factory.hpp:77] Creating layer bn3b_branch2a
I0327 18:01:29.873787 17258 net.cpp:86] Creating Layer bn3b_branch2a
I0327 18:01:29.873791 17258 net.cpp:408] bn3b_branch2a <- res3b_branch2a
I0327 18:01:29.873796 17258 net.cpp:369] bn3b_branch2a -> res3b_branch2a (in-place)
I0327 18:01:29.873929 17258 net.cpp:124] Setting up bn3b_branch2a
I0327 18:01:29.873934 17258 net.cpp:131] Top shape: 32 128 28 28 (3211264)
I0327 18:01:29.873939 17258 net.cpp:139] Memory required for data: 1637744768
I0327 18:01:29.873944 17258 layer_factory.hpp:77] Creating layer scale3b_branch2a
I0327 18:01:29.873950 17258 net.cpp:86] Creating Layer scale3b_branch2a
I0327 18:01:29.873952 17258 net.cpp:408] scale3b_branch2a <- res3b_branch2a
I0327 18:01:29.873957 17258 net.cpp:369] scale3b_branch2a -> res3b_branch2a (in-place)
I0327 18:01:29.873984 17258 layer_factory.hpp:77] Creating layer scale3b_branch2a
I0327 18:01:29.874058 17258 net.cpp:124] Setting up scale3b_branch2a
I0327 18:01:29.874063 17258 net.cpp:131] Top shape: 32 128 28 28 (3211264)
I0327 18:01:29.874066 17258 net.cpp:139] Memory required for data: 1650589824
I0327 18:01:29.874070 17258 layer_factory.hpp:77] Creating layer res3b_branch2a_relu
I0327 18:01:29.874076 17258 net.cpp:86] Creating Layer res3b_branch2a_relu
I0327 18:01:29.874079 17258 net.cpp:408] res3b_branch2a_relu <- res3b_branch2a
I0327 18:01:29.874084 17258 net.cpp:369] res3b_branch2a_relu -> res3b_branch2a (in-place)
I0327 18:01:29.874089 17258 net.cpp:124] Setting up res3b_branch2a_relu
I0327 18:01:29.874092 17258 net.cpp:131] Top shape: 32 128 28 28 (3211264)
I0327 18:01:29.874095 17258 net.cpp:139] Memory required for data: 1663434880
I0327 18:01:29.874099 17258 layer_factory.hpp:77] Creating layer res3b_branch2b
I0327 18:01:29.874104 17258 net.cpp:86] Creating Layer res3b_branch2b
I0327 18:01:29.874107 17258 net.cpp:408] res3b_branch2b <- res3b_branch2a
I0327 18:01:29.874112 17258 net.cpp:382] res3b_branch2b -> res3b_branch2b
I0327 18:01:29.875313 17258 net.cpp:124] Setting up res3b_branch2b
I0327 18:01:29.875319 17258 net.cpp:131] Top shape: 32 128 28 28 (3211264)
I0327 18:01:29.875322 17258 net.cpp:139] Memory required for data: 1676279936
I0327 18:01:29.875326 17258 layer_factory.hpp:77] Creating layer bn3b_branch2b
I0327 18:01:29.875331 17258 net.cpp:86] Creating Layer bn3b_branch2b
I0327 18:01:29.875334 17258 net.cpp:408] bn3b_branch2b <- res3b_branch2b
I0327 18:01:29.875339 17258 net.cpp:369] bn3b_branch2b -> res3b_branch2b (in-place)
I0327 18:01:29.875460 17258 net.cpp:124] Setting up bn3b_branch2b
I0327 18:01:29.875470 17258 net.cpp:131] Top shape: 32 128 28 28 (3211264)
I0327 18:01:29.875484 17258 net.cpp:139] Memory required for data: 1689124992
I0327 18:01:29.875490 17258 layer_factory.hpp:77] Creating layer scale3b_branch2b
I0327 18:01:29.875496 17258 net.cpp:86] Creating Layer scale3b_branch2b
I0327 18:01:29.875500 17258 net.cpp:408] scale3b_branch2b <- res3b_branch2b
I0327 18:01:29.875504 17258 net.cpp:369] scale3b_branch2b -> res3b_branch2b (in-place)
I0327 18:01:29.875533 17258 layer_factory.hpp:77] Creating layer scale3b_branch2b
I0327 18:01:29.875607 17258 net.cpp:124] Setting up scale3b_branch2b
I0327 18:01:29.875612 17258 net.cpp:131] Top shape: 32 128 28 28 (3211264)
I0327 18:01:29.875614 17258 net.cpp:139] Memory required for data: 1701970048
I0327 18:01:29.875619 17258 layer_factory.hpp:77] Creating layer res3b
I0327 18:01:29.875624 17258 net.cpp:86] Creating Layer res3b
I0327 18:01:29.875628 17258 net.cpp:408] res3b <- res3a_res3a_relu_0_split_1
I0327 18:01:29.875633 17258 net.cpp:408] res3b <- res3b_branch2b
I0327 18:01:29.875638 17258 net.cpp:382] res3b -> res3b
I0327 18:01:29.875654 17258 net.cpp:124] Setting up res3b
I0327 18:01:29.875660 17258 net.cpp:131] Top shape: 32 128 28 28 (3211264)
I0327 18:01:29.875663 17258 net.cpp:139] Memory required for data: 1714815104
I0327 18:01:29.875665 17258 layer_factory.hpp:77] Creating layer res3b_relu
I0327 18:01:29.875670 17258 net.cpp:86] Creating Layer res3b_relu
I0327 18:01:29.875674 17258 net.cpp:408] res3b_relu <- res3b
I0327 18:01:29.875679 17258 net.cpp:369] res3b_relu -> res3b (in-place)
I0327 18:01:29.875682 17258 net.cpp:124] Setting up res3b_relu
I0327 18:01:29.875686 17258 net.cpp:131] Top shape: 32 128 28 28 (3211264)
I0327 18:01:29.875689 17258 net.cpp:139] Memory required for data: 1727660160
I0327 18:01:29.875691 17258 layer_factory.hpp:77] Creating layer res3b_res3b_relu_0_split
I0327 18:01:29.875696 17258 net.cpp:86] Creating Layer res3b_res3b_relu_0_split
I0327 18:01:29.875699 17258 net.cpp:408] res3b_res3b_relu_0_split <- res3b
I0327 18:01:29.875705 17258 net.cpp:382] res3b_res3b_relu_0_split -> res3b_res3b_relu_0_split_0
I0327 18:01:29.875710 17258 net.cpp:382] res3b_res3b_relu_0_split -> res3b_res3b_relu_0_split_1
I0327 18:01:29.875737 17258 net.cpp:124] Setting up res3b_res3b_relu_0_split
I0327 18:01:29.875742 17258 net.cpp:131] Top shape: 32 128 28 28 (3211264)
I0327 18:01:29.875746 17258 net.cpp:131] Top shape: 32 128 28 28 (3211264)
I0327 18:01:29.875749 17258 net.cpp:139] Memory required for data: 1753350272
I0327 18:01:29.875751 17258 layer_factory.hpp:77] Creating layer res3c_branch2a
I0327 18:01:29.875759 17258 net.cpp:86] Creating Layer res3c_branch2a
I0327 18:01:29.875763 17258 net.cpp:408] res3c_branch2a <- res3b_res3b_relu_0_split_0
I0327 18:01:29.875768 17258 net.cpp:382] res3c_branch2a -> res3c_branch2a
I0327 18:01:29.876953 17258 net.cpp:124] Setting up res3c_branch2a
I0327 18:01:29.876960 17258 net.cpp:131] Top shape: 32 128 28 28 (3211264)
I0327 18:01:29.876963 17258 net.cpp:139] Memory required for data: 1766195328
I0327 18:01:29.876966 17258 layer_factory.hpp:77] Creating layer bn3c_branch2a
I0327 18:01:29.876979 17258 net.cpp:86] Creating Layer bn3c_branch2a
I0327 18:01:29.876982 17258 net.cpp:408] bn3c_branch2a <- res3c_branch2a
I0327 18:01:29.876987 17258 net.cpp:369] bn3c_branch2a -> res3c_branch2a (in-place)
I0327 18:01:29.877112 17258 net.cpp:124] Setting up bn3c_branch2a
I0327 18:01:29.877118 17258 net.cpp:131] Top shape: 32 128 28 28 (3211264)
I0327 18:01:29.877121 17258 net.cpp:139] Memory required for data: 1779040384
I0327 18:01:29.877127 17258 layer_factory.hpp:77] Creating layer scale3c_branch2a
I0327 18:01:29.877133 17258 net.cpp:86] Creating Layer scale3c_branch2a
I0327 18:01:29.877136 17258 net.cpp:408] scale3c_branch2a <- res3c_branch2a
I0327 18:01:29.877140 17258 net.cpp:369] scale3c_branch2a -> res3c_branch2a (in-place)
I0327 18:01:29.877168 17258 layer_factory.hpp:77] Creating layer scale3c_branch2a
I0327 18:01:29.877243 17258 net.cpp:124] Setting up scale3c_branch2a
I0327 18:01:29.877248 17258 net.cpp:131] Top shape: 32 128 28 28 (3211264)
I0327 18:01:29.877261 17258 net.cpp:139] Memory required for data: 1791885440
I0327 18:01:29.877267 17258 layer_factory.hpp:77] Creating layer res3c_branch2a_relu
I0327 18:01:29.877272 17258 net.cpp:86] Creating Layer res3c_branch2a_relu
I0327 18:01:29.877275 17258 net.cpp:408] res3c_branch2a_relu <- res3c_branch2a
I0327 18:01:29.877279 17258 net.cpp:369] res3c_branch2a_relu -> res3c_branch2a (in-place)
I0327 18:01:29.877285 17258 net.cpp:124] Setting up res3c_branch2a_relu
I0327 18:01:29.877290 17258 net.cpp:131] Top shape: 32 128 28 28 (3211264)
I0327 18:01:29.877291 17258 net.cpp:139] Memory required for data: 1804730496
I0327 18:01:29.877295 17258 layer_factory.hpp:77] Creating layer res3c_branch2b
I0327 18:01:29.877301 17258 net.cpp:86] Creating Layer res3c_branch2b
I0327 18:01:29.877305 17258 net.cpp:408] res3c_branch2b <- res3c_branch2a
I0327 18:01:29.877308 17258 net.cpp:382] res3c_branch2b -> res3c_branch2b
I0327 18:01:29.879381 17258 net.cpp:124] Setting up res3c_branch2b
I0327 18:01:29.879395 17258 net.cpp:131] Top shape: 32 128 28 28 (3211264)
I0327 18:01:29.879397 17258 net.cpp:139] Memory required for data: 1817575552
I0327 18:01:29.879402 17258 layer_factory.hpp:77] Creating layer bn3c_branch2b
I0327 18:01:29.879410 17258 net.cpp:86] Creating Layer bn3c_branch2b
I0327 18:01:29.879413 17258 net.cpp:408] bn3c_branch2b <- res3c_branch2b
I0327 18:01:29.879418 17258 net.cpp:369] bn3c_branch2b -> res3c_branch2b (in-place)
I0327 18:01:29.879551 17258 net.cpp:124] Setting up bn3c_branch2b
I0327 18:01:29.879557 17258 net.cpp:131] Top shape: 32 128 28 28 (3211264)
I0327 18:01:29.879560 17258 net.cpp:139] Memory required for data: 1830420608
I0327 18:01:29.879566 17258 layer_factory.hpp:77] Creating layer scale3c_branch2b
I0327 18:01:29.879572 17258 net.cpp:86] Creating Layer scale3c_branch2b
I0327 18:01:29.879575 17258 net.cpp:408] scale3c_branch2b <- res3c_branch2b
I0327 18:01:29.879580 17258 net.cpp:369] scale3c_branch2b -> res3c_branch2b (in-place)
I0327 18:01:29.879611 17258 layer_factory.hpp:77] Creating layer scale3c_branch2b
I0327 18:01:29.879689 17258 net.cpp:124] Setting up scale3c_branch2b
I0327 18:01:29.879694 17258 net.cpp:131] Top shape: 32 128 28 28 (3211264)
I0327 18:01:29.879698 17258 net.cpp:139] Memory required for data: 1843265664
I0327 18:01:29.879701 17258 layer_factory.hpp:77] Creating layer res3c
I0327 18:01:29.879707 17258 net.cpp:86] Creating Layer res3c
I0327 18:01:29.879710 17258 net.cpp:408] res3c <- res3b_res3b_relu_0_split_1
I0327 18:01:29.879714 17258 net.cpp:408] res3c <- res3c_branch2b
I0327 18:01:29.879720 17258 net.cpp:382] res3c -> res3c
I0327 18:01:29.879737 17258 net.cpp:124] Setting up res3c
I0327 18:01:29.879742 17258 net.cpp:131] Top shape: 32 128 28 28 (3211264)
I0327 18:01:29.879745 17258 net.cpp:139] Memory required for data: 1856110720
I0327 18:01:29.879748 17258 layer_factory.hpp:77] Creating layer res3c_relu
I0327 18:01:29.879753 17258 net.cpp:86] Creating Layer res3c_relu
I0327 18:01:29.879756 17258 net.cpp:408] res3c_relu <- res3c
I0327 18:01:29.879761 17258 net.cpp:369] res3c_relu -> res3c (in-place)
I0327 18:01:29.879765 17258 net.cpp:124] Setting up res3c_relu
I0327 18:01:29.879770 17258 net.cpp:131] Top shape: 32 128 28 28 (3211264)
I0327 18:01:29.879772 17258 net.cpp:139] Memory required for data: 1868955776
I0327 18:01:29.879776 17258 layer_factory.hpp:77] Creating layer res3c_res3c_relu_0_split
I0327 18:01:29.879779 17258 net.cpp:86] Creating Layer res3c_res3c_relu_0_split
I0327 18:01:29.879782 17258 net.cpp:408] res3c_res3c_relu_0_split <- res3c
I0327 18:01:29.879787 17258 net.cpp:382] res3c_res3c_relu_0_split -> res3c_res3c_relu_0_split_0
I0327 18:01:29.879793 17258 net.cpp:382] res3c_res3c_relu_0_split -> res3c_res3c_relu_0_split_1
I0327 18:01:29.879817 17258 net.cpp:124] Setting up res3c_res3c_relu_0_split
I0327 18:01:29.879822 17258 net.cpp:131] Top shape: 32 128 28 28 (3211264)
I0327 18:01:29.879824 17258 net.cpp:131] Top shape: 32 128 28 28 (3211264)
I0327 18:01:29.879827 17258 net.cpp:139] Memory required for data: 1894645888
I0327 18:01:29.879834 17258 layer_factory.hpp:77] Creating layer res3d_branch2a
I0327 18:01:29.879853 17258 net.cpp:86] Creating Layer res3d_branch2a
I0327 18:01:29.879856 17258 net.cpp:408] res3d_branch2a <- res3c_res3c_relu_0_split_0
I0327 18:01:29.879863 17258 net.cpp:382] res3d_branch2a -> res3d_branch2a
I0327 18:01:29.881058 17258 net.cpp:124] Setting up res3d_branch2a
I0327 18:01:29.881064 17258 net.cpp:131] Top shape: 32 128 28 28 (3211264)
I0327 18:01:29.881067 17258 net.cpp:139] Memory required for data: 1907490944
I0327 18:01:29.881072 17258 layer_factory.hpp:77] Creating layer bn3d_branch2a
I0327 18:01:29.881078 17258 net.cpp:86] Creating Layer bn3d_branch2a
I0327 18:01:29.881080 17258 net.cpp:408] bn3d_branch2a <- res3d_branch2a
I0327 18:01:29.881085 17258 net.cpp:369] bn3d_branch2a -> res3d_branch2a (in-place)
I0327 18:01:29.881211 17258 net.cpp:124] Setting up bn3d_branch2a
I0327 18:01:29.881217 17258 net.cpp:131] Top shape: 32 128 28 28 (3211264)
I0327 18:01:29.881220 17258 net.cpp:139] Memory required for data: 1920336000
I0327 18:01:29.881225 17258 layer_factory.hpp:77] Creating layer scale3d_branch2a
I0327 18:01:29.881232 17258 net.cpp:86] Creating Layer scale3d_branch2a
I0327 18:01:29.881234 17258 net.cpp:408] scale3d_branch2a <- res3d_branch2a
I0327 18:01:29.881238 17258 net.cpp:369] scale3d_branch2a -> res3d_branch2a (in-place)
I0327 18:01:29.881265 17258 layer_factory.hpp:77] Creating layer scale3d_branch2a
I0327 18:01:29.881340 17258 net.cpp:124] Setting up scale3d_branch2a
I0327 18:01:29.881345 17258 net.cpp:131] Top shape: 32 128 28 28 (3211264)
I0327 18:01:29.881346 17258 net.cpp:139] Memory required for data: 1933181056
I0327 18:01:29.881352 17258 layer_factory.hpp:77] Creating layer res3d_branch2a_relu
I0327 18:01:29.881357 17258 net.cpp:86] Creating Layer res3d_branch2a_relu
I0327 18:01:29.881361 17258 net.cpp:408] res3d_branch2a_relu <- res3d_branch2a
I0327 18:01:29.881364 17258 net.cpp:369] res3d_branch2a_relu -> res3d_branch2a (in-place)
I0327 18:01:29.881368 17258 net.cpp:124] Setting up res3d_branch2a_relu
I0327 18:01:29.881372 17258 net.cpp:131] Top shape: 32 128 28 28 (3211264)
I0327 18:01:29.881376 17258 net.cpp:139] Memory required for data: 1946026112
I0327 18:01:29.881377 17258 layer_factory.hpp:77] Creating layer res3d_branch2b
I0327 18:01:29.881384 17258 net.cpp:86] Creating Layer res3d_branch2b
I0327 18:01:29.881387 17258 net.cpp:408] res3d_branch2b <- res3d_branch2a
I0327 18:01:29.881393 17258 net.cpp:382] res3d_branch2b -> res3d_branch2b
I0327 18:01:29.882581 17258 net.cpp:124] Setting up res3d_branch2b
I0327 18:01:29.882587 17258 net.cpp:131] Top shape: 32 128 28 28 (3211264)
I0327 18:01:29.882591 17258 net.cpp:139] Memory required for data: 1958871168
I0327 18:01:29.882594 17258 layer_factory.hpp:77] Creating layer bn3d_branch2b
I0327 18:01:29.882599 17258 net.cpp:86] Creating Layer bn3d_branch2b
I0327 18:01:29.882602 17258 net.cpp:408] bn3d_branch2b <- res3d_branch2b
I0327 18:01:29.882608 17258 net.cpp:369] bn3d_branch2b -> res3d_branch2b (in-place)
I0327 18:01:29.882732 17258 net.cpp:124] Setting up bn3d_branch2b
I0327 18:01:29.882737 17258 net.cpp:131] Top shape: 32 128 28 28 (3211264)
I0327 18:01:29.882740 17258 net.cpp:139] Memory required for data: 1971716224
I0327 18:01:29.882746 17258 layer_factory.hpp:77] Creating layer scale3d_branch2b
I0327 18:01:29.882751 17258 net.cpp:86] Creating Layer scale3d_branch2b
I0327 18:01:29.882755 17258 net.cpp:408] scale3d_branch2b <- res3d_branch2b
I0327 18:01:29.882760 17258 net.cpp:369] scale3d_branch2b -> res3d_branch2b (in-place)
I0327 18:01:29.882786 17258 layer_factory.hpp:77] Creating layer scale3d_branch2b
I0327 18:01:29.882861 17258 net.cpp:124] Setting up scale3d_branch2b
I0327 18:01:29.882866 17258 net.cpp:131] Top shape: 32 128 28 28 (3211264)
I0327 18:01:29.882869 17258 net.cpp:139] Memory required for data: 1984561280
I0327 18:01:29.882874 17258 layer_factory.hpp:77] Creating layer res3d
I0327 18:01:29.882879 17258 net.cpp:86] Creating Layer res3d
I0327 18:01:29.882882 17258 net.cpp:408] res3d <- res3c_res3c_relu_0_split_1
I0327 18:01:29.882889 17258 net.cpp:408] res3d <- res3d_branch2b
I0327 18:01:29.882899 17258 net.cpp:382] res3d -> res3d
I0327 18:01:29.882917 17258 net.cpp:124] Setting up res3d
I0327 18:01:29.882922 17258 net.cpp:131] Top shape: 32 128 28 28 (3211264)
I0327 18:01:29.882925 17258 net.cpp:139] Memory required for data: 1997406336
I0327 18:01:29.882928 17258 layer_factory.hpp:77] Creating layer res3d_relu
I0327 18:01:29.882933 17258 net.cpp:86] Creating Layer res3d_relu
I0327 18:01:29.882936 17258 net.cpp:408] res3d_relu <- res3d
I0327 18:01:29.882941 17258 net.cpp:369] res3d_relu -> res3d (in-place)
I0327 18:01:29.882946 17258 net.cpp:124] Setting up res3d_relu
I0327 18:01:29.882949 17258 net.cpp:131] Top shape: 32 128 28 28 (3211264)
I0327 18:01:29.882952 17258 net.cpp:139] Memory required for data: 2010251392
I0327 18:01:29.882954 17258 layer_factory.hpp:77] Creating layer res3d_res3d_relu_0_split
I0327 18:01:29.882959 17258 net.cpp:86] Creating Layer res3d_res3d_relu_0_split
I0327 18:01:29.882962 17258 net.cpp:408] res3d_res3d_relu_0_split <- res3d
I0327 18:01:29.882966 17258 net.cpp:382] res3d_res3d_relu_0_split -> res3d_res3d_relu_0_split_0
I0327 18:01:29.882972 17258 net.cpp:382] res3d_res3d_relu_0_split -> res3d_res3d_relu_0_split_1
I0327 18:01:29.882998 17258 net.cpp:124] Setting up res3d_res3d_relu_0_split
I0327 18:01:29.883002 17258 net.cpp:131] Top shape: 32 128 28 28 (3211264)
I0327 18:01:29.883006 17258 net.cpp:131] Top shape: 32 128 28 28 (3211264)
I0327 18:01:29.883008 17258 net.cpp:139] Memory required for data: 2035941504
I0327 18:01:29.883011 17258 layer_factory.hpp:77] Creating layer res4a_branch1
I0327 18:01:29.883018 17258 net.cpp:86] Creating Layer res4a_branch1
I0327 18:01:29.883021 17258 net.cpp:408] res4a_branch1 <- res3d_res3d_relu_0_split_0
I0327 18:01:29.883026 17258 net.cpp:382] res4a_branch1 -> res4a_branch1
I0327 18:01:29.883415 17258 net.cpp:124] Setting up res4a_branch1
I0327 18:01:29.883421 17258 net.cpp:131] Top shape: 32 256 14 14 (1605632)
I0327 18:01:29.883424 17258 net.cpp:139] Memory required for data: 2042364032
I0327 18:01:29.883428 17258 layer_factory.hpp:77] Creating layer bn4a_branch1
I0327 18:01:29.883433 17258 net.cpp:86] Creating Layer bn4a_branch1
I0327 18:01:29.883436 17258 net.cpp:408] bn4a_branch1 <- res4a_branch1
I0327 18:01:29.883441 17258 net.cpp:369] bn4a_branch1 -> res4a_branch1 (in-place)
I0327 18:01:29.883569 17258 net.cpp:124] Setting up bn4a_branch1
I0327 18:01:29.883574 17258 net.cpp:131] Top shape: 32 256 14 14 (1605632)
I0327 18:01:29.883577 17258 net.cpp:139] Memory required for data: 2048786560
I0327 18:01:29.883582 17258 layer_factory.hpp:77] Creating layer scale4a_branch1
I0327 18:01:29.883589 17258 net.cpp:86] Creating Layer scale4a_branch1
I0327 18:01:29.883591 17258 net.cpp:408] scale4a_branch1 <- res4a_branch1
I0327 18:01:29.883595 17258 net.cpp:369] scale4a_branch1 -> res4a_branch1 (in-place)
I0327 18:01:29.883623 17258 layer_factory.hpp:77] Creating layer scale4a_branch1
I0327 18:01:29.883692 17258 net.cpp:124] Setting up scale4a_branch1
I0327 18:01:29.883698 17258 net.cpp:131] Top shape: 32 256 14 14 (1605632)
I0327 18:01:29.883702 17258 net.cpp:139] Memory required for data: 2055209088
I0327 18:01:29.883705 17258 layer_factory.hpp:77] Creating layer res4a_branch2a
I0327 18:01:29.883713 17258 net.cpp:86] Creating Layer res4a_branch2a
I0327 18:01:29.883716 17258 net.cpp:408] res4a_branch2a <- res3d_res3d_relu_0_split_1
I0327 18:01:29.883721 17258 net.cpp:382] res4a_branch2a -> res4a_branch2a
I0327 18:01:29.886888 17258 net.cpp:124] Setting up res4a_branch2a
I0327 18:01:29.886899 17258 net.cpp:131] Top shape: 32 256 14 14 (1605632)
I0327 18:01:29.886903 17258 net.cpp:139] Memory required for data: 2061631616
I0327 18:01:29.886907 17258 layer_factory.hpp:77] Creating layer bn4a_branch2a
I0327 18:01:29.886914 17258 net.cpp:86] Creating Layer bn4a_branch2a
I0327 18:01:29.886917 17258 net.cpp:408] bn4a_branch2a <- res4a_branch2a
I0327 18:01:29.886924 17258 net.cpp:369] bn4a_branch2a -> res4a_branch2a (in-place)
I0327 18:01:29.887056 17258 net.cpp:124] Setting up bn4a_branch2a
I0327 18:01:29.887073 17258 net.cpp:131] Top shape: 32 256 14 14 (1605632)
I0327 18:01:29.887075 17258 net.cpp:139] Memory required for data: 2068054144
I0327 18:01:29.887082 17258 layer_factory.hpp:77] Creating layer scale4a_branch2a
I0327 18:01:29.887089 17258 net.cpp:86] Creating Layer scale4a_branch2a
I0327 18:01:29.887091 17258 net.cpp:408] scale4a_branch2a <- res4a_branch2a
I0327 18:01:29.887095 17258 net.cpp:369] scale4a_branch2a -> res4a_branch2a (in-place)
I0327 18:01:29.887133 17258 layer_factory.hpp:77] Creating layer scale4a_branch2a
I0327 18:01:29.887207 17258 net.cpp:124] Setting up scale4a_branch2a
I0327 18:01:29.887212 17258 net.cpp:131] Top shape: 32 256 14 14 (1605632)
I0327 18:01:29.887215 17258 net.cpp:139] Memory required for data: 2074476672
I0327 18:01:29.887220 17258 layer_factory.hpp:77] Creating layer res4a_branch2a_relu
I0327 18:01:29.887226 17258 net.cpp:86] Creating Layer res4a_branch2a_relu
I0327 18:01:29.887229 17258 net.cpp:408] res4a_branch2a_relu <- res4a_branch2a
I0327 18:01:29.887234 17258 net.cpp:369] res4a_branch2a_relu -> res4a_branch2a (in-place)
I0327 18:01:29.887239 17258 net.cpp:124] Setting up res4a_branch2a_relu
I0327 18:01:29.887243 17258 net.cpp:131] Top shape: 32 256 14 14 (1605632)
I0327 18:01:29.887245 17258 net.cpp:139] Memory required for data: 2080899200
I0327 18:01:29.887248 17258 layer_factory.hpp:77] Creating layer res4a_branch2b
I0327 18:01:29.887254 17258 net.cpp:86] Creating Layer res4a_branch2b
I0327 18:01:29.887257 17258 net.cpp:408] res4a_branch2b <- res4a_branch2a
I0327 18:01:29.887262 17258 net.cpp:382] res4a_branch2b -> res4a_branch2b
I0327 18:01:29.892588 17258 net.cpp:124] Setting up res4a_branch2b
I0327 18:01:29.892601 17258 net.cpp:131] Top shape: 32 256 14 14 (1605632)
I0327 18:01:29.892603 17258 net.cpp:139] Memory required for data: 2087321728
I0327 18:01:29.892607 17258 layer_factory.hpp:77] Creating layer bn4a_branch2b
I0327 18:01:29.892614 17258 net.cpp:86] Creating Layer bn4a_branch2b
I0327 18:01:29.892618 17258 net.cpp:408] bn4a_branch2b <- res4a_branch2b
I0327 18:01:29.892623 17258 net.cpp:369] bn4a_branch2b -> res4a_branch2b (in-place)
I0327 18:01:29.892755 17258 net.cpp:124] Setting up bn4a_branch2b
I0327 18:01:29.892760 17258 net.cpp:131] Top shape: 32 256 14 14 (1605632)
I0327 18:01:29.892763 17258 net.cpp:139] Memory required for data: 2093744256
I0327 18:01:29.892769 17258 layer_factory.hpp:77] Creating layer scale4a_branch2b
I0327 18:01:29.892776 17258 net.cpp:86] Creating Layer scale4a_branch2b
I0327 18:01:29.892777 17258 net.cpp:408] scale4a_branch2b <- res4a_branch2b
I0327 18:01:29.892782 17258 net.cpp:369] scale4a_branch2b -> res4a_branch2b (in-place)
I0327 18:01:29.892812 17258 layer_factory.hpp:77] Creating layer scale4a_branch2b
I0327 18:01:29.892886 17258 net.cpp:124] Setting up scale4a_branch2b
I0327 18:01:29.892892 17258 net.cpp:131] Top shape: 32 256 14 14 (1605632)
I0327 18:01:29.892895 17258 net.cpp:139] Memory required for data: 2100166784
I0327 18:01:29.892899 17258 layer_factory.hpp:77] Creating layer res4a
I0327 18:01:29.892905 17258 net.cpp:86] Creating Layer res4a
I0327 18:01:29.892910 17258 net.cpp:408] res4a <- res4a_branch1
I0327 18:01:29.892913 17258 net.cpp:408] res4a <- res4a_branch2b
I0327 18:01:29.892918 17258 net.cpp:382] res4a -> res4a
I0327 18:01:29.892936 17258 net.cpp:124] Setting up res4a
I0327 18:01:29.892941 17258 net.cpp:131] Top shape: 32 256 14 14 (1605632)
I0327 18:01:29.892944 17258 net.cpp:139] Memory required for data: 2106589312
I0327 18:01:29.892947 17258 layer_factory.hpp:77] Creating layer res4a_relu
I0327 18:01:29.892952 17258 net.cpp:86] Creating Layer res4a_relu
I0327 18:01:29.892956 17258 net.cpp:408] res4a_relu <- res4a
I0327 18:01:29.892959 17258 net.cpp:369] res4a_relu -> res4a (in-place)
I0327 18:01:29.892964 17258 net.cpp:124] Setting up res4a_relu
I0327 18:01:29.892968 17258 net.cpp:131] Top shape: 32 256 14 14 (1605632)
I0327 18:01:29.892971 17258 net.cpp:139] Memory required for data: 2113011840
I0327 18:01:29.892973 17258 layer_factory.hpp:77] Creating layer res4a_res4a_relu_0_split
I0327 18:01:29.892992 17258 net.cpp:86] Creating Layer res4a_res4a_relu_0_split
I0327 18:01:29.892994 17258 net.cpp:408] res4a_res4a_relu_0_split <- res4a
I0327 18:01:29.892998 17258 net.cpp:382] res4a_res4a_relu_0_split -> res4a_res4a_relu_0_split_0
I0327 18:01:29.893004 17258 net.cpp:382] res4a_res4a_relu_0_split -> res4a_res4a_relu_0_split_1
I0327 18:01:29.893033 17258 net.cpp:124] Setting up res4a_res4a_relu_0_split
I0327 18:01:29.893038 17258 net.cpp:131] Top shape: 32 256 14 14 (1605632)
I0327 18:01:29.893041 17258 net.cpp:131] Top shape: 32 256 14 14 (1605632)
I0327 18:01:29.893044 17258 net.cpp:139] Memory required for data: 2125856896
I0327 18:01:29.893046 17258 layer_factory.hpp:77] Creating layer res4b_branch2a
I0327 18:01:29.893054 17258 net.cpp:86] Creating Layer res4b_branch2a
I0327 18:01:29.893057 17258 net.cpp:408] res4b_branch2a <- res4a_res4a_relu_0_split_0
I0327 18:01:29.893062 17258 net.cpp:382] res4b_branch2a -> res4b_branch2a
I0327 18:01:29.898416 17258 net.cpp:124] Setting up res4b_branch2a
I0327 18:01:29.898428 17258 net.cpp:131] Top shape: 32 256 14 14 (1605632)
I0327 18:01:29.898430 17258 net.cpp:139] Memory required for data: 2132279424
I0327 18:01:29.898437 17258 layer_factory.hpp:77] Creating layer bn4b_branch2a
I0327 18:01:29.898442 17258 net.cpp:86] Creating Layer bn4b_branch2a
I0327 18:01:29.898447 17258 net.cpp:408] bn4b_branch2a <- res4b_branch2a
I0327 18:01:29.898452 17258 net.cpp:369] bn4b_branch2a -> res4b_branch2a (in-place)
I0327 18:01:29.898586 17258 net.cpp:124] Setting up bn4b_branch2a
I0327 18:01:29.898592 17258 net.cpp:131] Top shape: 32 256 14 14 (1605632)
I0327 18:01:29.898596 17258 net.cpp:139] Memory required for data: 2138701952
I0327 18:01:29.898602 17258 layer_factory.hpp:77] Creating layer scale4b_branch2a
I0327 18:01:29.898607 17258 net.cpp:86] Creating Layer scale4b_branch2a
I0327 18:01:29.898610 17258 net.cpp:408] scale4b_branch2a <- res4b_branch2a
I0327 18:01:29.898614 17258 net.cpp:369] scale4b_branch2a -> res4b_branch2a (in-place)
I0327 18:01:29.898643 17258 layer_factory.hpp:77] Creating layer scale4b_branch2a
I0327 18:01:29.898723 17258 net.cpp:124] Setting up scale4b_branch2a
I0327 18:01:29.898730 17258 net.cpp:131] Top shape: 32 256 14 14 (1605632)
I0327 18:01:29.898731 17258 net.cpp:139] Memory required for data: 2145124480
I0327 18:01:29.898736 17258 layer_factory.hpp:77] Creating layer res4b_branch2a_relu
I0327 18:01:29.898741 17258 net.cpp:86] Creating Layer res4b_branch2a_relu
I0327 18:01:29.898744 17258 net.cpp:408] res4b_branch2a_relu <- res4b_branch2a
I0327 18:01:29.898748 17258 net.cpp:369] res4b_branch2a_relu -> res4b_branch2a (in-place)
I0327 18:01:29.898753 17258 net.cpp:124] Setting up res4b_branch2a_relu
I0327 18:01:29.898757 17258 net.cpp:131] Top shape: 32 256 14 14 (1605632)
I0327 18:01:29.898761 17258 net.cpp:139] Memory required for data: 2151547008
I0327 18:01:29.898762 17258 layer_factory.hpp:77] Creating layer res4b_branch2b
I0327 18:01:29.898768 17258 net.cpp:86] Creating Layer res4b_branch2b
I0327 18:01:29.898772 17258 net.cpp:408] res4b_branch2b <- res4b_branch2a
I0327 18:01:29.898778 17258 net.cpp:382] res4b_branch2b -> res4b_branch2b
I0327 18:01:29.904157 17258 net.cpp:124] Setting up res4b_branch2b
I0327 18:01:29.904168 17258 net.cpp:131] Top shape: 32 256 14 14 (1605632)
I0327 18:01:29.904172 17258 net.cpp:139] Memory required for data: 2157969536
I0327 18:01:29.904176 17258 layer_factory.hpp:77] Creating layer bn4b_branch2b
I0327 18:01:29.904182 17258 net.cpp:86] Creating Layer bn4b_branch2b
I0327 18:01:29.904186 17258 net.cpp:408] bn4b_branch2b <- res4b_branch2b
I0327 18:01:29.904192 17258 net.cpp:369] bn4b_branch2b -> res4b_branch2b (in-place)
I0327 18:01:29.904332 17258 net.cpp:124] Setting up bn4b_branch2b
I0327 18:01:29.904338 17258 net.cpp:131] Top shape: 32 256 14 14 (1605632)
I0327 18:01:29.904341 17258 net.cpp:139] Memory required for data: 2164392064
I0327 18:01:29.904366 17258 layer_factory.hpp:77] Creating layer scale4b_branch2b
I0327 18:01:29.904371 17258 net.cpp:86] Creating Layer scale4b_branch2b
I0327 18:01:29.904379 17258 net.cpp:408] scale4b_branch2b <- res4b_branch2b
I0327 18:01:29.904397 17258 net.cpp:369] scale4b_branch2b -> res4b_branch2b (in-place)
I0327 18:01:29.904431 17258 layer_factory.hpp:77] Creating layer scale4b_branch2b
I0327 18:01:29.904510 17258 net.cpp:124] Setting up scale4b_branch2b
I0327 18:01:29.904515 17258 net.cpp:131] Top shape: 32 256 14 14 (1605632)
I0327 18:01:29.904518 17258 net.cpp:139] Memory required for data: 2170814592
I0327 18:01:29.904523 17258 layer_factory.hpp:77] Creating layer res4b
I0327 18:01:29.904531 17258 net.cpp:86] Creating Layer res4b
I0327 18:01:29.904533 17258 net.cpp:408] res4b <- res4a_res4a_relu_0_split_1
I0327 18:01:29.904537 17258 net.cpp:408] res4b <- res4b_branch2b
I0327 18:01:29.904542 17258 net.cpp:382] res4b -> res4b
I0327 18:01:29.904561 17258 net.cpp:124] Setting up res4b
I0327 18:01:29.904567 17258 net.cpp:131] Top shape: 32 256 14 14 (1605632)
I0327 18:01:29.904568 17258 net.cpp:139] Memory required for data: 2177237120
I0327 18:01:29.904572 17258 layer_factory.hpp:77] Creating layer res4b_relu
I0327 18:01:29.904577 17258 net.cpp:86] Creating Layer res4b_relu
I0327 18:01:29.904579 17258 net.cpp:408] res4b_relu <- res4b
I0327 18:01:29.904584 17258 net.cpp:369] res4b_relu -> res4b (in-place)
I0327 18:01:29.904589 17258 net.cpp:124] Setting up res4b_relu
I0327 18:01:29.904593 17258 net.cpp:131] Top shape: 32 256 14 14 (1605632)
I0327 18:01:29.904597 17258 net.cpp:139] Memory required for data: 2183659648
I0327 18:01:29.904598 17258 layer_factory.hpp:77] Creating layer res4b_res4b_relu_0_split
I0327 18:01:29.904603 17258 net.cpp:86] Creating Layer res4b_res4b_relu_0_split
I0327 18:01:29.904606 17258 net.cpp:408] res4b_res4b_relu_0_split <- res4b
I0327 18:01:29.904611 17258 net.cpp:382] res4b_res4b_relu_0_split -> res4b_res4b_relu_0_split_0
I0327 18:01:29.904616 17258 net.cpp:382] res4b_res4b_relu_0_split -> res4b_res4b_relu_0_split_1
I0327 18:01:29.904644 17258 net.cpp:124] Setting up res4b_res4b_relu_0_split
I0327 18:01:29.904649 17258 net.cpp:131] Top shape: 32 256 14 14 (1605632)
I0327 18:01:29.904652 17258 net.cpp:131] Top shape: 32 256 14 14 (1605632)
I0327 18:01:29.904654 17258 net.cpp:139] Memory required for data: 2196504704
I0327 18:01:29.904659 17258 layer_factory.hpp:77] Creating layer res4c_branch2a
I0327 18:01:29.904664 17258 net.cpp:86] Creating Layer res4c_branch2a
I0327 18:01:29.904667 17258 net.cpp:408] res4c_branch2a <- res4b_res4b_relu_0_split_0
I0327 18:01:29.904673 17258 net.cpp:382] res4c_branch2a -> res4c_branch2a
I0327 18:01:29.910039 17258 net.cpp:124] Setting up res4c_branch2a
I0327 18:01:29.910051 17258 net.cpp:131] Top shape: 32 256 14 14 (1605632)
I0327 18:01:29.910053 17258 net.cpp:139] Memory required for data: 2202927232
I0327 18:01:29.910058 17258 layer_factory.hpp:77] Creating layer bn4c_branch2a
I0327 18:01:29.910064 17258 net.cpp:86] Creating Layer bn4c_branch2a
I0327 18:01:29.910068 17258 net.cpp:408] bn4c_branch2a <- res4c_branch2a
I0327 18:01:29.910074 17258 net.cpp:369] bn4c_branch2a -> res4c_branch2a (in-place)
I0327 18:01:29.910214 17258 net.cpp:124] Setting up bn4c_branch2a
I0327 18:01:29.910221 17258 net.cpp:131] Top shape: 32 256 14 14 (1605632)
I0327 18:01:29.910224 17258 net.cpp:139] Memory required for data: 2209349760
I0327 18:01:29.910229 17258 layer_factory.hpp:77] Creating layer scale4c_branch2a
I0327 18:01:29.910234 17258 net.cpp:86] Creating Layer scale4c_branch2a
I0327 18:01:29.910238 17258 net.cpp:408] scale4c_branch2a <- res4c_branch2a
I0327 18:01:29.910243 17258 net.cpp:369] scale4c_branch2a -> res4c_branch2a (in-place)
I0327 18:01:29.910274 17258 layer_factory.hpp:77] Creating layer scale4c_branch2a
I0327 18:01:29.910360 17258 net.cpp:124] Setting up scale4c_branch2a
I0327 18:01:29.910367 17258 net.cpp:131] Top shape: 32 256 14 14 (1605632)
I0327 18:01:29.910369 17258 net.cpp:139] Memory required for data: 2215772288
I0327 18:01:29.910374 17258 layer_factory.hpp:77] Creating layer res4c_branch2a_relu
I0327 18:01:29.910380 17258 net.cpp:86] Creating Layer res4c_branch2a_relu
I0327 18:01:29.910387 17258 net.cpp:408] res4c_branch2a_relu <- res4c_branch2a
I0327 18:01:29.910400 17258 net.cpp:369] res4c_branch2a_relu -> res4c_branch2a (in-place)
I0327 18:01:29.910405 17258 net.cpp:124] Setting up res4c_branch2a_relu
I0327 18:01:29.910409 17258 net.cpp:131] Top shape: 32 256 14 14 (1605632)
I0327 18:01:29.910413 17258 net.cpp:139] Memory required for data: 2222194816
I0327 18:01:29.910415 17258 layer_factory.hpp:77] Creating layer res4c_branch2b
I0327 18:01:29.910423 17258 net.cpp:86] Creating Layer res4c_branch2b
I0327 18:01:29.910426 17258 net.cpp:408] res4c_branch2b <- res4c_branch2a
I0327 18:01:29.910431 17258 net.cpp:382] res4c_branch2b -> res4c_branch2b
I0327 18:01:29.916168 17258 net.cpp:124] Setting up res4c_branch2b
I0327 18:01:29.916196 17258 net.cpp:131] Top shape: 32 256 14 14 (1605632)
I0327 18:01:29.916199 17258 net.cpp:139] Memory required for data: 2228617344
I0327 18:01:29.916208 17258 layer_factory.hpp:77] Creating layer bn4c_branch2b
I0327 18:01:29.916222 17258 net.cpp:86] Creating Layer bn4c_branch2b
I0327 18:01:29.916227 17258 net.cpp:408] bn4c_branch2b <- res4c_branch2b
I0327 18:01:29.916236 17258 net.cpp:369] bn4c_branch2b -> res4c_branch2b (in-place)
I0327 18:01:29.916419 17258 net.cpp:124] Setting up bn4c_branch2b
I0327 18:01:29.916427 17258 net.cpp:131] Top shape: 32 256 14 14 (1605632)
I0327 18:01:29.916430 17258 net.cpp:139] Memory required for data: 2235039872
I0327 18:01:29.916437 17258 layer_factory.hpp:77] Creating layer scale4c_branch2b
I0327 18:01:29.916445 17258 net.cpp:86] Creating Layer scale4c_branch2b
I0327 18:01:29.916447 17258 net.cpp:408] scale4c_branch2b <- res4c_branch2b
I0327 18:01:29.916453 17258 net.cpp:369] scale4c_branch2b -> res4c_branch2b (in-place)
I0327 18:01:29.916498 17258 layer_factory.hpp:77] Creating layer scale4c_branch2b
I0327 18:01:29.916586 17258 net.cpp:124] Setting up scale4c_branch2b
I0327 18:01:29.916594 17258 net.cpp:131] Top shape: 32 256 14 14 (1605632)
I0327 18:01:29.916599 17258 net.cpp:139] Memory required for data: 2241462400
I0327 18:01:29.916606 17258 layer_factory.hpp:77] Creating layer res4c
I0327 18:01:29.916615 17258 net.cpp:86] Creating Layer res4c
I0327 18:01:29.916620 17258 net.cpp:408] res4c <- res4b_res4b_relu_0_split_1
I0327 18:01:29.916623 17258 net.cpp:408] res4c <- res4c_branch2b
I0327 18:01:29.916627 17258 net.cpp:382] res4c -> res4c
I0327 18:01:29.916656 17258 net.cpp:124] Setting up res4c
I0327 18:01:29.916664 17258 net.cpp:131] Top shape: 32 256 14 14 (1605632)
I0327 18:01:29.916668 17258 net.cpp:139] Memory required for data: 2247884928
I0327 18:01:29.916672 17258 layer_factory.hpp:77] Creating layer res4c_relu
I0327 18:01:29.916683 17258 net.cpp:86] Creating Layer res4c_relu
I0327 18:01:29.916689 17258 net.cpp:408] res4c_relu <- res4c
I0327 18:01:29.916697 17258 net.cpp:369] res4c_relu -> res4c (in-place)
I0327 18:01:29.916703 17258 net.cpp:124] Setting up res4c_relu
I0327 18:01:29.916710 17258 net.cpp:131] Top shape: 32 256 14 14 (1605632)
I0327 18:01:29.916714 17258 net.cpp:139] Memory required for data: 2254307456
I0327 18:01:29.916718 17258 layer_factory.hpp:77] Creating layer res4c_res4c_relu_0_split
I0327 18:01:29.916726 17258 net.cpp:86] Creating Layer res4c_res4c_relu_0_split
I0327 18:01:29.916731 17258 net.cpp:408] res4c_res4c_relu_0_split <- res4c
I0327 18:01:29.916740 17258 net.cpp:382] res4c_res4c_relu_0_split -> res4c_res4c_relu_0_split_0
I0327 18:01:29.916749 17258 net.cpp:382] res4c_res4c_relu_0_split -> res4c_res4c_relu_0_split_1
I0327 18:01:29.916788 17258 net.cpp:124] Setting up res4c_res4c_relu_0_split
I0327 18:01:29.916796 17258 net.cpp:131] Top shape: 32 256 14 14 (1605632)
I0327 18:01:29.916801 17258 net.cpp:131] Top shape: 32 256 14 14 (1605632)
I0327 18:01:29.916805 17258 net.cpp:139] Memory required for data: 2267152512
I0327 18:01:29.916810 17258 layer_factory.hpp:77] Creating layer res4d_branch2a
I0327 18:01:29.916822 17258 net.cpp:86] Creating Layer res4d_branch2a
I0327 18:01:29.916827 17258 net.cpp:408] res4d_branch2a <- res4c_res4c_relu_0_split_0
I0327 18:01:29.916842 17258 net.cpp:382] res4d_branch2a -> res4d_branch2a
I0327 18:01:29.923123 17258 net.cpp:124] Setting up res4d_branch2a
I0327 18:01:29.923141 17258 net.cpp:131] Top shape: 32 256 14 14 (1605632)
I0327 18:01:29.923143 17258 net.cpp:139] Memory required for data: 2273575040
I0327 18:01:29.923149 17258 layer_factory.hpp:77] Creating layer bn4d_branch2a
I0327 18:01:29.923156 17258 net.cpp:86] Creating Layer bn4d_branch2a
I0327 18:01:29.923161 17258 net.cpp:408] bn4d_branch2a <- res4d_branch2a
I0327 18:01:29.923166 17258 net.cpp:369] bn4d_branch2a -> res4d_branch2a (in-place)
I0327 18:01:29.923317 17258 net.cpp:124] Setting up bn4d_branch2a
I0327 18:01:29.923326 17258 net.cpp:131] Top shape: 32 256 14 14 (1605632)
I0327 18:01:29.923329 17258 net.cpp:139] Memory required for data: 2279997568
I0327 18:01:29.923336 17258 layer_factory.hpp:77] Creating layer scale4d_branch2a
I0327 18:01:29.923341 17258 net.cpp:86] Creating Layer scale4d_branch2a
I0327 18:01:29.923344 17258 net.cpp:408] scale4d_branch2a <- res4d_branch2a
I0327 18:01:29.923348 17258 net.cpp:369] scale4d_branch2a -> res4d_branch2a (in-place)
I0327 18:01:29.923383 17258 layer_factory.hpp:77] Creating layer scale4d_branch2a
I0327 18:01:29.923466 17258 net.cpp:124] Setting up scale4d_branch2a
I0327 18:01:29.923472 17258 net.cpp:131] Top shape: 32 256 14 14 (1605632)
I0327 18:01:29.923476 17258 net.cpp:139] Memory required for data: 2286420096
I0327 18:01:29.923481 17258 layer_factory.hpp:77] Creating layer res4d_branch2a_relu
I0327 18:01:29.923488 17258 net.cpp:86] Creating Layer res4d_branch2a_relu
I0327 18:01:29.923491 17258 net.cpp:408] res4d_branch2a_relu <- res4d_branch2a
I0327 18:01:29.923496 17258 net.cpp:369] res4d_branch2a_relu -> res4d_branch2a (in-place)
I0327 18:01:29.923501 17258 net.cpp:124] Setting up res4d_branch2a_relu
I0327 18:01:29.923503 17258 net.cpp:131] Top shape: 32 256 14 14 (1605632)
I0327 18:01:29.923506 17258 net.cpp:139] Memory required for data: 2292842624
I0327 18:01:29.923509 17258 layer_factory.hpp:77] Creating layer res4d_branch2b
I0327 18:01:29.923517 17258 net.cpp:86] Creating Layer res4d_branch2b
I0327 18:01:29.923521 17258 net.cpp:408] res4d_branch2b <- res4d_branch2a
I0327 18:01:29.923524 17258 net.cpp:382] res4d_branch2b -> res4d_branch2b
I0327 18:01:29.928988 17258 net.cpp:124] Setting up res4d_branch2b
I0327 18:01:29.929003 17258 net.cpp:131] Top shape: 32 256 14 14 (1605632)
I0327 18:01:29.929006 17258 net.cpp:139] Memory required for data: 2299265152
I0327 18:01:29.929011 17258 layer_factory.hpp:77] Creating layer bn4d_branch2b
I0327 18:01:29.929019 17258 net.cpp:86] Creating Layer bn4d_branch2b
I0327 18:01:29.929023 17258 net.cpp:408] bn4d_branch2b <- res4d_branch2b
I0327 18:01:29.929028 17258 net.cpp:369] bn4d_branch2b -> res4d_branch2b (in-place)
I0327 18:01:29.929181 17258 net.cpp:124] Setting up bn4d_branch2b
I0327 18:01:29.929188 17258 net.cpp:131] Top shape: 32 256 14 14 (1605632)
I0327 18:01:29.929190 17258 net.cpp:139] Memory required for data: 2305687680
I0327 18:01:29.929198 17258 layer_factory.hpp:77] Creating layer scale4d_branch2b
I0327 18:01:29.929203 17258 net.cpp:86] Creating Layer scale4d_branch2b
I0327 18:01:29.929208 17258 net.cpp:408] scale4d_branch2b <- res4d_branch2b
I0327 18:01:29.929211 17258 net.cpp:369] scale4d_branch2b -> res4d_branch2b (in-place)
I0327 18:01:29.929246 17258 layer_factory.hpp:77] Creating layer scale4d_branch2b
I0327 18:01:29.929330 17258 net.cpp:124] Setting up scale4d_branch2b
I0327 18:01:29.929337 17258 net.cpp:131] Top shape: 32 256 14 14 (1605632)
I0327 18:01:29.929340 17258 net.cpp:139] Memory required for data: 2312110208
I0327 18:01:29.929344 17258 layer_factory.hpp:77] Creating layer res4d
I0327 18:01:29.929352 17258 net.cpp:86] Creating Layer res4d
I0327 18:01:29.929354 17258 net.cpp:408] res4d <- res4c_res4c_relu_0_split_1
I0327 18:01:29.929358 17258 net.cpp:408] res4d <- res4d_branch2b
I0327 18:01:29.929364 17258 net.cpp:382] res4d -> res4d
I0327 18:01:29.929384 17258 net.cpp:124] Setting up res4d
I0327 18:01:29.929389 17258 net.cpp:131] Top shape: 32 256 14 14 (1605632)
I0327 18:01:29.929399 17258 net.cpp:139] Memory required for data: 2318532736
I0327 18:01:29.929420 17258 layer_factory.hpp:77] Creating layer res4d_relu
I0327 18:01:29.929428 17258 net.cpp:86] Creating Layer res4d_relu
I0327 18:01:29.929432 17258 net.cpp:408] res4d_relu <- res4d
I0327 18:01:29.929436 17258 net.cpp:369] res4d_relu -> res4d (in-place)
I0327 18:01:29.929440 17258 net.cpp:124] Setting up res4d_relu
I0327 18:01:29.929445 17258 net.cpp:131] Top shape: 32 256 14 14 (1605632)
I0327 18:01:29.929447 17258 net.cpp:139] Memory required for data: 2324955264
I0327 18:01:29.929460 17258 layer_factory.hpp:77] Creating layer res4d_res4d_relu_0_split
I0327 18:01:29.929464 17258 net.cpp:86] Creating Layer res4d_res4d_relu_0_split
I0327 18:01:29.929467 17258 net.cpp:408] res4d_res4d_relu_0_split <- res4d
I0327 18:01:29.929472 17258 net.cpp:382] res4d_res4d_relu_0_split -> res4d_res4d_relu_0_split_0
I0327 18:01:29.929477 17258 net.cpp:382] res4d_res4d_relu_0_split -> res4d_res4d_relu_0_split_1
I0327 18:01:29.929507 17258 net.cpp:124] Setting up res4d_res4d_relu_0_split
I0327 18:01:29.929512 17258 net.cpp:131] Top shape: 32 256 14 14 (1605632)
I0327 18:01:29.929517 17258 net.cpp:131] Top shape: 32 256 14 14 (1605632)
I0327 18:01:29.929518 17258 net.cpp:139] Memory required for data: 2337800320
I0327 18:01:29.929522 17258 layer_factory.hpp:77] Creating layer res4e_branch2a
I0327 18:01:29.929529 17258 net.cpp:86] Creating Layer res4e_branch2a
I0327 18:01:29.929533 17258 net.cpp:408] res4e_branch2a <- res4d_res4d_relu_0_split_0
I0327 18:01:29.929538 17258 net.cpp:382] res4e_branch2a -> res4e_branch2a
I0327 18:01:29.935289 17258 net.cpp:124] Setting up res4e_branch2a
I0327 18:01:29.935315 17258 net.cpp:131] Top shape: 32 256 14 14 (1605632)
I0327 18:01:29.935319 17258 net.cpp:139] Memory required for data: 2344222848
I0327 18:01:29.935328 17258 layer_factory.hpp:77] Creating layer bn4e_branch2a
I0327 18:01:29.935343 17258 net.cpp:86] Creating Layer bn4e_branch2a
I0327 18:01:29.935349 17258 net.cpp:408] bn4e_branch2a <- res4e_branch2a
I0327 18:01:29.935358 17258 net.cpp:369] bn4e_branch2a -> res4e_branch2a (in-place)
I0327 18:01:29.935569 17258 net.cpp:124] Setting up bn4e_branch2a
I0327 18:01:29.935577 17258 net.cpp:131] Top shape: 32 256 14 14 (1605632)
I0327 18:01:29.935581 17258 net.cpp:139] Memory required for data: 2350645376
I0327 18:01:29.935591 17258 layer_factory.hpp:77] Creating layer scale4e_branch2a
I0327 18:01:29.935632 17258 net.cpp:86] Creating Layer scale4e_branch2a
I0327 18:01:29.935638 17258 net.cpp:408] scale4e_branch2a <- res4e_branch2a
I0327 18:01:29.935644 17258 net.cpp:369] scale4e_branch2a -> res4e_branch2a (in-place)
I0327 18:01:29.935693 17258 layer_factory.hpp:77] Creating layer scale4e_branch2a
I0327 18:01:29.935804 17258 net.cpp:124] Setting up scale4e_branch2a
I0327 18:01:29.935812 17258 net.cpp:131] Top shape: 32 256 14 14 (1605632)
I0327 18:01:29.935817 17258 net.cpp:139] Memory required for data: 2357067904
I0327 18:01:29.935825 17258 layer_factory.hpp:77] Creating layer res4e_branch2a_relu
I0327 18:01:29.935834 17258 net.cpp:86] Creating Layer res4e_branch2a_relu
I0327 18:01:29.935839 17258 net.cpp:408] res4e_branch2a_relu <- res4e_branch2a
I0327 18:01:29.935845 17258 net.cpp:369] res4e_branch2a_relu -> res4e_branch2a (in-place)
I0327 18:01:29.935853 17258 net.cpp:124] Setting up res4e_branch2a_relu
I0327 18:01:29.935858 17258 net.cpp:131] Top shape: 32 256 14 14 (1605632)
I0327 18:01:29.935863 17258 net.cpp:139] Memory required for data: 2363490432
I0327 18:01:29.935866 17258 layer_factory.hpp:77] Creating layer res4e_branch2b
I0327 18:01:29.935878 17258 net.cpp:86] Creating Layer res4e_branch2b
I0327 18:01:29.935881 17258 net.cpp:408] res4e_branch2b <- res4e_branch2a
I0327 18:01:29.935890 17258 net.cpp:382] res4e_branch2b -> res4e_branch2b
I0327 18:01:29.941680 17258 net.cpp:124] Setting up res4e_branch2b
I0327 18:01:29.941696 17258 net.cpp:131] Top shape: 32 256 14 14 (1605632)
I0327 18:01:29.941699 17258 net.cpp:139] Memory required for data: 2369912960
I0327 18:01:29.941704 17258 layer_factory.hpp:77] Creating layer bn4e_branch2b
I0327 18:01:29.941737 17258 net.cpp:86] Creating Layer bn4e_branch2b
I0327 18:01:29.941742 17258 net.cpp:408] bn4e_branch2b <- res4e_branch2b
I0327 18:01:29.941747 17258 net.cpp:369] bn4e_branch2b -> res4e_branch2b (in-place)
I0327 18:01:29.941895 17258 net.cpp:124] Setting up bn4e_branch2b
I0327 18:01:29.941902 17258 net.cpp:131] Top shape: 32 256 14 14 (1605632)
I0327 18:01:29.941905 17258 net.cpp:139] Memory required for data: 2376335488
I0327 18:01:29.941911 17258 layer_factory.hpp:77] Creating layer scale4e_branch2b
I0327 18:01:29.941917 17258 net.cpp:86] Creating Layer scale4e_branch2b
I0327 18:01:29.941920 17258 net.cpp:408] scale4e_branch2b <- res4e_branch2b
I0327 18:01:29.941925 17258 net.cpp:369] scale4e_branch2b -> res4e_branch2b (in-place)
I0327 18:01:29.941962 17258 layer_factory.hpp:77] Creating layer scale4e_branch2b
I0327 18:01:29.942045 17258 net.cpp:124] Setting up scale4e_branch2b
I0327 18:01:29.942050 17258 net.cpp:131] Top shape: 32 256 14 14 (1605632)
I0327 18:01:29.942054 17258 net.cpp:139] Memory required for data: 2382758016
I0327 18:01:29.942059 17258 layer_factory.hpp:77] Creating layer res4e
I0327 18:01:29.942065 17258 net.cpp:86] Creating Layer res4e
I0327 18:01:29.942068 17258 net.cpp:408] res4e <- res4d_res4d_relu_0_split_1
I0327 18:01:29.942072 17258 net.cpp:408] res4e <- res4e_branch2b
I0327 18:01:29.942078 17258 net.cpp:382] res4e -> res4e
I0327 18:01:29.942098 17258 net.cpp:124] Setting up res4e
I0327 18:01:29.942103 17258 net.cpp:131] Top shape: 32 256 14 14 (1605632)
I0327 18:01:29.942106 17258 net.cpp:139] Memory required for data: 2389180544
I0327 18:01:29.942109 17258 layer_factory.hpp:77] Creating layer res4e_relu
I0327 18:01:29.942116 17258 net.cpp:86] Creating Layer res4e_relu
I0327 18:01:29.942119 17258 net.cpp:408] res4e_relu <- res4e
I0327 18:01:29.942123 17258 net.cpp:369] res4e_relu -> res4e (in-place)
I0327 18:01:29.942128 17258 net.cpp:124] Setting up res4e_relu
I0327 18:01:29.942133 17258 net.cpp:131] Top shape: 32 256 14 14 (1605632)
I0327 18:01:29.942137 17258 net.cpp:139] Memory required for data: 2395603072
I0327 18:01:29.942139 17258 layer_factory.hpp:77] Creating layer res4e_res4e_relu_0_split
I0327 18:01:29.942144 17258 net.cpp:86] Creating Layer res4e_res4e_relu_0_split
I0327 18:01:29.942147 17258 net.cpp:408] res4e_res4e_relu_0_split <- res4e
I0327 18:01:29.942152 17258 net.cpp:382] res4e_res4e_relu_0_split -> res4e_res4e_relu_0_split_0
I0327 18:01:29.942157 17258 net.cpp:382] res4e_res4e_relu_0_split -> res4e_res4e_relu_0_split_1
I0327 18:01:29.942184 17258 net.cpp:124] Setting up res4e_res4e_relu_0_split
I0327 18:01:29.942189 17258 net.cpp:131] Top shape: 32 256 14 14 (1605632)
I0327 18:01:29.942193 17258 net.cpp:131] Top shape: 32 256 14 14 (1605632)
I0327 18:01:29.942195 17258 net.cpp:139] Memory required for data: 2408448128
I0327 18:01:29.942198 17258 layer_factory.hpp:77] Creating layer res4f_branch2a
I0327 18:01:29.942207 17258 net.cpp:86] Creating Layer res4f_branch2a
I0327 18:01:29.942211 17258 net.cpp:408] res4f_branch2a <- res4e_res4e_relu_0_split_0
I0327 18:01:29.942216 17258 net.cpp:382] res4f_branch2a -> res4f_branch2a
I0327 18:01:29.947703 17258 net.cpp:124] Setting up res4f_branch2a
I0327 18:01:29.947719 17258 net.cpp:131] Top shape: 32 256 14 14 (1605632)
I0327 18:01:29.947721 17258 net.cpp:139] Memory required for data: 2414870656
I0327 18:01:29.947727 17258 layer_factory.hpp:77] Creating layer bn4f_branch2a
I0327 18:01:29.947736 17258 net.cpp:86] Creating Layer bn4f_branch2a
I0327 18:01:29.947741 17258 net.cpp:408] bn4f_branch2a <- res4f_branch2a
I0327 18:01:29.947746 17258 net.cpp:369] bn4f_branch2a -> res4f_branch2a (in-place)
I0327 18:01:29.947898 17258 net.cpp:124] Setting up bn4f_branch2a
I0327 18:01:29.947904 17258 net.cpp:131] Top shape: 32 256 14 14 (1605632)
I0327 18:01:29.947907 17258 net.cpp:139] Memory required for data: 2421293184
I0327 18:01:29.947913 17258 layer_factory.hpp:77] Creating layer scale4f_branch2a
I0327 18:01:29.947921 17258 net.cpp:86] Creating Layer scale4f_branch2a
I0327 18:01:29.947930 17258 net.cpp:408] scale4f_branch2a <- res4f_branch2a
I0327 18:01:29.947954 17258 net.cpp:369] scale4f_branch2a -> res4f_branch2a (in-place)
I0327 18:01:29.947993 17258 layer_factory.hpp:77] Creating layer scale4f_branch2a
I0327 18:01:29.948201 17258 net.cpp:124] Setting up scale4f_branch2a
I0327 18:01:29.948210 17258 net.cpp:131] Top shape: 32 256 14 14 (1605632)
I0327 18:01:29.948211 17258 net.cpp:139] Memory required for data: 2427715712
I0327 18:01:29.948217 17258 layer_factory.hpp:77] Creating layer res4f_branch2a_relu
I0327 18:01:29.948223 17258 net.cpp:86] Creating Layer res4f_branch2a_relu
I0327 18:01:29.948226 17258 net.cpp:408] res4f_branch2a_relu <- res4f_branch2a
I0327 18:01:29.948232 17258 net.cpp:369] res4f_branch2a_relu -> res4f_branch2a (in-place)
I0327 18:01:29.948237 17258 net.cpp:124] Setting up res4f_branch2a_relu
I0327 18:01:29.948241 17258 net.cpp:131] Top shape: 32 256 14 14 (1605632)
I0327 18:01:29.948245 17258 net.cpp:139] Memory required for data: 2434138240
I0327 18:01:29.948247 17258 layer_factory.hpp:77] Creating layer res4f_branch2b
I0327 18:01:29.948256 17258 net.cpp:86] Creating Layer res4f_branch2b
I0327 18:01:29.948259 17258 net.cpp:408] res4f_branch2b <- res4f_branch2a
I0327 18:01:29.948264 17258 net.cpp:382] res4f_branch2b -> res4f_branch2b
I0327 18:01:29.954066 17258 net.cpp:124] Setting up res4f_branch2b
I0327 18:01:29.954093 17258 net.cpp:131] Top shape: 32 256 14 14 (1605632)
I0327 18:01:29.954097 17258 net.cpp:139] Memory required for data: 2440560768
I0327 18:01:29.954107 17258 layer_factory.hpp:77] Creating layer bn4f_branch2b
I0327 18:01:29.954118 17258 net.cpp:86] Creating Layer bn4f_branch2b
I0327 18:01:29.954123 17258 net.cpp:408] bn4f_branch2b <- res4f_branch2b
I0327 18:01:29.954131 17258 net.cpp:369] bn4f_branch2b -> res4f_branch2b (in-place)
I0327 18:01:29.954309 17258 net.cpp:124] Setting up bn4f_branch2b
I0327 18:01:29.954316 17258 net.cpp:131] Top shape: 32 256 14 14 (1605632)
I0327 18:01:29.954319 17258 net.cpp:139] Memory required for data: 2446983296
I0327 18:01:29.954327 17258 layer_factory.hpp:77] Creating layer scale4f_branch2b
I0327 18:01:29.954336 17258 net.cpp:86] Creating Layer scale4f_branch2b
I0327 18:01:29.954340 17258 net.cpp:408] scale4f_branch2b <- res4f_branch2b
I0327 18:01:29.954344 17258 net.cpp:369] scale4f_branch2b -> res4f_branch2b (in-place)
I0327 18:01:29.954391 17258 layer_factory.hpp:77] Creating layer scale4f_branch2b
I0327 18:01:29.954566 17258 net.cpp:124] Setting up scale4f_branch2b
I0327 18:01:29.954576 17258 net.cpp:131] Top shape: 32 256 14 14 (1605632)
I0327 18:01:29.954579 17258 net.cpp:139] Memory required for data: 2453405824
I0327 18:01:29.954587 17258 layer_factory.hpp:77] Creating layer res4f
I0327 18:01:29.954598 17258 net.cpp:86] Creating Layer res4f
I0327 18:01:29.954603 17258 net.cpp:408] res4f <- res4e_res4e_relu_0_split_1
I0327 18:01:29.954609 17258 net.cpp:408] res4f <- res4f_branch2b
I0327 18:01:29.954617 17258 net.cpp:382] res4f -> res4f
I0327 18:01:29.954648 17258 net.cpp:124] Setting up res4f
I0327 18:01:29.954655 17258 net.cpp:131] Top shape: 32 256 14 14 (1605632)
I0327 18:01:29.954660 17258 net.cpp:139] Memory required for data: 2459828352
I0327 18:01:29.954664 17258 layer_factory.hpp:77] Creating layer res4f_relu
I0327 18:01:29.954671 17258 net.cpp:86] Creating Layer res4f_relu
I0327 18:01:29.954676 17258 net.cpp:408] res4f_relu <- res4f
I0327 18:01:29.954684 17258 net.cpp:369] res4f_relu -> res4f (in-place)
I0327 18:01:29.954694 17258 net.cpp:124] Setting up res4f_relu
I0327 18:01:29.954699 17258 net.cpp:131] Top shape: 32 256 14 14 (1605632)
I0327 18:01:29.954702 17258 net.cpp:139] Memory required for data: 2466250880
I0327 18:01:29.954706 17258 layer_factory.hpp:77] Creating layer res4f_res4f_relu_0_split
I0327 18:01:29.954715 17258 net.cpp:86] Creating Layer res4f_res4f_relu_0_split
I0327 18:01:29.954720 17258 net.cpp:408] res4f_res4f_relu_0_split <- res4f
I0327 18:01:29.954725 17258 net.cpp:382] res4f_res4f_relu_0_split -> res4f_res4f_relu_0_split_0
I0327 18:01:29.954733 17258 net.cpp:382] res4f_res4f_relu_0_split -> res4f_res4f_relu_0_split_1
I0327 18:01:29.954815 17258 net.cpp:124] Setting up res4f_res4f_relu_0_split
I0327 18:01:29.954824 17258 net.cpp:131] Top shape: 32 256 14 14 (1605632)
I0327 18:01:29.954829 17258 net.cpp:131] Top shape: 32 256 14 14 (1605632)
I0327 18:01:29.954833 17258 net.cpp:139] Memory required for data: 2479095936
I0327 18:01:29.954838 17258 layer_factory.hpp:77] Creating layer res5a_branch1
I0327 18:01:29.954850 17258 net.cpp:86] Creating Layer res5a_branch1
I0327 18:01:29.954855 17258 net.cpp:408] res5a_branch1 <- res4f_res4f_relu_0_split_0
I0327 18:01:29.954864 17258 net.cpp:382] res5a_branch1 -> res5a_branch1
I0327 18:01:29.956074 17258 net.cpp:124] Setting up res5a_branch1
I0327 18:01:29.956082 17258 net.cpp:131] Top shape: 32 512 7 7 (802816)
I0327 18:01:29.956085 17258 net.cpp:139] Memory required for data: 2482307200
I0327 18:01:29.956089 17258 layer_factory.hpp:77] Creating layer bn5a_branch1
I0327 18:01:29.956099 17258 net.cpp:86] Creating Layer bn5a_branch1
I0327 18:01:29.956104 17258 net.cpp:408] bn5a_branch1 <- res5a_branch1
I0327 18:01:29.956112 17258 net.cpp:369] bn5a_branch1 -> res5a_branch1 (in-place)
I0327 18:01:29.956370 17258 net.cpp:124] Setting up bn5a_branch1
I0327 18:01:29.956383 17258 net.cpp:131] Top shape: 32 512 7 7 (802816)
I0327 18:01:29.956387 17258 net.cpp:139] Memory required for data: 2485518464
I0327 18:01:29.956396 17258 layer_factory.hpp:77] Creating layer scale5a_branch1
I0327 18:01:29.956403 17258 net.cpp:86] Creating Layer scale5a_branch1
I0327 18:01:29.956408 17258 net.cpp:408] scale5a_branch1 <- res5a_branch1
I0327 18:01:29.956414 17258 net.cpp:369] scale5a_branch1 -> res5a_branch1 (in-place)
I0327 18:01:29.956459 17258 layer_factory.hpp:77] Creating layer scale5a_branch1
I0327 18:01:29.956593 17258 net.cpp:124] Setting up scale5a_branch1
I0327 18:01:29.956604 17258 net.cpp:131] Top shape: 32 512 7 7 (802816)
I0327 18:01:29.956607 17258 net.cpp:139] Memory required for data: 2488729728
I0327 18:01:29.956614 17258 layer_factory.hpp:77] Creating layer res5a_branch2a
I0327 18:01:29.956625 17258 net.cpp:86] Creating Layer res5a_branch2a
I0327 18:01:29.956631 17258 net.cpp:408] res5a_branch2a <- res4f_res4f_relu_0_split_1
I0327 18:01:29.956640 17258 net.cpp:382] res5a_branch2a -> res5a_branch2a
I0327 18:01:29.970436 17258 net.cpp:124] Setting up res5a_branch2a
I0327 18:01:29.970463 17258 net.cpp:131] Top shape: 32 512 7 7 (802816)
I0327 18:01:29.970465 17258 net.cpp:139] Memory required for data: 2491940992
I0327 18:01:29.970474 17258 layer_factory.hpp:77] Creating layer bn5a_branch2a
I0327 18:01:29.970489 17258 net.cpp:86] Creating Layer bn5a_branch2a
I0327 18:01:29.970496 17258 net.cpp:408] bn5a_branch2a <- res5a_branch2a
I0327 18:01:29.970504 17258 net.cpp:369] bn5a_branch2a -> res5a_branch2a (in-place)
I0327 18:01:29.970690 17258 net.cpp:124] Setting up bn5a_branch2a
I0327 18:01:29.970696 17258 net.cpp:131] Top shape: 32 512 7 7 (802816)
I0327 18:01:29.970700 17258 net.cpp:139] Memory required for data: 2495152256
I0327 18:01:29.970706 17258 layer_factory.hpp:77] Creating layer scale5a_branch2a
I0327 18:01:29.970715 17258 net.cpp:86] Creating Layer scale5a_branch2a
I0327 18:01:29.970719 17258 net.cpp:408] scale5a_branch2a <- res5a_branch2a
I0327 18:01:29.970723 17258 net.cpp:369] scale5a_branch2a -> res5a_branch2a (in-place)
I0327 18:01:29.970762 17258 layer_factory.hpp:77] Creating layer scale5a_branch2a
I0327 18:01:29.970855 17258 net.cpp:124] Setting up scale5a_branch2a
I0327 18:01:29.970861 17258 net.cpp:131] Top shape: 32 512 7 7 (802816)
I0327 18:01:29.970865 17258 net.cpp:139] Memory required for data: 2498363520
I0327 18:01:29.970870 17258 layer_factory.hpp:77] Creating layer res5a_branch2a_relu
I0327 18:01:29.970875 17258 net.cpp:86] Creating Layer res5a_branch2a_relu
I0327 18:01:29.970877 17258 net.cpp:408] res5a_branch2a_relu <- res5a_branch2a
I0327 18:01:29.970883 17258 net.cpp:369] res5a_branch2a_relu -> res5a_branch2a (in-place)
I0327 18:01:29.970890 17258 net.cpp:124] Setting up res5a_branch2a_relu
I0327 18:01:29.970893 17258 net.cpp:131] Top shape: 32 512 7 7 (802816)
I0327 18:01:29.970923 17258 net.cpp:139] Memory required for data: 2501574784
I0327 18:01:29.970927 17258 layer_factory.hpp:77] Creating layer res5a_branch2b
I0327 18:01:29.970937 17258 net.cpp:86] Creating Layer res5a_branch2b
I0327 18:01:29.970939 17258 net.cpp:408] res5a_branch2b <- res5a_branch2a
I0327 18:01:29.970944 17258 net.cpp:382] res5a_branch2b -> res5a_branch2b
I0327 18:01:29.993116 17258 net.cpp:124] Setting up res5a_branch2b
I0327 18:01:29.993156 17258 net.cpp:131] Top shape: 32 512 7 7 (802816)
I0327 18:01:29.993160 17258 net.cpp:139] Memory required for data: 2504786048
I0327 18:01:29.993171 17258 layer_factory.hpp:77] Creating layer bn5a_branch2b
I0327 18:01:29.993185 17258 net.cpp:86] Creating Layer bn5a_branch2b
I0327 18:01:29.993191 17258 net.cpp:408] bn5a_branch2b <- res5a_branch2b
I0327 18:01:29.993201 17258 net.cpp:369] bn5a_branch2b -> res5a_branch2b (in-place)
I0327 18:01:29.993408 17258 net.cpp:124] Setting up bn5a_branch2b
I0327 18:01:29.993418 17258 net.cpp:131] Top shape: 32 512 7 7 (802816)
I0327 18:01:29.993422 17258 net.cpp:139] Memory required for data: 2507997312
I0327 18:01:29.993429 17258 layer_factory.hpp:77] Creating layer scale5a_branch2b
I0327 18:01:29.993438 17258 net.cpp:86] Creating Layer scale5a_branch2b
I0327 18:01:29.993441 17258 net.cpp:408] scale5a_branch2b <- res5a_branch2b
I0327 18:01:29.993448 17258 net.cpp:369] scale5a_branch2b -> res5a_branch2b (in-place)
I0327 18:01:29.993491 17258 layer_factory.hpp:77] Creating layer scale5a_branch2b
I0327 18:01:29.993592 17258 net.cpp:124] Setting up scale5a_branch2b
I0327 18:01:29.993598 17258 net.cpp:131] Top shape: 32 512 7 7 (802816)
I0327 18:01:29.993602 17258 net.cpp:139] Memory required for data: 2511208576
I0327 18:01:29.993608 17258 layer_factory.hpp:77] Creating layer res5a
I0327 18:01:29.993619 17258 net.cpp:86] Creating Layer res5a
I0327 18:01:29.993623 17258 net.cpp:408] res5a <- res5a_branch1
I0327 18:01:29.993628 17258 net.cpp:408] res5a <- res5a_branch2b
I0327 18:01:29.993633 17258 net.cpp:382] res5a -> res5a
I0327 18:01:29.993657 17258 net.cpp:124] Setting up res5a
I0327 18:01:29.993664 17258 net.cpp:131] Top shape: 32 512 7 7 (802816)
I0327 18:01:29.993667 17258 net.cpp:139] Memory required for data: 2514419840
I0327 18:01:29.993670 17258 layer_factory.hpp:77] Creating layer res5a_relu
I0327 18:01:29.993677 17258 net.cpp:86] Creating Layer res5a_relu
I0327 18:01:29.993680 17258 net.cpp:408] res5a_relu <- res5a
I0327 18:01:29.993687 17258 net.cpp:369] res5a_relu -> res5a (in-place)
I0327 18:01:29.993695 17258 net.cpp:124] Setting up res5a_relu
I0327 18:01:29.993698 17258 net.cpp:131] Top shape: 32 512 7 7 (802816)
I0327 18:01:29.993701 17258 net.cpp:139] Memory required for data: 2517631104
I0327 18:01:29.993705 17258 layer_factory.hpp:77] Creating layer res5a_res5a_relu_0_split
I0327 18:01:29.993711 17258 net.cpp:86] Creating Layer res5a_res5a_relu_0_split
I0327 18:01:29.993715 17258 net.cpp:408] res5a_res5a_relu_0_split <- res5a
I0327 18:01:29.993718 17258 net.cpp:382] res5a_res5a_relu_0_split -> res5a_res5a_relu_0_split_0
I0327 18:01:29.993726 17258 net.cpp:382] res5a_res5a_relu_0_split -> res5a_res5a_relu_0_split_1
I0327 18:01:29.993755 17258 net.cpp:124] Setting up res5a_res5a_relu_0_split
I0327 18:01:29.993762 17258 net.cpp:131] Top shape: 32 512 7 7 (802816)
I0327 18:01:29.993765 17258 net.cpp:131] Top shape: 32 512 7 7 (802816)
I0327 18:01:29.993768 17258 net.cpp:139] Memory required for data: 2524053632
I0327 18:01:29.993772 17258 layer_factory.hpp:77] Creating layer res5b_branch2a
I0327 18:01:29.993783 17258 net.cpp:86] Creating Layer res5b_branch2a
I0327 18:01:29.993788 17258 net.cpp:408] res5b_branch2a <- res5a_res5a_relu_0_split_0
I0327 18:01:29.993793 17258 net.cpp:382] res5b_branch2a -> res5b_branch2a
I0327 18:01:30.015657 17258 net.cpp:124] Setting up res5b_branch2a
I0327 18:01:30.015712 17258 net.cpp:131] Top shape: 32 512 7 7 (802816)
I0327 18:01:30.015718 17258 net.cpp:139] Memory required for data: 2527264896
I0327 18:01:30.015733 17258 layer_factory.hpp:77] Creating layer bn5b_branch2a
I0327 18:01:30.015799 17258 net.cpp:86] Creating Layer bn5b_branch2a
I0327 18:01:30.015808 17258 net.cpp:408] bn5b_branch2a <- res5b_branch2a
I0327 18:01:30.015821 17258 net.cpp:369] bn5b_branch2a -> res5b_branch2a (in-place)
I0327 18:01:30.016046 17258 net.cpp:124] Setting up bn5b_branch2a
I0327 18:01:30.016053 17258 net.cpp:131] Top shape: 32 512 7 7 (802816)
I0327 18:01:30.016057 17258 net.cpp:139] Memory required for data: 2530476160
I0327 18:01:30.016064 17258 layer_factory.hpp:77] Creating layer scale5b_branch2a
I0327 18:01:30.016074 17258 net.cpp:86] Creating Layer scale5b_branch2a
I0327 18:01:30.016078 17258 net.cpp:408] scale5b_branch2a <- res5b_branch2a
I0327 18:01:30.016086 17258 net.cpp:369] scale5b_branch2a -> res5b_branch2a (in-place)
I0327 18:01:30.016130 17258 layer_factory.hpp:77] Creating layer scale5b_branch2a
I0327 18:01:30.016229 17258 net.cpp:124] Setting up scale5b_branch2a
I0327 18:01:30.016237 17258 net.cpp:131] Top shape: 32 512 7 7 (802816)
I0327 18:01:30.016240 17258 net.cpp:139] Memory required for data: 2533687424
I0327 18:01:30.016247 17258 layer_factory.hpp:77] Creating layer res5b_branch2a_relu
I0327 18:01:30.016253 17258 net.cpp:86] Creating Layer res5b_branch2a_relu
I0327 18:01:30.016258 17258 net.cpp:408] res5b_branch2a_relu <- res5b_branch2a
I0327 18:01:30.016261 17258 net.cpp:369] res5b_branch2a_relu -> res5b_branch2a (in-place)
I0327 18:01:30.016268 17258 net.cpp:124] Setting up res5b_branch2a_relu
I0327 18:01:30.016273 17258 net.cpp:131] Top shape: 32 512 7 7 (802816)
I0327 18:01:30.016275 17258 net.cpp:139] Memory required for data: 2536898688
I0327 18:01:30.016278 17258 layer_factory.hpp:77] Creating layer res5b_branch2b
I0327 18:01:30.016289 17258 net.cpp:86] Creating Layer res5b_branch2b
I0327 18:01:30.016294 17258 net.cpp:408] res5b_branch2b <- res5b_branch2a
I0327 18:01:30.016300 17258 net.cpp:382] res5b_branch2b -> res5b_branch2b
I0327 18:01:30.042501 17258 net.cpp:124] Setting up res5b_branch2b
I0327 18:01:30.042572 17258 net.cpp:131] Top shape: 32 512 7 7 (802816)
I0327 18:01:30.042575 17258 net.cpp:139] Memory required for data: 2540109952
I0327 18:01:30.042630 17258 layer_factory.hpp:77] Creating layer bn5b_branch2b
I0327 18:01:30.042665 17258 net.cpp:86] Creating Layer bn5b_branch2b
I0327 18:01:30.042691 17258 net.cpp:408] bn5b_branch2b <- res5b_branch2b
I0327 18:01:30.042712 17258 net.cpp:369] bn5b_branch2b -> res5b_branch2b (in-place)
I0327 18:01:30.043112 17258 net.cpp:124] Setting up bn5b_branch2b
I0327 18:01:30.043128 17258 net.cpp:131] Top shape: 32 512 7 7 (802816)
I0327 18:01:30.043131 17258 net.cpp:139] Memory required for data: 2543321216
I0327 18:01:30.043143 17258 layer_factory.hpp:77] Creating layer scale5b_branch2b
I0327 18:01:30.043159 17258 net.cpp:86] Creating Layer scale5b_branch2b
I0327 18:01:30.043164 17258 net.cpp:408] scale5b_branch2b <- res5b_branch2b
I0327 18:01:30.043169 17258 net.cpp:369] scale5b_branch2b -> res5b_branch2b (in-place)
I0327 18:01:30.043278 17258 layer_factory.hpp:77] Creating layer scale5b_branch2b
I0327 18:01:30.043392 17258 net.cpp:124] Setting up scale5b_branch2b
I0327 18:01:30.043399 17258 net.cpp:131] Top shape: 32 512 7 7 (802816)
I0327 18:01:30.043402 17258 net.cpp:139] Memory required for data: 2546532480
I0327 18:01:30.043413 17258 layer_factory.hpp:77] Creating layer res5b
I0327 18:01:30.043423 17258 net.cpp:86] Creating Layer res5b
I0327 18:01:30.043427 17258 net.cpp:408] res5b <- res5a_res5a_relu_0_split_1
I0327 18:01:30.043432 17258 net.cpp:408] res5b <- res5b_branch2b
I0327 18:01:30.043439 17258 net.cpp:382] res5b -> res5b
I0327 18:01:30.043467 17258 net.cpp:124] Setting up res5b
I0327 18:01:30.043475 17258 net.cpp:131] Top shape: 32 512 7 7 (802816)
I0327 18:01:30.043478 17258 net.cpp:139] Memory required for data: 2549743744
I0327 18:01:30.043483 17258 layer_factory.hpp:77] Creating layer res5b_relu
I0327 18:01:30.043488 17258 net.cpp:86] Creating Layer res5b_relu
I0327 18:01:30.043491 17258 net.cpp:408] res5b_relu <- res5b
I0327 18:01:30.043495 17258 net.cpp:369] res5b_relu -> res5b (in-place)
I0327 18:01:30.043511 17258 net.cpp:124] Setting up res5b_relu
I0327 18:01:30.043540 17258 net.cpp:131] Top shape: 32 512 7 7 (802816)
I0327 18:01:30.043543 17258 net.cpp:139] Memory required for data: 2552955008
I0327 18:01:30.043546 17258 layer_factory.hpp:77] Creating layer res5b_res5b_relu_0_split
I0327 18:01:30.043552 17258 net.cpp:86] Creating Layer res5b_res5b_relu_0_split
I0327 18:01:30.043555 17258 net.cpp:408] res5b_res5b_relu_0_split <- res5b
I0327 18:01:30.043562 17258 net.cpp:382] res5b_res5b_relu_0_split -> res5b_res5b_relu_0_split_0
I0327 18:01:30.043568 17258 net.cpp:382] res5b_res5b_relu_0_split -> res5b_res5b_relu_0_split_1
I0327 18:01:30.043603 17258 net.cpp:124] Setting up res5b_res5b_relu_0_split
I0327 18:01:30.043609 17258 net.cpp:131] Top shape: 32 512 7 7 (802816)
I0327 18:01:30.043613 17258 net.cpp:131] Top shape: 32 512 7 7 (802816)
I0327 18:01:30.043617 17258 net.cpp:139] Memory required for data: 2559377536
I0327 18:01:30.043624 17258 layer_factory.hpp:77] Creating layer res5c_branch2a
I0327 18:01:30.043637 17258 net.cpp:86] Creating Layer res5c_branch2a
I0327 18:01:30.043640 17258 net.cpp:408] res5c_branch2a <- res5b_res5b_relu_0_split_0
I0327 18:01:30.043646 17258 net.cpp:382] res5c_branch2a -> res5c_branch2a
I0327 18:01:30.064815 17258 net.cpp:124] Setting up res5c_branch2a
I0327 18:01:30.064857 17258 net.cpp:131] Top shape: 32 512 7 7 (802816)
I0327 18:01:30.064859 17258 net.cpp:139] Memory required for data: 2562588800
I0327 18:01:30.064868 17258 layer_factory.hpp:77] Creating layer bn5c_branch2a
I0327 18:01:30.064882 17258 net.cpp:86] Creating Layer bn5c_branch2a
I0327 18:01:30.064888 17258 net.cpp:408] bn5c_branch2a <- res5c_branch2a
I0327 18:01:30.064895 17258 net.cpp:369] bn5c_branch2a -> res5c_branch2a (in-place)
I0327 18:01:30.065084 17258 net.cpp:124] Setting up bn5c_branch2a
I0327 18:01:30.065093 17258 net.cpp:131] Top shape: 32 512 7 7 (802816)
I0327 18:01:30.065096 17258 net.cpp:139] Memory required for data: 2565800064
I0327 18:01:30.065104 17258 layer_factory.hpp:77] Creating layer scale5c_branch2a
I0327 18:01:30.065111 17258 net.cpp:86] Creating Layer scale5c_branch2a
I0327 18:01:30.065115 17258 net.cpp:408] scale5c_branch2a <- res5c_branch2a
I0327 18:01:30.065119 17258 net.cpp:369] scale5c_branch2a -> res5c_branch2a (in-place)
I0327 18:01:30.065160 17258 layer_factory.hpp:77] Creating layer scale5c_branch2a
I0327 18:01:30.065274 17258 net.cpp:124] Setting up scale5c_branch2a
I0327 18:01:30.065281 17258 net.cpp:131] Top shape: 32 512 7 7 (802816)
I0327 18:01:30.065284 17258 net.cpp:139] Memory required for data: 2569011328
I0327 18:01:30.065289 17258 layer_factory.hpp:77] Creating layer res5c_branch2a_relu
I0327 18:01:30.065295 17258 net.cpp:86] Creating Layer res5c_branch2a_relu
I0327 18:01:30.065299 17258 net.cpp:408] res5c_branch2a_relu <- res5c_branch2a
I0327 18:01:30.065305 17258 net.cpp:369] res5c_branch2a_relu -> res5c_branch2a (in-place)
I0327 18:01:30.065312 17258 net.cpp:124] Setting up res5c_branch2a_relu
I0327 18:01:30.065316 17258 net.cpp:131] Top shape: 32 512 7 7 (802816)
I0327 18:01:30.065320 17258 net.cpp:139] Memory required for data: 2572222592
I0327 18:01:30.065322 17258 layer_factory.hpp:77] Creating layer res5c_branch2b
I0327 18:01:30.065346 17258 net.cpp:86] Creating Layer res5c_branch2b
I0327 18:01:30.065349 17258 net.cpp:408] res5c_branch2b <- res5c_branch2a
I0327 18:01:30.065356 17258 net.cpp:382] res5c_branch2b -> res5c_branch2b
I0327 18:01:30.086225 17258 net.cpp:124] Setting up res5c_branch2b
I0327 18:01:30.086259 17258 net.cpp:131] Top shape: 32 512 7 7 (802816)
I0327 18:01:30.086263 17258 net.cpp:139] Memory required for data: 2575433856
I0327 18:01:30.086272 17258 layer_factory.hpp:77] Creating layer bn5c_branch2b
I0327 18:01:30.086285 17258 net.cpp:86] Creating Layer bn5c_branch2b
I0327 18:01:30.086292 17258 net.cpp:408] bn5c_branch2b <- res5c_branch2b
I0327 18:01:30.086299 17258 net.cpp:369] bn5c_branch2b -> res5c_branch2b (in-place)
I0327 18:01:30.086479 17258 net.cpp:124] Setting up bn5c_branch2b
I0327 18:01:30.086494 17258 net.cpp:131] Top shape: 32 512 7 7 (802816)
I0327 18:01:30.086522 17258 net.cpp:139] Memory required for data: 2578645120
I0327 18:01:30.086530 17258 layer_factory.hpp:77] Creating layer scale5c_branch2b
I0327 18:01:30.086537 17258 net.cpp:86] Creating Layer scale5c_branch2b
I0327 18:01:30.086541 17258 net.cpp:408] scale5c_branch2b <- res5c_branch2b
I0327 18:01:30.086549 17258 net.cpp:369] scale5c_branch2b -> res5c_branch2b (in-place)
I0327 18:01:30.086588 17258 layer_factory.hpp:77] Creating layer scale5c_branch2b
I0327 18:01:30.086695 17258 net.cpp:124] Setting up scale5c_branch2b
I0327 18:01:30.086705 17258 net.cpp:131] Top shape: 32 512 7 7 (802816)
I0327 18:01:30.086709 17258 net.cpp:139] Memory required for data: 2581856384
I0327 18:01:30.086714 17258 layer_factory.hpp:77] Creating layer res5c
I0327 18:01:30.086721 17258 net.cpp:86] Creating Layer res5c
I0327 18:01:30.086725 17258 net.cpp:408] res5c <- res5b_res5b_relu_0_split_1
I0327 18:01:30.086730 17258 net.cpp:408] res5c <- res5c_branch2b
I0327 18:01:30.086735 17258 net.cpp:382] res5c -> res5c
I0327 18:01:30.086763 17258 net.cpp:124] Setting up res5c
I0327 18:01:30.086769 17258 net.cpp:131] Top shape: 32 512 7 7 (802816)
I0327 18:01:30.086772 17258 net.cpp:139] Memory required for data: 2585067648
I0327 18:01:30.086776 17258 layer_factory.hpp:77] Creating layer res5c_relu
I0327 18:01:30.086783 17258 net.cpp:86] Creating Layer res5c_relu
I0327 18:01:30.086786 17258 net.cpp:408] res5c_relu <- res5c
I0327 18:01:30.086791 17258 net.cpp:369] res5c_relu -> res5c (in-place)
I0327 18:01:30.086797 17258 net.cpp:124] Setting up res5c_relu
I0327 18:01:30.086802 17258 net.cpp:131] Top shape: 32 512 7 7 (802816)
I0327 18:01:30.086805 17258 net.cpp:139] Memory required for data: 2588278912
I0327 18:01:30.086808 17258 layer_factory.hpp:77] Creating layer pool5
I0327 18:01:30.086814 17258 net.cpp:86] Creating Layer pool5
I0327 18:01:30.086817 17258 net.cpp:408] pool5 <- res5c
I0327 18:01:30.086838 17258 net.cpp:382] pool5 -> pool5
I0327 18:01:30.086863 17258 net.cpp:124] Setting up pool5
I0327 18:01:30.086869 17258 net.cpp:131] Top shape: 32 512 1 1 (16384)
I0327 18:01:30.086874 17258 net.cpp:139] Memory required for data: 2588344448
I0327 18:01:30.086876 17258 layer_factory.hpp:77] Creating layer fc1000
I0327 18:01:30.086889 17258 net.cpp:86] Creating Layer fc1000
I0327 18:01:30.086892 17258 net.cpp:408] fc1000 <- pool5
I0327 18:01:30.086899 17258 net.cpp:382] fc1000 -> fc1000
I0327 18:01:30.090204 17258 net.cpp:124] Setting up fc1000
I0327 18:01:30.090216 17258 net.cpp:131] Top shape: 32 1000 (32000)
I0327 18:01:30.090219 17258 net.cpp:139] Memory required for data: 2588472448
I0327 18:01:30.090226 17258 layer_factory.hpp:77] Creating layer loss
I0327 18:01:30.090239 17258 net.cpp:86] Creating Layer loss
I0327 18:01:30.090242 17258 net.cpp:408] loss <- fc1000
I0327 18:01:30.090247 17258 net.cpp:408] loss <- label
I0327 18:01:30.090255 17258 net.cpp:382] loss -> loss
I0327 18:01:30.090263 17258 layer_factory.hpp:77] Creating layer loss
…
I0327 18:01:30.172020 17258 net.cpp:296] The NetState phase (1) differed from the phase (0) specified by a rule in layer data
I0327 18:01:30.172559 17258 net.cpp:53] Initializing net from parameters: 
name: "resnet_34"
state {
  phase: TEST
}
layer {
  name: "data"
  type: "Data"
  top: "data"
  top: "label"
  include {
    phase: TEST
  }
  transform_param {
    mirror: false
    crop_size: 224
    mean_file: "/shared/datasets/ImageNet2012/lmdb_data/imagenet_mean.binaryproto"
  }
  data_param {
    source: "/shared/datasets/ImageNet2012/lmdb_data/ilsvrc12_val_lmdb"
    batch_size: 10
    backend: LMDB
  }
}
layer {
  name: "conv1"
  type: "Convolution"
  bottom: "data"
  top: "conv1"
  convolution_param {
    num_output: 64
    bias_term: false
    pad: 3
    kernel_size: 7
    stride: 2
    weight_filler {
      type: "msra"
    }
  }
}
layer {
  name: "bn_conv1"
  type: "BatchNorm"
  bottom: "conv1"
  top: "conv1"
  batch_norm_param {
    use_global_stats: false
  }
}
layer {
  name: "scale_conv1"
  type: "Scale"
  bottom: "conv1"
  top: "conv1"
  scale_param {
    bias_term: true
  }
}
layer {
  name: "conv1_relu"
  type: "ReLU"
  bottom: "conv1"
  top: "conv1"
}
layer {
  name: "pool1"
  type: "Pooling"
  bottom: "conv1"
  top: "pool1"
  pooling_param {
    pool: MAX
    kernel_size: 3
    stride: 2
  }
}
layer {
  name: "res2a_branch1"
  type: "Convolution"
  bottom: "pool1"
  top: "res2a_branch1"
  convolution_param {
    num_output: 64
    bias_term: false
    pad: 0
    kernel_size: 1
    stride: 1
    weight_filler {
      type: "msra"
    }
  }
}
layer {
  name: "bn2a_branch1"
  type: "BatchNorm"
  bottom: "res2a_branch1"
  top: "res2a_branch1"
  batch_norm_param {
    use_global_stats: false
  }
}
layer {
  name: "scale2a_branch1"
  type: "Scale"
  bottom: "res2a_branch1"
  top: "res2a_branch1"
  scale_param {
    bias_term: true
  }
}
layer {
  name: "res2a_branch2a"
  type: "Convolution"
  bottom: "pool1"
  top: "res2a_branch2a"
  convolution_param {
    num_output: 64
    bias_term: false
    pad: 1
    kernel_size: 3
    stride: 1
    weight_filler {
      type: "msra"
    }
  }
}
layer {
  name: "bn2a_branch2a"
  type: "BatchNorm"
  bottom: "res2a_branch2a"
  top: "res2a_branch2a"
  batch_norm_param {
    use_global_stats: false
  }
}
layer {
  name: "scale2a_branch2a"
  type: "Scale"
  bottom: "res2a_branch2a"
  top: "res2a_branch2a"
  scale_param {
    bias_term: true
  }
}
layer {
  name: "res2a_branch2a_relu"
  type: "ReLU"
  bottom: "res2a_branch2a"
  top: "res2a_branch2a"
}
layer {
  name: "res2a_branch2b"
  type: "Convolution"
  bottom: "res2a_branch2a"
  top: "res2a_branch2b"
  convolution_param {
    num_output: 64
    bias_term: false
    pad: 1
    kernel_size: 3
    stride: 1
    weight_filler {
      type: "msra"
    }
  }
}
layer {
  name: "bn2a_branch2b"
  type: "BatchNorm"
  bottom: "res2a_branch2b"
  top: "res2a_branch2b"
  batch_norm_param {
    use_global_stats: false
  }
}
layer {
  name: "scale2a_branch2b"
  type: "Scale"
  bottom: "res2a_branch2b"
  top: "res2a_branch2b"
  scale_param {
    bias_term: true
  }
}
layer {
  name: "res2a"
  type: "Eltwise"
  bottom: "res2a_branch1"
  bottom: "res2a_branch2b"
  top: "res2a"
  eltwise_param {
    operation: SUM
  }
}
layer {
  name: "res2a_relu"
  type: "ReLU"
  bottom: "res2a"
  top: "res2a"
}
layer {
  name: "res2b_branch2a"
  type: "Convolution"
  bottom: "res2a"
  top: "res2b_branch2a"
  convolution_param {
    num_output: 64
    bias_term: false
    pad: 1
    kernel_size: 3
    stride: 1
    weight_filler {
      type: "msra"
    }
  }
}
layer {
  name: "bn2b_branch2a"
  type: "BatchNorm"
  bottom: "res2b_branch2a"
  top: "res2b_branch2a"
  batch_norm_param {
    use_global_stats: false
  }
}
layer {
  name: "scale2b_branch2a"
  type: "Scale"
  bottom: "res2b_branch2a"
  top: "res2b_branch2a"
  scale_param {
    bias_term: true
  }
}
layer {
  name: "res2b_branch2a_relu"
  type: "ReLU"
  bottom: "res2b_branch2a"
  top: "res2b_branch2a"
}
layer {
  name: "res2b_branch2b"
  type: "Convolution"
  bottom: "res2b_branch2a"
  top: "res2b_branch2b"
  convolution_param {
    num_output: 64
    bias_term: false
    pad: 1
    kernel_size: 3
    stride: 1
    weight_filler {
      type: "msra"
    }
  }
}
layer {
  name: "bn2b_branch2b"
  type: "BatchNorm"
  bottom: "res2b_branch2b"
  top: "res2b_branch2b"
  batch_norm_param {
    use_global_stats: false
  }
}
layer {
  name: "scale2b_branch2b"
  type: "Scale"
  bottom: "res2b_branch2b"
  top: "res2b_branch2b"
  scale_param {
    bias_term: true
  }
}
layer {
  name: "res2b"
  type: "Eltwise"
  bottom: "res2a"
  bottom: "res2b_branch2b"
  top: "res2b"
  eltwise_param {
    operation: SUM
  }
}
layer {
  name: "res2b_relu"
  type: "ReLU"
  bottom: "res2b"
  top: "res2b"
}
layer {
  name: "res2c_branch2a"
  type: "Convolution"
  bottom: "res2b"
  top: "res2c_branch2a"
  convolution_param {
    num_output: 64
    bias_term: false
    pad: 1
    kernel_size: 3
    stride: 1
    weight_filler {
      type: "msra"
    }
  }
}
layer {
  name: "bn2c_branch2a"
  type: "BatchNorm"
  bottom: "res2c_branch2a"
  top: "res2c_branch2a"
  batch_norm_param {
    use_global_stats: false
  }
}
layer {
  name: "scale2c_branch2a"
  type: "Scale"
  bottom: "res2c_branch2a"
  top: "res2c_branch2a"
  scale_param {
    bias_term: true
  }
}
layer {
  name: "res2c_branch2a_relu"
  type: "ReLU"
  bottom: "res2c_branch2a"
  top: "res2c_branch2a"
}
layer {
  name: "res2c_branch2b"
  type: "Convolution"
  bottom: "res2c_branch2a"
  top: "res2c_branch2b"
  convolution_param {
    num_output: 64
    bias_term: false
    pad: 1
    kernel_size: 3
    stride: 1
    weight_filler {
      type: "msra"
    }
  }
}
layer {
  name: "bn2c_branch2b"
  type: "BatchNorm"
  bottom: "res2c_branch2b"
  top: "res2c_branch2b"
  batch_norm_param {
    use_global_stats: false
  }
}
layer {
  name: "scale2c_branch2b"
  type: "Scale"
  bottom: "res2c_branch2b"
  top: "res2c_branch2b"
  scale_param {
    bias_term: true
  }
}
layer {
  name: "res2c"
  type: "Eltwise"
  bottom: "res2b"
  bottom: "res2c_branch2b"
  top: "res2c"
  eltwise_param {
    operation: SUM
  }
}
layer {
  name: "res2c_relu"
  type: "ReLU"
  bottom: "res2c"
  top: "res2c"
}
layer {
  name: "res3a_branch1"
  type: "Convolution"
  bottom: "res2c"
  top: "res3a_branch1"
  convolution_param {
    num_output: 128
    bias_term: false
    pad: 0
    kernel_size: 1
    stride: 2
    weight_filler {
      type: "msra"
    }
  }
}
layer {
  name: "bn3a_branch1"
  type: "BatchNorm"
  bottom: "res3a_branch1"
  top: "res3a_branch1"
  batch_norm_param {
    use_global_stats: false
  }
}
layer {
  name: "scale3a_branch1"
  type: "Scale"
  bottom: "res3a_branch1"
  top: "res3a_branch1"
  scale_param {
    bias_term: true
  }
}
layer {
  name: "res3a_branch2a"
  type: "Convolution"
  bottom: "res2c"
  top: "res3a_branch2a"
  convolution_param {
    num_output: 128
    bias_term: false
    pad: 1
    kernel_size: 3
    stride: 2
    weight_filler {
      type: "msra"
    }
  }
}
layer {
  name: "bn3a_branch2a"
  type: "BatchNorm"
  bottom: "res3a_branch2a"
  top: "res3a_branch2a"
  batch_norm_param {
    use_global_stats: false
  }
}
layer {
  name: "scale3a_branch2a"
  type: "Scale"
  bottom: "res3a_branch2a"
  top: "res3a_branch2a"
  scale_param {
    bias_term: true
  }
}
layer {
  name: "res3a_branch2a_relu"
  type: "ReLU"
  bottom: "res3a_branch2a"
  top: "res3a_branch2a"
}
layer {
  name: "res3a_branch2b"
  type: "Convolution"
  bottom: "res3a_branch2a"
  top: "res3a_branch2b"
  convolution_param {
    num_output: 128
    bias_term: false
    pad: 1
    kernel_size: 3
    stride: 1
    weight_filler {
      type: "msra"
    }
  }
}
layer {
  name: "bn3a_branch2b"
  type: "BatchNorm"
  bottom: "res3a_branch2b"
  top: "res3a_branch2b"
  batch_norm_param {
    use_global_stats: false
  }
}
layer {
  name: "scale3a_branch2b"
  type: "Scale"
  bottom: "res3a_branch2b"
  top: "res3a_branch2b"
  scale_param {
    bias_term: true
  }
}
layer {
  name: "res3a"
  type: "Eltwise"
  bottom: "res3a_branch1"
  bottom: "res3a_branch2b"
  top: "res3a"
  eltwise_param {
    operation: SUM
  }
}
layer {
  name: "res3a_relu"
  type: "ReLU"
  bottom: "res3a"
  top: "res3a"
}
layer {
  name: "res3b_branch2a"
  type: "Convolution"
  bottom: "res3a"
  top: "res3b_branch2a"
  convolution_param {
    num_output: 128
    bias_term: false
    pad: 1
    kernel_size: 3
    stride: 1
    weight_filler {
      type: "msra"
    }
  }
}
layer {
  name: "bn3b_branch2a"
  type: "BatchNorm"
  bottom: "res3b_branch2a"
  top: "res3b_branch2a"
  batch_norm_param {
    use_global_stats: false
  }
}
layer {
  name: "scale3b_branch2a"
  type: "Scale"
  bottom: "res3b_branch2a"
  top: "res3b_branch2a"
  scale_param {
    bias_term: true
  }
}
layer {
  name: "res3b_branch2a_relu"
  type: "ReLU"
  bottom: "res3b_branch2a"
  top: "res3b_branch2a"
}
layer {
  name: "res3b_branch2b"
  type: "Convolution"
  bottom: "res3b_branch2a"
  top: "res3b_branch2b"
  convolution_param {
    num_output: 128
    bias_term: false
    pad: 1
    kernel_size: 3
    stride: 1
    weight_filler {
      type: "msra"
    }
  }
}
layer {
  name: "bn3b_branch2b"
  type: "BatchNorm"
  bottom: "res3b_branch2b"
  top: "res3b_branch2b"
  batch_norm_param {
    use_global_stats: false
  }
}
layer {
  name: "scale3b_branch2b"
  type: "Scale"
  bottom: "res3b_branch2b"
  top: "res3b_branch2b"
  scale_param {
    bias_term: true
  }
}
layer {
  name: "res3b"
  type: "Eltwise"
  bottom: "res3a"
  bottom: "res3b_branch2b"
  top: "res3b"
  eltwise_param {
    operation: SUM
  }
}
layer {
  name: "res3b_relu"
  type: "ReLU"
  bottom: "res3b"
  top: "res3b"
}
layer {
  name: "res3c_branch2a"
  type: "Convolution"
  bottom: "res3b"
  top: "res3c_branch2a"
  convolution_param {
    num_output: 128
    bias_term: false
    pad: 1
    kernel_size: 3
    stride: 1
    weight_filler {
      type: "msra"
    }
  }
}
layer {
  name: "bn3c_branch2a"
  type: "BatchNorm"
  bottom: "res3c_branch2a"
  top: "res3c_branch2a"
  batch_norm_param {
    use_global_stats: false
  }
}
layer {
  name: "scale3c_branch2a"
  type: "Scale"
  bottom: "res3c_branch2a"
  top: "res3c_branch2a"
  scale_param {
    bias_term: true
  }
}
layer {
  name: "res3c_branch2a_relu"
  type: "ReLU"
  bottom: "res3c_branch2a"
  top: "res3c_branch2a"
}
layer {
  name: "res3c_branch2b"
  type: "Convolution"
  bottom: "res3c_branch2a"
  top: "res3c_branch2b"
  convolution_param {
    num_output: 128
    bias_term: false
    pad: 1
    kernel_size: 3
    stride: 1
    weight_filler {
      type: "msra"
    }
  }
}
layer {
  name: "bn3c_branch2b"
  type: "BatchNorm"
  bottom: "res3c_branch2b"
  top: "res3c_branch2b"
  batch_norm_param {
    use_global_stats: false
  }
}
layer {
  name: "scale3c_branch2b"
  type: "Scale"
  bottom: "res3c_branch2b"
  top: "res3c_branch2b"
  scale_param {
    bias_term: true
  }
}
layer {
  name: "res3c"
  type: "Eltwise"
  bottom: "res3b"
  bottom: "res3c_branch2b"
  top: "res3c"
  eltwise_param {
    operation: SUM
  }
}
layer {
  name: "res3c_relu"
  type: "ReLU"
  bottom: "res3c"
  top: "res3c"
}
layer {
  name: "res3d_branch2a"
  type: "Convolution"
  bottom: "res3c"
  top: "res3d_branch2a"
  convolution_param {
    num_output: 128
    bias_term: false
    pad: 1
    kernel_size: 3
    stride: 1
    weight_filler {
      type: "msra"
    }
  }
}
layer {
  name: "bn3d_branch2a"
  type: "BatchNorm"
  bottom: "res3d_branch2a"
  top: "res3d_branch2a"
  batch_norm_param {
    use_global_stats: false
  }
}
layer {
  name: "scale3d_branch2a"
  type: "Scale"
  bottom: "res3d_branch2a"
  top: "res3d_branch2a"
  scale_param {
    bias_term: true
  }
}
layer {
  name: "res3d_branch2a_relu"
  type: "ReLU"
  bottom: "res3d_branch2a"
  top: "res3d_branch2a"
}
layer {
  name: "res3d_branch2b"
  type: "Convolution"
  bottom: "res3d_branch2a"
  top: "res3d_branch2b"
  convolution_param {
    num_output: 128
    bias_term: false
    pad: 1
    kernel_size: 3
    stride: 1
    weight_filler {
      type: "msra"
    }
  }
}
layer {
  name: "bn3d_branch2b"
  type: "BatchNorm"
  bottom: "res3d_branch2b"
  top: "res3d_branch2b"
  batch_norm_param {
    use_global_stats: false
  }
}
layer {
  name: "scale3d_branch2b"
  type: "Scale"
  bottom: "res3d_branch2b"
  top: "res3d_branch2b"
  scale_param {
    bias_term: true
  }
}
layer {
  name: "res3d"
  type: "Eltwise"
  bottom: "res3c"
  bottom: "res3d_branch2b"
  top: "res3d"
  eltwise_param {
    operation: SUM
  }
}
layer {
  name: "res3d_relu"
  type: "ReLU"
  bottom: "res3d"
  top: "res3d"
}
layer {
  name: "res4a_branch1"
  type: "Convolution"
  bottom: "res3d"
  top: "res4a_branch1"
  convolution_param {
    num_output: 256
    bias_term: false
    pad: 0
    kernel_size: 1
    stride: 2
    weight_filler {
      type: "msra"
    }
  }
}
layer {
  name: "bn4a_branch1"
  type: "BatchNorm"
  bottom: "res4a_branch1"
  top: "res4a_branch1"
  batch_norm_param {
    use_global_stats: false
  }
}
layer {
  name: "scale4a_branch1"
  type: "Scale"
  bottom: "res4a_branch1"
  top: "res4a_branch1"
  scale_param {
    bias_term: true
  }
}
layer {
  name: "res4a_branch2a"
  type: "Convolution"
  bottom: "res3d"
  top: "res4a_branch2a"
  convolution_param {
    num_output: 256
    bias_term: false
    pad: 1
    kernel_size: 3
    stride: 2
    weight_filler {
      type: "msra"
    }
  }
}
layer {
  name: "bn4a_branch2a"
  type: "BatchNorm"
  bottom: "res4a_branch2a"
  top: "res4a_branch2a"
  batch_norm_param {
    use_global_stats: false
  }
}
layer {
  name: "scale4a_branch2a"
  type: "Scale"
  bottom: "res4a_branch2a"
  top: "res4a_branch2a"
  scale_param {
    bias_term: true
  }
}
layer {
  name: "res4a_branch2a_relu"
  type: "ReLU"
  bottom: "res4a_branch2a"
  top: "res4a_branch2a"
}
layer {
  name: "res4a_branch2b"
  type: "Convolution"
  bottom: "res4a_branch2a"
  top: "res4a_branch2b"
  convolution_param {
    num_output: 256
    bias_term: false
    pad: 1
    kernel_size: 3
    stride: 1
    weight_filler {
      type: "msra"
    }
  }
}
layer {
  name: "bn4a_branch2b"
  type: "BatchNorm"
  bottom: "res4a_branch2b"
  top: "res4a_branch2b"
  batch_norm_param {
    use_global_stats: false
  }
}
layer {
  name: "scale4a_branch2b"
  type: "Scale"
  bottom: "res4a_branch2b"
  top: "res4a_branch2b"
  scale_param {
    bias_term: true
  }
}
layer {
  name: "res4a"
  type: "Eltwise"
  bottom: "res4a_branch1"
  bottom: "res4a_branch2b"
  top: "res4a"
  eltwise_param {
    operation: SUM
  }
}
layer {
  name: "res4a_relu"
  type: "ReLU"
  bottom: "res4a"
  top: "res4a"
}
layer {
  name: "res4b_branch2a"
  type: "Convolution"
  bottom: "res4a"
  top: "res4b_branch2a"
  convolution_param {
    num_output: 256
    bias_term: false
    pad: 1
    kernel_size: 3
    stride: 1
    weight_filler {
      type: "msra"
    }
  }
}
layer {
  name: "bn4b_branch2a"
  type: "BatchNorm"
  bottom: "res4b_branch2a"
  top: "res4b_branch2a"
  batch_norm_param {
    use_global_stats: false
  }
}
layer {
  name: "scale4b_branch2a"
  type: "Scale"
  bottom: "res4b_branch2a"
  top: "res4b_branch2a"
  scale_param {
    bias_term: true
  }
}
layer {
  name: "res4b_branch2a_relu"
  type: "ReLU"
  bottom: "res4b_branch2a"
  top: "res4b_branch2a"
}
layer {
  name: "res4b_branch2b"
  type: "Convolution"
  bottom: "res4b_branch2a"
  top: "res4b_branch2b"
  convolution_param {
    num_output: 256
    bias_term: false
    pad: 1
    kernel_size: 3
    stride: 1
    weight_filler {
      type: "msra"
    }
  }
}
layer {
  name: "bn4b_branch2b"
  type: "BatchNorm"
  bottom: "res4b_branch2b"
  top: "res4b_branch2b"
  batch_norm_param {
    use_global_stats: false
  }
}
layer {
  name: "scale4b_branch2b"
  type: "Scale"
  bottom: "res4b_branch2b"
  top: "res4b_branch2b"
  scale_param {
    bias_term: true
  }
}
layer {
  name: "res4b"
  type: "Eltwise"
  bottom: "res4a"
  bottom: "res4b_branch2b"
  top: "res4b"
  eltwise_param {
    operation: SUM
  }
}
layer {
  name: "res4b_relu"
  type: "ReLU"
  bottom: "res4b"
  top: "res4b"
}
layer {
  name: "res4c_branch2a"
  type: "Convolution"
  bottom: "res4b"
  top: "res4c_branch2a"
  convolution_param {
    num_output: 256
    bias_term: false
    pad: 1
    kernel_size: 3
    stride: 1
    weight_filler {
      type: "msra"
    }
  }
}
layer {
  name: "bn4c_branch2a"
  type: "BatchNorm"
  bottom: "res4c_branch2a"
  top: "res4c_branch2a"
  batch_norm_param {
    use_global_stats: false
  }
}
layer {
  name: "scale4c_branch2a"
  type: "Scale"
  bottom: "res4c_branch2a"
  top: "res4c_branch2a"
  scale_param {
    bias_term: true
  }
}
layer {
  name: "res4c_branch2a_relu"
  type: "ReLU"
  bottom: "res4c_branch2a"
  top: "res4c_branch2a"
}
layer {
  name: "res4c_branch2b"
  type: "Convolution"
  bottom: "res4c_branch2a"
  top: "res4c_branch2b"
  convolution_param {
    num_output: 256
    bias_term: false
    pad: 1
    kernel_size: 3
    stride: 1
    weight_filler {
      type: "msra"
    }
  }
}
layer {
  name: "bn4c_branch2b"
  type: "BatchNorm"
  bottom: "res4c_branch2b"
  top: "res4c_branch2b"
  batch_norm_param {
    use_global_stats: false
  }
}
layer {
  name: "scale4c_branch2b"
  type: "Scale"
  bottom: "res4c_branch2b"
  top: "res4c_branch2b"
  scale_param {
    bias_term: true
  }
}
layer {
  name: "res4c"
  type: "Eltwise"
  bottom: "res4b"
  bottom: "res4c_branch2b"
  top: "res4c"
  eltwise_param {
    operation: SUM
  }
}
layer {
  name: "res4c_relu"
  type: "ReLU"
  bottom: "res4c"
  top: "res4c"
}
layer {
  name: "res4d_branch2a"
  type: "Convolution"
  bottom: "res4c"
  top: "res4d_branch2a"
  convolution_param {
    num_output: 256
    bias_term: false
    pad: 1
    kernel_size: 3
    stride: 1
    weight_filler {
      type: "msra"
    }
  }
}
layer {
  name: "bn4d_branch2a"
  type: "BatchNorm"
  bottom: "res4d_branch2a"
  top: "res4d_branch2a"
  batch_norm_param {
    use_global_stats: false
  }
}
layer {
  name: "scale4d_branch2a"
  type: "Scale"
  bottom: "res4d_branch2a"
  top: "res4d_branch2a"
  scale_param {
    bias_term: true
  }
}
layer {
  name: "res4d_branch2a_relu"
  type: "ReLU"
  bottom: "res4d_branch2a"
  top: "res4d_branch2a"
}
layer {
  name: "res4d_branch2b"
  type: "Convolution"
  bottom: "res4d_branch2a"
  top: "res4d_branch2b"
  convolution_param {
    num_output: 256
    bias_term: false
    pad: 1
    kernel_size: 3
    stride: 1
    weight_filler {
      type: "msra"
    }
  }
}
layer {
  name: "bn4d_branch2b"
  type: "BatchNorm"
  bottom: "res4d_branch2b"
  top: "res4d_branch2b"
  batch_norm_param {
    use_global_stats: false
  }
}
layer {
  name: "scale4d_branch2b"
  type: "Scale"
  bottom: "res4d_branch2b"
  top: "res4d_branch2b"
  scale_param {
    bias_term: true
  }
}
layer {
  name: "res4d"
  type: "Eltwise"
  bottom: "res4c"
  bottom: "res4d_branch2b"
  top: "res4d"
  eltwise_param {
    operation: SUM
  }
}
layer {
  name: "res4d_relu"
  type: "ReLU"
  bottom: "res4d"
  top: "res4d"
}
layer {
  name: "res4e_branch2a"
  type: "Convolution"
  bottom: "res4d"
  top: "res4e_branch2a"
  convolution_param {
    num_output: 256
    bias_term: false
    pad: 1
    kernel_size: 3
    stride: 1
    weight_filler {
      type: "msra"
    }
  }
}
layer {
  name: "bn4e_branch2a"
  type: "BatchNorm"
  bottom: "res4e_branch2a"
  top: "res4e_branch2a"
  batch_norm_param {
    use_global_stats: false
  }
}
layer {
  name: "scale4e_branch2a"
  type: "Scale"
  bottom: "res4e_branch2a"
  top: "res4e_branch2a"
  scale_param {
    bias_term: true
  }
}
layer {
  name: "res4e_branch2a_relu"
  type: "ReLU"
  bottom: "res4e_branch2a"
  top: "res4e_branch2a"
}
layer {
  name: "res4e_branch2b"
  type: "Convolution"
  bottom: "res4e_branch2a"
  top: "res4e_branch2b"
  convolution_param {
    num_output: 256
    bias_term: false
    pad: 1
    kernel_size: 3
    stride: 1
    weight_filler {
      type: "msra"
    }
  }
}
layer {
  name: "bn4e_branch2b"
  type: "BatchNorm"
  bottom: "res4e_branch2b"
  top: "res4e_branch2b"
  batch_norm_param {
    use_global_stats: false
  }
}
layer {
  name: "scale4e_branch2b"
  type: "Scale"
  bottom: "res4e_branch2b"
  top: "res4e_branch2b"
  scale_param {
    bias_term: true
  }
}
layer {
  name: "res4e"
  type: "Eltwise"
  bottom: "res4d"
  bottom: "res4e_branch2b"
  top: "res4e"
  eltwise_param {
    operation: SUM
  }
}
layer {
  name: "res4e_relu"
  type: "ReLU"
  bottom: "res4e"
  top: "res4e"
}
layer {
  name: "res4f_branch2a"
  type: "Convolution"
  bottom: "res4e"
  top: "res4f_branch2a"
  convolution_param {
    num_output: 256
    bias_term: false
    pad: 1
    kernel_size: 3
    stride: 1
    weight_filler {
      type: "msra"
    }
  }
}
layer {
  name: "bn4f_branch2a"
  type: "BatchNorm"
  bottom: "res4f_branch2a"
  top: "res4f_branch2a"
  batch_norm_param {
    use_global_stats: false
  }
}
layer {
  name: "scale4f_branch2a"
  type: "Scale"
  bottom: "res4f_branch2a"
  top: "res4f_branch2a"
  scale_param {
    bias_term: true
  }
}
layer {
…
I0327 18:01:30.474473 17258 net.cpp:124] Setting up scale4a_branch2b
I0327 18:01:30.474480 17258 net.cpp:131] Top shape: 10 256 14 14 (501760)
I0327 18:01:30.474484 17258 net.cpp:139] Memory required for data: 656302240
I0327 18:01:30.474489 17258 layer_factory.hpp:77] Creating layer res4a
I0327 18:01:30.474496 17258 net.cpp:86] Creating Layer res4a
I0327 18:01:30.474499 17258 net.cpp:408] res4a <- res4a_branch1
I0327 18:01:30.474504 17258 net.cpp:408] res4a <- res4a_branch2b
I0327 18:01:30.474509 17258 net.cpp:382] res4a -> res4a
I0327 18:01:30.474531 17258 net.cpp:124] Setting up res4a
I0327 18:01:30.474537 17258 net.cpp:131] Top shape: 10 256 14 14 (501760)
I0327 18:01:30.474540 17258 net.cpp:139] Memory required for data: 658309280
I0327 18:01:30.474544 17258 layer_factory.hpp:77] Creating layer res4a_relu
I0327 18:01:30.474548 17258 net.cpp:86] Creating Layer res4a_relu
I0327 18:01:30.474552 17258 net.cpp:408] res4a_relu <- res4a
I0327 18:01:30.474558 17258 net.cpp:369] res4a_relu -> res4a (in-place)
I0327 18:01:30.474563 17258 net.cpp:124] Setting up res4a_relu
I0327 18:01:30.474567 17258 net.cpp:131] Top shape: 10 256 14 14 (501760)
I0327 18:01:30.474570 17258 net.cpp:139] Memory required for data: 660316320
I0327 18:01:30.474573 17258 layer_factory.hpp:77] Creating layer res4a_res4a_relu_0_split
I0327 18:01:30.474578 17258 net.cpp:86] Creating Layer res4a_res4a_relu_0_split
I0327 18:01:30.474582 17258 net.cpp:408] res4a_res4a_relu_0_split <- res4a
I0327 18:01:30.474586 17258 net.cpp:382] res4a_res4a_relu_0_split -> res4a_res4a_relu_0_split_0
I0327 18:01:30.474593 17258 net.cpp:382] res4a_res4a_relu_0_split -> res4a_res4a_relu_0_split_1
I0327 18:01:30.474622 17258 net.cpp:124] Setting up res4a_res4a_relu_0_split
I0327 18:01:30.474628 17258 net.cpp:131] Top shape: 10 256 14 14 (501760)
I0327 18:01:30.474632 17258 net.cpp:131] Top shape: 10 256 14 14 (501760)
I0327 18:01:30.474635 17258 net.cpp:139] Memory required for data: 664330400
I0327 18:01:30.474638 17258 layer_factory.hpp:77] Creating layer res4b_branch2a
I0327 18:01:30.474647 17258 net.cpp:86] Creating Layer res4b_branch2a
I0327 18:01:30.474650 17258 net.cpp:408] res4b_branch2a <- res4a_res4a_relu_0_split_0
I0327 18:01:30.474656 17258 net.cpp:382] res4b_branch2a -> res4b_branch2a
I0327 18:01:30.480001 17258 net.cpp:124] Setting up res4b_branch2a
I0327 18:01:30.480013 17258 net.cpp:131] Top shape: 10 256 14 14 (501760)
I0327 18:01:30.480016 17258 net.cpp:139] Memory required for data: 666337440
I0327 18:01:30.480022 17258 layer_factory.hpp:77] Creating layer bn4b_branch2a
I0327 18:01:30.480029 17258 net.cpp:86] Creating Layer bn4b_branch2a
I0327 18:01:30.480033 17258 net.cpp:408] bn4b_branch2a <- res4b_branch2a
I0327 18:01:30.480039 17258 net.cpp:369] bn4b_branch2a -> res4b_branch2a (in-place)
I0327 18:01:30.480193 17258 net.cpp:124] Setting up bn4b_branch2a
I0327 18:01:30.480201 17258 net.cpp:131] Top shape: 10 256 14 14 (501760)
I0327 18:01:30.480203 17258 net.cpp:139] Memory required for data: 668344480
I0327 18:01:30.480214 17258 layer_factory.hpp:77] Creating layer scale4b_branch2a
I0327 18:01:30.480231 17258 net.cpp:86] Creating Layer scale4b_branch2a
I0327 18:01:30.480234 17258 net.cpp:408] scale4b_branch2a <- res4b_branch2a
I0327 18:01:30.480239 17258 net.cpp:369] scale4b_branch2a -> res4b_branch2a (in-place)
I0327 18:01:30.480278 17258 layer_factory.hpp:77] Creating layer scale4b_branch2a
I0327 18:01:30.480370 17258 net.cpp:124] Setting up scale4b_branch2a
I0327 18:01:30.480376 17258 net.cpp:131] Top shape: 10 256 14 14 (501760)
I0327 18:01:30.480378 17258 net.cpp:139] Memory required for data: 670351520
I0327 18:01:30.480384 17258 layer_factory.hpp:77] Creating layer res4b_branch2a_relu
I0327 18:01:30.480391 17258 net.cpp:86] Creating Layer res4b_branch2a_relu
I0327 18:01:30.480393 17258 net.cpp:408] res4b_branch2a_relu <- res4b_branch2a
I0327 18:01:30.480398 17258 net.cpp:369] res4b_branch2a_relu -> res4b_branch2a (in-place)
I0327 18:01:30.480404 17258 net.cpp:124] Setting up res4b_branch2a_relu
I0327 18:01:30.480409 17258 net.cpp:131] Top shape: 10 256 14 14 (501760)
I0327 18:01:30.480412 17258 net.cpp:139] Memory required for data: 672358560
I0327 18:01:30.480414 17258 layer_factory.hpp:77] Creating layer res4b_branch2b
I0327 18:01:30.480422 17258 net.cpp:86] Creating Layer res4b_branch2b
I0327 18:01:30.480427 17258 net.cpp:408] res4b_branch2b <- res4b_branch2a
I0327 18:01:30.480432 17258 net.cpp:382] res4b_branch2b -> res4b_branch2b
I0327 18:01:30.485806 17258 net.cpp:124] Setting up res4b_branch2b
I0327 18:01:30.485818 17258 net.cpp:131] Top shape: 10 256 14 14 (501760)
I0327 18:01:30.485821 17258 net.cpp:139] Memory required for data: 674365600
I0327 18:01:30.485826 17258 layer_factory.hpp:77] Creating layer bn4b_branch2b
I0327 18:01:30.485833 17258 net.cpp:86] Creating Layer bn4b_branch2b
I0327 18:01:30.485837 17258 net.cpp:408] bn4b_branch2b <- res4b_branch2b
I0327 18:01:30.485846 17258 net.cpp:369] bn4b_branch2b -> res4b_branch2b (in-place)
I0327 18:01:30.486009 17258 net.cpp:124] Setting up bn4b_branch2b
I0327 18:01:30.486017 17258 net.cpp:131] Top shape: 10 256 14 14 (501760)
I0327 18:01:30.486021 17258 net.cpp:139] Memory required for data: 676372640
I0327 18:01:30.486045 17258 layer_factory.hpp:77] Creating layer scale4b_branch2b
I0327 18:01:30.486053 17258 net.cpp:86] Creating Layer scale4b_branch2b
I0327 18:01:30.486057 17258 net.cpp:408] scale4b_branch2b <- res4b_branch2b
I0327 18:01:30.486061 17258 net.cpp:369] scale4b_branch2b -> res4b_branch2b (in-place)
I0327 18:01:30.486100 17258 layer_factory.hpp:77] Creating layer scale4b_branch2b
I0327 18:01:30.486193 17258 net.cpp:124] Setting up scale4b_branch2b
I0327 18:01:30.486201 17258 net.cpp:131] Top shape: 10 256 14 14 (501760)
I0327 18:01:30.486203 17258 net.cpp:139] Memory required for data: 678379680
I0327 18:01:30.486209 17258 layer_factory.hpp:77] Creating layer res4b
I0327 18:01:30.486215 17258 net.cpp:86] Creating Layer res4b
I0327 18:01:30.486218 17258 net.cpp:408] res4b <- res4a_res4a_relu_0_split_1
I0327 18:01:30.486223 17258 net.cpp:408] res4b <- res4b_branch2b
I0327 18:01:30.486230 17258 net.cpp:382] res4b -> res4b
I0327 18:01:30.486254 17258 net.cpp:124] Setting up res4b
I0327 18:01:30.486260 17258 net.cpp:131] Top shape: 10 256 14 14 (501760)
I0327 18:01:30.486263 17258 net.cpp:139] Memory required for data: 680386720
I0327 18:01:30.486268 17258 layer_factory.hpp:77] Creating layer res4b_relu
I0327 18:01:30.486272 17258 net.cpp:86] Creating Layer res4b_relu
I0327 18:01:30.486275 17258 net.cpp:408] res4b_relu <- res4b
I0327 18:01:30.486280 17258 net.cpp:369] res4b_relu -> res4b (in-place)
I0327 18:01:30.486286 17258 net.cpp:124] Setting up res4b_relu
I0327 18:01:30.486290 17258 net.cpp:131] Top shape: 10 256 14 14 (501760)
I0327 18:01:30.486294 17258 net.cpp:139] Memory required for data: 682393760
I0327 18:01:30.486296 17258 layer_factory.hpp:77] Creating layer res4b_res4b_relu_0_split
I0327 18:01:30.486304 17258 net.cpp:86] Creating Layer res4b_res4b_relu_0_split
I0327 18:01:30.486308 17258 net.cpp:408] res4b_res4b_relu_0_split <- res4b
I0327 18:01:30.486325 17258 net.cpp:382] res4b_res4b_relu_0_split -> res4b_res4b_relu_0_split_0
I0327 18:01:30.486333 17258 net.cpp:382] res4b_res4b_relu_0_split -> res4b_res4b_relu_0_split_1
I0327 18:01:30.486368 17258 net.cpp:124] Setting up res4b_res4b_relu_0_split
I0327 18:01:30.486376 17258 net.cpp:131] Top shape: 10 256 14 14 (501760)
I0327 18:01:30.486379 17258 net.cpp:131] Top shape: 10 256 14 14 (501760)
I0327 18:01:30.486382 17258 net.cpp:139] Memory required for data: 686407840
I0327 18:01:30.486385 17258 layer_factory.hpp:77] Creating layer res4c_branch2a
I0327 18:01:30.486393 17258 net.cpp:86] Creating Layer res4c_branch2a
I0327 18:01:30.486397 17258 net.cpp:408] res4c_branch2a <- res4b_res4b_relu_0_split_0
I0327 18:01:30.486403 17258 net.cpp:382] res4c_branch2a -> res4c_branch2a
I0327 18:01:30.491766 17258 net.cpp:124] Setting up res4c_branch2a
I0327 18:01:30.491777 17258 net.cpp:131] Top shape: 10 256 14 14 (501760)
I0327 18:01:30.491780 17258 net.cpp:139] Memory required for data: 688414880
I0327 18:01:30.491786 17258 layer_factory.hpp:77] Creating layer bn4c_branch2a
I0327 18:01:30.491793 17258 net.cpp:86] Creating Layer bn4c_branch2a
I0327 18:01:30.491796 17258 net.cpp:408] bn4c_branch2a <- res4c_branch2a
I0327 18:01:30.491803 17258 net.cpp:369] bn4c_branch2a -> res4c_branch2a (in-place)
I0327 18:01:30.491967 17258 net.cpp:124] Setting up bn4c_branch2a
I0327 18:01:30.491976 17258 net.cpp:131] Top shape: 10 256 14 14 (501760)
I0327 18:01:30.491978 17258 net.cpp:139] Memory required for data: 690421920
I0327 18:01:30.491986 17258 layer_factory.hpp:77] Creating layer scale4c_branch2a
I0327 18:01:30.491991 17258 net.cpp:86] Creating Layer scale4c_branch2a
I0327 18:01:30.491994 17258 net.cpp:408] scale4c_branch2a <- res4c_branch2a
I0327 18:01:30.491999 17258 net.cpp:369] scale4c_branch2a -> res4c_branch2a (in-place)
I0327 18:01:30.492035 17258 layer_factory.hpp:77] Creating layer scale4c_branch2a
I0327 18:01:30.492128 17258 net.cpp:124] Setting up scale4c_branch2a
I0327 18:01:30.492136 17258 net.cpp:131] Top shape: 10 256 14 14 (501760)
I0327 18:01:30.492139 17258 net.cpp:139] Memory required for data: 692428960
I0327 18:01:30.492144 17258 layer_factory.hpp:77] Creating layer res4c_branch2a_relu
I0327 18:01:30.492151 17258 net.cpp:86] Creating Layer res4c_branch2a_relu
I0327 18:01:30.492153 17258 net.cpp:408] res4c_branch2a_relu <- res4c_branch2a
I0327 18:01:30.492161 17258 net.cpp:369] res4c_branch2a_relu -> res4c_branch2a (in-place)
I0327 18:01:30.492166 17258 net.cpp:124] Setting up res4c_branch2a_relu
I0327 18:01:30.492169 17258 net.cpp:131] Top shape: 10 256 14 14 (501760)
I0327 18:01:30.492173 17258 net.cpp:139] Memory required for data: 694436000
I0327 18:01:30.492177 17258 layer_factory.hpp:77] Creating layer res4c_branch2b
I0327 18:01:30.492184 17258 net.cpp:86] Creating Layer res4c_branch2b
I0327 18:01:30.492187 17258 net.cpp:408] res4c_branch2b <- res4c_branch2a
I0327 18:01:30.492193 17258 net.cpp:382] res4c_branch2b -> res4c_branch2b
I0327 18:01:30.497560 17258 net.cpp:124] Setting up res4c_branch2b
I0327 18:01:30.497571 17258 net.cpp:131] Top shape: 10 256 14 14 (501760)
I0327 18:01:30.497575 17258 net.cpp:139] Memory required for data: 696443040
I0327 18:01:30.497581 17258 layer_factory.hpp:77] Creating layer bn4c_branch2b
I0327 18:01:30.497586 17258 net.cpp:86] Creating Layer bn4c_branch2b
I0327 18:01:30.497591 17258 net.cpp:408] bn4c_branch2b <- res4c_branch2b
I0327 18:01:30.497596 17258 net.cpp:369] bn4c_branch2b -> res4c_branch2b (in-place)
I0327 18:01:30.497761 17258 net.cpp:124] Setting up bn4c_branch2b
I0327 18:01:30.497767 17258 net.cpp:131] Top shape: 10 256 14 14 (501760)
I0327 18:01:30.497771 17258 net.cpp:139] Memory required for data: 698450080
I0327 18:01:30.497778 17258 layer_factory.hpp:77] Creating layer scale4c_branch2b
I0327 18:01:30.497784 17258 net.cpp:86] Creating Layer scale4c_branch2b
I0327 18:01:30.497787 17258 net.cpp:408] scale4c_branch2b <- res4c_branch2b
I0327 18:01:30.497794 17258 net.cpp:369] scale4c_branch2b -> res4c_branch2b (in-place)
I0327 18:01:30.497833 17258 layer_factory.hpp:77] Creating layer scale4c_branch2b
I0327 18:01:30.497942 17258 net.cpp:124] Setting up scale4c_branch2b
I0327 18:01:30.497951 17258 net.cpp:131] Top shape: 10 256 14 14 (501760)
I0327 18:01:30.497954 17258 net.cpp:139] Memory required for data: 700457120
I0327 18:01:30.497961 17258 layer_factory.hpp:77] Creating layer res4c
I0327 18:01:30.497967 17258 net.cpp:86] Creating Layer res4c
I0327 18:01:30.497969 17258 net.cpp:408] res4c <- res4b_res4b_relu_0_split_1
I0327 18:01:30.497974 17258 net.cpp:408] res4c <- res4c_branch2b
I0327 18:01:30.497979 17258 net.cpp:382] res4c -> res4c
I0327 18:01:30.498003 17258 net.cpp:124] Setting up res4c
I0327 18:01:30.498010 17258 net.cpp:131] Top shape: 10 256 14 14 (501760)
I0327 18:01:30.498013 17258 net.cpp:139] Memory required for data: 702464160
I0327 18:01:30.498016 17258 layer_factory.hpp:77] Creating layer res4c_relu
I0327 18:01:30.498021 17258 net.cpp:86] Creating Layer res4c_relu
I0327 18:01:30.498026 17258 net.cpp:408] res4c_relu <- res4c
I0327 18:01:30.498031 17258 net.cpp:369] res4c_relu -> res4c (in-place)
I0327 18:01:30.498036 17258 net.cpp:124] Setting up res4c_relu
I0327 18:01:30.498041 17258 net.cpp:131] Top shape: 10 256 14 14 (501760)
I0327 18:01:30.498044 17258 net.cpp:139] Memory required for data: 704471200
I0327 18:01:30.498047 17258 layer_factory.hpp:77] Creating layer res4c_res4c_relu_0_split
I0327 18:01:30.498052 17258 net.cpp:86] Creating Layer res4c_res4c_relu_0_split
I0327 18:01:30.498055 17258 net.cpp:408] res4c_res4c_relu_0_split <- res4c
I0327 18:01:30.498061 17258 net.cpp:382] res4c_res4c_relu_0_split -> res4c_res4c_relu_0_split_0
I0327 18:01:30.498067 17258 net.cpp:382] res4c_res4c_relu_0_split -> res4c_res4c_relu_0_split_1
I0327 18:01:30.498097 17258 net.cpp:124] Setting up res4c_res4c_relu_0_split
I0327 18:01:30.498104 17258 net.cpp:131] Top shape: 10 256 14 14 (501760)
I0327 18:01:30.498108 17258 net.cpp:131] Top shape: 10 256 14 14 (501760)
I0327 18:01:30.498111 17258 net.cpp:139] Memory required for data: 708485280
I0327 18:01:30.498114 17258 layer_factory.hpp:77] Creating layer res4d_branch2a
I0327 18:01:30.498121 17258 net.cpp:86] Creating Layer res4d_branch2a
I0327 18:01:30.498126 17258 net.cpp:408] res4d_branch2a <- res4c_res4c_relu_0_split_0
I0327 18:01:30.498131 17258 net.cpp:382] res4d_branch2a -> res4d_branch2a
I0327 18:01:30.503501 17258 net.cpp:124] Setting up res4d_branch2a
I0327 18:01:30.503512 17258 net.cpp:131] Top shape: 10 256 14 14 (501760)
I0327 18:01:30.503515 17258 net.cpp:139] Memory required for data: 710492320
I0327 18:01:30.503520 17258 layer_factory.hpp:77] Creating layer bn4d_branch2a
I0327 18:01:30.503527 17258 net.cpp:86] Creating Layer bn4d_branch2a
I0327 18:01:30.503531 17258 net.cpp:408] bn4d_branch2a <- res4d_branch2a
I0327 18:01:30.503536 17258 net.cpp:369] bn4d_branch2a -> res4d_branch2a (in-place)
I0327 18:01:30.503701 17258 net.cpp:124] Setting up bn4d_branch2a
I0327 18:01:30.503710 17258 net.cpp:131] Top shape: 10 256 14 14 (501760)
I0327 18:01:30.503715 17258 net.cpp:139] Memory required for data: 712499360
I0327 18:01:30.503721 17258 layer_factory.hpp:77] Creating layer scale4d_branch2a
I0327 18:01:30.503727 17258 net.cpp:86] Creating Layer scale4d_branch2a
I0327 18:01:30.503731 17258 net.cpp:408] scale4d_branch2a <- res4d_branch2a
I0327 18:01:30.503736 17258 net.cpp:369] scale4d_branch2a -> res4d_branch2a (in-place)
I0327 18:01:30.503772 17258 layer_factory.hpp:77] Creating layer scale4d_branch2a
I0327 18:01:30.503870 17258 net.cpp:124] Setting up scale4d_branch2a
I0327 18:01:30.503876 17258 net.cpp:131] Top shape: 10 256 14 14 (501760)
I0327 18:01:30.503880 17258 net.cpp:139] Memory required for data: 714506400
I0327 18:01:30.503885 17258 layer_factory.hpp:77] Creating layer res4d_branch2a_relu
I0327 18:01:30.503893 17258 net.cpp:86] Creating Layer res4d_branch2a_relu
I0327 18:01:30.503896 17258 net.cpp:408] res4d_branch2a_relu <- res4d_branch2a
I0327 18:01:30.503901 17258 net.cpp:369] res4d_branch2a_relu -> res4d_branch2a (in-place)
I0327 18:01:30.503909 17258 net.cpp:124] Setting up res4d_branch2a_relu
I0327 18:01:30.503923 17258 net.cpp:131] Top shape: 10 256 14 14 (501760)
I0327 18:01:30.503926 17258 net.cpp:139] Memory required for data: 716513440
I0327 18:01:30.503929 17258 layer_factory.hpp:77] Creating layer res4d_branch2b
I0327 18:01:30.503938 17258 net.cpp:86] Creating Layer res4d_branch2b
I0327 18:01:30.503942 17258 net.cpp:408] res4d_branch2b <- res4d_branch2a
I0327 18:01:30.503947 17258 net.cpp:382] res4d_branch2b -> res4d_branch2b
I0327 18:01:30.509300 17258 net.cpp:124] Setting up res4d_branch2b
I0327 18:01:30.509311 17258 net.cpp:131] Top shape: 10 256 14 14 (501760)
I0327 18:01:30.509315 17258 net.cpp:139] Memory required for data: 718520480
I0327 18:01:30.509320 17258 layer_factory.hpp:77] Creating layer bn4d_branch2b
I0327 18:01:30.509326 17258 net.cpp:86] Creating Layer bn4d_branch2b
I0327 18:01:30.509330 17258 net.cpp:408] bn4d_branch2b <- res4d_branch2b
I0327 18:01:30.509335 17258 net.cpp:369] bn4d_branch2b -> res4d_branch2b (in-place)
I0327 18:01:30.509506 17258 net.cpp:124] Setting up bn4d_branch2b
I0327 18:01:30.509515 17258 net.cpp:131] Top shape: 10 256 14 14 (501760)
I0327 18:01:30.509517 17258 net.cpp:139] Memory required for data: 720527520
I0327 18:01:30.509524 17258 layer_factory.hpp:77] Creating layer scale4d_branch2b
I0327 18:01:30.509531 17258 net.cpp:86] Creating Layer scale4d_branch2b
I0327 18:01:30.509534 17258 net.cpp:408] scale4d_branch2b <- res4d_branch2b
I0327 18:01:30.509539 17258 net.cpp:369] scale4d_branch2b -> res4d_branch2b (in-place)
I0327 18:01:30.509577 17258 layer_factory.hpp:77] Creating layer scale4d_branch2b
I0327 18:01:30.509675 17258 net.cpp:124] Setting up scale4d_branch2b
I0327 18:01:30.509682 17258 net.cpp:131] Top shape: 10 256 14 14 (501760)
I0327 18:01:30.509685 17258 net.cpp:139] Memory required for data: 722534560
I0327 18:01:30.509691 17258 layer_factory.hpp:77] Creating layer res4d
I0327 18:01:30.509696 17258 net.cpp:86] Creating Layer res4d
I0327 18:01:30.509701 17258 net.cpp:408] res4d <- res4c_res4c_relu_0_split_1
I0327 18:01:30.509706 17258 net.cpp:408] res4d <- res4d_branch2b
I0327 18:01:30.509711 17258 net.cpp:382] res4d -> res4d
I0327 18:01:30.509747 17258 net.cpp:124] Setting up res4d
I0327 18:01:30.509755 17258 net.cpp:131] Top shape: 10 256 14 14 (501760)
I0327 18:01:30.509758 17258 net.cpp:139] Memory required for data: 724541600
I0327 18:01:30.509762 17258 layer_factory.hpp:77] Creating layer res4d_relu
I0327 18:01:30.509766 17258 net.cpp:86] Creating Layer res4d_relu
I0327 18:01:30.509770 17258 net.cpp:408] res4d_relu <- res4d
I0327 18:01:30.509774 17258 net.cpp:369] res4d_relu -> res4d (in-place)
I0327 18:01:30.509780 17258 net.cpp:124] Setting up res4d_relu
I0327 18:01:30.509784 17258 net.cpp:131] Top shape: 10 256 14 14 (501760)
I0327 18:01:30.509788 17258 net.cpp:139] Memory required for data: 726548640
I0327 18:01:30.509790 17258 layer_factory.hpp:77] Creating layer res4d_res4d_relu_0_split
I0327 18:01:30.509795 17258 net.cpp:86] Creating Layer res4d_res4d_relu_0_split
I0327 18:01:30.509799 17258 net.cpp:408] res4d_res4d_relu_0_split <- res4d
I0327 18:01:30.509804 17258 net.cpp:382] res4d_res4d_relu_0_split -> res4d_res4d_relu_0_split_0
I0327 18:01:30.509809 17258 net.cpp:382] res4d_res4d_relu_0_split -> res4d_res4d_relu_0_split_1
I0327 18:01:30.509842 17258 net.cpp:124] Setting up res4d_res4d_relu_0_split
I0327 18:01:30.509850 17258 net.cpp:131] Top shape: 10 256 14 14 (501760)
I0327 18:01:30.509853 17258 net.cpp:131] Top shape: 10 256 14 14 (501760)
I0327 18:01:30.509856 17258 net.cpp:139] Memory required for data: 730562720
I0327 18:01:30.509860 17258 layer_factory.hpp:77] Creating layer res4e_branch2a
I0327 18:01:30.509868 17258 net.cpp:86] Creating Layer res4e_branch2a
I0327 18:01:30.509872 17258 net.cpp:408] res4e_branch2a <- res4d_res4d_relu_0_split_0
I0327 18:01:30.509877 17258 net.cpp:382] res4e_branch2a -> res4e_branch2a
I0327 18:01:30.515257 17258 net.cpp:124] Setting up res4e_branch2a
I0327 18:01:30.515275 17258 net.cpp:131] Top shape: 10 256 14 14 (501760)
I0327 18:01:30.515282 17258 net.cpp:139] Memory required for data: 732569760
I0327 18:01:30.515301 17258 layer_factory.hpp:77] Creating layer bn4e_branch2a
I0327 18:01:30.515333 17258 net.cpp:86] Creating Layer bn4e_branch2a
I0327 18:01:30.515337 17258 net.cpp:408] bn4e_branch2a <- res4e_branch2a
I0327 18:01:30.515343 17258 net.cpp:369] bn4e_branch2a -> res4e_branch2a (in-place)
I0327 18:01:30.515511 17258 net.cpp:124] Setting up bn4e_branch2a
I0327 18:01:30.515519 17258 net.cpp:131] Top shape: 10 256 14 14 (501760)
I0327 18:01:30.515523 17258 net.cpp:139] Memory required for data: 734576800
I0327 18:01:30.515532 17258 layer_factory.hpp:77] Creating layer scale4e_branch2a
I0327 18:01:30.515537 17258 net.cpp:86] Creating Layer scale4e_branch2a
I0327 18:01:30.515540 17258 net.cpp:408] scale4e_branch2a <- res4e_branch2a
I0327 18:01:30.515547 17258 net.cpp:369] scale4e_branch2a -> res4e_branch2a (in-place)
I0327 18:01:30.515585 17258 layer_factory.hpp:77] Creating layer scale4e_branch2a
I0327 18:01:30.515676 17258 net.cpp:124] Setting up scale4e_branch2a
I0327 18:01:30.515683 17258 net.cpp:131] Top shape: 10 256 14 14 (501760)
I0327 18:01:30.515686 17258 net.cpp:139] Memory required for data: 736583840
I0327 18:01:30.515692 17258 layer_factory.hpp:77] Creating layer res4e_branch2a_relu
I0327 18:01:30.515699 17258 net.cpp:86] Creating Layer res4e_branch2a_relu
I0327 18:01:30.515702 17258 net.cpp:408] res4e_branch2a_relu <- res4e_branch2a
I0327 18:01:30.515707 17258 net.cpp:369] res4e_branch2a_relu -> res4e_branch2a (in-place)
I0327 18:01:30.515712 17258 net.cpp:124] Setting up res4e_branch2a_relu
I0327 18:01:30.515718 17258 net.cpp:131] Top shape: 10 256 14 14 (501760)
I0327 18:01:30.515722 17258 net.cpp:139] Memory required for data: 738590880
I0327 18:01:30.515724 17258 layer_factory.hpp:77] Creating layer res4e_branch2b
I0327 18:01:30.515730 17258 net.cpp:86] Creating Layer res4e_branch2b
I0327 18:01:30.515733 17258 net.cpp:408] res4e_branch2b <- res4e_branch2a
I0327 18:01:30.515740 17258 net.cpp:382] res4e_branch2b -> res4e_branch2b
I0327 18:01:30.522255 17258 net.cpp:124] Setting up res4e_branch2b
I0327 18:01:30.522295 17258 net.cpp:131] Top shape: 10 256 14 14 (501760)
I0327 18:01:30.522298 17258 net.cpp:139] Memory required for data: 740597920
I0327 18:01:30.522308 17258 layer_factory.hpp:77] Creating layer bn4e_branch2b
I0327 18:01:30.522320 17258 net.cpp:86] Creating Layer bn4e_branch2b
I0327 18:01:30.522325 17258 net.cpp:408] bn4e_branch2b <- res4e_branch2b
I0327 18:01:30.522336 17258 net.cpp:369] bn4e_branch2b -> res4e_branch2b (in-place)
I0327 18:01:30.522516 17258 net.cpp:124] Setting up bn4e_branch2b
I0327 18:01:30.522523 17258 net.cpp:131] Top shape: 10 256 14 14 (501760)
I0327 18:01:30.522527 17258 net.cpp:139] Memory required for data: 742604960
I0327 18:01:30.522534 17258 layer_factory.hpp:77] Creating layer scale4e_branch2b
I0327 18:01:30.522541 17258 net.cpp:86] Creating Layer scale4e_branch2b
I0327 18:01:30.522545 17258 net.cpp:408] scale4e_branch2b <- res4e_branch2b
I0327 18:01:30.522550 17258 net.cpp:369] scale4e_branch2b -> res4e_branch2b (in-place)
I0327 18:01:30.522595 17258 layer_factory.hpp:77] Creating layer scale4e_branch2b
I0327 18:01:30.522697 17258 net.cpp:124] Setting up scale4e_branch2b
I0327 18:01:30.522704 17258 net.cpp:131] Top shape: 10 256 14 14 (501760)
I0327 18:01:30.522707 17258 net.cpp:139] Memory required for data: 744612000
I0327 18:01:30.522713 17258 layer_factory.hpp:77] Creating layer res4e
I0327 18:01:30.522720 17258 net.cpp:86] Creating Layer res4e
I0327 18:01:30.522727 17258 net.cpp:408] res4e <- res4d_res4d_relu_0_split_1
I0327 18:01:30.522732 17258 net.cpp:408] res4e <- res4e_branch2b
I0327 18:01:30.522737 17258 net.cpp:382] res4e -> res4e
I0327 18:01:30.522761 17258 net.cpp:124] Setting up res4e
I0327 18:01:30.522768 17258 net.cpp:131] Top shape: 10 256 14 14 (501760)
I0327 18:01:30.522773 17258 net.cpp:139] Memory required for data: 746619040
I0327 18:01:30.522775 17258 layer_factory.hpp:77] Creating layer res4e_relu
I0327 18:01:30.522780 17258 net.cpp:86] Creating Layer res4e_relu
I0327 18:01:30.522791 17258 net.cpp:408] res4e_relu <- res4e
I0327 18:01:30.522821 17258 net.cpp:369] res4e_relu -> res4e (in-place)
I0327 18:01:30.522828 17258 net.cpp:124] Setting up res4e_relu
I0327 18:01:30.522832 17258 net.cpp:131] Top shape: 10 256 14 14 (501760)
I0327 18:01:30.522835 17258 net.cpp:139] Memory required for data: 748626080
I0327 18:01:30.522840 17258 layer_factory.hpp:77] Creating layer res4e_res4e_relu_0_split
I0327 18:01:30.522845 17258 net.cpp:86] Creating Layer res4e_res4e_relu_0_split
I0327 18:01:30.522847 17258 net.cpp:408] res4e_res4e_relu_0_split <- res4e
I0327 18:01:30.522851 17258 net.cpp:382] res4e_res4e_relu_0_split -> res4e_res4e_relu_0_split_0
I0327 18:01:30.522858 17258 net.cpp:382] res4e_res4e_relu_0_split -> res4e_res4e_relu_0_split_1
I0327 18:01:30.522893 17258 net.cpp:124] Setting up res4e_res4e_relu_0_split
I0327 18:01:30.522899 17258 net.cpp:131] Top shape: 10 256 14 14 (501760)
I0327 18:01:30.522903 17258 net.cpp:131] Top shape: 10 256 14 14 (501760)
I0327 18:01:30.522907 17258 net.cpp:139] Memory required for data: 752640160
I0327 18:01:30.522909 17258 layer_factory.hpp:77] Creating layer res4f_branch2a
I0327 18:01:30.522920 17258 net.cpp:86] Creating Layer res4f_branch2a
I0327 18:01:30.522924 17258 net.cpp:408] res4f_branch2a <- res4e_res4e_relu_0_split_0
I0327 18:01:30.522929 17258 net.cpp:382] res4f_branch2a -> res4f_branch2a
I0327 18:01:30.528477 17258 net.cpp:124] Setting up res4f_branch2a
I0327 18:01:30.528491 17258 net.cpp:131] Top shape: 10 256 14 14 (501760)
I0327 18:01:30.528493 17258 net.cpp:139] Memory required for data: 754647200
I0327 18:01:30.528501 17258 layer_factory.hpp:77] Creating layer bn4f_branch2a
I0327 18:01:30.528508 17258 net.cpp:86] Creating Layer bn4f_branch2a
I0327 18:01:30.528513 17258 net.cpp:408] bn4f_branch2a <- res4f_branch2a
I0327 18:01:30.528518 17258 net.cpp:369] bn4f_branch2a -> res4f_branch2a (in-place)
I0327 18:01:30.528686 17258 net.cpp:124] Setting up bn4f_branch2a
I0327 18:01:30.528693 17258 net.cpp:131] Top shape: 10 256 14 14 (501760)
I0327 18:01:30.528697 17258 net.cpp:139] Memory required for data: 756654240
I0327 18:01:30.528703 17258 layer_factory.hpp:77] Creating layer scale4f_branch2a
I0327 18:01:30.528712 17258 net.cpp:86] Creating Layer scale4f_branch2a
I0327 18:01:30.528714 17258 net.cpp:408] scale4f_branch2a <- res4f_branch2a
I0327 18:01:30.528719 17258 net.cpp:369] scale4f_branch2a -> res4f_branch2a (in-place)
I0327 18:01:30.528756 17258 layer_factory.hpp:77] Creating layer scale4f_branch2a
I0327 18:01:30.528858 17258 net.cpp:124] Setting up scale4f_branch2a
I0327 18:01:30.528867 17258 net.cpp:131] Top shape: 10 256 14 14 (501760)
I0327 18:01:30.528869 17258 net.cpp:139] Memory required for data: 758661280
I0327 18:01:30.528875 17258 layer_factory.hpp:77] Creating layer res4f_branch2a_relu
I0327 18:01:30.528882 17258 net.cpp:86] Creating Layer res4f_branch2a_relu
I0327 18:01:30.528884 17258 net.cpp:408] res4f_branch2a_relu <- res4f_branch2a
I0327 18:01:30.528892 17258 net.cpp:369] res4f_branch2a_relu -> res4f_branch2a (in-place)
I0327 18:01:30.528898 17258 net.cpp:124] Setting up res4f_branch2a_relu
I0327 18:01:30.528903 17258 net.cpp:131] Top shape: 10 256 14 14 (501760)
I0327 18:01:30.528905 17258 net.cpp:139] Memory required for data: 760668320
I0327 18:01:30.528908 17258 layer_factory.hpp:77] Creating layer res4f_branch2b
I0327 18:01:30.528918 17258 net.cpp:86] Creating Layer res4f_branch2b
I0327 18:01:30.528921 17258 net.cpp:408] res4f_branch2b <- res4f_branch2a
I0327 18:01:30.528926 17258 net.cpp:382] res4f_branch2b -> res4f_branch2b
I0327 18:01:30.534446 17258 net.cpp:124] Setting up res4f_branch2b
I0327 18:01:30.534466 17258 net.cpp:131] Top shape: 10 256 14 14 (501760)
I0327 18:01:30.534471 17258 net.cpp:139] Memory required for data: 762675360
I0327 18:01:30.534476 17258 layer_factory.hpp:77] Creating layer bn4f_branch2b
I0327 18:01:30.534485 17258 net.cpp:86] Creating Layer bn4f_branch2b
I0327 18:01:30.534490 17258 net.cpp:408] bn4f_branch2b <- res4f_branch2b
I0327 18:01:30.534497 17258 net.cpp:369] bn4f_branch2b -> res4f_branch2b (in-place)
I0327 18:01:30.534682 17258 net.cpp:124] Setting up bn4f_branch2b
I0327 18:01:30.534710 17258 net.cpp:131] Top shape: 10 256 14 14 (501760)
I0327 18:01:30.534713 17258 net.cpp:139] Memory required for data: 764682400
I0327 18:01:30.534721 17258 layer_factory.hpp:77] Creating layer scale4f_branch2b
I0327 18:01:30.534727 17258 net.cpp:86] Creating Layer scale4f_branch2b
I0327 18:01:30.534731 17258 net.cpp:408] scale4f_branch2b <- res4f_branch2b
I0327 18:01:30.534735 17258 net.cpp:369] scale4f_branch2b -> res4f_branch2b (in-place)
I0327 18:01:30.534783 17258 layer_factory.hpp:77] Creating layer scale4f_branch2b
I0327 18:01:30.534881 17258 net.cpp:124] Setting up scale4f_branch2b
I0327 18:01:30.534888 17258 net.cpp:131] Top shape: 10 256 14 14 (501760)
I0327 18:01:30.534891 17258 net.cpp:139] Memory required for data: 766689440
I0327 18:01:30.534898 17258 layer_factory.hpp:77] Creating layer res4f
I0327 18:01:30.534906 17258 net.cpp:86] Creating Layer res4f
I0327 18:01:30.534910 17258 net.cpp:408] res4f <- res4e_res4e_relu_0_split_1
I0327 18:01:30.534914 17258 net.cpp:408] res4f <- res4f_branch2b
I0327 18:01:30.534924 17258 net.cpp:382] res4f -> res4f
I0327 18:01:30.534946 17258 net.cpp:124] Setting up res4f
I0327 18:01:30.534953 17258 net.cpp:131] Top shape: 10 256 14 14 (501760)
I0327 18:01:30.534956 17258 net.cpp:139] Memory required for data: 768696480
I0327 18:01:30.534960 17258 layer_factory.hpp:77] Creating layer res4f_relu
I0327 18:01:30.534967 17258 net.cpp:86] Creating Layer res4f_relu
I0327 18:01:30.534971 17258 net.cpp:408] res4f_relu <- res4f
I0327 18:01:30.534976 17258 net.cpp:369] res4f_relu -> res4f (in-place)
I0327 18:01:30.534982 17258 net.cpp:124] Setting up res4f_relu
I0327 18:01:30.534987 17258 net.cpp:131] Top shape: 10 256 14 14 (501760)
I0327 18:01:30.534991 17258 net.cpp:139] Memory required for data: 770703520
I0327 18:01:30.534992 17258 layer_factory.hpp:77] Creating layer res4f_res4f_relu_0_split
I0327 18:01:30.534998 17258 net.cpp:86] Creating Layer res4f_res4f_relu_0_split
I0327 18:01:30.535001 17258 net.cpp:408] res4f_res4f_relu_0_split <- res4f
I0327 18:01:30.535006 17258 net.cpp:382] res4f_res4f_relu_0_split -> res4f_res4f_relu_0_split_0
I0327 18:01:30.535012 17258 net.cpp:382] res4f_res4f_relu_0_split -> res4f_res4f_relu_0_split_1
I0327 18:01:30.535045 17258 net.cpp:124] Setting up res4f_res4f_relu_0_split
I0327 18:01:30.535053 17258 net.cpp:131] Top shape: 10 256 14 14 (501760)
I0327 18:01:30.535055 17258 net.cpp:131] Top shape: 10 256 14 14 (501760)
I0327 18:01:30.535058 17258 net.cpp:139] Memory required for data: 774717600
I0327 18:01:30.535063 17258 layer_factory.hpp:77] Creating layer res5a_branch1
I0327 18:01:30.535073 17258 net.cpp:86] Creating Layer res5a_branch1
I0327 18:01:30.535075 17258 net.cpp:408] res5a_branch1 <- res4f_res4f_relu_0_split_0
I0327 18:01:30.535081 17258 net.cpp:382] res5a_branch1 -> res5a_branch1
I0327 18:01:30.536258 17258 net.cpp:124] Setting up res5a_branch1
I0327 18:01:30.536267 17258 net.cpp:131] Top shape: 10 512 7 7 (250880)
I0327 18:01:30.536270 17258 net.cpp:139] Memory required for data: 775721120
I0327 18:01:30.536274 17258 layer_factory.hpp:77] Creating layer bn5a_branch1
I0327 18:01:30.536280 17258 net.cpp:86] Creating Layer bn5a_branch1
I0327 18:01:30.536284 17258 net.cpp:408] bn5a_branch1 <- res5a_branch1
I0327 18:01:30.536288 17258 net.cpp:369] bn5a_branch1 -> res5a_branch1 (in-place)
I0327 18:01:30.536486 17258 net.cpp:124] Setting up bn5a_branch1
I0327 18:01:30.536494 17258 net.cpp:131] Top shape: 10 512 7 7 (250880)
I0327 18:01:30.536497 17258 net.cpp:139] Memory required for data: 776724640
I0327 18:01:30.536504 17258 layer_factory.hpp:77] Creating layer scale5a_branch1
I0327 18:01:30.536510 17258 net.cpp:86] Creating Layer scale5a_branch1
I0327 18:01:30.536514 17258 net.cpp:408] scale5a_branch1 <- res5a_branch1
I0327 18:01:30.536518 17258 net.cpp:369] scale5a_branch1 -> res5a_branch1 (in-place)
I0327 18:01:30.536556 17258 layer_factory.hpp:77] Creating layer scale5a_branch1
I0327 18:01:30.536659 17258 net.cpp:124] Setting up scale5a_branch1
I0327 18:01:30.536670 17258 net.cpp:131] Top shape: 10 512 7 7 (250880)
I0327 18:01:30.536686 17258 net.cpp:139] Memory required for data: 777728160
I0327 18:01:30.536692 17258 layer_factory.hpp:77] Creating layer res5a_branch2a
I0327 18:01:30.536703 17258 net.cpp:86] Creating Layer res5a_branch2a
I0327 18:01:30.536707 17258 net.cpp:408] res5a_branch2a <- res4f_res4f_relu_0_split_1
I0327 18:01:30.536713 17258 net.cpp:382] res5a_branch2a -> res5a_branch2a
I0327 18:01:30.547890 17258 net.cpp:124] Setting up res5a_branch2a
I0327 18:01:30.547912 17258 net.cpp:131] Top shape: 10 512 7 7 (250880)
I0327 18:01:30.547916 17258 net.cpp:139] Memory required for data: 778731680
I0327 18:01:30.547924 17258 layer_factory.hpp:77] Creating layer bn5a_branch2a
I0327 18:01:30.547931 17258 net.cpp:86] Creating Layer bn5a_branch2a
I0327 18:01:30.547935 17258 net.cpp:408] bn5a_branch2a <- res5a_branch2a
I0327 18:01:30.547942 17258 net.cpp:369] bn5a_branch2a -> res5a_branch2a (in-place)
I0327 18:01:30.548143 17258 net.cpp:124] Setting up bn5a_branch2a
I0327 18:01:30.548154 17258 net.cpp:131] Top shape: 10 512 7 7 (250880)
I0327 18:01:30.548157 17258 net.cpp:139] Memory required for data: 779735200
I0327 18:01:30.548166 17258 layer_factory.hpp:77] Creating layer scale5a_branch2a
I0327 18:01:30.548172 17258 net.cpp:86] Creating Layer scale5a_branch2a
I0327 18:01:30.548175 17258 net.cpp:408] scale5a_branch2a <- res5a_branch2a
I0327 18:01:30.548180 17258 net.cpp:369] scale5a_branch2a -> res5a_branch2a (in-place)
I0327 18:01:30.548220 17258 layer_factory.hpp:77] Creating layer scale5a_branch2a
I0327 18:01:30.548326 17258 net.cpp:124] Setting up scale5a_branch2a
I0327 18:01:30.548334 17258 net.cpp:131] Top shape: 10 512 7 7 (250880)
I0327 18:01:30.548337 17258 net.cpp:139] Memory required for data: 780738720
I0327 18:01:30.548343 17258 layer_factory.hpp:77] Creating layer res5a_branch2a_relu
I0327 18:01:30.548350 17258 net.cpp:86] Creating Layer res5a_branch2a_relu
I0327 18:01:30.548354 17258 net.cpp:408] res5a_branch2a_relu <- res5a_branch2a
I0327 18:01:30.548358 17258 net.cpp:369] res5a_branch2a_relu -> res5a_branch2a (in-place)
I0327 18:01:30.548365 17258 net.cpp:124] Setting up res5a_branch2a_relu
I0327 18:01:30.548369 17258 net.cpp:131] Top shape: 10 512 7 7 (250880)
I0327 18:01:30.548372 17258 net.cpp:139] Memory required for data: 781742240
I0327 18:01:30.548375 17258 layer_factory.hpp:77] Creating layer res5a_branch2b
I0327 18:01:30.548384 17258 net.cpp:86] Creating Layer res5a_branch2b
I0327 18:01:30.548388 17258 net.cpp:408] res5a_branch2b <- res5a_branch2a
I0327 18:01:30.548393 17258 net.cpp:382] res5a_branch2b -> res5a_branch2b
I0327 18:01:30.569227 17258 net.cpp:124] Setting up res5a_branch2b
I0327 18:01:30.569270 17258 net.cpp:131] Top shape: 10 512 7 7 (250880)
I0327 18:01:30.569274 17258 net.cpp:139] Memory required for data: 782745760
I0327 18:01:30.569284 17258 layer_factory.hpp:77] Creating layer bn5a_branch2b
I0327 18:01:30.569298 17258 net.cpp:86] Creating Layer bn5a_branch2b
I0327 18:01:30.569303 17258 net.cpp:408] bn5a_branch2b <- res5a_branch2b
I0327 18:01:30.569312 17258 net.cpp:369] bn5a_branch2b -> res5a_branch2b (in-place)
I0327 18:01:30.569531 17258 net.cpp:124] Setting up bn5a_branch2b
I0327 18:01:30.569540 17258 net.cpp:131] Top shape: 10 512 7 7 (250880)
I0327 18:01:30.569543 17258 net.cpp:139] Memory required for data: 783749280
I0327 18:01:30.569550 17258 layer_factory.hpp:77] Creating layer scale5a_branch2b
I0327 18:01:30.569558 17258 net.cpp:86] Creating Layer scale5a_branch2b
I0327 18:01:30.569561 17258 net.cpp:408] scale5a_branch2b <- res5a_branch2b
I0327 18:01:30.569567 17258 net.cpp:369] scale5a_branch2b -> res5a_branch2b (in-place)
I0327 18:01:30.569613 17258 layer_factory.hpp:77] Creating layer scale5a_branch2b
I0327 18:01:30.569725 17258 net.cpp:124] Setting up scale5a_branch2b
I0327 18:01:30.569732 17258 net.cpp:131] Top shape: 10 512 7 7 (250880)
I0327 18:01:30.569736 17258 net.cpp:139] Memory required for data: 784752800
I0327 18:01:30.569741 17258 layer_factory.hpp:77] Creating layer res5a
I0327 18:01:30.569757 17258 net.cpp:86] Creating Layer res5a
I0327 18:01:30.569787 17258 net.cpp:408] res5a <- res5a_branch1
I0327 18:01:30.569792 17258 net.cpp:408] res5a <- res5a_branch2b
I0327 18:01:30.569798 17258 net.cpp:382] res5a -> res5a
I0327 18:01:30.569824 17258 net.cpp:124] Setting up res5a
I0327 18:01:30.569831 17258 net.cpp:131] Top shape: 10 512 7 7 (250880)
I0327 18:01:30.569834 17258 net.cpp:139] Memory required for data: 785756320
I0327 18:01:30.569838 17258 layer_factory.hpp:77] Creating layer res5a_relu
I0327 18:01:30.569847 17258 net.cpp:86] Creating Layer res5a_relu
I0327 18:01:30.569851 17258 net.cpp:408] res5a_relu <- res5a
I0327 18:01:30.569856 17258 net.cpp:369] res5a_relu -> res5a (in-place)
I0327 18:01:30.569862 17258 net.cpp:124] Setting up res5a_relu
I0327 18:01:30.569866 17258 net.cpp:131] Top shape: 10 512 7 7 (250880)
I0327 18:01:30.569869 17258 net.cpp:139] Memory required for data: 786759840
I0327 18:01:30.569872 17258 layer_factory.hpp:77] Creating layer res5a_res5a_relu_0_split
I0327 18:01:30.569880 17258 net.cpp:86] Creating Layer res5a_res5a_relu_0_split
I0327 18:01:30.569883 17258 net.cpp:408] res5a_res5a_relu_0_split <- res5a
I0327 18:01:30.569887 17258 net.cpp:382] res5a_res5a_relu_0_split -> res5a_res5a_relu_0_split_0
I0327 18:01:30.569895 17258 net.cpp:382] res5a_res5a_relu_0_split -> res5a_res5a_relu_0_split_1
I0327 18:01:30.569928 17258 net.cpp:124] Setting up res5a_res5a_relu_0_split
I0327 18:01:30.569934 17258 net.cpp:131] Top shape: 10 512 7 7 (250880)
I0327 18:01:30.569938 17258 net.cpp:131] Top shape: 10 512 7 7 (250880)
I0327 18:01:30.569941 17258 net.cpp:139] Memory required for data: 788766880
I0327 18:01:30.569945 17258 layer_factory.hpp:77] Creating layer res5b_branch2a
I0327 18:01:30.569955 17258 net.cpp:86] Creating Layer res5b_branch2a
I0327 18:01:30.569959 17258 net.cpp:408] res5b_branch2a <- res5a_res5a_relu_0_split_0
I0327 18:01:30.569965 17258 net.cpp:382] res5b_branch2a -> res5b_branch2a
I0327 18:01:30.591030 17258 net.cpp:124] Setting up res5b_branch2a
I0327 18:01:30.591065 17258 net.cpp:131] Top shape: 10 512 7 7 (250880)
I0327 18:01:30.591069 17258 net.cpp:139] Memory required for data: 789770400
I0327 18:01:30.591079 17258 layer_factory.hpp:77] Creating layer bn5b_branch2a
I0327 18:01:30.591092 17258 net.cpp:86] Creating Layer bn5b_branch2a
I0327 18:01:30.591099 17258 net.cpp:408] bn5b_branch2a <- res5b_branch2a
I0327 18:01:30.591107 17258 net.cpp:369] bn5b_branch2a -> res5b_branch2a (in-place)
I0327 18:01:30.591311 17258 net.cpp:124] Setting up bn5b_branch2a
I0327 18:01:30.591320 17258 net.cpp:131] Top shape: 10 512 7 7 (250880)
I0327 18:01:30.591322 17258 net.cpp:139] Memory required for data: 790773920
I0327 18:01:30.591331 17258 layer_factory.hpp:77] Creating layer scale5b_branch2a
I0327 18:01:30.591341 17258 net.cpp:86] Creating Layer scale5b_branch2a
I0327 18:01:30.591344 17258 net.cpp:408] scale5b_branch2a <- res5b_branch2a
I0327 18:01:30.591348 17258 net.cpp:369] scale5b_branch2a -> res5b_branch2a (in-place)
I0327 18:01:30.591392 17258 layer_factory.hpp:77] Creating layer scale5b_branch2a
I0327 18:01:30.591498 17258 net.cpp:124] Setting up scale5b_branch2a
I0327 18:01:30.591506 17258 net.cpp:131] Top shape: 10 512 7 7 (250880)
I0327 18:01:30.591508 17258 net.cpp:139] Memory required for data: 791777440
I0327 18:01:30.591514 17258 layer_factory.hpp:77] Creating layer res5b_branch2a_relu
I0327 18:01:30.591521 17258 net.cpp:86] Creating Layer res5b_branch2a_relu
I0327 18:01:30.591524 17258 net.cpp:408] res5b_branch2a_relu <- res5b_branch2a
I0327 18:01:30.591531 17258 net.cpp:369] res5b_branch2a_relu -> res5b_branch2a (in-place)
I0327 18:01:30.591537 17258 net.cpp:124] Setting up res5b_branch2a_relu
I0327 18:01:30.591542 17258 net.cpp:131] Top shape: 10 512 7 7 (250880)
I0327 18:01:30.591545 17258 net.cpp:139] Memory required for data: 792780960
I0327 18:01:30.591548 17258 layer_factory.hpp:77] Creating layer res5b_branch2b
I0327 18:01:30.591557 17258 net.cpp:86] Creating Layer res5b_branch2b
I0327 18:01:30.591562 17258 net.cpp:408] res5b_branch2b <- res5b_branch2a
I0327 18:01:30.591574 17258 net.cpp:382] res5b_branch2b -> res5b_branch2b
I0327 18:01:30.612468 17258 net.cpp:124] Setting up res5b_branch2b
I0327 18:01:30.612507 17258 net.cpp:131] Top shape: 10 512 7 7 (250880)
I0327 18:01:30.612512 17258 net.cpp:139] Memory required for data: 793784480
I0327 18:01:30.612521 17258 layer_factory.hpp:77] Creating layer bn5b_branch2b
I0327 18:01:30.612534 17258 net.cpp:86] Creating Layer bn5b_branch2b
I0327 18:01:30.612540 17258 net.cpp:408] bn5b_branch2b <- res5b_branch2b
I0327 18:01:30.612550 17258 net.cpp:369] bn5b_branch2b -> res5b_branch2b (in-place)
I0327 18:01:30.612752 17258 net.cpp:124] Setting up bn5b_branch2b
I0327 18:01:30.612762 17258 net.cpp:131] Top shape: 10 512 7 7 (250880)
I0327 18:01:30.612766 17258 net.cpp:139] Memory required for data: 794788000
I0327 18:01:30.612772 17258 layer_factory.hpp:77] Creating layer scale5b_branch2b
I0327 18:01:30.612781 17258 net.cpp:86] Creating Layer scale5b_branch2b
I0327 18:01:30.612783 17258 net.cpp:408] scale5b_branch2b <- res5b_branch2b
I0327 18:01:30.612788 17258 net.cpp:369] scale5b_branch2b -> res5b_branch2b (in-place)
I0327 18:01:30.612834 17258 layer_factory.hpp:77] Creating layer scale5b_branch2b
I0327 18:01:30.612941 17258 net.cpp:124] Setting up scale5b_branch2b
I0327 18:01:30.612948 17258 net.cpp:131] Top shape: 10 512 7 7 (250880)
I0327 18:01:30.612951 17258 net.cpp:139] Memory required for data: 795791520
I0327 18:01:30.612957 17258 layer_factory.hpp:77] Creating layer res5b
I0327 18:01:30.612967 17258 net.cpp:86] Creating Layer res5b
I0327 18:01:30.612970 17258 net.cpp:408] res5b <- res5a_res5a_relu_0_split_1
I0327 18:01:30.612975 17258 net.cpp:408] res5b <- res5b_branch2b
I0327 18:01:30.612980 17258 net.cpp:382] res5b -> res5b
I0327 18:01:30.613006 17258 net.cpp:124] Setting up res5b
I0327 18:01:30.613013 17258 net.cpp:131] Top shape: 10 512 7 7 (250880)
I0327 18:01:30.613015 17258 net.cpp:139] Memory required for data: 796795040
I0327 18:01:30.613019 17258 layer_factory.hpp:77] Creating layer res5b_relu
I0327 18:01:30.613024 17258 net.cpp:86] Creating Layer res5b_relu
I0327 18:01:30.613029 17258 net.cpp:408] res5b_relu <- res5b
I0327 18:01:30.613034 17258 net.cpp:369] res5b_relu -> res5b (in-place)
I0327 18:01:30.613041 17258 net.cpp:124] Setting up res5b_relu
I0327 18:01:30.613045 17258 net.cpp:131] Top shape: 10 512 7 7 (250880)
I0327 18:01:30.613049 17258 net.cpp:139] Memory required for data: 797798560
I0327 18:01:30.613051 17258 layer_factory.hpp:77] Creating layer res5b_res5b_relu_0_split
I0327 18:01:30.613057 17258 net.cpp:86] Creating Layer res5b_res5b_relu_0_split
I0327 18:01:30.613060 17258 net.cpp:408] res5b_res5b_relu_0_split <- res5b
I0327 18:01:30.613065 17258 net.cpp:382] res5b_res5b_relu_0_split -> res5b_res5b_relu_0_split_0
I0327 18:01:30.613071 17258 net.cpp:382] res5b_res5b_relu_0_split -> res5b_res5b_relu_0_split_1
I0327 18:01:30.613106 17258 net.cpp:124] Setting up res5b_res5b_relu_0_split
I0327 18:01:30.613112 17258 net.cpp:131] Top shape: 10 512 7 7 (250880)
I0327 18:01:30.613116 17258 net.cpp:131] Top shape: 10 512 7 7 (250880)
I0327 18:01:30.613118 17258 net.cpp:139] Memory required for data: 799805600
I0327 18:01:30.613122 17258 layer_factory.hpp:77] Creating layer res5c_branch2a
I0327 18:01:30.613132 17258 net.cpp:86] Creating Layer res5c_branch2a
I0327 18:01:30.613135 17258 net.cpp:408] res5c_branch2a <- res5b_res5b_relu_0_split_0
I0327 18:01:30.613142 17258 net.cpp:382] res5c_branch2a -> res5c_branch2a
I0327 18:01:30.635226 17258 net.cpp:124] Setting up res5c_branch2a
I0327 18:01:30.635268 17258 net.cpp:131] Top shape: 10 512 7 7 (250880)
I0327 18:01:30.635272 17258 net.cpp:139] Memory required for data: 800809120
I0327 18:01:30.635282 17258 layer_factory.hpp:77] Creating layer bn5c_branch2a
I0327 18:01:30.635298 17258 net.cpp:86] Creating Layer bn5c_branch2a
I0327 18:01:30.635303 17258 net.cpp:408] bn5c_branch2a <- res5c_branch2a
I0327 18:01:30.635311 17258 net.cpp:369] bn5c_branch2a -> res5c_branch2a (in-place)
I0327 18:01:30.635538 17258 net.cpp:124] Setting up bn5c_branch2a
I0327 18:01:30.635553 17258 net.cpp:131] Top shape: 10 512 7 7 (250880)
I0327 18:01:30.635582 17258 net.cpp:139] Memory required for data: 801812640
I0327 18:01:30.635591 17258 layer_factory.hpp:77] Creating layer scale5c_branch2a
I0327 18:01:30.635598 17258 net.cpp:86] Creating Layer scale5c_branch2a
I0327 18:01:30.635602 17258 net.cpp:408] scale5c_branch2a <- res5c_branch2a
I0327 18:01:30.635609 17258 net.cpp:369] scale5c_branch2a -> res5c_branch2a (in-place)
I0327 18:01:30.635656 17258 layer_factory.hpp:77] Creating layer scale5c_branch2a
I0327 18:01:30.635772 17258 net.cpp:124] Setting up scale5c_branch2a
I0327 18:01:30.635782 17258 net.cpp:131] Top shape: 10 512 7 7 (250880)
I0327 18:01:30.635785 17258 net.cpp:139] Memory required for data: 802816160
I0327 18:01:30.635790 17258 layer_factory.hpp:77] Creating layer res5c_branch2a_relu
I0327 18:01:30.635797 17258 net.cpp:86] Creating Layer res5c_branch2a_relu
I0327 18:01:30.635802 17258 net.cpp:408] res5c_branch2a_relu <- res5c_branch2a
I0327 18:01:30.635805 17258 net.cpp:369] res5c_branch2a_relu -> res5c_branch2a (in-place)
I0327 18:01:30.635812 17258 net.cpp:124] Setting up res5c_branch2a_relu
I0327 18:01:30.635816 17258 net.cpp:131] Top shape: 10 512 7 7 (250880)
I0327 18:01:30.635819 17258 net.cpp:139] Memory required for data: 803819680
I0327 18:01:30.635823 17258 layer_factory.hpp:77] Creating layer res5c_branch2b
I0327 18:01:30.635833 17258 net.cpp:86] Creating Layer res5c_branch2b
I0327 18:01:30.635835 17258 net.cpp:408] res5c_branch2b <- res5c_branch2a
I0327 18:01:30.635843 17258 net.cpp:382] res5c_branch2b -> res5c_branch2b
I0327 18:01:30.657045 17258 net.cpp:124] Setting up res5c_branch2b
I0327 18:01:30.657090 17258 net.cpp:131] Top shape: 10 512 7 7 (250880)
I0327 18:01:30.657094 17258 net.cpp:139] Memory required for data: 804823200
I0327 18:01:30.657105 17258 layer_factory.hpp:77] Creating layer bn5c_branch2b
I0327 18:01:30.657121 17258 net.cpp:86] Creating Layer bn5c_branch2b
I0327 18:01:30.657127 17258 net.cpp:408] bn5c_branch2b <- res5c_branch2b
I0327 18:01:30.657136 17258 net.cpp:369] bn5c_branch2b -> res5c_branch2b (in-place)
I0327 18:01:30.657356 17258 net.cpp:124] Setting up bn5c_branch2b
I0327 18:01:30.657371 17258 net.cpp:131] Top shape: 10 512 7 7 (250880)
I0327 18:01:30.657374 17258 net.cpp:139] Memory required for data: 805826720
I0327 18:01:30.657383 17258 layer_factory.hpp:77] Creating layer scale5c_branch2b
I0327 18:01:30.657394 17258 net.cpp:86] Creating Layer scale5c_branch2b
I0327 18:01:30.657398 17258 net.cpp:408] scale5c_branch2b <- res5c_branch2b
I0327 18:01:30.657405 17258 net.cpp:369] scale5c_branch2b -> res5c_branch2b (in-place)
I0327 18:01:30.657459 17258 layer_factory.hpp:77] Creating layer scale5c_branch2b
I0327 18:01:30.657573 17258 net.cpp:124] Setting up scale5c_branch2b
I0327 18:01:30.657582 17258 net.cpp:131] Top shape: 10 512 7 7 (250880)
I0327 18:01:30.657584 17258 net.cpp:139] Memory required for data: 806830240
I0327 18:01:30.657590 17258 layer_factory.hpp:77] Creating layer res5c
I0327 18:01:30.657598 17258 net.cpp:86] Creating Layer res5c
I0327 18:01:30.657603 17258 net.cpp:408] res5c <- res5b_res5b_relu_0_split_1
I0327 18:01:30.657608 17258 net.cpp:408] res5c <- res5c_branch2b
I0327 18:01:30.657615 17258 net.cpp:382] res5c -> res5c
I0327 18:01:30.657644 17258 net.cpp:124] Setting up res5c
I0327 18:01:30.657650 17258 net.cpp:131] Top shape: 10 512 7 7 (250880)
I0327 18:01:30.657655 17258 net.cpp:139] Memory required for data: 807833760
I0327 18:01:30.657657 17258 layer_factory.hpp:77] Creating layer res5c_relu
I0327 18:01:30.657663 17258 net.cpp:86] Creating Layer res5c_relu
I0327 18:01:30.657667 17258 net.cpp:408] res5c_relu <- res5c
I0327 18:01:30.657671 17258 net.cpp:369] res5c_relu -> res5c (in-place)
I0327 18:01:30.657678 17258 net.cpp:124] Setting up res5c_relu
I0327 18:01:30.657682 17258 net.cpp:131] Top shape: 10 512 7 7 (250880)
I0327 18:01:30.657685 17258 net.cpp:139] Memory required for data: 808837280
I0327 18:01:30.657688 17258 layer_factory.hpp:77] Creating layer pool5
I0327 18:01:30.657707 17258 net.cpp:86] Creating Layer pool5
I0327 18:01:30.657737 17258 net.cpp:408] pool5 <- res5c
I0327 18:01:30.657742 17258 net.cpp:382] pool5 -> pool5
I0327 18:01:30.657769 17258 net.cpp:124] Setting up pool5
I0327 18:01:30.657775 17258 net.cpp:131] Top shape: 10 512 1 1 (5120)
I0327 18:01:30.657779 17258 net.cpp:139] Memory required for data: 808857760
I0327 18:01:30.657783 17258 layer_factory.hpp:77] Creating layer fc1000
I0327 18:01:30.657790 17258 net.cpp:86] Creating Layer fc1000
I0327 18:01:30.657793 17258 net.cpp:408] fc1000 <- pool5
I0327 18:01:30.657801 17258 net.cpp:382] fc1000 -> fc1000
I0327 18:01:30.661002 17258 net.cpp:124] Setting up fc1000
I0327 18:01:30.661016 17258 net.cpp:131] Top shape: 10 1000 (10000)
I0327 18:01:30.661020 17258 net.cpp:139] Memory required for data: 808897760
I0327 18:01:30.661026 17258 layer_factory.hpp:77] Creating layer fc1000_fc1000_0_split
I0327 18:01:30.661033 17258 net.cpp:86] Creating Layer fc1000_fc1000_0_split
I0327 18:01:30.661036 17258 net.cpp:408] fc1000_fc1000_0_split <- fc1000
I0327 18:01:30.661044 17258 net.cpp:382] fc1000_fc1000_0_split -> fc1000_fc1000_0_split_0
I0327 18:01:30.661052 17258 net.cpp:382] fc1000_fc1000_0_split -> fc1000_fc1000_0_split_1
I0327 18:01:30.661058 17258 net.cpp:382] fc1000_fc1000_0_split -> fc1000_fc1000_0_split_2
I0327 18:01:30.661108 17258 net.cpp:124] Setting up fc1000_fc1000_0_split
I0327 18:01:30.661113 17258 net.cpp:131] Top shape: 10 1000 (10000)
I0327 18:01:30.661118 17258 net.cpp:131] Top shape: 10 1000 (10000)
I0327 18:01:30.661121 17258 net.cpp:131] Top shape: 10 1000 (10000)
I0327 18:01:30.661123 17258 net.cpp:139] Memory required for data: 809017760
I0327 18:01:30.661128 17258 layer_factory.hpp:77] Creating layer loss
I0327 18:01:30.661134 17258 net.cpp:86] Creating Layer loss
I0327 18:01:30.661136 17258 net.cpp:408] loss <- fc1000_fc1000_0_split_0
I0327 18:01:30.661141 17258 net.cpp:408] loss <- label_data_1_split_0
I0327 18:01:30.661149 17258 net.cpp:382] loss -> loss
…
