…
I0328 19:41:58.369751 13194 net.cpp:296] The NetState phase (0) differed from the phase (1) specified by a rule in layer acc/top-5
I0328 19:41:58.370236 13194 net.cpp:53] Initializing net from parameters: 
name: "resnet_34"
state {
  phase: TRAIN
  level: 0
  stage: ""
}
layer {
  name: "data"
  type: "Data"
  top: "data"
  top: "label"
  include {
    phase: TRAIN
  }
  transform_param {
    mirror: true
    crop_size: 224
    mean_file: "/shared/datasets/ImageNet2012/lmdb_data/imagenet_mean.binaryproto"
  }
  data_param {
    source: "/shared/datasets/ImageNet2012/lmdb_data/ilsvrc12_train_lmdb"
    batch_size: 32
    backend: LMDB
  }
}
layer {
  name: "conv1"
  type: "Convolution"
  bottom: "data"
  top: "conv1"
  convolution_param {
    num_output: 64
    bias_term: false
    pad: 3
    kernel_size: 7
    stride: 2
    weight_filler {
      type: "msra"
    }
  }
}
layer {
  name: "bn_conv1"
  type: "BatchNorm"
  bottom: "conv1"
  top: "conv1"
  batch_norm_param {
    use_global_stats: false
  }
}
layer {
  name: "scale_conv1"
  type: "Scale"
  bottom: "conv1"
  top: "conv1"
  scale_param {
    bias_term: true
  }
}
layer {
  name: "conv1_relu"
  type: "ReLU"
  bottom: "conv1"
  top: "conv1"
}
layer {
  name: "pool1"
  type: "Pooling"
  bottom: "conv1"
  top: "pool1"
  pooling_param {
    pool: MAX
    kernel_size: 3
    stride: 2
  }
}
layer {
  name: "res2a_branch1"
  type: "Convolution"
  bottom: "pool1"
  top: "res2a_branch1"
  convolution_param {
    num_output: 64
    bias_term: false
    pad: 0
    kernel_size: 1
    stride: 1
    weight_filler {
      type: "msra"
    }
  }
}
layer {
  name: "bn2a_branch1"
  type: "BatchNorm"
  bottom: "res2a_branch1"
  top: "res2a_branch1"
  batch_norm_param {
    use_global_stats: false
  }
}
layer {
  name: "scale2a_branch1"
  type: "Scale"
  bottom: "res2a_branch1"
  top: "res2a_branch1"
  scale_param {
    bias_term: true
  }
}
layer {
  name: "res2a_branch2a"
  type: "Convolution"
  bottom: "pool1"
  top: "res2a_branch2a"
  convolution_param {
    num_output: 64
    bias_term: false
    pad: 1
    kernel_size: 3
    stride: 1
    weight_filler {
      type: "msra"
    }
  }
}
layer {
  name: "bn2a_branch2a"
  type: "BatchNorm"
  bottom: "res2a_branch2a"
  top: "res2a_branch2a"
  batch_norm_param {
    use_global_stats: false
  }
}
layer {
  name: "scale2a_branch2a"
  type: "Scale"
  bottom: "res2a_branch2a"
  top: "res2a_branch2a"
  scale_param {
    bias_term: true
  }
}
layer {
  name: "res2a_branch2a_relu"
  type: "ReLU"
  bottom: "res2a_branch2a"
  top: "res2a_branch2a"
}
layer {
  name: "res2a_branch2b"
  type: "Convolution"
  bottom: "res2a_branch2a"
  top: "res2a_branch2b"
  convolution_param {
    num_output: 64
    bias_term: false
    pad: 1
    kernel_size: 3
    stride: 1
    weight_filler {
      type: "msra"
    }
  }
}
layer {
  name: "bn2a_branch2b"
  type: "BatchNorm"
  bottom: "res2a_branch2b"
  top: "res2a_branch2b"
  batch_norm_param {
    use_global_stats: false
  }
}
layer {
  name: "scale2a_branch2b"
  type: "Scale"
  bottom: "res2a_branch2b"
  top: "res2a_branch2b"
  scale_param {
    bias_term: true
  }
}
layer {
  name: "res2a"
  type: "Eltwise"
  bottom: "res2a_branch1"
  bottom: "res2a_branch2b"
  top: "res2a"
  eltwise_param {
    operation: SUM
  }
}
layer {
  name: "res2a_relu"
  type: "ReLU"
  bottom: "res2a"
  top: "res2a"
}
layer {
  name: "res2b_branch2a"
  type: "Convolution"
  bottom: "res2a"
  top: "res2b_branch2a"
  convolution_param {
    num_output: 64
    bias_term: false
    pad: 1
    kernel_size: 3
    stride: 1
    weight_filler {
      type: "msra"
    }
  }
}
layer {
  name: "bn2b_branch2a"
  type: "BatchNorm"
  bottom: "res2b_branch2a"
  top: "res2b_branch2a"
  batch_norm_param {
    use_global_stats: false
  }
}
layer {
  name: "scale2b_branch2a"
  type: "Scale"
  bottom: "res2b_branch2a"
  top: "res2b_branch2a"
  scale_param {
    bias_term: true
  }
}
layer {
  name: "res2b_branch2a_relu"
  type: "ReLU"
  bottom: "res2b_branch2a"
  top: "res2b_branch2a"
}
layer {
  name: "res2b_branch2b"
  type: "Convolution"
  bottom: "res2b_branch2a"
  top: "res2b_branch2b"
  convolution_param {
    num_output: 64
    bias_term: false
    pad: 1
    kernel_size: 3
    stride: 1
    weight_filler {
      type: "msra"
    }
  }
}
layer {
  name: "bn2b_branch2b"
  type: "BatchNorm"
  bottom: "res2b_branch2b"
  top: "res2b_branch2b"
  batch_norm_param {
    use_global_stats: false
  }
}
layer {
  name: "scale2b_branch2b"
  type: "Scale"
  bottom: "res2b_branch2b"
  top: "res2b_branch2b"
  scale_param {
    bias_term: true
  }
}
layer {
  name: "res2b"
  type: "Eltwise"
  bottom: "res2a"
  bottom: "res2b_branch2b"
  top: "res2b"
  eltwise_param {
    operation: SUM
  }
}
layer {
  name: "res2b_relu"
  type: "ReLU"
  bottom: "res2b"
  top: "res2b"
}
layer {
  name: "res2c_branch2a"
  type: "Convolution"
  bottom: "res2b"
  top: "res2c_branch2a"
  convolution_param {
    num_output: 64
    bias_term: false
    pad: 1
    kernel_size: 3
    stride: 1
    weight_filler {
      type: "msra"
    }
  }
}
layer {
  name: "bn2c_branch2a"
  type: "BatchNorm"
  bottom: "res2c_branch2a"
  top: "res2c_branch2a"
  batch_norm_param {
    use_global_stats: false
  }
}
layer {
  name: "scale2c_branch2a"
  type: "Scale"
  bottom: "res2c_branch2a"
  top: "res2c_branch2a"
  scale_param {
    bias_term: true
  }
}
layer {
  name: "res2c_branch2a_relu"
  type: "ReLU"
  bottom: "res2c_branch2a"
  top: "res2c_branch2a"
}
layer {
  name: "res2c_branch2b"
  type: "Convolution"
  bottom: "res2c_branch2a"
  top: "res2c_branch2b"
  convolution_param {
    num_output: 64
    bias_term: false
    pad: 1
    kernel_size: 3
    stride: 1
    weight_filler {
      type: "msra"
    }
  }
}
layer {
  name: "bn2c_branch2b"
  type: "BatchNorm"
  bottom: "res2c_branch2b"
  top: "res2c_branch2b"
  batch_norm_param {
    use_global_stats: false
  }
}
layer {
  name: "scale2c_branch2b"
  type: "Scale"
  bottom: "res2c_branch2b"
  top: "res2c_branch2b"
  scale_param {
    bias_term: true
  }
}
layer {
  name: "res2c"
  type: "Eltwise"
  bottom: "res2b"
  bottom: "res2c_branch2b"
  top: "res2c"
  eltwise_param {
    operation: SUM
  }
}
layer {
  name: "res2c_relu"
  type: "ReLU"
  bottom: "res2c"
  top: "res2c"
}
layer {
  name: "res3a_branch1"
  type: "Convolution"
  bottom: "res2c"
  top: "res3a_branch1"
  convolution_param {
    num_output: 128
    bias_term: false
    pad: 0
    kernel_size: 1
    stride: 2
    weight_filler {
      type: "msra"
    }
  }
}
layer {
  name: "bn3a_branch1"
  type: "BatchNorm"
  bottom: "res3a_branch1"
  top: "res3a_branch1"
  batch_norm_param {
    use_global_stats: false
  }
}
layer {
  name: "scale3a_branch1"
  type: "Scale"
  bottom: "res3a_branch1"
  top: "res3a_branch1"
  scale_param {
    bias_term: true
  }
}
layer {
  name: "res3a_branch2a"
  type: "Convolution"
  bottom: "res2c"
  top: "res3a_branch2a"
  convolution_param {
    num_output: 128
    bias_term: false
    pad: 1
    kernel_size: 3
    stride: 2
    weight_filler {
      type: "msra"
    }
  }
}
layer {
  name: "bn3a_branch2a"
  type: "BatchNorm"
  bottom: "res3a_branch2a"
  top: "res3a_branch2a"
  batch_norm_param {
    use_global_stats: false
  }
}
layer {
  name: "scale3a_branch2a"
  type: "Scale"
  bottom: "res3a_branch2a"
  top: "res3a_branch2a"
  scale_param {
    bias_term: true
  }
}
layer {
  name: "res3a_branch2a_relu"
  type: "ReLU"
  bottom: "res3a_branch2a"
  top: "res3a_branch2a"
}
layer {
  name: "res3a_branch2b"
  type: "Convolution"
  bottom: "res3a_branch2a"
  top: "res3a_branch2b"
  convolution_param {
    num_output: 128
    bias_term: false
    pad: 1
    kernel_size: 3
    stride: 1
    weight_filler {
      type: "msra"
    }
  }
}
layer {
  name: "bn3a_branch2b"
  type: "BatchNorm"
  bottom: "res3a_branch2b"
  top: "res3a_branch2b"
  batch_norm_param {
    use_global_stats: false
  }
}
layer {
  name: "scale3a_branch2b"
  type: "Scale"
  bottom: "res3a_branch2b"
  top: "res3a_branch2b"
  scale_param {
    bias_term: true
  }
}
layer {
  name: "res3a"
  type: "Eltwise"
  bottom: "res3a_branch1"
  bottom: "res3a_branch2b"
  top: "res3a"
  eltwise_param {
    operation: SUM
  }
}
layer {
  name: "res3a_relu"
  type: "ReLU"
  bottom: "res3a"
  top: "res3a"
}
layer {
  name: "res3b_branch2a"
  type: "Convolution"
  bottom: "res3a"
  top: "res3b_branch2a"
  convolution_param {
    num_output: 128
    bias_term: false
    pad: 1
    kernel_size: 3
    stride: 1
    weight_filler {
      type: "msra"
    }
  }
}
layer {
  name: "bn3b_branch2a"
  type: "BatchNorm"
  bottom: "res3b_branch2a"
  top: "res3b_branch2a"
  batch_norm_param {
    use_global_stats: false
  }
}
layer {
  name: "scale3b_branch2a"
  type: "Scale"
  bottom: "res3b_branch2a"
  top: "res3b_branch2a"
  scale_param {
    bias_term: true
  }
}
layer {
  name: "res3b_branch2a_relu"
  type: "ReLU"
  bottom: "res3b_branch2a"
  top: "res3b_branch2a"
}
layer {
  name: "res3b_branch2b"
  type: "Convolution"
  bottom: "res3b_branch2a"
  top: "res3b_branch2b"
  convolution_param {
    num_output: 128
    bias_term: false
    pad: 1
    kernel_size: 3
    stride: 1
    weight_filler {
      type: "msra"
    }
  }
}
layer {
  name: "bn3b_branch2b"
  type: "BatchNorm"
  bottom: "res3b_branch2b"
  top: "res3b_branch2b"
  batch_norm_param {
    use_global_stats: false
  }
}
layer {
  name: "scale3b_branch2b"
  type: "Scale"
  bottom: "res3b_branch2b"
  top: "res3b_branch2b"
  scale_param {
    bias_term: true
  }
}
layer {
  name: "res3b"
  type: "Eltwise"
  bottom: "res3a"
  bottom: "res3b_branch2b"
  top: "res3b"
  eltwise_param {
    operation: SUM
  }
}
layer {
  name: "res3b_relu"
  type: "ReLU"
  bottom: "res3b"
  top: "res3b"
}
layer {
  name: "res3c_branch2a"
  type: "Convolution"
  bottom: "res3b"
  top: "res3c_branch2a"
  convolution_param {
    num_output: 128
    bias_term: false
    pad: 1
    kernel_size: 3
    stride: 1
    weight_filler {
      type: "msra"
    }
  }
}
layer {
  name: "bn3c_branch2a"
  type: "BatchNorm"
  bottom: "res3c_branch2a"
  top: "res3c_branch2a"
  batch_norm_param {
    use_global_stats: false
  }
}
layer {
  name: "scale3c_branch2a"
  type: "Scale"
  bottom: "res3c_branch2a"
  top: "res3c_branch2a"
  scale_param {
    bias_term: true
  }
}
layer {
  name: "res3c_branch2a_relu"
  type: "ReLU"
  bottom: "res3c_branch2a"
  top: "res3c_branch2a"
}
layer {
  name: "res3c_branch2b"
  type: "Convolution"
  bottom: "res3c_branch2a"
  top: "res3c_branch2b"
  convolution_param {
    num_output: 128
    bias_term: false
    pad: 1
    kernel_size: 3
    stride: 1
    weight_filler {
      type: "msra"
    }
  }
}
layer {
  name: "bn3c_branch2b"
  type: "BatchNorm"
  bottom: "res3c_branch2b"
  top: "res3c_branch2b"
  batch_norm_param {
    use_global_stats: false
  }
}
layer {
  name: "scale3c_branch2b"
  type: "Scale"
  bottom: "res3c_branch2b"
  top: "res3c_branch2b"
  scale_param {
    bias_term: true
  }
}
layer {
  name: "res3c"
  type: "Eltwise"
  bottom: "res3b"
  bottom: "res3c_branch2b"
  top: "res3c"
  eltwise_param {
    operation: SUM
  }
}
layer {
  name: "res3c_relu"
  type: "ReLU"
  bottom: "res3c"
  top: "res3c"
}
layer {
  name: "res3d_branch2a"
  type: "Convolution"
  bottom: "res3c"
  top: "res3d_branch2a"
  convolution_param {
    num_output: 128
    bias_term: false
    pad: 1
    kernel_size: 3
    stride: 1
    weight_filler {
      type: "msra"
    }
  }
}
layer {
  name: "bn3d_branch2a"
  type: "BatchNorm"
  bottom: "res3d_branch2a"
  top: "res3d_branch2a"
  batch_norm_param {
    use_global_stats: false
  }
}
layer {
  name: "scale3d_branch2a"
  type: "Scale"
  bottom: "res3d_branch2a"
  top: "res3d_branch2a"
  scale_param {
    bias_term: true
  }
}
layer {
  name: "res3d_branch2a_relu"
  type: "ReLU"
  bottom: "res3d_branch2a"
  top: "res3d_branch2a"
}
layer {
  name: "res3d_branch2b"
  type: "Convolution"
  bottom: "res3d_branch2a"
  top: "res3d_branch2b"
  convolution_param {
    num_output: 128
    bias_term: false
    pad: 1
    kernel_size: 3
    stride: 1
    weight_filler {
      type: "msra"
    }
  }
}
layer {
  name: "bn3d_branch2b"
  type: "BatchNorm"
  bottom: "res3d_branch2b"
  top: "res3d_branch2b"
  batch_norm_param {
    use_global_stats: false
  }
}
layer {
  name: "scale3d_branch2b"
  type: "Scale"
  bottom: "res3d_branch2b"
  top: "res3d_branch2b"
  scale_param {
    bias_term: true
  }
}
layer {
  name: "res3d"
  type: "Eltwise"
  bottom: "res3c"
  bottom: "res3d_branch2b"
  top: "res3d"
  eltwise_param {
    operation: SUM
  }
}
layer {
  name: "res3d_relu"
  type: "ReLU"
  bottom: "res3d"
  top: "res3d"
}
layer {
  name: "res4a_branch1"
  type: "Convolution"
  bottom: "res3d"
  top: "res4a_branch1"
  convolution_param {
    num_output: 256
    bias_term: false
    pad: 0
    kernel_size: 1
    stride: 2
    weight_filler {
      type: "msra"
    }
  }
}
layer {
  name: "bn4a_branch1"
  type: "BatchNorm"
  bottom: "res4a_branch1"
  top: "res4a_branch1"
  batch_norm_param {
    use_global_stats: false
  }
}
layer {
  name: "scale4a_branch1"
  type: "Scale"
  bottom: "res4a_branch1"
  top: "res4a_branch1"
  scale_param {
    bias_term: true
  }
}
layer {
  name: "res4a_branch2a"
  type: "Convolution"
  bottom: "res3d"
  top: "res4a_branch2a"
  convolution_param {
    num_output: 256
    bias_term: false
    pad: 1
    kernel_size: 3
    stride: 2
    weight_filler {
      type: "msra"
    }
  }
}
layer {
  name: "bn4a_branch2a"
  type: "BatchNorm"
  bottom: "res4a_branch2a"
  top: "res4a_branch2a"
  batch_norm_param {
    use_global_stats: false
  }
}
layer {
  name: "scale4a_branch2a"
  type: "Scale"
  bottom: "res4a_branch2a"
  top: "res4a_branch2a"
  scale_param {
    bias_term: true
  }
}
layer {
  name: "res4a_branch2a_relu"
  type: "ReLU"
  bottom: "res4a_branch2a"
  top: "res4a_branch2a"
}
layer {
  name: "res4a_branch2b"
  type: "Convolution"
  bottom: "res4a_branch2a"
  top: "res4a_branch2b"
  convolution_param {
    num_output: 256
    bias_term: false
    pad: 1
    kernel_size: 3
    stride: 1
    weight_filler {
      type: "msra"
    }
  }
}
layer {
  name: "bn4a_branch2b"
  type: "BatchNorm"
  bottom: "res4a_branch2b"
  top: "res4a_branch2b"
  batch_norm_param {
    use_global_stats: false
  }
}
layer {
  name: "scale4a_branch2b"
  type: "Scale"
  bottom: "res4a_branch2b"
  top: "res4a_branch2b"
  scale_param {
    bias_term: true
  }
}
layer {
  name: "res4a"
  type: "Eltwise"
  bottom: "res4a_branch1"
  bottom: "res4a_branch2b"
  top: "res4a"
  eltwise_param {
    operation: SUM
  }
}
layer {
  name: "res4a_relu"
  type: "ReLU"
  bottom: "res4a"
  top: "res4a"
}
layer {
  name: "res4b_branch2a"
  type: "Convolution"
  bottom: "res4a"
  top: "res4b_branch2a"
  convolution_param {
    num_output: 256
    bias_term: false
    pad: 1
    kernel_size: 3
    stride: 1
    weight_filler {
      type: "msra"
    }
  }
}
layer {
  name: "bn4b_branch2a"
  type: "BatchNorm"
  bottom: "res4b_branch2a"
  top: "res4b_branch2a"
  batch_norm_param {
    use_global_stats: false
  }
}
layer {
  name: "scale4b_branch2a"
  type: "Scale"
  bottom: "res4b_branch2a"
  top: "res4b_branch2a"
  scale_param {
    bias_term: true
  }
}
layer {
  name: "res4b_branch2a_relu"
  type: "ReLU"
  bottom: "res4b_branch2a"
  top: "res4b_branch2a"
}
layer {
  name: "res4b_branch2b"
  type: "Convolution"
  bottom: "res4b_branch2a"
  top: "res4b_branch2b"
  convolution_param {
    num_output: 256
    bias_term: false
    pad: 1
    kernel_size: 3
    stride: 1
    weight_filler {
      type: "msra"
    }
  }
}
layer {
  name: "bn4b_branch2b"
  type: "BatchNorm"
  bottom: "res4b_branch2b"
  top: "res4b_branch2b"
  batch_norm_param {
    use_global_stats: false
  }
}
layer {
  name: "scale4b_branch2b"
  type: "Scale"
  bottom: "res4b_branch2b"
  top: "res4b_branch2b"
  scale_param {
    bias_term: true
  }
}
layer {
  name: "res4b"
  type: "Eltwise"
  bottom: "res4a"
  bottom: "res4b_branch2b"
  top: "res4b"
  eltwise_param {
    operation: SUM
  }
}
layer {
  name: "res4b_relu"
  type: "ReLU"
  bottom: "res4b"
  top: "res4b"
}
layer {
  name: "res4c_branch2a"
  type: "Convolution"
  bottom: "res4b"
  top: "res4c_branch2a"
  convolution_param {
    num_output: 256
    bias_term: false
    pad: 1
    kernel_size: 3
    stride: 1
    weight_filler {
      type: "msra"
    }
  }
}
layer {
  name: "bn4c_branch2a"
  type: "BatchNorm"
  bottom: "res4c_branch2a"
  top: "res4c_branch2a"
  batch_norm_param {
    use_global_stats: false
  }
}
layer {
  name: "scale4c_branch2a"
  type: "Scale"
  bottom: "res4c_branch2a"
  top: "res4c_branch2a"
  scale_param {
    bias_term: true
  }
}
layer {
  name: "res4c_branch2a_relu"
  type: "ReLU"
  bottom: "res4c_branch2a"
  top: "res4c_branch2a"
}
layer {
  name: "res4c_branch2b"
  type: "Convolution"
  bottom: "res4c_branch2a"
  top: "res4c_branch2b"
  convolution_param {
    num_output: 256
    bias_term: false
    pad: 1
    kernel_size: 3
    stride: 1
    weight_filler {
      type: "msra"
    }
  }
}
layer {
  name: "bn4c_branch2b"
  type: "BatchNorm"
  bottom: "res4c_branch2b"
  top: "res4c_branch2b"
  batch_norm_param {
    use_global_stats: false
  }
}
layer {
  name: "scale4c_branch2b"
  type: "Scale"
  bottom: "res4c_branch2b"
  top: "res4c_branch2b"
  scale_param {
    bias_term: true
  }
}
layer {
  name: "res4c"
  type: "Eltwise"
  bottom: "res4b"
  bottom: "res4c_branch2b"
  top: "res4c"
  eltwise_param {
    operation: SUM
  }
}
layer {
  name: "res4c_relu"
  type: "ReLU"
  bottom: "res4c"
  top: "res4c"
}
layer {
  name: "res4d_branch2a"
  type: "Convolution"
  bottom: "res4c"
  top: "res4d_branch2a"
  convolution_param {
    num_output: 256
    bias_term: false
    pad: 1
    kernel_size: 3
    stride: 1
    weight_filler {
      type: "msra"
    }
  }
}
layer {
  name: "bn4d_branch2a"
  type: "BatchNorm"
  bottom: "res4d_branch2a"
  top: "res4d_branch2a"
  batch_norm_param {
    use_global_stats: false
  }
}
layer {
  name: "scale4d_branch2a"
  type: "Scale"
  bottom: "res4d_branch2a"
  top: "res4d_branch2a"
  scale_param {
    bias_term: true
  }
}
layer {
  name: "res4d_branch2a_relu"
  type: "ReLU"
  bottom: "res4d_branch2a"
  top: "res4d_branch2a"
}
layer {
  name: "res4d_branch2b"
  type: "Convolution"
  bottom: "res4d_branch2a"
  top: "res4d_branch2b"
  convolution_param {
    num_output: 256
    bias_term: false
    pad: 1
    kernel_size: 3
    stride: 1
    weight_filler {
      type: "msra"
    }
  }
}
layer {
  name: "bn4d_branch2b"
  type: "BatchNorm"
  bottom: "res4d_branch2b"
  top: "res4d_branch2b"
  batch_norm_param {
    use_global_stats: false
  }
}
layer {
  name: "scale4d_branch2b"
  type: "Scale"
  bottom: "res4d_branch2b"
  top: "res4d_branch2b"
  scale_param {
    bias_term: true
  }
}
layer {
  name: "res4d"
  type: "Eltwise"
  bottom: "res4c"
  bottom: "res4d_branch2b"
  top: "res4d"
  eltwise_param {
    operation: SUM
  }
}
layer {
  name: "res4d_relu"
  type: "ReLU"
  bottom: "res4d"
  top: "res4d"
}
layer {
  name: "res4e_branch2a"
  type: "Convolution"
  bottom: "res4d"
  top: "res4e_branch2a"
  convolution_param {
    num_output: 256
    bias_term: false
    pad: 1
    kernel_size: 3
    stride: 1
    weight_filler {
      type: "msra"
    }
  }
}
layer {
  name: "bn4e_branch2a"
  type: "BatchNorm"
  bottom: "res4e_branch2a"
  top: "res4e_branch2a"
  batch_norm_param {
    use_global_stats: false
  }
}
layer {
  name: "scale4e_branch2a"
  type: "Scale"
  bottom: "res4e_branch2a"
  top: "res4e_branch2a"
  scale_param {
    bias_term: true
  }
}
layer {
  name: "res4e_branch2a_relu"
  type: "ReLU"
  bottom: "res4e_branch2a"
  top: "res4e_branch2a"
}
layer {
  name: "res4e_branch2b"
  type: "Convolution"
  bottom: "res4e_branch2a"
  top: "res4e_branch2b"
  convolution_param {
    num_output: 256
    bias_term: false
    pad: 1
    kernel_size: 3
    stride: 1
    weight_filler {
      type: "msra"
    }
  }
}
layer {
  name: "bn4e_branch2b"
  type: "BatchNorm"
  bottom: "res4e_branch2b"
  top: "res4e_branch2b"
  batch_norm_param {
    use_global_stats: false
  }
}
layer {
  name: "scale4e_branch2b"
  type: "Scale"
  bottom: "res4e_branch2b"
  top: "res4e_branch2b"
  scale_param {
    bias_term: true
  }
}
layer {
  name: "res4e"
  type: "Eltwise"
  bottom: "res4d"
  bottom: "res4e_branch2b"
  top: "res4e"
  eltwise_param {
    operation: SUM
  }
}
layer {
  name: "res4e_relu"
  type: "ReLU"
  bottom: "res4e"
  top: "res4e"
}
layer {
  name: "res4f_branch2a"
  type: "Convolution"
  bottom: "res4e"
  top: "res4f_branch2a"
  convolution_param {
    num_output: 256
    bias_term: false
    pad: 1
    kernel_size: 3
    stride: 1
    weight_filler {
      type: "msra"
    }
  }
}
layer {
  name: "bn4f_branch2a"
  type: "BatchNorm"
  bottom: "res4f_branch2a"
  top: "res4f_branch2a"
  batch_norm_param {
    use_global_stats: false
  }
}
layer {
  name: "scale4f_branch2a"
  type: "Scale"
  bottom: "res4f_branch2a"
  top: "res4f_branch2a"
  scale_param {
    bias_term: true
  }
}
layer {
  name: "res4f_branch2a_relu"
  type: "ReLU"
  bottom: "res4f_branch2a"
  top: "res4f_branch2a"
}
layer {
  name: "res4f_branch2b"
  type: "Convolution"
  bottom: "res4f_branch2a"
  top: "res4f_branch2b"
  convolution_param {
    num_output: 256
    bias_term: false
    pad: 1
    kernel_size: 3
    stride: 1
    weight_filler {
      type: "msra"
    }
  }
}
layer {
  name: "bn4f_branch2b"
  type: "BatchNorm"
  bottom: "res4f_branch2b"
  top: "res4f_branch2b"
  batch_norm_param {
    use_global_stats: false
  }
}
layer {
  name: "scale4f_branch2b"
  type: "Scale"
  bottom: "res4f_branch2b"
  top: "res4f_branch2b"
  scale_param {
    bias_term: true
  }
}
layer {
  name: "res4f"
  type: "Eltwise"
  bottom: "res4e"
  bottom: "res4f_branch2b"
  top: "res4f"
  eltwise_param {
    operation: SUM
  }
}
layer {
  name: "res4f_relu"
  type: "ReLU"
  bottom: "res4f"
  top: "res4f"
}
layer {
  name: "res5a_branch1"
  type: "Convolution"
  bottom: "res4f"
  top: "res5a_branch1"
  convolution_param {
    num_output: 512
    bias_term: false
    pad: 0
    kernel_size: 1
    stride: 2
    weight_filler {
      type: "msra"
    }
  }
}
layer {
  name: "bn5a_branch1"
  type: "BatchNorm"
  bottom: "res5a_branch1"
  top: "res5a_branch1"
  batch_norm_param {
    use_global_stats: false
  }
}
layer {
  name: "scale5a_branch1"
  type: "Scale"
  bottom: "res5a_branch1"
  top: "res5a_branch1"
  scale_param {
    bias_term: true
  }
}
layer {
  name: "res5a_branch2a"
  type: "Convolution"
  bottom: "res4f"
  top: "res5a_branch2a"
  convolution_param {
    num_output: 512
    bias_term: false
    pad: 1
    kernel_size: 3
    stride: 2
    weight_filler {
      type: "msra"
    }
  }
}
layer {
  name: "bn5a_branch2a"
  type: "BatchNorm"
  bottom: "res5a_branch2a"
  top: "res5a_branch2a"
  batch_norm_param {
    use_global_stats: false
  }
}
layer {
  name: "scale5a_branch2a"
  type: "Scale"
  bottom: "res5a_branch2a"
  top: "res5a_branch2a"
  scale_param {
    bias_term: true
  }
}
layer {
  name: "res5a_branch2a_relu"
  type: "ReLU"
  bottom: "res5a_branch2a"
  top: "res5a_branch2a"
}
layer {
  name: "res5a_branch2b"
  type: "Convolution"
  bottom: "res5a_branch2a"
  top: "res5a_branch2b"
  convolution_param {
    num_output: 512
    bias_term: false
    pad: 1
    kernel_size: 3
    stride: 1
    weight_filler {
      type: "msra"
    }
  }
}
layer {
  name: "bn5a_branch2b"
  type: "BatchNorm"
  bottom: "res5a_branch2b"
  top: "res5a_branch2b"
  batch_norm_param {
    use_global_stats: false
  }
}
layer {
  name: "scale5a_branch2b"
  type: "Scale"
  bottom: "res5a_branch2b"
  top: "res5a_branch2b"
  scale_param {
    bias_term: true
  }
}
layer {
  name: "res5a"
  type: "Eltwise"
  bottom: "res5a_branch1"
  bottom: "res5a_branch2b"
  top: "res5a"
  eltwise_param {
    operation: SUM
  }
}
layer {
  name: "res5a_relu"
  type: "ReLU"
  bottom: "res5a"
  top: "res5a"
}
layer {
  name: "res5b_branch2a"
  type: "Convolution"
  bottom: "res5a"
  top: "res5b_branch2a"
  convolution_param {
    num_output: 512
    bias_term: false
    pad: 1
    kernel_size: 3
    stride: 1
    weight_filler {
      type: "msra"
    }
  }
}
layer {
  name: "bn5b_branch2a"
  type: "BatchNorm"
  bottom: "res5b_branch2a"
  top: "res5b_branch2a"
  batch_norm_param {
    use_global_stats: false
  }
}
layer {
  name: "scale5b_branch2a"
  type: "Scale"
  bottom: "res5b_branch2a"
  top: "res5b_branch2a"
  scale_param {
    bias_term: true
  }
}
layer {
  name: "res5b_branch2a_relu"
  type: "ReLU"
  bottom: "res5b_branch2a"
  top: "res5b_branch2a"
}
layer {
  name: "res5b_branch2b"
  type: "Convolution"
  bottom: "res5b_branch2a"
  top: "res5b_branch2b"
  convolution_param {
    num_output: 512
    bias_term: false
    pad: 1
    kernel_size: 3
    stride: 1
    weight_filler {
      type: "msra"
    }
  }
}
layer {
  name: "bn5b_branch2b"
  type: "BatchNorm"
  bottom: "res5b_branch2b"
  top: "res5b_branch2b"
  batch_norm_param {
    use_global_stats: false
  }
}
layer {
  name: "scale5b_branch2b"
  type: "Scale"
  bottom: "res5b_branch2b"
  top: "res5b_branch2b"
  scale_param {
    bias_term: true
  }
}
layer {
  name: "res5b"
  type: "Eltwise"
  bottom: "res5a"
  bottom: "res5b_branch2b"
  top: "res5b"
  eltwise_param {
    operation: SUM
  }
}
layer {
  name: "res5b_relu"
  type: "ReLU"
  bottom: "res5b"
  top: "res5b"
}
layer {
  name: "res5c_branch2a"
  type: "Convolution"
  bottom: "res5b"
  top: "res5c_branch2a"
  convolution_param {
    num_output: 512
    bias_term: false
    pad: 1
    kernel_size: 3
    stride: 1
    weight_filler {
      type: "msra"
    }
  }
}
layer {
  name: "bn5c_branch2a"
  type: "BatchNorm"
  bottom: "res5c_branch2a"
  top: "res5c_branch2a"
  batch_norm_param {
    use_global_stats: false
  }
}
layer {
  name: "scale5c_branch2a"
  type: "Scale"
  bottom: "res5c_branch2a"
  top: "res5c_branch2a"
  scale_param {
    bias_term: true
  }
}
layer {
  name: "res5c_branch2a_relu"
  type: "ReLU"
  bottom: "res5c_branch2a"
  top: "res5c_branch2a"
}
layer {
  name: "res5c_branch2b"
  type: "Convolution"
  bottom: "res5c_branch2a"
  top: "res5c_branch2b"
  convolution_param {
    num_output: 512
    bias_term: false
    pad: 1
    kernel_size: 3
    stride: 1
    weight_filler {
      type: "msra"
    }
  }
}
layer {
  name: "bn5c_branch2b"
  type: "BatchNorm"
  bottom: "res5c_branch2b"
  top: "res5c_branch2b"
  batch_norm_param {
    use_global_stats: false
  }
}
layer {
  name: "scale5c_branch2b"
  type: "Scale"
  bottom: "res5c_branch2b"
  top: "res5c_branch2b"
  scale_param {
    bias_term: true
  }
}
layer {
  name: "res5c"
  type: "Eltwise"
  bottom: "res5b"
  bottom: "res5c_branch2b"
  top: "res5c"
  eltwise_param {
    operation: SUM
  }
}
layer {
  name: "res5c_relu"
  type: "ReLU"
  bottom: "res5c"
  top: "res5c"
}
layer {
  name: "pool5"
  type: "Pooling"
  bottom: "res5c"
  top: "pool5"
  pooling_param {
    pool: AVE
    kernel_size: 7
    stride: 1
  }
}
layer {
  name: "fc1000"
  type: "InnerProduct"
  bottom: "pool5"
  top: "fc1000"
  param {
    lr_mult: 1
    decay_mult: 1
  }
  param {
    lr_mult: 2
    decay_mult: 1
  }
  inner_product_param {
    num_output: 1000
    weight_filler {
      type: "xavier"
    }
    bias_filler {
      type: "constant"
      value: 0
    }
  }
}
layer {
  name: "loss"
  type: "SoftmaxWithLoss"
  bottom: "fc1000"
  bottom: "label"
  top: "loss"
}
I0328 19:41:58.370772 13194 layer_factory.hpp:77] Creating layer data
I0328 19:41:58.403014 13194 db_lmdb.cpp:35] Opened lmdb /shared/datasets/ImageNet2012/lmdb_data/ilsvrc12_train_lmdb
I0328 19:41:58.406234 13194 net.cpp:86] Creating Layer data
I0328 19:41:58.406252 13194 net.cpp:382] data -> data
I0328 19:41:58.406288 13194 net.cpp:382] data -> label
I0328 19:41:58.406301 13194 data_transformer.cpp:25] Loading mean file from: /shared/datasets/ImageNet2012/lmdb_data/imagenet_mean.binaryproto
I0328 19:41:58.412140 13194 data_layer.cpp:45] output data size: 32,3,224,224
I0328 19:41:58.459340 13194 net.cpp:124] Setting up data
I0328 19:41:58.459388 13194 net.cpp:131] Top shape: 32 3 224 224 (4816896)
I0328 19:41:58.459395 13194 net.cpp:131] Top shape: 32 (32)
I0328 19:41:58.459398 13194 net.cpp:139] Memory required for data: 19267712
I0328 19:41:58.459409 13194 layer_factory.hpp:77] Creating layer conv1
I0328 19:41:58.459439 13194 net.cpp:86] Creating Layer conv1
I0328 19:41:58.459450 13194 net.cpp:408] conv1 <- data
I0328 19:41:58.459462 13194 net.cpp:382] conv1 -> conv1
I0328 19:41:59.096329 13194 net.cpp:124] Setting up conv1
I0328 19:41:59.096369 13194 net.cpp:131] Top shape: 32 64 112 112 (25690112)
I0328 19:41:59.096372 13194 net.cpp:139] Memory required for data: 122028160
I0328 19:41:59.096396 13194 layer_factory.hpp:77] Creating layer bn_conv1
I0328 19:41:59.096411 13194 net.cpp:86] Creating Layer bn_conv1
I0328 19:41:59.096416 13194 net.cpp:408] bn_conv1 <- conv1
I0328 19:41:59.096426 13194 net.cpp:369] bn_conv1 -> conv1 (in-place)
I0328 19:41:59.096623 13194 net.cpp:124] Setting up bn_conv1
I0328 19:41:59.096629 13194 net.cpp:131] Top shape: 32 64 112 112 (25690112)
I0328 19:41:59.096632 13194 net.cpp:139] Memory required for data: 224788608
I0328 19:41:59.096643 13194 layer_factory.hpp:77] Creating layer scale_conv1
I0328 19:41:59.096650 13194 net.cpp:86] Creating Layer scale_conv1
I0328 19:41:59.096653 13194 net.cpp:408] scale_conv1 <- conv1
I0328 19:41:59.096659 13194 net.cpp:369] scale_conv1 -> conv1 (in-place)
I0328 19:41:59.096702 13194 layer_factory.hpp:77] Creating layer scale_conv1
I0328 19:41:59.096829 13194 net.cpp:124] Setting up scale_conv1
I0328 19:41:59.096835 13194 net.cpp:131] Top shape: 32 64 112 112 (25690112)
I0328 19:41:59.096838 13194 net.cpp:139] Memory required for data: 327549056
I0328 19:41:59.096845 13194 layer_factory.hpp:77] Creating layer conv1_relu
I0328 19:41:59.096851 13194 net.cpp:86] Creating Layer conv1_relu
I0328 19:41:59.096854 13194 net.cpp:408] conv1_relu <- conv1
I0328 19:41:59.096860 13194 net.cpp:369] conv1_relu -> conv1 (in-place)
I0328 19:41:59.097291 13194 net.cpp:124] Setting up conv1_relu
I0328 19:41:59.097299 13194 net.cpp:131] Top shape: 32 64 112 112 (25690112)
I0328 19:41:59.097302 13194 net.cpp:139] Memory required for data: 430309504
I0328 19:41:59.097306 13194 layer_factory.hpp:77] Creating layer pool1
I0328 19:41:59.097312 13194 net.cpp:86] Creating Layer pool1
I0328 19:41:59.097316 13194 net.cpp:408] pool1 <- conv1
I0328 19:41:59.097321 13194 net.cpp:382] pool1 -> pool1
I0328 19:41:59.097368 13194 net.cpp:124] Setting up pool1
I0328 19:41:59.097374 13194 net.cpp:131] Top shape: 32 64 56 56 (6422528)
I0328 19:41:59.097376 13194 net.cpp:139] Memory required for data: 455999616
I0328 19:41:59.097380 13194 layer_factory.hpp:77] Creating layer pool1_pool1_0_split
I0328 19:41:59.097388 13194 net.cpp:86] Creating Layer pool1_pool1_0_split
I0328 19:41:59.097390 13194 net.cpp:408] pool1_pool1_0_split <- pool1
I0328 19:41:59.097396 13194 net.cpp:382] pool1_pool1_0_split -> pool1_pool1_0_split_0
I0328 19:41:59.097402 13194 net.cpp:382] pool1_pool1_0_split -> pool1_pool1_0_split_1
I0328 19:41:59.097431 13194 net.cpp:124] Setting up pool1_pool1_0_split
I0328 19:41:59.097438 13194 net.cpp:131] Top shape: 32 64 56 56 (6422528)
I0328 19:41:59.097442 13194 net.cpp:131] Top shape: 32 64 56 56 (6422528)
I0328 19:41:59.097445 13194 net.cpp:139] Memory required for data: 507379840
I0328 19:41:59.097447 13194 layer_factory.hpp:77] Creating layer res2a_branch1
I0328 19:41:59.097460 13194 net.cpp:86] Creating Layer res2a_branch1
I0328 19:41:59.097462 13194 net.cpp:408] res2a_branch1 <- pool1_pool1_0_split_0
I0328 19:41:59.097470 13194 net.cpp:382] res2a_branch1 -> res2a_branch1
I0328 19:41:59.100200 13194 net.cpp:124] Setting up res2a_branch1
I0328 19:41:59.100246 13194 net.cpp:131] Top shape: 32 64 56 56 (6422528)
I0328 19:41:59.100250 13194 net.cpp:139] Memory required for data: 533069952
I0328 19:41:59.100255 13194 layer_factory.hpp:77] Creating layer bn2a_branch1
I0328 19:41:59.100263 13194 net.cpp:86] Creating Layer bn2a_branch1
I0328 19:41:59.100270 13194 net.cpp:408] bn2a_branch1 <- res2a_branch1
I0328 19:41:59.100276 13194 net.cpp:369] bn2a_branch1 -> res2a_branch1 (in-place)
I0328 19:41:59.100435 13194 net.cpp:124] Setting up bn2a_branch1
I0328 19:41:59.100442 13194 net.cpp:131] Top shape: 32 64 56 56 (6422528)
I0328 19:41:59.100445 13194 net.cpp:139] Memory required for data: 558760064
I0328 19:41:59.100453 13194 layer_factory.hpp:77] Creating layer scale2a_branch1
I0328 19:41:59.100458 13194 net.cpp:86] Creating Layer scale2a_branch1
I0328 19:41:59.100461 13194 net.cpp:408] scale2a_branch1 <- res2a_branch1
I0328 19:41:59.100466 13194 net.cpp:369] scale2a_branch1 -> res2a_branch1 (in-place)
I0328 19:41:59.100500 13194 layer_factory.hpp:77] Creating layer scale2a_branch1
I0328 19:41:59.100600 13194 net.cpp:124] Setting up scale2a_branch1
I0328 19:41:59.100605 13194 net.cpp:131] Top shape: 32 64 56 56 (6422528)
I0328 19:41:59.100608 13194 net.cpp:139] Memory required for data: 584450176
I0328 19:41:59.100615 13194 layer_factory.hpp:77] Creating layer res2a_branch2a
I0328 19:41:59.100625 13194 net.cpp:86] Creating Layer res2a_branch2a
I0328 19:41:59.100626 13194 net.cpp:408] res2a_branch2a <- pool1_pool1_0_split_1
I0328 19:41:59.100633 13194 net.cpp:382] res2a_branch2a -> res2a_branch2a
I0328 19:41:59.103418 13194 net.cpp:124] Setting up res2a_branch2a
I0328 19:41:59.103432 13194 net.cpp:131] Top shape: 32 64 56 56 (6422528)
I0328 19:41:59.103435 13194 net.cpp:139] Memory required for data: 610140288
I0328 19:41:59.103440 13194 layer_factory.hpp:77] Creating layer bn2a_branch2a
I0328 19:41:59.103446 13194 net.cpp:86] Creating Layer bn2a_branch2a
I0328 19:41:59.103449 13194 net.cpp:408] bn2a_branch2a <- res2a_branch2a
I0328 19:41:59.103456 13194 net.cpp:369] bn2a_branch2a -> res2a_branch2a (in-place)
I0328 19:41:59.103626 13194 net.cpp:124] Setting up bn2a_branch2a
I0328 19:41:59.103631 13194 net.cpp:131] Top shape: 32 64 56 56 (6422528)
I0328 19:41:59.103633 13194 net.cpp:139] Memory required for data: 635830400
I0328 19:41:59.103638 13194 layer_factory.hpp:77] Creating layer scale2a_branch2a
I0328 19:41:59.103644 13194 net.cpp:86] Creating Layer scale2a_branch2a
I0328 19:41:59.103646 13194 net.cpp:408] scale2a_branch2a <- res2a_branch2a
I0328 19:41:59.103652 13194 net.cpp:369] scale2a_branch2a -> res2a_branch2a (in-place)
I0328 19:41:59.103688 13194 layer_factory.hpp:77] Creating layer scale2a_branch2a
I0328 19:41:59.103788 13194 net.cpp:124] Setting up scale2a_branch2a
I0328 19:41:59.103796 13194 net.cpp:131] Top shape: 32 64 56 56 (6422528)
I0328 19:41:59.103798 13194 net.cpp:139] Memory required for data: 661520512
I0328 19:41:59.103806 13194 layer_factory.hpp:77] Creating layer res2a_branch2a_relu
I0328 19:41:59.103811 13194 net.cpp:86] Creating Layer res2a_branch2a_relu
I0328 19:41:59.103813 13194 net.cpp:408] res2a_branch2a_relu <- res2a_branch2a
I0328 19:41:59.103818 13194 net.cpp:369] res2a_branch2a_relu -> res2a_branch2a (in-place)
I0328 19:41:59.104234 13194 net.cpp:124] Setting up res2a_branch2a_relu
I0328 19:41:59.104243 13194 net.cpp:131] Top shape: 32 64 56 56 (6422528)
I0328 19:41:59.104245 13194 net.cpp:139] Memory required for data: 687210624
I0328 19:41:59.104249 13194 layer_factory.hpp:77] Creating layer res2a_branch2b
I0328 19:41:59.104260 13194 net.cpp:86] Creating Layer res2a_branch2b
I0328 19:41:59.104264 13194 net.cpp:408] res2a_branch2b <- res2a_branch2a
I0328 19:41:59.104270 13194 net.cpp:382] res2a_branch2b -> res2a_branch2b
I0328 19:41:59.106113 13194 net.cpp:124] Setting up res2a_branch2b
I0328 19:41:59.106123 13194 net.cpp:131] Top shape: 32 64 56 56 (6422528)
I0328 19:41:59.106127 13194 net.cpp:139] Memory required for data: 712900736
I0328 19:41:59.106132 13194 layer_factory.hpp:77] Creating layer bn2a_branch2b
I0328 19:41:59.106142 13194 net.cpp:86] Creating Layer bn2a_branch2b
I0328 19:41:59.106166 13194 net.cpp:408] bn2a_branch2b <- res2a_branch2b
I0328 19:41:59.106171 13194 net.cpp:369] bn2a_branch2b -> res2a_branch2b (in-place)
I0328 19:41:59.106344 13194 net.cpp:124] Setting up bn2a_branch2b
I0328 19:41:59.106350 13194 net.cpp:131] Top shape: 32 64 56 56 (6422528)
I0328 19:41:59.106353 13194 net.cpp:139] Memory required for data: 738590848
I0328 19:41:59.106359 13194 layer_factory.hpp:77] Creating layer scale2a_branch2b
I0328 19:41:59.106367 13194 net.cpp:86] Creating Layer scale2a_branch2b
I0328 19:41:59.106370 13194 net.cpp:408] scale2a_branch2b <- res2a_branch2b
I0328 19:41:59.106374 13194 net.cpp:369] scale2a_branch2b -> res2a_branch2b (in-place)
I0328 19:41:59.106410 13194 layer_factory.hpp:77] Creating layer scale2a_branch2b
I0328 19:41:59.106510 13194 net.cpp:124] Setting up scale2a_branch2b
I0328 19:41:59.106518 13194 net.cpp:131] Top shape: 32 64 56 56 (6422528)
I0328 19:41:59.106519 13194 net.cpp:139] Memory required for data: 764280960
I0328 19:41:59.106524 13194 layer_factory.hpp:77] Creating layer res2a
I0328 19:41:59.106534 13194 net.cpp:86] Creating Layer res2a
I0328 19:41:59.106537 13194 net.cpp:408] res2a <- res2a_branch1
I0328 19:41:59.106540 13194 net.cpp:408] res2a <- res2a_branch2b
I0328 19:41:59.106545 13194 net.cpp:382] res2a -> res2a
I0328 19:41:59.106571 13194 net.cpp:124] Setting up res2a
I0328 19:41:59.106576 13194 net.cpp:131] Top shape: 32 64 56 56 (6422528)
I0328 19:41:59.106578 13194 net.cpp:139] Memory required for data: 789971072
I0328 19:41:59.106581 13194 layer_factory.hpp:77] Creating layer res2a_relu
I0328 19:41:59.106586 13194 net.cpp:86] Creating Layer res2a_relu
I0328 19:41:59.106588 13194 net.cpp:408] res2a_relu <- res2a
I0328 19:41:59.106593 13194 net.cpp:369] res2a_relu -> res2a (in-place)
I0328 19:41:59.107162 13194 net.cpp:124] Setting up res2a_relu
I0328 19:41:59.107174 13194 net.cpp:131] Top shape: 32 64 56 56 (6422528)
I0328 19:41:59.107177 13194 net.cpp:139] Memory required for data: 815661184
I0328 19:41:59.107180 13194 layer_factory.hpp:77] Creating layer res2a_res2a_relu_0_split
I0328 19:41:59.107187 13194 net.cpp:86] Creating Layer res2a_res2a_relu_0_split
I0328 19:41:59.107189 13194 net.cpp:408] res2a_res2a_relu_0_split <- res2a
I0328 19:41:59.107193 13194 net.cpp:382] res2a_res2a_relu_0_split -> res2a_res2a_relu_0_split_0
I0328 19:41:59.107201 13194 net.cpp:382] res2a_res2a_relu_0_split -> res2a_res2a_relu_0_split_1
I0328 19:41:59.107239 13194 net.cpp:124] Setting up res2a_res2a_relu_0_split
I0328 19:41:59.107245 13194 net.cpp:131] Top shape: 32 64 56 56 (6422528)
I0328 19:41:59.107249 13194 net.cpp:131] Top shape: 32 64 56 56 (6422528)
I0328 19:41:59.107250 13194 net.cpp:139] Memory required for data: 867041408
I0328 19:41:59.107254 13194 layer_factory.hpp:77] Creating layer res2b_branch2a
I0328 19:41:59.107262 13194 net.cpp:86] Creating Layer res2b_branch2a
I0328 19:41:59.107267 13194 net.cpp:408] res2b_branch2a <- res2a_res2a_relu_0_split_0
I0328 19:41:59.107271 13194 net.cpp:382] res2b_branch2a -> res2b_branch2a
I0328 19:41:59.109129 13194 net.cpp:124] Setting up res2b_branch2a
I0328 19:41:59.109139 13194 net.cpp:131] Top shape: 32 64 56 56 (6422528)
I0328 19:41:59.109143 13194 net.cpp:139] Memory required for data: 892731520
I0328 19:41:59.109148 13194 layer_factory.hpp:77] Creating layer bn2b_branch2a
I0328 19:41:59.109156 13194 net.cpp:86] Creating Layer bn2b_branch2a
I0328 19:41:59.109160 13194 net.cpp:408] bn2b_branch2a <- res2b_branch2a
I0328 19:41:59.109166 13194 net.cpp:369] bn2b_branch2a -> res2b_branch2a (in-place)
I0328 19:41:59.109335 13194 net.cpp:124] Setting up bn2b_branch2a
I0328 19:41:59.109342 13194 net.cpp:131] Top shape: 32 64 56 56 (6422528)
I0328 19:41:59.109345 13194 net.cpp:139] Memory required for data: 918421632
I0328 19:41:59.109350 13194 layer_factory.hpp:77] Creating layer scale2b_branch2a
I0328 19:41:59.109355 13194 net.cpp:86] Creating Layer scale2b_branch2a
I0328 19:41:59.109359 13194 net.cpp:408] scale2b_branch2a <- res2b_branch2a
I0328 19:41:59.109365 13194 net.cpp:369] scale2b_branch2a -> res2b_branch2a (in-place)
I0328 19:41:59.109412 13194 layer_factory.hpp:77] Creating layer scale2b_branch2a
I0328 19:41:59.109516 13194 net.cpp:124] Setting up scale2b_branch2a
I0328 19:41:59.109524 13194 net.cpp:131] Top shape: 32 64 56 56 (6422528)
I0328 19:41:59.109526 13194 net.cpp:139] Memory required for data: 944111744
I0328 19:41:59.109530 13194 layer_factory.hpp:77] Creating layer res2b_branch2a_relu
I0328 19:41:59.109535 13194 net.cpp:86] Creating Layer res2b_branch2a_relu
I0328 19:41:59.109539 13194 net.cpp:408] res2b_branch2a_relu <- res2b_branch2a
I0328 19:41:59.109544 13194 net.cpp:369] res2b_branch2a_relu -> res2b_branch2a (in-place)
I0328 19:41:59.109967 13194 net.cpp:124] Setting up res2b_branch2a_relu
I0328 19:41:59.109975 13194 net.cpp:131] Top shape: 32 64 56 56 (6422528)
I0328 19:41:59.109979 13194 net.cpp:139] Memory required for data: 969801856
I0328 19:41:59.109982 13194 layer_factory.hpp:77] Creating layer res2b_branch2b
I0328 19:41:59.109989 13194 net.cpp:86] Creating Layer res2b_branch2b
I0328 19:41:59.109992 13194 net.cpp:408] res2b_branch2b <- res2b_branch2a
I0328 19:41:59.109998 13194 net.cpp:382] res2b_branch2b -> res2b_branch2b
I0328 19:41:59.112012 13194 net.cpp:124] Setting up res2b_branch2b
I0328 19:41:59.112023 13194 net.cpp:131] Top shape: 32 64 56 56 (6422528)
I0328 19:41:59.112025 13194 net.cpp:139] Memory required for data: 995491968
I0328 19:41:59.112032 13194 layer_factory.hpp:77] Creating layer bn2b_branch2b
I0328 19:41:59.112037 13194 net.cpp:86] Creating Layer bn2b_branch2b
I0328 19:41:59.112040 13194 net.cpp:408] bn2b_branch2b <- res2b_branch2b
I0328 19:41:59.112046 13194 net.cpp:369] bn2b_branch2b -> res2b_branch2b (in-place)
I0328 19:41:59.112218 13194 net.cpp:124] Setting up bn2b_branch2b
I0328 19:41:59.112223 13194 net.cpp:131] Top shape: 32 64 56 56 (6422528)
I0328 19:41:59.112226 13194 net.cpp:139] Memory required for data: 1021182080
I0328 19:41:59.112236 13194 layer_factory.hpp:77] Creating layer scale2b_branch2b
I0328 19:41:59.112242 13194 net.cpp:86] Creating Layer scale2b_branch2b
I0328 19:41:59.112246 13194 net.cpp:408] scale2b_branch2b <- res2b_branch2b
I0328 19:41:59.112249 13194 net.cpp:369] scale2b_branch2b -> res2b_branch2b (in-place)
I0328 19:41:59.112285 13194 layer_factory.hpp:77] Creating layer scale2b_branch2b
I0328 19:41:59.112388 13194 net.cpp:124] Setting up scale2b_branch2b
I0328 19:41:59.112395 13194 net.cpp:131] Top shape: 32 64 56 56 (6422528)
I0328 19:41:59.112397 13194 net.cpp:139] Memory required for data: 1046872192
I0328 19:41:59.112401 13194 layer_factory.hpp:77] Creating layer res2b
I0328 19:41:59.112407 13194 net.cpp:86] Creating Layer res2b
I0328 19:41:59.112409 13194 net.cpp:408] res2b <- res2a_res2a_relu_0_split_1
I0328 19:41:59.112413 13194 net.cpp:408] res2b <- res2b_branch2b
I0328 19:41:59.112418 13194 net.cpp:382] res2b -> res2b
I0328 19:41:59.112438 13194 net.cpp:124] Setting up res2b
I0328 19:41:59.112443 13194 net.cpp:131] Top shape: 32 64 56 56 (6422528)
I0328 19:41:59.112445 13194 net.cpp:139] Memory required for data: 1072562304
I0328 19:41:59.112448 13194 layer_factory.hpp:77] Creating layer res2b_relu
I0328 19:41:59.112453 13194 net.cpp:86] Creating Layer res2b_relu
I0328 19:41:59.112457 13194 net.cpp:408] res2b_relu <- res2b
I0328 19:41:59.112459 13194 net.cpp:369] res2b_relu -> res2b (in-place)
I0328 19:41:59.112880 13194 net.cpp:124] Setting up res2b_relu
I0328 19:41:59.112888 13194 net.cpp:131] Top shape: 32 64 56 56 (6422528)
I0328 19:41:59.112891 13194 net.cpp:139] Memory required for data: 1098252416
I0328 19:41:59.112895 13194 layer_factory.hpp:77] Creating layer res2b_res2b_relu_0_split
I0328 19:41:59.112901 13194 net.cpp:86] Creating Layer res2b_res2b_relu_0_split
I0328 19:41:59.112905 13194 net.cpp:408] res2b_res2b_relu_0_split <- res2b
I0328 19:41:59.112910 13194 net.cpp:382] res2b_res2b_relu_0_split -> res2b_res2b_relu_0_split_0
I0328 19:41:59.112915 13194 net.cpp:382] res2b_res2b_relu_0_split -> res2b_res2b_relu_0_split_1
I0328 19:41:59.112958 13194 net.cpp:124] Setting up res2b_res2b_relu_0_split
I0328 19:41:59.112974 13194 net.cpp:131] Top shape: 32 64 56 56 (6422528)
I0328 19:41:59.112977 13194 net.cpp:131] Top shape: 32 64 56 56 (6422528)
I0328 19:41:59.112980 13194 net.cpp:139] Memory required for data: 1149632640
I0328 19:41:59.112983 13194 layer_factory.hpp:77] Creating layer res2c_branch2a
I0328 19:41:59.112993 13194 net.cpp:86] Creating Layer res2c_branch2a
I0328 19:41:59.112996 13194 net.cpp:408] res2c_branch2a <- res2b_res2b_relu_0_split_0
I0328 19:41:59.113001 13194 net.cpp:382] res2c_branch2a -> res2c_branch2a
I0328 19:41:59.115000 13194 net.cpp:124] Setting up res2c_branch2a
I0328 19:41:59.115010 13194 net.cpp:131] Top shape: 32 64 56 56 (6422528)
I0328 19:41:59.115013 13194 net.cpp:139] Memory required for data: 1175322752
I0328 19:41:59.115018 13194 layer_factory.hpp:77] Creating layer bn2c_branch2a
I0328 19:41:59.115023 13194 net.cpp:86] Creating Layer bn2c_branch2a
I0328 19:41:59.115026 13194 net.cpp:408] bn2c_branch2a <- res2c_branch2a
I0328 19:41:59.115032 13194 net.cpp:369] bn2c_branch2a -> res2c_branch2a (in-place)
I0328 19:41:59.115221 13194 net.cpp:124] Setting up bn2c_branch2a
I0328 19:41:59.115228 13194 net.cpp:131] Top shape: 32 64 56 56 (6422528)
I0328 19:41:59.115231 13194 net.cpp:139] Memory required for data: 1201012864
I0328 19:41:59.115236 13194 layer_factory.hpp:77] Creating layer scale2c_branch2a
I0328 19:41:59.115247 13194 net.cpp:86] Creating Layer scale2c_branch2a
I0328 19:41:59.115250 13194 net.cpp:408] scale2c_branch2a <- res2c_branch2a
I0328 19:41:59.115255 13194 net.cpp:369] scale2c_branch2a -> res2c_branch2a (in-place)
I0328 19:41:59.115291 13194 layer_factory.hpp:77] Creating layer scale2c_branch2a
I0328 19:41:59.115396 13194 net.cpp:124] Setting up scale2c_branch2a
I0328 19:41:59.115402 13194 net.cpp:131] Top shape: 32 64 56 56 (6422528)
I0328 19:41:59.115406 13194 net.cpp:139] Memory required for data: 1226702976
I0328 19:41:59.115411 13194 layer_factory.hpp:77] Creating layer res2c_branch2a_relu
I0328 19:41:59.115417 13194 net.cpp:86] Creating Layer res2c_branch2a_relu
I0328 19:41:59.115420 13194 net.cpp:408] res2c_branch2a_relu <- res2c_branch2a
I0328 19:41:59.115424 13194 net.cpp:369] res2c_branch2a_relu -> res2c_branch2a (in-place)
I0328 19:41:59.115998 13194 net.cpp:124] Setting up res2c_branch2a_relu
I0328 19:41:59.116008 13194 net.cpp:131] Top shape: 32 64 56 56 (6422528)
I0328 19:41:59.116009 13194 net.cpp:139] Memory required for data: 1252393088
I0328 19:41:59.116014 13194 layer_factory.hpp:77] Creating layer res2c_branch2b
I0328 19:41:59.116022 13194 net.cpp:86] Creating Layer res2c_branch2b
I0328 19:41:59.116025 13194 net.cpp:408] res2c_branch2b <- res2c_branch2a
I0328 19:41:59.116030 13194 net.cpp:382] res2c_branch2b -> res2c_branch2b
I0328 19:41:59.118032 13194 net.cpp:124] Setting up res2c_branch2b
I0328 19:41:59.118043 13194 net.cpp:131] Top shape: 32 64 56 56 (6422528)
I0328 19:41:59.118046 13194 net.cpp:139] Memory required for data: 1278083200
I0328 19:41:59.118052 13194 layer_factory.hpp:77] Creating layer bn2c_branch2b
I0328 19:41:59.118058 13194 net.cpp:86] Creating Layer bn2c_branch2b
I0328 19:41:59.118062 13194 net.cpp:408] bn2c_branch2b <- res2c_branch2b
I0328 19:41:59.118065 13194 net.cpp:369] bn2c_branch2b -> res2c_branch2b (in-place)
I0328 19:41:59.118247 13194 net.cpp:124] Setting up bn2c_branch2b
I0328 19:41:59.118253 13194 net.cpp:131] Top shape: 32 64 56 56 (6422528)
I0328 19:41:59.118257 13194 net.cpp:139] Memory required for data: 1303773312
I0328 19:41:59.118261 13194 layer_factory.hpp:77] Creating layer scale2c_branch2b
I0328 19:41:59.118266 13194 net.cpp:86] Creating Layer scale2c_branch2b
I0328 19:41:59.118270 13194 net.cpp:408] scale2c_branch2b <- res2c_branch2b
I0328 19:41:59.118273 13194 net.cpp:369] scale2c_branch2b -> res2c_branch2b (in-place)
I0328 19:41:59.118310 13194 layer_factory.hpp:77] Creating layer scale2c_branch2b
I0328 19:41:59.118415 13194 net.cpp:124] Setting up scale2c_branch2b
I0328 19:41:59.118422 13194 net.cpp:131] Top shape: 32 64 56 56 (6422528)
I0328 19:41:59.118427 13194 net.cpp:139] Memory required for data: 1329463424
I0328 19:41:59.118443 13194 layer_factory.hpp:77] Creating layer res2c
I0328 19:41:59.118448 13194 net.cpp:86] Creating Layer res2c
I0328 19:41:59.118451 13194 net.cpp:408] res2c <- res2b_res2b_relu_0_split_1
I0328 19:41:59.118455 13194 net.cpp:408] res2c <- res2c_branch2b
I0328 19:41:59.118463 13194 net.cpp:382] res2c -> res2c
I0328 19:41:59.118484 13194 net.cpp:124] Setting up res2c
I0328 19:41:59.118491 13194 net.cpp:131] Top shape: 32 64 56 56 (6422528)
I0328 19:41:59.118494 13194 net.cpp:139] Memory required for data: 1355153536
I0328 19:41:59.118497 13194 layer_factory.hpp:77] Creating layer res2c_relu
I0328 19:41:59.118501 13194 net.cpp:86] Creating Layer res2c_relu
I0328 19:41:59.118505 13194 net.cpp:408] res2c_relu <- res2c
I0328 19:41:59.118508 13194 net.cpp:369] res2c_relu -> res2c (in-place)
I0328 19:41:59.118938 13194 net.cpp:124] Setting up res2c_relu
I0328 19:41:59.118945 13194 net.cpp:131] Top shape: 32 64 56 56 (6422528)
I0328 19:41:59.118949 13194 net.cpp:139] Memory required for data: 1380843648
I0328 19:41:59.118952 13194 layer_factory.hpp:77] Creating layer res2c_res2c_relu_0_split
I0328 19:41:59.118958 13194 net.cpp:86] Creating Layer res2c_res2c_relu_0_split
I0328 19:41:59.118961 13194 net.cpp:408] res2c_res2c_relu_0_split <- res2c
I0328 19:41:59.118966 13194 net.cpp:382] res2c_res2c_relu_0_split -> res2c_res2c_relu_0_split_0
I0328 19:41:59.118973 13194 net.cpp:382] res2c_res2c_relu_0_split -> res2c_res2c_relu_0_split_1
I0328 19:41:59.119012 13194 net.cpp:124] Setting up res2c_res2c_relu_0_split
I0328 19:41:59.119017 13194 net.cpp:131] Top shape: 32 64 56 56 (6422528)
I0328 19:41:59.119021 13194 net.cpp:131] Top shape: 32 64 56 56 (6422528)
I0328 19:41:59.119024 13194 net.cpp:139] Memory required for data: 1432223872
I0328 19:41:59.119026 13194 layer_factory.hpp:77] Creating layer res3a_branch1
I0328 19:41:59.119035 13194 net.cpp:86] Creating Layer res3a_branch1
I0328 19:41:59.119038 13194 net.cpp:408] res3a_branch1 <- res2c_res2c_relu_0_split_0
I0328 19:41:59.119045 13194 net.cpp:382] res3a_branch1 -> res3a_branch1
I0328 19:41:59.120724 13194 net.cpp:124] Setting up res3a_branch1
I0328 19:41:59.120734 13194 net.cpp:131] Top shape: 32 128 28 28 (3211264)
I0328 19:41:59.120738 13194 net.cpp:139] Memory required for data: 1445068928
I0328 19:41:59.120744 13194 layer_factory.hpp:77] Creating layer bn3a_branch1
I0328 19:41:59.120751 13194 net.cpp:86] Creating Layer bn3a_branch1
I0328 19:41:59.120754 13194 net.cpp:408] bn3a_branch1 <- res3a_branch1
I0328 19:41:59.120760 13194 net.cpp:369] bn3a_branch1 -> res3a_branch1 (in-place)
I0328 19:41:59.121840 13194 net.cpp:124] Setting up bn3a_branch1
I0328 19:41:59.121850 13194 net.cpp:131] Top shape: 32 128 28 28 (3211264)
I0328 19:41:59.121853 13194 net.cpp:139] Memory required for data: 1457913984
I0328 19:41:59.121860 13194 layer_factory.hpp:77] Creating layer scale3a_branch1
I0328 19:41:59.121865 13194 net.cpp:86] Creating Layer scale3a_branch1
I0328 19:41:59.121868 13194 net.cpp:408] scale3a_branch1 <- res3a_branch1
I0328 19:41:59.121872 13194 net.cpp:369] scale3a_branch1 -> res3a_branch1 (in-place)
I0328 19:41:59.121912 13194 layer_factory.hpp:77] Creating layer scale3a_branch1
I0328 19:41:59.122014 13194 net.cpp:124] Setting up scale3a_branch1
I0328 19:41:59.122020 13194 net.cpp:131] Top shape: 32 128 28 28 (3211264)
I0328 19:41:59.122023 13194 net.cpp:139] Memory required for data: 1470759040
I0328 19:41:59.122028 13194 layer_factory.hpp:77] Creating layer res3a_branch2a
I0328 19:41:59.122036 13194 net.cpp:86] Creating Layer res3a_branch2a
I0328 19:41:59.122040 13194 net.cpp:408] res3a_branch2a <- res2c_res2c_relu_0_split_1
I0328 19:41:59.122045 13194 net.cpp:382] res3a_branch2a -> res3a_branch2a
I0328 19:41:59.124385 13194 net.cpp:124] Setting up res3a_branch2a
I0328 19:41:59.124397 13194 net.cpp:131] Top shape: 32 128 28 28 (3211264)
I0328 19:41:59.124399 13194 net.cpp:139] Memory required for data: 1483604096
I0328 19:41:59.124403 13194 layer_factory.hpp:77] Creating layer bn3a_branch2a
I0328 19:41:59.124414 13194 net.cpp:86] Creating Layer bn3a_branch2a
I0328 19:41:59.124428 13194 net.cpp:408] bn3a_branch2a <- res3a_branch2a
I0328 19:41:59.124434 13194 net.cpp:369] bn3a_branch2a -> res3a_branch2a (in-place)
I0328 19:41:59.124605 13194 net.cpp:124] Setting up bn3a_branch2a
I0328 19:41:59.124611 13194 net.cpp:131] Top shape: 32 128 28 28 (3211264)
I0328 19:41:59.124614 13194 net.cpp:139] Memory required for data: 1496449152
I0328 19:41:59.124620 13194 layer_factory.hpp:77] Creating layer scale3a_branch2a
I0328 19:41:59.124624 13194 net.cpp:86] Creating Layer scale3a_branch2a
I0328 19:41:59.124629 13194 net.cpp:408] scale3a_branch2a <- res3a_branch2a
I0328 19:41:59.124631 13194 net.cpp:369] scale3a_branch2a -> res3a_branch2a (in-place)
I0328 19:41:59.124666 13194 layer_factory.hpp:77] Creating layer scale3a_branch2a
I0328 19:41:59.124763 13194 net.cpp:124] Setting up scale3a_branch2a
I0328 19:41:59.124769 13194 net.cpp:131] Top shape: 32 128 28 28 (3211264)
I0328 19:41:59.124773 13194 net.cpp:139] Memory required for data: 1509294208
I0328 19:41:59.124776 13194 layer_factory.hpp:77] Creating layer res3a_branch2a_relu
I0328 19:41:59.124783 13194 net.cpp:86] Creating Layer res3a_branch2a_relu
I0328 19:41:59.124785 13194 net.cpp:408] res3a_branch2a_relu <- res3a_branch2a
I0328 19:41:59.124789 13194 net.cpp:369] res3a_branch2a_relu -> res3a_branch2a (in-place)
I0328 19:41:59.125213 13194 net.cpp:124] Setting up res3a_branch2a_relu
I0328 19:41:59.125221 13194 net.cpp:131] Top shape: 32 128 28 28 (3211264)
I0328 19:41:59.125224 13194 net.cpp:139] Memory required for data: 1522139264
I0328 19:41:59.125227 13194 layer_factory.hpp:77] Creating layer res3a_branch2b
I0328 19:41:59.125236 13194 net.cpp:86] Creating Layer res3a_branch2b
I0328 19:41:59.125238 13194 net.cpp:408] res3a_branch2b <- res3a_branch2a
I0328 19:41:59.125246 13194 net.cpp:382] res3a_branch2b -> res3a_branch2b
I0328 19:41:59.128139 13194 net.cpp:124] Setting up res3a_branch2b
I0328 19:41:59.128149 13194 net.cpp:131] Top shape: 32 128 28 28 (3211264)
I0328 19:41:59.128152 13194 net.cpp:139] Memory required for data: 1534984320
I0328 19:41:59.128157 13194 layer_factory.hpp:77] Creating layer bn3a_branch2b
I0328 19:41:59.128165 13194 net.cpp:86] Creating Layer bn3a_branch2b
I0328 19:41:59.128167 13194 net.cpp:408] bn3a_branch2b <- res3a_branch2b
I0328 19:41:59.128175 13194 net.cpp:369] bn3a_branch2b -> res3a_branch2b (in-place)
I0328 19:41:59.128351 13194 net.cpp:124] Setting up bn3a_branch2b
I0328 19:41:59.128357 13194 net.cpp:131] Top shape: 32 128 28 28 (3211264)
I0328 19:41:59.128360 13194 net.cpp:139] Memory required for data: 1547829376
I0328 19:41:59.128367 13194 layer_factory.hpp:77] Creating layer scale3a_branch2b
I0328 19:41:59.128374 13194 net.cpp:86] Creating Layer scale3a_branch2b
I0328 19:41:59.128377 13194 net.cpp:408] scale3a_branch2b <- res3a_branch2b
I0328 19:41:59.128381 13194 net.cpp:369] scale3a_branch2b -> res3a_branch2b (in-place)
I0328 19:41:59.128417 13194 layer_factory.hpp:77] Creating layer scale3a_branch2b
I0328 19:41:59.128515 13194 net.cpp:124] Setting up scale3a_branch2b
I0328 19:41:59.128520 13194 net.cpp:131] Top shape: 32 128 28 28 (3211264)
I0328 19:41:59.128523 13194 net.cpp:139] Memory required for data: 1560674432
I0328 19:41:59.128537 13194 layer_factory.hpp:77] Creating layer res3a
I0328 19:41:59.128543 13194 net.cpp:86] Creating Layer res3a
I0328 19:41:59.128546 13194 net.cpp:408] res3a <- res3a_branch1
I0328 19:41:59.128549 13194 net.cpp:408] res3a <- res3a_branch2b
I0328 19:41:59.128553 13194 net.cpp:382] res3a -> res3a
I0328 19:41:59.128576 13194 net.cpp:124] Setting up res3a
I0328 19:41:59.128581 13194 net.cpp:131] Top shape: 32 128 28 28 (3211264)
I0328 19:41:59.128582 13194 net.cpp:139] Memory required for data: 1573519488
I0328 19:41:59.128585 13194 layer_factory.hpp:77] Creating layer res3a_relu
I0328 19:41:59.128589 13194 net.cpp:86] Creating Layer res3a_relu
I0328 19:41:59.128592 13194 net.cpp:408] res3a_relu <- res3a
I0328 19:41:59.128598 13194 net.cpp:369] res3a_relu -> res3a (in-place)
I0328 19:41:59.129171 13194 net.cpp:124] Setting up res3a_relu
I0328 19:41:59.129194 13194 net.cpp:131] Top shape: 32 128 28 28 (3211264)
I0328 19:41:59.129196 13194 net.cpp:139] Memory required for data: 1586364544
I0328 19:41:59.129199 13194 layer_factory.hpp:77] Creating layer res3a_res3a_relu_0_split
I0328 19:41:59.129206 13194 net.cpp:86] Creating Layer res3a_res3a_relu_0_split
I0328 19:41:59.129209 13194 net.cpp:408] res3a_res3a_relu_0_split <- res3a
I0328 19:41:59.129216 13194 net.cpp:382] res3a_res3a_relu_0_split -> res3a_res3a_relu_0_split_0
I0328 19:41:59.129222 13194 net.cpp:382] res3a_res3a_relu_0_split -> res3a_res3a_relu_0_split_1
I0328 19:41:59.129262 13194 net.cpp:124] Setting up res3a_res3a_relu_0_split
I0328 19:41:59.129268 13194 net.cpp:131] Top shape: 32 128 28 28 (3211264)
I0328 19:41:59.129271 13194 net.cpp:131] Top shape: 32 128 28 28 (3211264)
I0328 19:41:59.129274 13194 net.cpp:139] Memory required for data: 1612054656
I0328 19:41:59.129276 13194 layer_factory.hpp:77] Creating layer res3b_branch2a
I0328 19:41:59.129285 13194 net.cpp:86] Creating Layer res3b_branch2a
I0328 19:41:59.129288 13194 net.cpp:408] res3b_branch2a <- res3a_res3a_relu_0_split_0
I0328 19:41:59.129293 13194 net.cpp:382] res3b_branch2a -> res3b_branch2a
I0328 19:41:59.133021 13194 net.cpp:124] Setting up res3b_branch2a
I0328 19:41:59.133033 13194 net.cpp:131] Top shape: 32 128 28 28 (3211264)
I0328 19:41:59.133035 13194 net.cpp:139] Memory required for data: 1624899712
I0328 19:41:59.133040 13194 layer_factory.hpp:77] Creating layer bn3b_branch2a
I0328 19:41:59.133047 13194 net.cpp:86] Creating Layer bn3b_branch2a
I0328 19:41:59.133051 13194 net.cpp:408] bn3b_branch2a <- res3b_branch2a
I0328 19:41:59.133055 13194 net.cpp:369] bn3b_branch2a -> res3b_branch2a (in-place)
I0328 19:41:59.133235 13194 net.cpp:124] Setting up bn3b_branch2a
I0328 19:41:59.133241 13194 net.cpp:131] Top shape: 32 128 28 28 (3211264)
I0328 19:41:59.133244 13194 net.cpp:139] Memory required for data: 1637744768
I0328 19:41:59.133250 13194 layer_factory.hpp:77] Creating layer scale3b_branch2a
I0328 19:41:59.133255 13194 net.cpp:86] Creating Layer scale3b_branch2a
I0328 19:41:59.133257 13194 net.cpp:408] scale3b_branch2a <- res3b_branch2a
I0328 19:41:59.133263 13194 net.cpp:369] scale3b_branch2a -> res3b_branch2a (in-place)
I0328 19:41:59.133297 13194 layer_factory.hpp:77] Creating layer scale3b_branch2a
I0328 19:41:59.133396 13194 net.cpp:124] Setting up scale3b_branch2a
I0328 19:41:59.133404 13194 net.cpp:131] Top shape: 32 128 28 28 (3211264)
I0328 19:41:59.133406 13194 net.cpp:139] Memory required for data: 1650589824
I0328 19:41:59.133411 13194 layer_factory.hpp:77] Creating layer res3b_branch2a_relu
I0328 19:41:59.133417 13194 net.cpp:86] Creating Layer res3b_branch2a_relu
I0328 19:41:59.133420 13194 net.cpp:408] res3b_branch2a_relu <- res3b_branch2a
I0328 19:41:59.133424 13194 net.cpp:369] res3b_branch2a_relu -> res3b_branch2a (in-place)
I0328 19:41:59.133862 13194 net.cpp:124] Setting up res3b_branch2a_relu
I0328 19:41:59.133872 13194 net.cpp:131] Top shape: 32 128 28 28 (3211264)
I0328 19:41:59.133875 13194 net.cpp:139] Memory required for data: 1663434880
I0328 19:41:59.133878 13194 layer_factory.hpp:77] Creating layer res3b_branch2b
I0328 19:41:59.133884 13194 net.cpp:86] Creating Layer res3b_branch2b
I0328 19:41:59.133888 13194 net.cpp:408] res3b_branch2b <- res3b_branch2a
I0328 19:41:59.133896 13194 net.cpp:382] res3b_branch2b -> res3b_branch2b
I0328 19:41:59.136724 13194 net.cpp:124] Setting up res3b_branch2b
I0328 19:41:59.136736 13194 net.cpp:131] Top shape: 32 128 28 28 (3211264)
I0328 19:41:59.136739 13194 net.cpp:139] Memory required for data: 1676279936
I0328 19:41:59.136744 13194 layer_factory.hpp:77] Creating layer bn3b_branch2b
I0328 19:41:59.136749 13194 net.cpp:86] Creating Layer bn3b_branch2b
I0328 19:41:59.136752 13194 net.cpp:408] bn3b_branch2b <- res3b_branch2b
I0328 19:41:59.136759 13194 net.cpp:369] bn3b_branch2b -> res3b_branch2b (in-place)
I0328 19:41:59.136937 13194 net.cpp:124] Setting up bn3b_branch2b
I0328 19:41:59.136947 13194 net.cpp:131] Top shape: 32 128 28 28 (3211264)
I0328 19:41:59.136960 13194 net.cpp:139] Memory required for data: 1689124992
I0328 19:41:59.136965 13194 layer_factory.hpp:77] Creating layer scale3b_branch2b
I0328 19:41:59.136972 13194 net.cpp:86] Creating Layer scale3b_branch2b
I0328 19:41:59.136976 13194 net.cpp:408] scale3b_branch2b <- res3b_branch2b
I0328 19:41:59.136981 13194 net.cpp:369] scale3b_branch2b -> res3b_branch2b (in-place)
I0328 19:41:59.137019 13194 layer_factory.hpp:77] Creating layer scale3b_branch2b
I0328 19:41:59.137120 13194 net.cpp:124] Setting up scale3b_branch2b
I0328 19:41:59.137126 13194 net.cpp:131] Top shape: 32 128 28 28 (3211264)
I0328 19:41:59.137128 13194 net.cpp:139] Memory required for data: 1701970048
I0328 19:41:59.137135 13194 layer_factory.hpp:77] Creating layer res3b
I0328 19:41:59.137141 13194 net.cpp:86] Creating Layer res3b
I0328 19:41:59.137145 13194 net.cpp:408] res3b <- res3a_res3a_relu_0_split_1
I0328 19:41:59.137149 13194 net.cpp:408] res3b <- res3b_branch2b
I0328 19:41:59.137153 13194 net.cpp:382] res3b -> res3b
I0328 19:41:59.137176 13194 net.cpp:124] Setting up res3b
I0328 19:41:59.137181 13194 net.cpp:131] Top shape: 32 128 28 28 (3211264)
I0328 19:41:59.137184 13194 net.cpp:139] Memory required for data: 1714815104
I0328 19:41:59.137187 13194 layer_factory.hpp:77] Creating layer res3b_relu
I0328 19:41:59.137190 13194 net.cpp:86] Creating Layer res3b_relu
I0328 19:41:59.137193 13194 net.cpp:408] res3b_relu <- res3b
I0328 19:41:59.137199 13194 net.cpp:369] res3b_relu -> res3b (in-place)
I0328 19:41:59.137763 13194 net.cpp:124] Setting up res3b_relu
I0328 19:41:59.137775 13194 net.cpp:131] Top shape: 32 128 28 28 (3211264)
I0328 19:41:59.137778 13194 net.cpp:139] Memory required for data: 1727660160
I0328 19:41:59.137781 13194 layer_factory.hpp:77] Creating layer res3b_res3b_relu_0_split
I0328 19:41:59.137786 13194 net.cpp:86] Creating Layer res3b_res3b_relu_0_split
I0328 19:41:59.137789 13194 net.cpp:408] res3b_res3b_relu_0_split <- res3b
I0328 19:41:59.137799 13194 net.cpp:382] res3b_res3b_relu_0_split -> res3b_res3b_relu_0_split_0
I0328 19:41:59.137805 13194 net.cpp:382] res3b_res3b_relu_0_split -> res3b_res3b_relu_0_split_1
I0328 19:41:59.137851 13194 net.cpp:124] Setting up res3b_res3b_relu_0_split
I0328 19:41:59.137856 13194 net.cpp:131] Top shape: 32 128 28 28 (3211264)
I0328 19:41:59.137861 13194 net.cpp:131] Top shape: 32 128 28 28 (3211264)
I0328 19:41:59.137863 13194 net.cpp:139] Memory required for data: 1753350272
I0328 19:41:59.137866 13194 layer_factory.hpp:77] Creating layer res3c_branch2a
I0328 19:41:59.137874 13194 net.cpp:86] Creating Layer res3c_branch2a
I0328 19:41:59.137878 13194 net.cpp:408] res3c_branch2a <- res3b_res3b_relu_0_split_0
I0328 19:41:59.137883 13194 net.cpp:382] res3c_branch2a -> res3c_branch2a
I0328 19:41:59.140707 13194 net.cpp:124] Setting up res3c_branch2a
I0328 19:41:59.140718 13194 net.cpp:131] Top shape: 32 128 28 28 (3211264)
I0328 19:41:59.140722 13194 net.cpp:139] Memory required for data: 1766195328
I0328 19:41:59.140727 13194 layer_factory.hpp:77] Creating layer bn3c_branch2a
I0328 19:41:59.140743 13194 net.cpp:86] Creating Layer bn3c_branch2a
I0328 19:41:59.140746 13194 net.cpp:408] bn3c_branch2a <- res3c_branch2a
I0328 19:41:59.140751 13194 net.cpp:369] bn3c_branch2a -> res3c_branch2a (in-place)
I0328 19:41:59.140933 13194 net.cpp:124] Setting up bn3c_branch2a
I0328 19:41:59.140941 13194 net.cpp:131] Top shape: 32 128 28 28 (3211264)
I0328 19:41:59.140944 13194 net.cpp:139] Memory required for data: 1779040384
I0328 19:41:59.140951 13194 layer_factory.hpp:77] Creating layer scale3c_branch2a
I0328 19:41:59.140956 13194 net.cpp:86] Creating Layer scale3c_branch2a
I0328 19:41:59.140959 13194 net.cpp:408] scale3c_branch2a <- res3c_branch2a
I0328 19:41:59.140964 13194 net.cpp:369] scale3c_branch2a -> res3c_branch2a (in-place)
I0328 19:41:59.141000 13194 layer_factory.hpp:77] Creating layer scale3c_branch2a
I0328 19:41:59.141099 13194 net.cpp:124] Setting up scale3c_branch2a
I0328 19:41:59.141105 13194 net.cpp:131] Top shape: 32 128 28 28 (3211264)
I0328 19:41:59.141124 13194 net.cpp:139] Memory required for data: 1791885440
I0328 19:41:59.141130 13194 layer_factory.hpp:77] Creating layer res3c_branch2a_relu
I0328 19:41:59.141137 13194 net.cpp:86] Creating Layer res3c_branch2a_relu
I0328 19:41:59.141140 13194 net.cpp:408] res3c_branch2a_relu <- res3c_branch2a
I0328 19:41:59.141144 13194 net.cpp:369] res3c_branch2a_relu -> res3c_branch2a (in-place)
I0328 19:41:59.141577 13194 net.cpp:124] Setting up res3c_branch2a_relu
I0328 19:41:59.141585 13194 net.cpp:131] Top shape: 32 128 28 28 (3211264)
I0328 19:41:59.141587 13194 net.cpp:139] Memory required for data: 1804730496
I0328 19:41:59.141590 13194 layer_factory.hpp:77] Creating layer res3c_branch2b
I0328 19:41:59.141599 13194 net.cpp:86] Creating Layer res3c_branch2b
I0328 19:41:59.141603 13194 net.cpp:408] res3c_branch2b <- res3c_branch2a
I0328 19:41:59.141608 13194 net.cpp:382] res3c_branch2b -> res3c_branch2b
I0328 19:41:59.145493 13194 net.cpp:124] Setting up res3c_branch2b
I0328 19:41:59.145506 13194 net.cpp:131] Top shape: 32 128 28 28 (3211264)
I0328 19:41:59.145509 13194 net.cpp:139] Memory required for data: 1817575552
I0328 19:41:59.145515 13194 layer_factory.hpp:77] Creating layer bn3c_branch2b
I0328 19:41:59.145521 13194 net.cpp:86] Creating Layer bn3c_branch2b
I0328 19:41:59.145524 13194 net.cpp:408] bn3c_branch2b <- res3c_branch2b
I0328 19:41:59.145530 13194 net.cpp:369] bn3c_branch2b -> res3c_branch2b (in-place)
I0328 19:41:59.145714 13194 net.cpp:124] Setting up bn3c_branch2b
I0328 19:41:59.145720 13194 net.cpp:131] Top shape: 32 128 28 28 (3211264)
I0328 19:41:59.145722 13194 net.cpp:139] Memory required for data: 1830420608
I0328 19:41:59.145728 13194 layer_factory.hpp:77] Creating layer scale3c_branch2b
I0328 19:41:59.145733 13194 net.cpp:86] Creating Layer scale3c_branch2b
I0328 19:41:59.145736 13194 net.cpp:408] scale3c_branch2b <- res3c_branch2b
I0328 19:41:59.145740 13194 net.cpp:369] scale3c_branch2b -> res3c_branch2b (in-place)
I0328 19:41:59.145776 13194 layer_factory.hpp:77] Creating layer scale3c_branch2b
I0328 19:41:59.145877 13194 net.cpp:124] Setting up scale3c_branch2b
I0328 19:41:59.145884 13194 net.cpp:131] Top shape: 32 128 28 28 (3211264)
I0328 19:41:59.145886 13194 net.cpp:139] Memory required for data: 1843265664
I0328 19:41:59.145891 13194 layer_factory.hpp:77] Creating layer res3c
I0328 19:41:59.145897 13194 net.cpp:86] Creating Layer res3c
I0328 19:41:59.145901 13194 net.cpp:408] res3c <- res3b_res3b_relu_0_split_1
I0328 19:41:59.145905 13194 net.cpp:408] res3c <- res3c_branch2b
I0328 19:41:59.145910 13194 net.cpp:382] res3c -> res3c
I0328 19:41:59.145932 13194 net.cpp:124] Setting up res3c
I0328 19:41:59.145937 13194 net.cpp:131] Top shape: 32 128 28 28 (3211264)
I0328 19:41:59.145941 13194 net.cpp:139] Memory required for data: 1856110720
I0328 19:41:59.145942 13194 layer_factory.hpp:77] Creating layer res3c_relu
I0328 19:41:59.145947 13194 net.cpp:86] Creating Layer res3c_relu
I0328 19:41:59.145951 13194 net.cpp:408] res3c_relu <- res3c
I0328 19:41:59.145956 13194 net.cpp:369] res3c_relu -> res3c (in-place)
I0328 19:41:59.146390 13194 net.cpp:124] Setting up res3c_relu
I0328 19:41:59.146400 13194 net.cpp:131] Top shape: 32 128 28 28 (3211264)
I0328 19:41:59.146404 13194 net.cpp:139] Memory required for data: 1868955776
I0328 19:41:59.146407 13194 layer_factory.hpp:77] Creating layer res3c_res3c_relu_0_split
I0328 19:41:59.146412 13194 net.cpp:86] Creating Layer res3c_res3c_relu_0_split
I0328 19:41:59.146415 13194 net.cpp:408] res3c_res3c_relu_0_split <- res3c
I0328 19:41:59.146421 13194 net.cpp:382] res3c_res3c_relu_0_split -> res3c_res3c_relu_0_split_0
I0328 19:41:59.146428 13194 net.cpp:382] res3c_res3c_relu_0_split -> res3c_res3c_relu_0_split_1
I0328 19:41:59.146467 13194 net.cpp:124] Setting up res3c_res3c_relu_0_split
I0328 19:41:59.146474 13194 net.cpp:131] Top shape: 32 128 28 28 (3211264)
I0328 19:41:59.146477 13194 net.cpp:131] Top shape: 32 128 28 28 (3211264)
I0328 19:41:59.146481 13194 net.cpp:139] Memory required for data: 1894645888
I0328 19:41:59.146486 13194 layer_factory.hpp:77] Creating layer res3d_branch2a
I0328 19:41:59.146505 13194 net.cpp:86] Creating Layer res3d_branch2a
I0328 19:41:59.146508 13194 net.cpp:408] res3d_branch2a <- res3c_res3c_relu_0_split_0
I0328 19:41:59.146515 13194 net.cpp:382] res3d_branch2a -> res3d_branch2a
I0328 19:41:59.149474 13194 net.cpp:124] Setting up res3d_branch2a
I0328 19:41:59.149485 13194 net.cpp:131] Top shape: 32 128 28 28 (3211264)
I0328 19:41:59.149488 13194 net.cpp:139] Memory required for data: 1907490944
I0328 19:41:59.149493 13194 layer_factory.hpp:77] Creating layer bn3d_branch2a
I0328 19:41:59.149499 13194 net.cpp:86] Creating Layer bn3d_branch2a
I0328 19:41:59.149502 13194 net.cpp:408] bn3d_branch2a <- res3d_branch2a
I0328 19:41:59.149508 13194 net.cpp:369] bn3d_branch2a -> res3d_branch2a (in-place)
I0328 19:41:59.149693 13194 net.cpp:124] Setting up bn3d_branch2a
I0328 19:41:59.149698 13194 net.cpp:131] Top shape: 32 128 28 28 (3211264)
I0328 19:41:59.149700 13194 net.cpp:139] Memory required for data: 1920336000
I0328 19:41:59.149706 13194 layer_factory.hpp:77] Creating layer scale3d_branch2a
I0328 19:41:59.149711 13194 net.cpp:86] Creating Layer scale3d_branch2a
I0328 19:41:59.149714 13194 net.cpp:408] scale3d_branch2a <- res3d_branch2a
I0328 19:41:59.149718 13194 net.cpp:369] scale3d_branch2a -> res3d_branch2a (in-place)
I0328 19:41:59.149755 13194 layer_factory.hpp:77] Creating layer scale3d_branch2a
I0328 19:41:59.149858 13194 net.cpp:124] Setting up scale3d_branch2a
I0328 19:41:59.149864 13194 net.cpp:131] Top shape: 32 128 28 28 (3211264)
I0328 19:41:59.149866 13194 net.cpp:139] Memory required for data: 1933181056
I0328 19:41:59.149873 13194 layer_factory.hpp:77] Creating layer res3d_branch2a_relu
I0328 19:41:59.149880 13194 net.cpp:86] Creating Layer res3d_branch2a_relu
I0328 19:41:59.149883 13194 net.cpp:408] res3d_branch2a_relu <- res3d_branch2a
I0328 19:41:59.149886 13194 net.cpp:369] res3d_branch2a_relu -> res3d_branch2a (in-place)
I0328 19:41:59.150465 13194 net.cpp:124] Setting up res3d_branch2a_relu
I0328 19:41:59.150476 13194 net.cpp:131] Top shape: 32 128 28 28 (3211264)
I0328 19:41:59.150478 13194 net.cpp:139] Memory required for data: 1946026112
I0328 19:41:59.150481 13194 layer_factory.hpp:77] Creating layer res3d_branch2b
I0328 19:41:59.150490 13194 net.cpp:86] Creating Layer res3d_branch2b
I0328 19:41:59.150494 13194 net.cpp:408] res3d_branch2b <- res3d_branch2a
I0328 19:41:59.150501 13194 net.cpp:382] res3d_branch2b -> res3d_branch2b
I0328 19:41:59.153352 13194 net.cpp:124] Setting up res3d_branch2b
I0328 19:41:59.153362 13194 net.cpp:131] Top shape: 32 128 28 28 (3211264)
I0328 19:41:59.153367 13194 net.cpp:139] Memory required for data: 1958871168
I0328 19:41:59.153373 13194 layer_factory.hpp:77] Creating layer bn3d_branch2b
I0328 19:41:59.153378 13194 net.cpp:86] Creating Layer bn3d_branch2b
I0328 19:41:59.153380 13194 net.cpp:408] bn3d_branch2b <- res3d_branch2b
I0328 19:41:59.153385 13194 net.cpp:369] bn3d_branch2b -> res3d_branch2b (in-place)
I0328 19:41:59.153568 13194 net.cpp:124] Setting up bn3d_branch2b
I0328 19:41:59.153573 13194 net.cpp:131] Top shape: 32 128 28 28 (3211264)
I0328 19:41:59.153576 13194 net.cpp:139] Memory required for data: 1971716224
I0328 19:41:59.153582 13194 layer_factory.hpp:77] Creating layer scale3d_branch2b
I0328 19:41:59.153589 13194 net.cpp:86] Creating Layer scale3d_branch2b
I0328 19:41:59.153591 13194 net.cpp:408] scale3d_branch2b <- res3d_branch2b
I0328 19:41:59.153594 13194 net.cpp:369] scale3d_branch2b -> res3d_branch2b (in-place)
I0328 19:41:59.153632 13194 layer_factory.hpp:77] Creating layer scale3d_branch2b
I0328 19:41:59.153736 13194 net.cpp:124] Setting up scale3d_branch2b
I0328 19:41:59.153743 13194 net.cpp:131] Top shape: 32 128 28 28 (3211264)
I0328 19:41:59.153745 13194 net.cpp:139] Memory required for data: 1984561280
I0328 19:41:59.153750 13194 layer_factory.hpp:77] Creating layer res3d
I0328 19:41:59.153755 13194 net.cpp:86] Creating Layer res3d
I0328 19:41:59.153759 13194 net.cpp:408] res3d <- res3c_res3c_relu_0_split_1
I0328 19:41:59.153765 13194 net.cpp:408] res3d <- res3d_branch2b
I0328 19:41:59.153780 13194 net.cpp:382] res3d -> res3d
I0328 19:41:59.153805 13194 net.cpp:124] Setting up res3d
I0328 19:41:59.153810 13194 net.cpp:131] Top shape: 32 128 28 28 (3211264)
I0328 19:41:59.153812 13194 net.cpp:139] Memory required for data: 1997406336
I0328 19:41:59.153815 13194 layer_factory.hpp:77] Creating layer res3d_relu
I0328 19:41:59.153821 13194 net.cpp:86] Creating Layer res3d_relu
I0328 19:41:59.153825 13194 net.cpp:408] res3d_relu <- res3d
I0328 19:41:59.153827 13194 net.cpp:369] res3d_relu -> res3d (in-place)
I0328 19:41:59.154265 13194 net.cpp:124] Setting up res3d_relu
I0328 19:41:59.154273 13194 net.cpp:131] Top shape: 32 128 28 28 (3211264)
I0328 19:41:59.154275 13194 net.cpp:139] Memory required for data: 2010251392
I0328 19:41:59.154278 13194 layer_factory.hpp:77] Creating layer res3d_res3d_relu_0_split
I0328 19:41:59.154285 13194 net.cpp:86] Creating Layer res3d_res3d_relu_0_split
I0328 19:41:59.154289 13194 net.cpp:408] res3d_res3d_relu_0_split <- res3d
I0328 19:41:59.154294 13194 net.cpp:382] res3d_res3d_relu_0_split -> res3d_res3d_relu_0_split_0
I0328 19:41:59.154300 13194 net.cpp:382] res3d_res3d_relu_0_split -> res3d_res3d_relu_0_split_1
I0328 19:41:59.154340 13194 net.cpp:124] Setting up res3d_res3d_relu_0_split
I0328 19:41:59.154346 13194 net.cpp:131] Top shape: 32 128 28 28 (3211264)
I0328 19:41:59.154350 13194 net.cpp:131] Top shape: 32 128 28 28 (3211264)
I0328 19:41:59.154351 13194 net.cpp:139] Memory required for data: 2035941504
I0328 19:41:59.154356 13194 layer_factory.hpp:77] Creating layer res4a_branch1
I0328 19:41:59.154363 13194 net.cpp:86] Creating Layer res4a_branch1
I0328 19:41:59.154366 13194 net.cpp:408] res4a_branch1 <- res3d_res3d_relu_0_split_0
I0328 19:41:59.154372 13194 net.cpp:382] res4a_branch1 -> res4a_branch1
I0328 19:41:59.156267 13194 net.cpp:124] Setting up res4a_branch1
I0328 19:41:59.156280 13194 net.cpp:131] Top shape: 32 256 14 14 (1605632)
I0328 19:41:59.156283 13194 net.cpp:139] Memory required for data: 2042364032
I0328 19:41:59.156288 13194 layer_factory.hpp:77] Creating layer bn4a_branch1
I0328 19:41:59.156294 13194 net.cpp:86] Creating Layer bn4a_branch1
I0328 19:41:59.156297 13194 net.cpp:408] bn4a_branch1 <- res4a_branch1
I0328 19:41:59.156303 13194 net.cpp:369] bn4a_branch1 -> res4a_branch1 (in-place)
I0328 19:41:59.156491 13194 net.cpp:124] Setting up bn4a_branch1
I0328 19:41:59.156497 13194 net.cpp:131] Top shape: 32 256 14 14 (1605632)
I0328 19:41:59.156499 13194 net.cpp:139] Memory required for data: 2048786560
I0328 19:41:59.156505 13194 layer_factory.hpp:77] Creating layer scale4a_branch1
I0328 19:41:59.156510 13194 net.cpp:86] Creating Layer scale4a_branch1
I0328 19:41:59.156513 13194 net.cpp:408] scale4a_branch1 <- res4a_branch1
I0328 19:41:59.156517 13194 net.cpp:369] scale4a_branch1 -> res4a_branch1 (in-place)
I0328 19:41:59.156553 13194 layer_factory.hpp:77] Creating layer scale4a_branch1
I0328 19:41:59.156652 13194 net.cpp:124] Setting up scale4a_branch1
I0328 19:41:59.156659 13194 net.cpp:131] Top shape: 32 256 14 14 (1605632)
I0328 19:41:59.156661 13194 net.cpp:139] Memory required for data: 2055209088
I0328 19:41:59.156666 13194 layer_factory.hpp:77] Creating layer res4a_branch2a
I0328 19:41:59.156674 13194 net.cpp:86] Creating Layer res4a_branch2a
I0328 19:41:59.156678 13194 net.cpp:408] res4a_branch2a <- res3d_res3d_relu_0_split_1
I0328 19:41:59.156684 13194 net.cpp:382] res4a_branch2a -> res4a_branch2a
I0328 19:41:59.161507 13194 net.cpp:124] Setting up res4a_branch2a
I0328 19:41:59.161518 13194 net.cpp:131] Top shape: 32 256 14 14 (1605632)
I0328 19:41:59.161522 13194 net.cpp:139] Memory required for data: 2061631616
I0328 19:41:59.161528 13194 layer_factory.hpp:77] Creating layer bn4a_branch2a
I0328 19:41:59.161536 13194 net.cpp:86] Creating Layer bn4a_branch2a
I0328 19:41:59.161540 13194 net.cpp:408] bn4a_branch2a <- res4a_branch2a
I0328 19:41:59.161545 13194 net.cpp:369] bn4a_branch2a -> res4a_branch2a (in-place)
I0328 19:41:59.161732 13194 net.cpp:124] Setting up bn4a_branch2a
I0328 19:41:59.161749 13194 net.cpp:131] Top shape: 32 256 14 14 (1605632)
I0328 19:41:59.161752 13194 net.cpp:139] Memory required for data: 2068054144
I0328 19:41:59.161758 13194 layer_factory.hpp:77] Creating layer scale4a_branch2a
I0328 19:41:59.161763 13194 net.cpp:86] Creating Layer scale4a_branch2a
I0328 19:41:59.161767 13194 net.cpp:408] scale4a_branch2a <- res4a_branch2a
I0328 19:41:59.161770 13194 net.cpp:369] scale4a_branch2a -> res4a_branch2a (in-place)
I0328 19:41:59.161811 13194 layer_factory.hpp:77] Creating layer scale4a_branch2a
I0328 19:41:59.161916 13194 net.cpp:124] Setting up scale4a_branch2a
I0328 19:41:59.161922 13194 net.cpp:131] Top shape: 32 256 14 14 (1605632)
I0328 19:41:59.161924 13194 net.cpp:139] Memory required for data: 2074476672
I0328 19:41:59.161931 13194 layer_factory.hpp:77] Creating layer res4a_branch2a_relu
I0328 19:41:59.161934 13194 net.cpp:86] Creating Layer res4a_branch2a_relu
I0328 19:41:59.161937 13194 net.cpp:408] res4a_branch2a_relu <- res4a_branch2a
I0328 19:41:59.161942 13194 net.cpp:369] res4a_branch2a_relu -> res4a_branch2a (in-place)
I0328 19:41:59.162382 13194 net.cpp:124] Setting up res4a_branch2a_relu
I0328 19:41:59.162394 13194 net.cpp:131] Top shape: 32 256 14 14 (1605632)
I0328 19:41:59.162396 13194 net.cpp:139] Memory required for data: 2080899200
I0328 19:41:59.162400 13194 layer_factory.hpp:77] Creating layer res4a_branch2b
I0328 19:41:59.162407 13194 net.cpp:86] Creating Layer res4a_branch2b
I0328 19:41:59.162410 13194 net.cpp:408] res4a_branch2b <- res4a_branch2a
I0328 19:41:59.162415 13194 net.cpp:382] res4a_branch2b -> res4a_branch2b
I0328 19:41:59.169350 13194 net.cpp:124] Setting up res4a_branch2b
I0328 19:41:59.169364 13194 net.cpp:131] Top shape: 32 256 14 14 (1605632)
I0328 19:41:59.169368 13194 net.cpp:139] Memory required for data: 2087321728
I0328 19:41:59.169373 13194 layer_factory.hpp:77] Creating layer bn4a_branch2b
I0328 19:41:59.169379 13194 net.cpp:86] Creating Layer bn4a_branch2b
I0328 19:41:59.169382 13194 net.cpp:408] bn4a_branch2b <- res4a_branch2b
I0328 19:41:59.169389 13194 net.cpp:369] bn4a_branch2b -> res4a_branch2b (in-place)
I0328 19:41:59.169569 13194 net.cpp:124] Setting up bn4a_branch2b
I0328 19:41:59.169575 13194 net.cpp:131] Top shape: 32 256 14 14 (1605632)
I0328 19:41:59.169579 13194 net.cpp:139] Memory required for data: 2093744256
I0328 19:41:59.169584 13194 layer_factory.hpp:77] Creating layer scale4a_branch2b
I0328 19:41:59.169591 13194 net.cpp:86] Creating Layer scale4a_branch2b
I0328 19:41:59.169595 13194 net.cpp:408] scale4a_branch2b <- res4a_branch2b
I0328 19:41:59.169598 13194 net.cpp:369] scale4a_branch2b -> res4a_branch2b (in-place)
I0328 19:41:59.169634 13194 layer_factory.hpp:77] Creating layer scale4a_branch2b
I0328 19:41:59.169735 13194 net.cpp:124] Setting up scale4a_branch2b
I0328 19:41:59.169741 13194 net.cpp:131] Top shape: 32 256 14 14 (1605632)
I0328 19:41:59.169744 13194 net.cpp:139] Memory required for data: 2100166784
I0328 19:41:59.169749 13194 layer_factory.hpp:77] Creating layer res4a
I0328 19:41:59.169759 13194 net.cpp:86] Creating Layer res4a
I0328 19:41:59.169762 13194 net.cpp:408] res4a <- res4a_branch1
I0328 19:41:59.169766 13194 net.cpp:408] res4a <- res4a_branch2b
I0328 19:41:59.169770 13194 net.cpp:382] res4a -> res4a
I0328 19:41:59.169795 13194 net.cpp:124] Setting up res4a
I0328 19:41:59.169800 13194 net.cpp:131] Top shape: 32 256 14 14 (1605632)
I0328 19:41:59.169802 13194 net.cpp:139] Memory required for data: 2106589312
I0328 19:41:59.169806 13194 layer_factory.hpp:77] Creating layer res4a_relu
I0328 19:41:59.169809 13194 net.cpp:86] Creating Layer res4a_relu
I0328 19:41:59.169812 13194 net.cpp:408] res4a_relu <- res4a
I0328 19:41:59.169818 13194 net.cpp:369] res4a_relu -> res4a (in-place)
I0328 19:41:59.170398 13194 net.cpp:124] Setting up res4a_relu
I0328 19:41:59.170410 13194 net.cpp:131] Top shape: 32 256 14 14 (1605632)
I0328 19:41:59.170413 13194 net.cpp:139] Memory required for data: 2113011840
I0328 19:41:59.170418 13194 layer_factory.hpp:77] Creating layer res4a_res4a_relu_0_split
I0328 19:41:59.170435 13194 net.cpp:86] Creating Layer res4a_res4a_relu_0_split
I0328 19:41:59.170439 13194 net.cpp:408] res4a_res4a_relu_0_split <- res4a
I0328 19:41:59.170447 13194 net.cpp:382] res4a_res4a_relu_0_split -> res4a_res4a_relu_0_split_0
I0328 19:41:59.170454 13194 net.cpp:382] res4a_res4a_relu_0_split -> res4a_res4a_relu_0_split_1
I0328 19:41:59.170498 13194 net.cpp:124] Setting up res4a_res4a_relu_0_split
I0328 19:41:59.170503 13194 net.cpp:131] Top shape: 32 256 14 14 (1605632)
I0328 19:41:59.170507 13194 net.cpp:131] Top shape: 32 256 14 14 (1605632)
I0328 19:41:59.170511 13194 net.cpp:139] Memory required for data: 2125856896
I0328 19:41:59.170512 13194 layer_factory.hpp:77] Creating layer res4b_branch2a
I0328 19:41:59.170521 13194 net.cpp:86] Creating Layer res4b_branch2a
I0328 19:41:59.170524 13194 net.cpp:408] res4b_branch2a <- res4a_res4a_relu_0_split_0
I0328 19:41:59.170529 13194 net.cpp:382] res4b_branch2a -> res4b_branch2a
I0328 19:41:59.177496 13194 net.cpp:124] Setting up res4b_branch2a
I0328 19:41:59.177508 13194 net.cpp:131] Top shape: 32 256 14 14 (1605632)
I0328 19:41:59.177511 13194 net.cpp:139] Memory required for data: 2132279424
I0328 19:41:59.177516 13194 layer_factory.hpp:77] Creating layer bn4b_branch2a
I0328 19:41:59.177526 13194 net.cpp:86] Creating Layer bn4b_branch2a
I0328 19:41:59.177529 13194 net.cpp:408] bn4b_branch2a <- res4b_branch2a
I0328 19:41:59.177533 13194 net.cpp:369] bn4b_branch2a -> res4b_branch2a (in-place)
I0328 19:41:59.177721 13194 net.cpp:124] Setting up bn4b_branch2a
I0328 19:41:59.177731 13194 net.cpp:131] Top shape: 32 256 14 14 (1605632)
I0328 19:41:59.177736 13194 net.cpp:139] Memory required for data: 2138701952
I0328 19:41:59.177742 13194 layer_factory.hpp:77] Creating layer scale4b_branch2a
I0328 19:41:59.177748 13194 net.cpp:86] Creating Layer scale4b_branch2a
I0328 19:41:59.177752 13194 net.cpp:408] scale4b_branch2a <- res4b_branch2a
I0328 19:41:59.177755 13194 net.cpp:369] scale4b_branch2a -> res4b_branch2a (in-place)
I0328 19:41:59.177796 13194 layer_factory.hpp:77] Creating layer scale4b_branch2a
I0328 19:41:59.177901 13194 net.cpp:124] Setting up scale4b_branch2a
I0328 19:41:59.177907 13194 net.cpp:131] Top shape: 32 256 14 14 (1605632)
I0328 19:41:59.177909 13194 net.cpp:139] Memory required for data: 2145124480
I0328 19:41:59.177915 13194 layer_factory.hpp:77] Creating layer res4b_branch2a_relu
I0328 19:41:59.177922 13194 net.cpp:86] Creating Layer res4b_branch2a_relu
I0328 19:41:59.177925 13194 net.cpp:408] res4b_branch2a_relu <- res4b_branch2a
I0328 19:41:59.177929 13194 net.cpp:369] res4b_branch2a_relu -> res4b_branch2a (in-place)
I0328 19:41:59.178373 13194 net.cpp:124] Setting up res4b_branch2a_relu
I0328 19:41:59.178382 13194 net.cpp:131] Top shape: 32 256 14 14 (1605632)
I0328 19:41:59.178385 13194 net.cpp:139] Memory required for data: 2151547008
I0328 19:41:59.178387 13194 layer_factory.hpp:77] Creating layer res4b_branch2b
I0328 19:41:59.178397 13194 net.cpp:86] Creating Layer res4b_branch2b
I0328 19:41:59.178401 13194 net.cpp:408] res4b_branch2b <- res4b_branch2a
I0328 19:41:59.178406 13194 net.cpp:382] res4b_branch2b -> res4b_branch2b
I0328 19:41:59.185312 13194 net.cpp:124] Setting up res4b_branch2b
I0328 19:41:59.185322 13194 net.cpp:131] Top shape: 32 256 14 14 (1605632)
I0328 19:41:59.185325 13194 net.cpp:139] Memory required for data: 2157969536
I0328 19:41:59.185330 13194 layer_factory.hpp:77] Creating layer bn4b_branch2b
I0328 19:41:59.185335 13194 net.cpp:86] Creating Layer bn4b_branch2b
I0328 19:41:59.185338 13194 net.cpp:408] bn4b_branch2b <- res4b_branch2b
I0328 19:41:59.185345 13194 net.cpp:369] bn4b_branch2b -> res4b_branch2b (in-place)
I0328 19:41:59.185528 13194 net.cpp:124] Setting up bn4b_branch2b
I0328 19:41:59.185534 13194 net.cpp:131] Top shape: 32 256 14 14 (1605632)
I0328 19:41:59.185536 13194 net.cpp:139] Memory required for data: 2164392064
I0328 19:41:59.185564 13194 layer_factory.hpp:77] Creating layer scale4b_branch2b
I0328 19:41:59.185569 13194 net.cpp:86] Creating Layer scale4b_branch2b
I0328 19:41:59.185575 13194 net.cpp:408] scale4b_branch2b <- res4b_branch2b
I0328 19:41:59.185588 13194 net.cpp:369] scale4b_branch2b -> res4b_branch2b (in-place)
I0328 19:41:59.185631 13194 layer_factory.hpp:77] Creating layer scale4b_branch2b
I0328 19:41:59.185735 13194 net.cpp:124] Setting up scale4b_branch2b
I0328 19:41:59.185742 13194 net.cpp:131] Top shape: 32 256 14 14 (1605632)
I0328 19:41:59.185745 13194 net.cpp:139] Memory required for data: 2170814592
I0328 19:41:59.185751 13194 layer_factory.hpp:77] Creating layer res4b
I0328 19:41:59.185758 13194 net.cpp:86] Creating Layer res4b
I0328 19:41:59.185761 13194 net.cpp:408] res4b <- res4a_res4a_relu_0_split_1
I0328 19:41:59.185765 13194 net.cpp:408] res4b <- res4b_branch2b
I0328 19:41:59.185770 13194 net.cpp:382] res4b -> res4b
I0328 19:41:59.185793 13194 net.cpp:124] Setting up res4b
I0328 19:41:59.185798 13194 net.cpp:131] Top shape: 32 256 14 14 (1605632)
I0328 19:41:59.185801 13194 net.cpp:139] Memory required for data: 2177237120
I0328 19:41:59.185804 13194 layer_factory.hpp:77] Creating layer res4b_relu
I0328 19:41:59.185808 13194 net.cpp:86] Creating Layer res4b_relu
I0328 19:41:59.185811 13194 net.cpp:408] res4b_relu <- res4b
I0328 19:41:59.185817 13194 net.cpp:369] res4b_relu -> res4b (in-place)
I0328 19:41:59.186401 13194 net.cpp:124] Setting up res4b_relu
I0328 19:41:59.186411 13194 net.cpp:131] Top shape: 32 256 14 14 (1605632)
I0328 19:41:59.186414 13194 net.cpp:139] Memory required for data: 2183659648
I0328 19:41:59.186417 13194 layer_factory.hpp:77] Creating layer res4b_res4b_relu_0_split
I0328 19:41:59.186424 13194 net.cpp:86] Creating Layer res4b_res4b_relu_0_split
I0328 19:41:59.186426 13194 net.cpp:408] res4b_res4b_relu_0_split <- res4b
I0328 19:41:59.186432 13194 net.cpp:382] res4b_res4b_relu_0_split -> res4b_res4b_relu_0_split_0
I0328 19:41:59.186439 13194 net.cpp:382] res4b_res4b_relu_0_split -> res4b_res4b_relu_0_split_1
I0328 19:41:59.186482 13194 net.cpp:124] Setting up res4b_res4b_relu_0_split
I0328 19:41:59.186488 13194 net.cpp:131] Top shape: 32 256 14 14 (1605632)
I0328 19:41:59.186491 13194 net.cpp:131] Top shape: 32 256 14 14 (1605632)
I0328 19:41:59.186494 13194 net.cpp:139] Memory required for data: 2196504704
I0328 19:41:59.186497 13194 layer_factory.hpp:77] Creating layer res4c_branch2a
I0328 19:41:59.186506 13194 net.cpp:86] Creating Layer res4c_branch2a
I0328 19:41:59.186508 13194 net.cpp:408] res4c_branch2a <- res4b_res4b_relu_0_split_0
I0328 19:41:59.186513 13194 net.cpp:382] res4c_branch2a -> res4c_branch2a
I0328 19:41:59.193445 13194 net.cpp:124] Setting up res4c_branch2a
I0328 19:41:59.193456 13194 net.cpp:131] Top shape: 32 256 14 14 (1605632)
I0328 19:41:59.193459 13194 net.cpp:139] Memory required for data: 2202927232
I0328 19:41:59.193465 13194 layer_factory.hpp:77] Creating layer bn4c_branch2a
I0328 19:41:59.193473 13194 net.cpp:86] Creating Layer bn4c_branch2a
I0328 19:41:59.193476 13194 net.cpp:408] bn4c_branch2a <- res4c_branch2a
I0328 19:41:59.193481 13194 net.cpp:369] bn4c_branch2a -> res4c_branch2a (in-place)
I0328 19:41:59.193667 13194 net.cpp:124] Setting up bn4c_branch2a
I0328 19:41:59.193673 13194 net.cpp:131] Top shape: 32 256 14 14 (1605632)
I0328 19:41:59.193676 13194 net.cpp:139] Memory required for data: 2209349760
I0328 19:41:59.193682 13194 layer_factory.hpp:77] Creating layer scale4c_branch2a
I0328 19:41:59.193687 13194 net.cpp:86] Creating Layer scale4c_branch2a
I0328 19:41:59.193691 13194 net.cpp:408] scale4c_branch2a <- res4c_branch2a
I0328 19:41:59.193694 13194 net.cpp:369] scale4c_branch2a -> res4c_branch2a (in-place)
I0328 19:41:59.193733 13194 layer_factory.hpp:77] Creating layer scale4c_branch2a
I0328 19:41:59.193840 13194 net.cpp:124] Setting up scale4c_branch2a
I0328 19:41:59.193845 13194 net.cpp:131] Top shape: 32 256 14 14 (1605632)
I0328 19:41:59.193848 13194 net.cpp:139] Memory required for data: 2215772288
I0328 19:41:59.193852 13194 layer_factory.hpp:77] Creating layer res4c_branch2a_relu
I0328 19:41:59.193857 13194 net.cpp:86] Creating Layer res4c_branch2a_relu
I0328 19:41:59.193863 13194 net.cpp:408] res4c_branch2a_relu <- res4c_branch2a
I0328 19:41:59.193879 13194 net.cpp:369] res4c_branch2a_relu -> res4c_branch2a (in-place)
I0328 19:41:59.194319 13194 net.cpp:124] Setting up res4c_branch2a_relu
I0328 19:41:59.194327 13194 net.cpp:131] Top shape: 32 256 14 14 (1605632)
I0328 19:41:59.194331 13194 net.cpp:139] Memory required for data: 2222194816
I0328 19:41:59.194334 13194 layer_factory.hpp:77] Creating layer res4c_branch2b
I0328 19:41:59.194342 13194 net.cpp:86] Creating Layer res4c_branch2b
I0328 19:41:59.194345 13194 net.cpp:408] res4c_branch2b <- res4c_branch2a
I0328 19:41:59.194351 13194 net.cpp:382] res4c_branch2b -> res4c_branch2b
I0328 19:41:59.201547 13194 net.cpp:124] Setting up res4c_branch2b
I0328 19:41:59.201560 13194 net.cpp:131] Top shape: 32 256 14 14 (1605632)
I0328 19:41:59.201562 13194 net.cpp:139] Memory required for data: 2228617344
I0328 19:41:59.201570 13194 layer_factory.hpp:77] Creating layer bn4c_branch2b
I0328 19:41:59.201577 13194 net.cpp:86] Creating Layer bn4c_branch2b
I0328 19:41:59.201581 13194 net.cpp:408] bn4c_branch2b <- res4c_branch2b
I0328 19:41:59.201586 13194 net.cpp:369] bn4c_branch2b -> res4c_branch2b (in-place)
I0328 19:41:59.201773 13194 net.cpp:124] Setting up bn4c_branch2b
I0328 19:41:59.201778 13194 net.cpp:131] Top shape: 32 256 14 14 (1605632)
I0328 19:41:59.201781 13194 net.cpp:139] Memory required for data: 2235039872
I0328 19:41:59.201786 13194 layer_factory.hpp:77] Creating layer scale4c_branch2b
I0328 19:41:59.201792 13194 net.cpp:86] Creating Layer scale4c_branch2b
I0328 19:41:59.201794 13194 net.cpp:408] scale4c_branch2b <- res4c_branch2b
I0328 19:41:59.201800 13194 net.cpp:369] scale4c_branch2b -> res4c_branch2b (in-place)
I0328 19:41:59.201835 13194 layer_factory.hpp:77] Creating layer scale4c_branch2b
I0328 19:41:59.201943 13194 net.cpp:124] Setting up scale4c_branch2b
I0328 19:41:59.201951 13194 net.cpp:131] Top shape: 32 256 14 14 (1605632)
I0328 19:41:59.201953 13194 net.cpp:139] Memory required for data: 2241462400
I0328 19:41:59.201957 13194 layer_factory.hpp:77] Creating layer res4c
I0328 19:41:59.201964 13194 net.cpp:86] Creating Layer res4c
I0328 19:41:59.201967 13194 net.cpp:408] res4c <- res4b_res4b_relu_0_split_1
I0328 19:41:59.201970 13194 net.cpp:408] res4c <- res4c_branch2b
I0328 19:41:59.201974 13194 net.cpp:382] res4c -> res4c
I0328 19:41:59.202000 13194 net.cpp:124] Setting up res4c
I0328 19:41:59.202005 13194 net.cpp:131] Top shape: 32 256 14 14 (1605632)
I0328 19:41:59.202008 13194 net.cpp:139] Memory required for data: 2247884928
I0328 19:41:59.202010 13194 layer_factory.hpp:77] Creating layer res4c_relu
I0328 19:41:59.202016 13194 net.cpp:86] Creating Layer res4c_relu
I0328 19:41:59.202019 13194 net.cpp:408] res4c_relu <- res4c
I0328 19:41:59.202023 13194 net.cpp:369] res4c_relu -> res4c (in-place)
I0328 19:41:59.202459 13194 net.cpp:124] Setting up res4c_relu
I0328 19:41:59.202468 13194 net.cpp:131] Top shape: 32 256 14 14 (1605632)
I0328 19:41:59.202471 13194 net.cpp:139] Memory required for data: 2254307456
I0328 19:41:59.202476 13194 layer_factory.hpp:77] Creating layer res4c_res4c_relu_0_split
I0328 19:41:59.202484 13194 net.cpp:86] Creating Layer res4c_res4c_relu_0_split
I0328 19:41:59.202487 13194 net.cpp:408] res4c_res4c_relu_0_split <- res4c
I0328 19:41:59.202492 13194 net.cpp:382] res4c_res4c_relu_0_split -> res4c_res4c_relu_0_split_0
I0328 19:41:59.202498 13194 net.cpp:382] res4c_res4c_relu_0_split -> res4c_res4c_relu_0_split_1
I0328 19:41:59.202540 13194 net.cpp:124] Setting up res4c_res4c_relu_0_split
I0328 19:41:59.202546 13194 net.cpp:131] Top shape: 32 256 14 14 (1605632)
I0328 19:41:59.202549 13194 net.cpp:131] Top shape: 32 256 14 14 (1605632)
I0328 19:41:59.202553 13194 net.cpp:139] Memory required for data: 2267152512
I0328 19:41:59.202554 13194 layer_factory.hpp:77] Creating layer res4d_branch2a
I0328 19:41:59.202564 13194 net.cpp:86] Creating Layer res4d_branch2a
I0328 19:41:59.202566 13194 net.cpp:408] res4d_branch2a <- res4c_res4c_relu_0_split_0
I0328 19:41:59.202576 13194 net.cpp:382] res4d_branch2a -> res4d_branch2a
I0328 19:41:59.209486 13194 net.cpp:124] Setting up res4d_branch2a
I0328 19:41:59.209499 13194 net.cpp:131] Top shape: 32 256 14 14 (1605632)
I0328 19:41:59.209502 13194 net.cpp:139] Memory required for data: 2273575040
I0328 19:41:59.209507 13194 layer_factory.hpp:77] Creating layer bn4d_branch2a
I0328 19:41:59.209513 13194 net.cpp:86] Creating Layer bn4d_branch2a
I0328 19:41:59.209517 13194 net.cpp:408] bn4d_branch2a <- res4d_branch2a
I0328 19:41:59.209522 13194 net.cpp:369] bn4d_branch2a -> res4d_branch2a (in-place)
I0328 19:41:59.209712 13194 net.cpp:124] Setting up bn4d_branch2a
I0328 19:41:59.209718 13194 net.cpp:131] Top shape: 32 256 14 14 (1605632)
I0328 19:41:59.209722 13194 net.cpp:139] Memory required for data: 2279997568
I0328 19:41:59.209728 13194 layer_factory.hpp:77] Creating layer scale4d_branch2a
I0328 19:41:59.209733 13194 net.cpp:86] Creating Layer scale4d_branch2a
I0328 19:41:59.209735 13194 net.cpp:408] scale4d_branch2a <- res4d_branch2a
I0328 19:41:59.209739 13194 net.cpp:369] scale4d_branch2a -> res4d_branch2a (in-place)
I0328 19:41:59.209777 13194 layer_factory.hpp:77] Creating layer scale4d_branch2a
I0328 19:41:59.209883 13194 net.cpp:124] Setting up scale4d_branch2a
I0328 19:41:59.209889 13194 net.cpp:131] Top shape: 32 256 14 14 (1605632)
I0328 19:41:59.209892 13194 net.cpp:139] Memory required for data: 2286420096
I0328 19:41:59.209898 13194 layer_factory.hpp:77] Creating layer res4d_branch2a_relu
I0328 19:41:59.209903 13194 net.cpp:86] Creating Layer res4d_branch2a_relu
I0328 19:41:59.209906 13194 net.cpp:408] res4d_branch2a_relu <- res4d_branch2a
I0328 19:41:59.209911 13194 net.cpp:369] res4d_branch2a_relu -> res4d_branch2a (in-place)
I0328 19:41:59.210489 13194 net.cpp:124] Setting up res4d_branch2a_relu
I0328 19:41:59.210500 13194 net.cpp:131] Top shape: 32 256 14 14 (1605632)
I0328 19:41:59.210502 13194 net.cpp:139] Memory required for data: 2292842624
I0328 19:41:59.210505 13194 layer_factory.hpp:77] Creating layer res4d_branch2b
I0328 19:41:59.210515 13194 net.cpp:86] Creating Layer res4d_branch2b
I0328 19:41:59.210517 13194 net.cpp:408] res4d_branch2b <- res4d_branch2a
I0328 19:41:59.210523 13194 net.cpp:382] res4d_branch2b -> res4d_branch2b
I0328 19:41:59.217443 13194 net.cpp:124] Setting up res4d_branch2b
I0328 19:41:59.217454 13194 net.cpp:131] Top shape: 32 256 14 14 (1605632)
I0328 19:41:59.217458 13194 net.cpp:139] Memory required for data: 2299265152
I0328 19:41:59.217463 13194 layer_factory.hpp:77] Creating layer bn4d_branch2b
I0328 19:41:59.217470 13194 net.cpp:86] Creating Layer bn4d_branch2b
I0328 19:41:59.217473 13194 net.cpp:408] bn4d_branch2b <- res4d_branch2b
I0328 19:41:59.217478 13194 net.cpp:369] bn4d_branch2b -> res4d_branch2b (in-place)
I0328 19:41:59.217674 13194 net.cpp:124] Setting up bn4d_branch2b
I0328 19:41:59.217679 13194 net.cpp:131] Top shape: 32 256 14 14 (1605632)
I0328 19:41:59.217682 13194 net.cpp:139] Memory required for data: 2305687680
I0328 19:41:59.217689 13194 layer_factory.hpp:77] Creating layer scale4d_branch2b
I0328 19:41:59.217694 13194 net.cpp:86] Creating Layer scale4d_branch2b
I0328 19:41:59.217697 13194 net.cpp:408] scale4d_branch2b <- res4d_branch2b
I0328 19:41:59.217701 13194 net.cpp:369] scale4d_branch2b -> res4d_branch2b (in-place)
I0328 19:41:59.217741 13194 layer_factory.hpp:77] Creating layer scale4d_branch2b
I0328 19:41:59.217854 13194 net.cpp:124] Setting up scale4d_branch2b
I0328 19:41:59.217859 13194 net.cpp:131] Top shape: 32 256 14 14 (1605632)
I0328 19:41:59.217862 13194 net.cpp:139] Memory required for data: 2312110208
I0328 19:41:59.217866 13194 layer_factory.hpp:77] Creating layer res4d
I0328 19:41:59.217872 13194 net.cpp:86] Creating Layer res4d
I0328 19:41:59.217876 13194 net.cpp:408] res4d <- res4c_res4c_relu_0_split_1
I0328 19:41:59.217880 13194 net.cpp:408] res4d <- res4d_branch2b
I0328 19:41:59.217885 13194 net.cpp:382] res4d -> res4d
I0328 19:41:59.217909 13194 net.cpp:124] Setting up res4d
I0328 19:41:59.217914 13194 net.cpp:131] Top shape: 32 256 14 14 (1605632)
I0328 19:41:59.217921 13194 net.cpp:139] Memory required for data: 2318532736
I0328 19:41:59.217933 13194 layer_factory.hpp:77] Creating layer res4d_relu
I0328 19:41:59.217939 13194 net.cpp:86] Creating Layer res4d_relu
I0328 19:41:59.217943 13194 net.cpp:408] res4d_relu <- res4d
I0328 19:41:59.217947 13194 net.cpp:369] res4d_relu -> res4d (in-place)
I0328 19:41:59.218389 13194 net.cpp:124] Setting up res4d_relu
I0328 19:41:59.218396 13194 net.cpp:131] Top shape: 32 256 14 14 (1605632)
I0328 19:41:59.218400 13194 net.cpp:139] Memory required for data: 2324955264
I0328 19:41:59.218402 13194 layer_factory.hpp:77] Creating layer res4d_res4d_relu_0_split
I0328 19:41:59.218410 13194 net.cpp:86] Creating Layer res4d_res4d_relu_0_split
I0328 19:41:59.218412 13194 net.cpp:408] res4d_res4d_relu_0_split <- res4d
I0328 19:41:59.218416 13194 net.cpp:382] res4d_res4d_relu_0_split -> res4d_res4d_relu_0_split_0
I0328 19:41:59.218425 13194 net.cpp:382] res4d_res4d_relu_0_split -> res4d_res4d_relu_0_split_1
I0328 19:41:59.218467 13194 net.cpp:124] Setting up res4d_res4d_relu_0_split
I0328 19:41:59.218473 13194 net.cpp:131] Top shape: 32 256 14 14 (1605632)
I0328 19:41:59.218477 13194 net.cpp:131] Top shape: 32 256 14 14 (1605632)
I0328 19:41:59.218479 13194 net.cpp:139] Memory required for data: 2337800320
I0328 19:41:59.218482 13194 layer_factory.hpp:77] Creating layer res4e_branch2a
I0328 19:41:59.218492 13194 net.cpp:86] Creating Layer res4e_branch2a
I0328 19:41:59.218495 13194 net.cpp:408] res4e_branch2a <- res4d_res4d_relu_0_split_0
I0328 19:41:59.218502 13194 net.cpp:382] res4e_branch2a -> res4e_branch2a
I0328 19:41:59.225432 13194 net.cpp:124] Setting up res4e_branch2a
I0328 19:41:59.225443 13194 net.cpp:131] Top shape: 32 256 14 14 (1605632)
I0328 19:41:59.225446 13194 net.cpp:139] Memory required for data: 2344222848
I0328 19:41:59.225451 13194 layer_factory.hpp:77] Creating layer bn4e_branch2a
I0328 19:41:59.225459 13194 net.cpp:86] Creating Layer bn4e_branch2a
I0328 19:41:59.225462 13194 net.cpp:408] bn4e_branch2a <- res4e_branch2a
I0328 19:41:59.225468 13194 net.cpp:369] bn4e_branch2a -> res4e_branch2a (in-place)
I0328 19:41:59.225663 13194 net.cpp:124] Setting up bn4e_branch2a
I0328 19:41:59.225669 13194 net.cpp:131] Top shape: 32 256 14 14 (1605632)
I0328 19:41:59.225672 13194 net.cpp:139] Memory required for data: 2350645376
I0328 19:41:59.225678 13194 layer_factory.hpp:77] Creating layer scale4e_branch2a
I0328 19:41:59.225709 13194 net.cpp:86] Creating Layer scale4e_branch2a
I0328 19:41:59.225713 13194 net.cpp:408] scale4e_branch2a <- res4e_branch2a
I0328 19:41:59.225716 13194 net.cpp:369] scale4e_branch2a -> res4e_branch2a (in-place)
I0328 19:41:59.225755 13194 layer_factory.hpp:77] Creating layer scale4e_branch2a
I0328 19:41:59.225865 13194 net.cpp:124] Setting up scale4e_branch2a
I0328 19:41:59.225872 13194 net.cpp:131] Top shape: 32 256 14 14 (1605632)
I0328 19:41:59.225874 13194 net.cpp:139] Memory required for data: 2357067904
I0328 19:41:59.225880 13194 layer_factory.hpp:77] Creating layer res4e_branch2a_relu
I0328 19:41:59.225884 13194 net.cpp:86] Creating Layer res4e_branch2a_relu
I0328 19:41:59.225888 13194 net.cpp:408] res4e_branch2a_relu <- res4e_branch2a
I0328 19:41:59.225891 13194 net.cpp:369] res4e_branch2a_relu -> res4e_branch2a (in-place)
I0328 19:41:59.226469 13194 net.cpp:124] Setting up res4e_branch2a_relu
I0328 19:41:59.226480 13194 net.cpp:131] Top shape: 32 256 14 14 (1605632)
I0328 19:41:59.226482 13194 net.cpp:139] Memory required for data: 2363490432
I0328 19:41:59.226487 13194 layer_factory.hpp:77] Creating layer res4e_branch2b
I0328 19:41:59.226496 13194 net.cpp:86] Creating Layer res4e_branch2b
I0328 19:41:59.226500 13194 net.cpp:408] res4e_branch2b <- res4e_branch2a
I0328 19:41:59.226505 13194 net.cpp:382] res4e_branch2b -> res4e_branch2b
I0328 19:41:59.233458 13194 net.cpp:124] Setting up res4e_branch2b
I0328 19:41:59.233469 13194 net.cpp:131] Top shape: 32 256 14 14 (1605632)
I0328 19:41:59.233472 13194 net.cpp:139] Memory required for data: 2369912960
I0328 19:41:59.233477 13194 layer_factory.hpp:77] Creating layer bn4e_branch2b
I0328 19:41:59.233497 13194 net.cpp:86] Creating Layer bn4e_branch2b
I0328 19:41:59.233501 13194 net.cpp:408] bn4e_branch2b <- res4e_branch2b
I0328 19:41:59.233506 13194 net.cpp:369] bn4e_branch2b -> res4e_branch2b (in-place)
I0328 19:41:59.233705 13194 net.cpp:124] Setting up bn4e_branch2b
I0328 19:41:59.233711 13194 net.cpp:131] Top shape: 32 256 14 14 (1605632)
I0328 19:41:59.233716 13194 net.cpp:139] Memory required for data: 2376335488
I0328 19:41:59.233721 13194 layer_factory.hpp:77] Creating layer scale4e_branch2b
I0328 19:41:59.233726 13194 net.cpp:86] Creating Layer scale4e_branch2b
I0328 19:41:59.233728 13194 net.cpp:408] scale4e_branch2b <- res4e_branch2b
I0328 19:41:59.233732 13194 net.cpp:369] scale4e_branch2b -> res4e_branch2b (in-place)
I0328 19:41:59.233773 13194 layer_factory.hpp:77] Creating layer scale4e_branch2b
I0328 19:41:59.233884 13194 net.cpp:124] Setting up scale4e_branch2b
I0328 19:41:59.233891 13194 net.cpp:131] Top shape: 32 256 14 14 (1605632)
I0328 19:41:59.233893 13194 net.cpp:139] Memory required for data: 2382758016
I0328 19:41:59.233897 13194 layer_factory.hpp:77] Creating layer res4e
I0328 19:41:59.233903 13194 net.cpp:86] Creating Layer res4e
I0328 19:41:59.233906 13194 net.cpp:408] res4e <- res4d_res4d_relu_0_split_1
I0328 19:41:59.233911 13194 net.cpp:408] res4e <- res4e_branch2b
I0328 19:41:59.233917 13194 net.cpp:382] res4e -> res4e
I0328 19:41:59.233942 13194 net.cpp:124] Setting up res4e
I0328 19:41:59.233947 13194 net.cpp:131] Top shape: 32 256 14 14 (1605632)
I0328 19:41:59.233949 13194 net.cpp:139] Memory required for data: 2389180544
I0328 19:41:59.233953 13194 layer_factory.hpp:77] Creating layer res4e_relu
I0328 19:41:59.233961 13194 net.cpp:86] Creating Layer res4e_relu
I0328 19:41:59.233964 13194 net.cpp:408] res4e_relu <- res4e
I0328 19:41:59.233968 13194 net.cpp:369] res4e_relu -> res4e (in-place)
I0328 19:41:59.234403 13194 net.cpp:124] Setting up res4e_relu
I0328 19:41:59.234411 13194 net.cpp:131] Top shape: 32 256 14 14 (1605632)
I0328 19:41:59.234414 13194 net.cpp:139] Memory required for data: 2395603072
I0328 19:41:59.234417 13194 layer_factory.hpp:77] Creating layer res4e_res4e_relu_0_split
I0328 19:41:59.234423 13194 net.cpp:86] Creating Layer res4e_res4e_relu_0_split
I0328 19:41:59.234426 13194 net.cpp:408] res4e_res4e_relu_0_split <- res4e
I0328 19:41:59.234431 13194 net.cpp:382] res4e_res4e_relu_0_split -> res4e_res4e_relu_0_split_0
I0328 19:41:59.234438 13194 net.cpp:382] res4e_res4e_relu_0_split -> res4e_res4e_relu_0_split_1
I0328 19:41:59.234481 13194 net.cpp:124] Setting up res4e_res4e_relu_0_split
I0328 19:41:59.234486 13194 net.cpp:131] Top shape: 32 256 14 14 (1605632)
I0328 19:41:59.234490 13194 net.cpp:131] Top shape: 32 256 14 14 (1605632)
I0328 19:41:59.234493 13194 net.cpp:139] Memory required for data: 2408448128
I0328 19:41:59.234495 13194 layer_factory.hpp:77] Creating layer res4f_branch2a
I0328 19:41:59.234504 13194 net.cpp:86] Creating Layer res4f_branch2a
I0328 19:41:59.234506 13194 net.cpp:408] res4f_branch2a <- res4e_res4e_relu_0_split_0
I0328 19:41:59.234513 13194 net.cpp:382] res4f_branch2a -> res4f_branch2a
I0328 19:41:59.241559 13194 net.cpp:124] Setting up res4f_branch2a
I0328 19:41:59.241571 13194 net.cpp:131] Top shape: 32 256 14 14 (1605632)
I0328 19:41:59.241575 13194 net.cpp:139] Memory required for data: 2414870656
I0328 19:41:59.241580 13194 layer_factory.hpp:77] Creating layer bn4f_branch2a
I0328 19:41:59.241585 13194 net.cpp:86] Creating Layer bn4f_branch2a
I0328 19:41:59.241588 13194 net.cpp:408] bn4f_branch2a <- res4f_branch2a
I0328 19:41:59.241595 13194 net.cpp:369] bn4f_branch2a -> res4f_branch2a (in-place)
I0328 19:41:59.241791 13194 net.cpp:124] Setting up bn4f_branch2a
I0328 19:41:59.241796 13194 net.cpp:131] Top shape: 32 256 14 14 (1605632)
I0328 19:41:59.241799 13194 net.cpp:139] Memory required for data: 2421293184
I0328 19:41:59.241806 13194 layer_factory.hpp:77] Creating layer scale4f_branch2a
I0328 19:41:59.241811 13194 net.cpp:86] Creating Layer scale4f_branch2a
I0328 19:41:59.241819 13194 net.cpp:408] scale4f_branch2a <- res4f_branch2a
I0328 19:41:59.241832 13194 net.cpp:369] scale4f_branch2a -> res4f_branch2a (in-place)
I0328 19:41:59.241875 13194 layer_factory.hpp:77] Creating layer scale4f_branch2a
I0328 19:41:59.241987 13194 net.cpp:124] Setting up scale4f_branch2a
I0328 19:41:59.241993 13194 net.cpp:131] Top shape: 32 256 14 14 (1605632)
I0328 19:41:59.241997 13194 net.cpp:139] Memory required for data: 2427715712
I0328 19:41:59.242000 13194 layer_factory.hpp:77] Creating layer res4f_branch2a_relu
I0328 19:41:59.242005 13194 net.cpp:86] Creating Layer res4f_branch2a_relu
I0328 19:41:59.242008 13194 net.cpp:408] res4f_branch2a_relu <- res4f_branch2a
I0328 19:41:59.242013 13194 net.cpp:369] res4f_branch2a_relu -> res4f_branch2a (in-place)
I0328 19:41:59.242455 13194 net.cpp:124] Setting up res4f_branch2a_relu
I0328 19:41:59.242465 13194 net.cpp:131] Top shape: 32 256 14 14 (1605632)
I0328 19:41:59.242467 13194 net.cpp:139] Memory required for data: 2434138240
I0328 19:41:59.242470 13194 layer_factory.hpp:77] Creating layer res4f_branch2b
I0328 19:41:59.242478 13194 net.cpp:86] Creating Layer res4f_branch2b
I0328 19:41:59.242482 13194 net.cpp:408] res4f_branch2b <- res4f_branch2a
I0328 19:41:59.242487 13194 net.cpp:382] res4f_branch2b -> res4f_branch2b
I0328 19:41:59.249433 13194 net.cpp:124] Setting up res4f_branch2b
I0328 19:41:59.249444 13194 net.cpp:131] Top shape: 32 256 14 14 (1605632)
I0328 19:41:59.249446 13194 net.cpp:139] Memory required for data: 2440560768
I0328 19:41:59.249451 13194 layer_factory.hpp:77] Creating layer bn4f_branch2b
I0328 19:41:59.249459 13194 net.cpp:86] Creating Layer bn4f_branch2b
I0328 19:41:59.249464 13194 net.cpp:408] bn4f_branch2b <- res4f_branch2b
I0328 19:41:59.249469 13194 net.cpp:369] bn4f_branch2b -> res4f_branch2b (in-place)
I0328 19:41:59.249667 13194 net.cpp:124] Setting up bn4f_branch2b
I0328 19:41:59.249673 13194 net.cpp:131] Top shape: 32 256 14 14 (1605632)
I0328 19:41:59.249675 13194 net.cpp:139] Memory required for data: 2446983296
I0328 19:41:59.249683 13194 layer_factory.hpp:77] Creating layer scale4f_branch2b
I0328 19:41:59.249691 13194 net.cpp:86] Creating Layer scale4f_branch2b
I0328 19:41:59.249693 13194 net.cpp:408] scale4f_branch2b <- res4f_branch2b
I0328 19:41:59.249697 13194 net.cpp:369] scale4f_branch2b -> res4f_branch2b (in-place)
I0328 19:41:59.249737 13194 layer_factory.hpp:77] Creating layer scale4f_branch2b
I0328 19:41:59.249846 13194 net.cpp:124] Setting up scale4f_branch2b
I0328 19:41:59.249852 13194 net.cpp:131] Top shape: 32 256 14 14 (1605632)
I0328 19:41:59.249855 13194 net.cpp:139] Memory required for data: 2453405824
I0328 19:41:59.249861 13194 layer_factory.hpp:77] Creating layer res4f
I0328 19:41:59.249866 13194 net.cpp:86] Creating Layer res4f
I0328 19:41:59.249869 13194 net.cpp:408] res4f <- res4e_res4e_relu_0_split_1
I0328 19:41:59.249872 13194 net.cpp:408] res4f <- res4f_branch2b
I0328 19:41:59.249878 13194 net.cpp:382] res4f -> res4f
I0328 19:41:59.249903 13194 net.cpp:124] Setting up res4f
I0328 19:41:59.249908 13194 net.cpp:131] Top shape: 32 256 14 14 (1605632)
I0328 19:41:59.249912 13194 net.cpp:139] Memory required for data: 2459828352
I0328 19:41:59.249914 13194 layer_factory.hpp:77] Creating layer res4f_relu
I0328 19:41:59.249918 13194 net.cpp:86] Creating Layer res4f_relu
I0328 19:41:59.249922 13194 net.cpp:408] res4f_relu <- res4f
I0328 19:41:59.249924 13194 net.cpp:369] res4f_relu -> res4f (in-place)
I0328 19:41:59.250360 13194 net.cpp:124] Setting up res4f_relu
I0328 19:41:59.250367 13194 net.cpp:131] Top shape: 32 256 14 14 (1605632)
I0328 19:41:59.250372 13194 net.cpp:139] Memory required for data: 2466250880
I0328 19:41:59.250375 13194 layer_factory.hpp:77] Creating layer res4f_res4f_relu_0_split
I0328 19:41:59.250381 13194 net.cpp:86] Creating Layer res4f_res4f_relu_0_split
I0328 19:41:59.250385 13194 net.cpp:408] res4f_res4f_relu_0_split <- res4f
I0328 19:41:59.250388 13194 net.cpp:382] res4f_res4f_relu_0_split -> res4f_res4f_relu_0_split_0
I0328 19:41:59.250396 13194 net.cpp:382] res4f_res4f_relu_0_split -> res4f_res4f_relu_0_split_1
I0328 19:41:59.250452 13194 net.cpp:124] Setting up res4f_res4f_relu_0_split
I0328 19:41:59.250458 13194 net.cpp:131] Top shape: 32 256 14 14 (1605632)
I0328 19:41:59.250460 13194 net.cpp:131] Top shape: 32 256 14 14 (1605632)
I0328 19:41:59.250463 13194 net.cpp:139] Memory required for data: 2479095936
I0328 19:41:59.250468 13194 layer_factory.hpp:77] Creating layer res5a_branch1
I0328 19:41:59.250478 13194 net.cpp:86] Creating Layer res5a_branch1
I0328 19:41:59.250480 13194 net.cpp:408] res5a_branch1 <- res4f_res4f_relu_0_split_0
I0328 19:41:59.250486 13194 net.cpp:382] res5a_branch1 -> res5a_branch1
I0328 19:41:59.253329 13194 net.cpp:124] Setting up res5a_branch1
I0328 19:41:59.253341 13194 net.cpp:131] Top shape: 32 512 7 7 (802816)
I0328 19:41:59.253345 13194 net.cpp:139] Memory required for data: 2482307200
I0328 19:41:59.253350 13194 layer_factory.hpp:77] Creating layer bn5a_branch1
I0328 19:41:59.253355 13194 net.cpp:86] Creating Layer bn5a_branch1
I0328 19:41:59.253358 13194 net.cpp:408] bn5a_branch1 <- res5a_branch1
I0328 19:41:59.253362 13194 net.cpp:369] bn5a_branch1 -> res5a_branch1 (in-place)
I0328 19:41:59.253585 13194 net.cpp:124] Setting up bn5a_branch1
I0328 19:41:59.253592 13194 net.cpp:131] Top shape: 32 512 7 7 (802816)
I0328 19:41:59.253594 13194 net.cpp:139] Memory required for data: 2485518464
I0328 19:41:59.253600 13194 layer_factory.hpp:77] Creating layer scale5a_branch1
I0328 19:41:59.253605 13194 net.cpp:86] Creating Layer scale5a_branch1
I0328 19:41:59.253608 13194 net.cpp:408] scale5a_branch1 <- res5a_branch1
I0328 19:41:59.253612 13194 net.cpp:369] scale5a_branch1 -> res5a_branch1 (in-place)
I0328 19:41:59.253650 13194 layer_factory.hpp:77] Creating layer scale5a_branch1
I0328 19:41:59.253765 13194 net.cpp:124] Setting up scale5a_branch1
I0328 19:41:59.253772 13194 net.cpp:131] Top shape: 32 512 7 7 (802816)
I0328 19:41:59.253775 13194 net.cpp:139] Memory required for data: 2488729728
I0328 19:41:59.253779 13194 layer_factory.hpp:77] Creating layer res5a_branch2a
I0328 19:41:59.253788 13194 net.cpp:86] Creating Layer res5a_branch2a
I0328 19:41:59.253792 13194 net.cpp:408] res5a_branch2a <- res4f_res4f_relu_0_split_1
I0328 19:41:59.253798 13194 net.cpp:382] res5a_branch2a -> res5a_branch2a
I0328 19:41:59.265811 13194 net.cpp:124] Setting up res5a_branch2a
I0328 19:41:59.265825 13194 net.cpp:131] Top shape: 32 512 7 7 (802816)
I0328 19:41:59.265828 13194 net.cpp:139] Memory required for data: 2491940992
I0328 19:41:59.265835 13194 layer_factory.hpp:77] Creating layer bn5a_branch2a
I0328 19:41:59.265841 13194 net.cpp:86] Creating Layer bn5a_branch2a
I0328 19:41:59.265844 13194 net.cpp:408] bn5a_branch2a <- res5a_branch2a
I0328 19:41:59.265851 13194 net.cpp:369] bn5a_branch2a -> res5a_branch2a (in-place)
I0328 19:41:59.266054 13194 net.cpp:124] Setting up bn5a_branch2a
I0328 19:41:59.266060 13194 net.cpp:131] Top shape: 32 512 7 7 (802816)
I0328 19:41:59.266063 13194 net.cpp:139] Memory required for data: 2495152256
I0328 19:41:59.266069 13194 layer_factory.hpp:77] Creating layer scale5a_branch2a
I0328 19:41:59.266077 13194 net.cpp:86] Creating Layer scale5a_branch2a
I0328 19:41:59.266080 13194 net.cpp:408] scale5a_branch2a <- res5a_branch2a
I0328 19:41:59.266084 13194 net.cpp:369] scale5a_branch2a -> res5a_branch2a (in-place)
I0328 19:41:59.266122 13194 layer_factory.hpp:77] Creating layer scale5a_branch2a
I0328 19:41:59.266240 13194 net.cpp:124] Setting up scale5a_branch2a
I0328 19:41:59.266247 13194 net.cpp:131] Top shape: 32 512 7 7 (802816)
I0328 19:41:59.266248 13194 net.cpp:139] Memory required for data: 2498363520
I0328 19:41:59.266253 13194 layer_factory.hpp:77] Creating layer res5a_branch2a_relu
I0328 19:41:59.266258 13194 net.cpp:86] Creating Layer res5a_branch2a_relu
I0328 19:41:59.266261 13194 net.cpp:408] res5a_branch2a_relu <- res5a_branch2a
I0328 19:41:59.266266 13194 net.cpp:369] res5a_branch2a_relu -> res5a_branch2a (in-place)
I0328 19:41:59.266710 13194 net.cpp:124] Setting up res5a_branch2a_relu
I0328 19:41:59.266718 13194 net.cpp:131] Top shape: 32 512 7 7 (802816)
I0328 19:41:59.266733 13194 net.cpp:139] Memory required for data: 2501574784
I0328 19:41:59.266736 13194 layer_factory.hpp:77] Creating layer res5a_branch2b
I0328 19:41:59.266747 13194 net.cpp:86] Creating Layer res5a_branch2b
I0328 19:41:59.266750 13194 net.cpp:408] res5a_branch2b <- res5a_branch2a
I0328 19:41:59.266757 13194 net.cpp:382] res5a_branch2b -> res5a_branch2b
I0328 19:41:59.289485 13194 net.cpp:124] Setting up res5a_branch2b
I0328 19:41:59.289505 13194 net.cpp:131] Top shape: 32 512 7 7 (802816)
I0328 19:41:59.289508 13194 net.cpp:139] Memory required for data: 2504786048
I0328 19:41:59.289515 13194 layer_factory.hpp:77] Creating layer bn5a_branch2b
I0328 19:41:59.289523 13194 net.cpp:86] Creating Layer bn5a_branch2b
I0328 19:41:59.289527 13194 net.cpp:408] bn5a_branch2b <- res5a_branch2b
I0328 19:41:59.289535 13194 net.cpp:369] bn5a_branch2b -> res5a_branch2b (in-place)
I0328 19:41:59.289748 13194 net.cpp:124] Setting up bn5a_branch2b
I0328 19:41:59.289754 13194 net.cpp:131] Top shape: 32 512 7 7 (802816)
I0328 19:41:59.289757 13194 net.cpp:139] Memory required for data: 2507997312
I0328 19:41:59.289763 13194 layer_factory.hpp:77] Creating layer scale5a_branch2b
I0328 19:41:59.289769 13194 net.cpp:86] Creating Layer scale5a_branch2b
I0328 19:41:59.289772 13194 net.cpp:408] scale5a_branch2b <- res5a_branch2b
I0328 19:41:59.289778 13194 net.cpp:369] scale5a_branch2b -> res5a_branch2b (in-place)
I0328 19:41:59.289818 13194 layer_factory.hpp:77] Creating layer scale5a_branch2b
I0328 19:41:59.289935 13194 net.cpp:124] Setting up scale5a_branch2b
I0328 19:41:59.289942 13194 net.cpp:131] Top shape: 32 512 7 7 (802816)
I0328 19:41:59.289945 13194 net.cpp:139] Memory required for data: 2511208576
I0328 19:41:59.289950 13194 layer_factory.hpp:77] Creating layer res5a
I0328 19:41:59.289958 13194 net.cpp:86] Creating Layer res5a
I0328 19:41:59.289960 13194 net.cpp:408] res5a <- res5a_branch1
I0328 19:41:59.289964 13194 net.cpp:408] res5a <- res5a_branch2b
I0328 19:41:59.289969 13194 net.cpp:382] res5a -> res5a
I0328 19:41:59.289995 13194 net.cpp:124] Setting up res5a
I0328 19:41:59.290000 13194 net.cpp:131] Top shape: 32 512 7 7 (802816)
I0328 19:41:59.290004 13194 net.cpp:139] Memory required for data: 2514419840
I0328 19:41:59.290006 13194 layer_factory.hpp:77] Creating layer res5a_relu
I0328 19:41:59.290011 13194 net.cpp:86] Creating Layer res5a_relu
I0328 19:41:59.290016 13194 net.cpp:408] res5a_relu <- res5a
I0328 19:41:59.290020 13194 net.cpp:369] res5a_relu -> res5a (in-place)
I0328 19:41:59.290467 13194 net.cpp:124] Setting up res5a_relu
I0328 19:41:59.290474 13194 net.cpp:131] Top shape: 32 512 7 7 (802816)
I0328 19:41:59.290477 13194 net.cpp:139] Memory required for data: 2517631104
I0328 19:41:59.290482 13194 layer_factory.hpp:77] Creating layer res5a_res5a_relu_0_split
I0328 19:41:59.290488 13194 net.cpp:86] Creating Layer res5a_res5a_relu_0_split
I0328 19:41:59.290490 13194 net.cpp:408] res5a_res5a_relu_0_split <- res5a
I0328 19:41:59.290496 13194 net.cpp:382] res5a_res5a_relu_0_split -> res5a_res5a_relu_0_split_0
I0328 19:41:59.290503 13194 net.cpp:382] res5a_res5a_relu_0_split -> res5a_res5a_relu_0_split_1
I0328 19:41:59.290549 13194 net.cpp:124] Setting up res5a_res5a_relu_0_split
I0328 19:41:59.290555 13194 net.cpp:131] Top shape: 32 512 7 7 (802816)
I0328 19:41:59.290558 13194 net.cpp:131] Top shape: 32 512 7 7 (802816)
I0328 19:41:59.290561 13194 net.cpp:139] Memory required for data: 2524053632
I0328 19:41:59.290563 13194 layer_factory.hpp:77] Creating layer res5b_branch2a
I0328 19:41:59.290573 13194 net.cpp:86] Creating Layer res5b_branch2a
I0328 19:41:59.290576 13194 net.cpp:408] res5b_branch2a <- res5a_res5a_relu_0_split_0
I0328 19:41:59.290583 13194 net.cpp:382] res5b_branch2a -> res5b_branch2a
I0328 19:41:59.312997 13194 net.cpp:124] Setting up res5b_branch2a
I0328 19:41:59.313017 13194 net.cpp:131] Top shape: 32 512 7 7 (802816)
I0328 19:41:59.313020 13194 net.cpp:139] Memory required for data: 2527264896
I0328 19:41:59.313027 13194 layer_factory.hpp:77] Creating layer bn5b_branch2a
I0328 19:41:59.313066 13194 net.cpp:86] Creating Layer bn5b_branch2a
I0328 19:41:59.313071 13194 net.cpp:408] bn5b_branch2a <- res5b_branch2a
I0328 19:41:59.313076 13194 net.cpp:369] bn5b_branch2a -> res5b_branch2a (in-place)
I0328 19:41:59.313293 13194 net.cpp:124] Setting up bn5b_branch2a
I0328 19:41:59.313300 13194 net.cpp:131] Top shape: 32 512 7 7 (802816)
I0328 19:41:59.313303 13194 net.cpp:139] Memory required for data: 2530476160
I0328 19:41:59.313310 13194 layer_factory.hpp:77] Creating layer scale5b_branch2a
I0328 19:41:59.313316 13194 net.cpp:86] Creating Layer scale5b_branch2a
I0328 19:41:59.313319 13194 net.cpp:408] scale5b_branch2a <- res5b_branch2a
I0328 19:41:59.313323 13194 net.cpp:369] scale5b_branch2a -> res5b_branch2a (in-place)
I0328 19:41:59.313366 13194 layer_factory.hpp:77] Creating layer scale5b_branch2a
I0328 19:41:59.313494 13194 net.cpp:124] Setting up scale5b_branch2a
I0328 19:41:59.313500 13194 net.cpp:131] Top shape: 32 512 7 7 (802816)
I0328 19:41:59.313503 13194 net.cpp:139] Memory required for data: 2533687424
I0328 19:41:59.313508 13194 layer_factory.hpp:77] Creating layer res5b_branch2a_relu
I0328 19:41:59.313513 13194 net.cpp:86] Creating Layer res5b_branch2a_relu
I0328 19:41:59.313516 13194 net.cpp:408] res5b_branch2a_relu <- res5b_branch2a
I0328 19:41:59.313522 13194 net.cpp:369] res5b_branch2a_relu -> res5b_branch2a (in-place)
I0328 19:41:59.313966 13194 net.cpp:124] Setting up res5b_branch2a_relu
I0328 19:41:59.313975 13194 net.cpp:131] Top shape: 32 512 7 7 (802816)
I0328 19:41:59.313978 13194 net.cpp:139] Memory required for data: 2536898688
I0328 19:41:59.313982 13194 layer_factory.hpp:77] Creating layer res5b_branch2b
I0328 19:41:59.313992 13194 net.cpp:86] Creating Layer res5b_branch2b
I0328 19:41:59.313997 13194 net.cpp:408] res5b_branch2b <- res5b_branch2a
I0328 19:41:59.314002 13194 net.cpp:382] res5b_branch2b -> res5b_branch2b
I0328 19:41:59.336552 13194 net.cpp:124] Setting up res5b_branch2b
I0328 19:41:59.336573 13194 net.cpp:131] Top shape: 32 512 7 7 (802816)
I0328 19:41:59.336576 13194 net.cpp:139] Memory required for data: 2540109952
I0328 19:41:59.336582 13194 layer_factory.hpp:77] Creating layer bn5b_branch2b
I0328 19:41:59.336589 13194 net.cpp:86] Creating Layer bn5b_branch2b
I0328 19:41:59.336593 13194 net.cpp:408] bn5b_branch2b <- res5b_branch2b
I0328 19:41:59.336601 13194 net.cpp:369] bn5b_branch2b -> res5b_branch2b (in-place)
I0328 19:41:59.336822 13194 net.cpp:124] Setting up bn5b_branch2b
I0328 19:41:59.336828 13194 net.cpp:131] Top shape: 32 512 7 7 (802816)
I0328 19:41:59.336832 13194 net.cpp:139] Memory required for data: 2543321216
I0328 19:41:59.336838 13194 layer_factory.hpp:77] Creating layer scale5b_branch2b
I0328 19:41:59.336844 13194 net.cpp:86] Creating Layer scale5b_branch2b
I0328 19:41:59.336848 13194 net.cpp:408] scale5b_branch2b <- res5b_branch2b
I0328 19:41:59.336850 13194 net.cpp:369] scale5b_branch2b -> res5b_branch2b (in-place)
I0328 19:41:59.336894 13194 layer_factory.hpp:77] Creating layer scale5b_branch2b
I0328 19:41:59.337018 13194 net.cpp:124] Setting up scale5b_branch2b
I0328 19:41:59.337023 13194 net.cpp:131] Top shape: 32 512 7 7 (802816)
I0328 19:41:59.337026 13194 net.cpp:139] Memory required for data: 2546532480
I0328 19:41:59.337031 13194 layer_factory.hpp:77] Creating layer res5b
I0328 19:41:59.337039 13194 net.cpp:86] Creating Layer res5b
I0328 19:41:59.337043 13194 net.cpp:408] res5b <- res5a_res5a_relu_0_split_1
I0328 19:41:59.337046 13194 net.cpp:408] res5b <- res5b_branch2b
I0328 19:41:59.337050 13194 net.cpp:382] res5b -> res5b
I0328 19:41:59.337080 13194 net.cpp:124] Setting up res5b
I0328 19:41:59.337085 13194 net.cpp:131] Top shape: 32 512 7 7 (802816)
I0328 19:41:59.337086 13194 net.cpp:139] Memory required for data: 2549743744
I0328 19:41:59.337090 13194 layer_factory.hpp:77] Creating layer res5b_relu
I0328 19:41:59.337095 13194 net.cpp:86] Creating Layer res5b_relu
I0328 19:41:59.337097 13194 net.cpp:408] res5b_relu <- res5b
I0328 19:41:59.337102 13194 net.cpp:369] res5b_relu -> res5b (in-place)
I0328 19:41:59.337553 13194 net.cpp:124] Setting up res5b_relu
I0328 19:41:59.337582 13194 net.cpp:131] Top shape: 32 512 7 7 (802816)
I0328 19:41:59.337585 13194 net.cpp:139] Memory required for data: 2552955008
I0328 19:41:59.337589 13194 layer_factory.hpp:77] Creating layer res5b_res5b_relu_0_split
I0328 19:41:59.337594 13194 net.cpp:86] Creating Layer res5b_res5b_relu_0_split
I0328 19:41:59.337597 13194 net.cpp:408] res5b_res5b_relu_0_split <- res5b
I0328 19:41:59.337604 13194 net.cpp:382] res5b_res5b_relu_0_split -> res5b_res5b_relu_0_split_0
I0328 19:41:59.337610 13194 net.cpp:382] res5b_res5b_relu_0_split -> res5b_res5b_relu_0_split_1
I0328 19:41:59.337656 13194 net.cpp:124] Setting up res5b_res5b_relu_0_split
I0328 19:41:59.337662 13194 net.cpp:131] Top shape: 32 512 7 7 (802816)
I0328 19:41:59.337666 13194 net.cpp:131] Top shape: 32 512 7 7 (802816)
I0328 19:41:59.337668 13194 net.cpp:139] Memory required for data: 2559377536
I0328 19:41:59.337671 13194 layer_factory.hpp:77] Creating layer res5c_branch2a
I0328 19:41:59.337682 13194 net.cpp:86] Creating Layer res5c_branch2a
I0328 19:41:59.337684 13194 net.cpp:408] res5c_branch2a <- res5b_res5b_relu_0_split_0
I0328 19:41:59.337688 13194 net.cpp:382] res5c_branch2a -> res5c_branch2a
I0328 19:41:59.360065 13194 net.cpp:124] Setting up res5c_branch2a
I0328 19:41:59.360085 13194 net.cpp:131] Top shape: 32 512 7 7 (802816)
I0328 19:41:59.360087 13194 net.cpp:139] Memory required for data: 2562588800
I0328 19:41:59.360095 13194 layer_factory.hpp:77] Creating layer bn5c_branch2a
I0328 19:41:59.360105 13194 net.cpp:86] Creating Layer bn5c_branch2a
I0328 19:41:59.360108 13194 net.cpp:408] bn5c_branch2a <- res5c_branch2a
I0328 19:41:59.360113 13194 net.cpp:369] bn5c_branch2a -> res5c_branch2a (in-place)
I0328 19:41:59.360332 13194 net.cpp:124] Setting up bn5c_branch2a
I0328 19:41:59.360339 13194 net.cpp:131] Top shape: 32 512 7 7 (802816)
I0328 19:41:59.360342 13194 net.cpp:139] Memory required for data: 2565800064
I0328 19:41:59.360349 13194 layer_factory.hpp:77] Creating layer scale5c_branch2a
I0328 19:41:59.360354 13194 net.cpp:86] Creating Layer scale5c_branch2a
I0328 19:41:59.360358 13194 net.cpp:408] scale5c_branch2a <- res5c_branch2a
I0328 19:41:59.360363 13194 net.cpp:369] scale5c_branch2a -> res5c_branch2a (in-place)
I0328 19:41:59.360406 13194 layer_factory.hpp:77] Creating layer scale5c_branch2a
I0328 19:41:59.360529 13194 net.cpp:124] Setting up scale5c_branch2a
I0328 19:41:59.360536 13194 net.cpp:131] Top shape: 32 512 7 7 (802816)
I0328 19:41:59.360539 13194 net.cpp:139] Memory required for data: 2569011328
I0328 19:41:59.360543 13194 layer_factory.hpp:77] Creating layer res5c_branch2a_relu
I0328 19:41:59.360550 13194 net.cpp:86] Creating Layer res5c_branch2a_relu
I0328 19:41:59.360554 13194 net.cpp:408] res5c_branch2a_relu <- res5c_branch2a
I0328 19:41:59.360558 13194 net.cpp:369] res5c_branch2a_relu -> res5c_branch2a (in-place)
I0328 19:41:59.361147 13194 net.cpp:124] Setting up res5c_branch2a_relu
I0328 19:41:59.361157 13194 net.cpp:131] Top shape: 32 512 7 7 (802816)
I0328 19:41:59.361160 13194 net.cpp:139] Memory required for data: 2572222592
I0328 19:41:59.361163 13194 layer_factory.hpp:77] Creating layer res5c_branch2b
I0328 19:41:59.361173 13194 net.cpp:86] Creating Layer res5c_branch2b
I0328 19:41:59.361176 13194 net.cpp:408] res5c_branch2b <- res5c_branch2a
I0328 19:41:59.361186 13194 net.cpp:382] res5c_branch2b -> res5c_branch2b
I0328 19:41:59.383631 13194 net.cpp:124] Setting up res5c_branch2b
I0328 19:41:59.383651 13194 net.cpp:131] Top shape: 32 512 7 7 (802816)
I0328 19:41:59.383654 13194 net.cpp:139] Memory required for data: 2575433856
I0328 19:41:59.383661 13194 layer_factory.hpp:77] Creating layer bn5c_branch2b
I0328 19:41:59.383671 13194 net.cpp:86] Creating Layer bn5c_branch2b
I0328 19:41:59.383673 13194 net.cpp:408] bn5c_branch2b <- res5c_branch2b
I0328 19:41:59.383679 13194 net.cpp:369] bn5c_branch2b -> res5c_branch2b (in-place)
I0328 19:41:59.383901 13194 net.cpp:124] Setting up bn5c_branch2b
I0328 19:41:59.383913 13194 net.cpp:131] Top shape: 32 512 7 7 (802816)
I0328 19:41:59.383939 13194 net.cpp:139] Memory required for data: 2578645120
I0328 19:41:59.383946 13194 layer_factory.hpp:77] Creating layer scale5c_branch2b
I0328 19:41:59.383954 13194 net.cpp:86] Creating Layer scale5c_branch2b
I0328 19:41:59.383956 13194 net.cpp:408] scale5c_branch2b <- res5c_branch2b
I0328 19:41:59.383960 13194 net.cpp:369] scale5c_branch2b -> res5c_branch2b (in-place)
I0328 19:41:59.384008 13194 layer_factory.hpp:77] Creating layer scale5c_branch2b
I0328 19:41:59.384136 13194 net.cpp:124] Setting up scale5c_branch2b
I0328 19:41:59.384142 13194 net.cpp:131] Top shape: 32 512 7 7 (802816)
I0328 19:41:59.384145 13194 net.cpp:139] Memory required for data: 2581856384
I0328 19:41:59.384150 13194 layer_factory.hpp:77] Creating layer res5c
I0328 19:41:59.384156 13194 net.cpp:86] Creating Layer res5c
I0328 19:41:59.384160 13194 net.cpp:408] res5c <- res5b_res5b_relu_0_split_1
I0328 19:41:59.384163 13194 net.cpp:408] res5c <- res5c_branch2b
I0328 19:41:59.384169 13194 net.cpp:382] res5c -> res5c
I0328 19:41:59.384196 13194 net.cpp:124] Setting up res5c
I0328 19:41:59.384202 13194 net.cpp:131] Top shape: 32 512 7 7 (802816)
I0328 19:41:59.384203 13194 net.cpp:139] Memory required for data: 2585067648
I0328 19:41:59.384207 13194 layer_factory.hpp:77] Creating layer res5c_relu
I0328 19:41:59.384213 13194 net.cpp:86] Creating Layer res5c_relu
I0328 19:41:59.384217 13194 net.cpp:408] res5c_relu <- res5c
I0328 19:41:59.384220 13194 net.cpp:369] res5c_relu -> res5c (in-place)
I0328 19:41:59.384661 13194 net.cpp:124] Setting up res5c_relu
I0328 19:41:59.384670 13194 net.cpp:131] Top shape: 32 512 7 7 (802816)
I0328 19:41:59.384672 13194 net.cpp:139] Memory required for data: 2588278912
I0328 19:41:59.384675 13194 layer_factory.hpp:77] Creating layer pool5
I0328 19:41:59.384683 13194 net.cpp:86] Creating Layer pool5
I0328 19:41:59.384687 13194 net.cpp:408] pool5 <- res5c
I0328 19:41:59.384691 13194 net.cpp:382] pool5 -> pool5
I0328 19:41:59.385325 13194 net.cpp:124] Setting up pool5
I0328 19:41:59.385335 13194 net.cpp:131] Top shape: 32 512 1 1 (16384)
I0328 19:41:59.385339 13194 net.cpp:139] Memory required for data: 2588344448
I0328 19:41:59.385342 13194 layer_factory.hpp:77] Creating layer fc1000
I0328 19:41:59.385350 13194 net.cpp:86] Creating Layer fc1000
I0328 19:41:59.385354 13194 net.cpp:408] fc1000 <- pool5
I0328 19:41:59.385361 13194 net.cpp:382] fc1000 -> fc1000
I0328 19:41:59.388489 13194 net.cpp:124] Setting up fc1000
I0328 19:41:59.388499 13194 net.cpp:131] Top shape: 32 1000 (32000)
I0328 19:41:59.388501 13194 net.cpp:139] Memory required for data: 2588472448
I0328 19:41:59.388507 13194 layer_factory.hpp:77] Creating layer loss
I0328 19:41:59.388514 13194 net.cpp:86] Creating Layer loss
I0328 19:41:59.388516 13194 net.cpp:408] loss <- fc1000
I0328 19:41:59.388521 13194 net.cpp:408] loss <- label
I0328 19:41:59.388530 13194 net.cpp:382] loss -> loss
I0328 19:41:59.388538 13194 layer_factory.hpp:77] Creating layer loss
…
I0328 19:41:59.392316 13194 net.cpp:296] The NetState phase (1) differed from the phase (0) specified by a rule in layer data
I0328 19:41:59.392832 13194 net.cpp:53] Initializing net from parameters: 
name: "resnet_34"
state {
  phase: TEST
}
layer {
  name: "data"
  type: "Data"
  top: "data"
  top: "label"
  include {
    phase: TEST
  }
  transform_param {
    mirror: false
    crop_size: 224
    mean_file: "/shared/datasets/ImageNet2012/lmdb_data/imagenet_mean.binaryproto"
  }
  data_param {
    source: "/shared/datasets/ImageNet2012/lmdb_data/ilsvrc12_val_lmdb"
    batch_size: 10
    backend: LMDB
  }
}
layer {
  name: "conv1"
  type: "Convolution"
  bottom: "data"
  top: "conv1"
  convolution_param {
    num_output: 64
    bias_term: false
    pad: 3
    kernel_size: 7
    stride: 2
    weight_filler {
      type: "msra"
    }
  }
}
layer {
  name: "bn_conv1"
  type: "BatchNorm"
  bottom: "conv1"
  top: "conv1"
  batch_norm_param {
    use_global_stats: false
  }
}
layer {
  name: "scale_conv1"
  type: "Scale"
  bottom: "conv1"
  top: "conv1"
  scale_param {
    bias_term: true
  }
}
layer {
  name: "conv1_relu"
  type: "ReLU"
  bottom: "conv1"
  top: "conv1"
}
layer {
  name: "pool1"
  type: "Pooling"
  bottom: "conv1"
  top: "pool1"
  pooling_param {
    pool: MAX
    kernel_size: 3
    stride: 2
  }
}
layer {
  name: "res2a_branch1"
  type: "Convolution"
  bottom: "pool1"
  top: "res2a_branch1"
  convolution_param {
    num_output: 64
    bias_term: false
    pad: 0
    kernel_size: 1
    stride: 1
    weight_filler {
      type: "msra"
    }
  }
}
layer {
  name: "bn2a_branch1"
  type: "BatchNorm"
  bottom: "res2a_branch1"
  top: "res2a_branch1"
  batch_norm_param {
    use_global_stats: false
  }
}
layer {
  name: "scale2a_branch1"
  type: "Scale"
  bottom: "res2a_branch1"
  top: "res2a_branch1"
  scale_param {
    bias_term: true
  }
}
layer {
  name: "res2a_branch2a"
  type: "Convolution"
  bottom: "pool1"
  top: "res2a_branch2a"
  convolution_param {
    num_output: 64
    bias_term: false
    pad: 1
    kernel_size: 3
    stride: 1
    weight_filler {
      type: "msra"
    }
  }
}
layer {
  name: "bn2a_branch2a"
  type: "BatchNorm"
  bottom: "res2a_branch2a"
  top: "res2a_branch2a"
  batch_norm_param {
    use_global_stats: false
  }
}
layer {
  name: "scale2a_branch2a"
  type: "Scale"
  bottom: "res2a_branch2a"
  top: "res2a_branch2a"
  scale_param {
    bias_term: true
  }
}
layer {
  name: "res2a_branch2a_relu"
  type: "ReLU"
  bottom: "res2a_branch2a"
  top: "res2a_branch2a"
}
layer {
  name: "res2a_branch2b"
  type: "Convolution"
  bottom: "res2a_branch2a"
  top: "res2a_branch2b"
  convolution_param {
    num_output: 64
    bias_term: false
    pad: 1
    kernel_size: 3
    stride: 1
    weight_filler {
      type: "msra"
    }
  }
}
layer {
  name: "bn2a_branch2b"
  type: "BatchNorm"
  bottom: "res2a_branch2b"
  top: "res2a_branch2b"
  batch_norm_param {
    use_global_stats: false
  }
}
layer {
  name: "scale2a_branch2b"
  type: "Scale"
  bottom: "res2a_branch2b"
  top: "res2a_branch2b"
  scale_param {
    bias_term: true
  }
}
layer {
  name: "res2a"
  type: "Eltwise"
  bottom: "res2a_branch1"
  bottom: "res2a_branch2b"
  top: "res2a"
  eltwise_param {
    operation: SUM
  }
}
layer {
  name: "res2a_relu"
  type: "ReLU"
  bottom: "res2a"
  top: "res2a"
}
layer {
  name: "res2b_branch2a"
  type: "Convolution"
  bottom: "res2a"
  top: "res2b_branch2a"
  convolution_param {
    num_output: 64
    bias_term: false
    pad: 1
    kernel_size: 3
    stride: 1
    weight_filler {
      type: "msra"
    }
  }
}
layer {
  name: "bn2b_branch2a"
  type: "BatchNorm"
  bottom: "res2b_branch2a"
  top: "res2b_branch2a"
  batch_norm_param {
    use_global_stats: false
  }
}
layer {
  name: "scale2b_branch2a"
  type: "Scale"
  bottom: "res2b_branch2a"
  top: "res2b_branch2a"
  scale_param {
    bias_term: true
  }
}
layer {
  name: "res2b_branch2a_relu"
  type: "ReLU"
  bottom: "res2b_branch2a"
  top: "res2b_branch2a"
}
layer {
  name: "res2b_branch2b"
  type: "Convolution"
  bottom: "res2b_branch2a"
  top: "res2b_branch2b"
  convolution_param {
    num_output: 64
    bias_term: false
    pad: 1
    kernel_size: 3
    stride: 1
    weight_filler {
      type: "msra"
    }
  }
}
layer {
  name: "bn2b_branch2b"
  type: "BatchNorm"
  bottom: "res2b_branch2b"
  top: "res2b_branch2b"
  batch_norm_param {
    use_global_stats: false
  }
}
layer {
  name: "scale2b_branch2b"
  type: "Scale"
  bottom: "res2b_branch2b"
  top: "res2b_branch2b"
  scale_param {
    bias_term: true
  }
}
layer {
  name: "res2b"
  type: "Eltwise"
  bottom: "res2a"
  bottom: "res2b_branch2b"
  top: "res2b"
  eltwise_param {
    operation: SUM
  }
}
layer {
  name: "res2b_relu"
  type: "ReLU"
  bottom: "res2b"
  top: "res2b"
}
layer {
  name: "res2c_branch2a"
  type: "Convolution"
  bottom: "res2b"
  top: "res2c_branch2a"
  convolution_param {
    num_output: 64
    bias_term: false
    pad: 1
    kernel_size: 3
    stride: 1
    weight_filler {
      type: "msra"
    }
  }
}
layer {
  name: "bn2c_branch2a"
  type: "BatchNorm"
  bottom: "res2c_branch2a"
  top: "res2c_branch2a"
  batch_norm_param {
    use_global_stats: false
  }
}
layer {
  name: "scale2c_branch2a"
  type: "Scale"
  bottom: "res2c_branch2a"
  top: "res2c_branch2a"
  scale_param {
    bias_term: true
  }
}
layer {
  name: "res2c_branch2a_relu"
  type: "ReLU"
  bottom: "res2c_branch2a"
  top: "res2c_branch2a"
}
layer {
  name: "res2c_branch2b"
  type: "Convolution"
  bottom: "res2c_branch2a"
  top: "res2c_branch2b"
  convolution_param {
    num_output: 64
    bias_term: false
    pad: 1
    kernel_size: 3
    stride: 1
    weight_filler {
      type: "msra"
    }
  }
}
layer {
  name: "bn2c_branch2b"
  type: "BatchNorm"
  bottom: "res2c_branch2b"
  top: "res2c_branch2b"
  batch_norm_param {
    use_global_stats: false
  }
}
layer {
  name: "scale2c_branch2b"
  type: "Scale"
  bottom: "res2c_branch2b"
  top: "res2c_branch2b"
  scale_param {
    bias_term: true
  }
}
layer {
  name: "res2c"
  type: "Eltwise"
  bottom: "res2b"
  bottom: "res2c_branch2b"
  top: "res2c"
  eltwise_param {
    operation: SUM
  }
}
layer {
  name: "res2c_relu"
  type: "ReLU"
  bottom: "res2c"
  top: "res2c"
}
layer {
  name: "res3a_branch1"
  type: "Convolution"
  bottom: "res2c"
  top: "res3a_branch1"
  convolution_param {
    num_output: 128
    bias_term: false
    pad: 0
    kernel_size: 1
    stride: 2
    weight_filler {
      type: "msra"
    }
  }
}
layer {
  name: "bn3a_branch1"
  type: "BatchNorm"
  bottom: "res3a_branch1"
  top: "res3a_branch1"
  batch_norm_param {
    use_global_stats: false
  }
}
layer {
  name: "scale3a_branch1"
  type: "Scale"
  bottom: "res3a_branch1"
  top: "res3a_branch1"
  scale_param {
    bias_term: true
  }
}
layer {
  name: "res3a_branch2a"
  type: "Convolution"
  bottom: "res2c"
  top: "res3a_branch2a"
  convolution_param {
    num_output: 128
    bias_term: false
    pad: 1
    kernel_size: 3
    stride: 2
    weight_filler {
      type: "msra"
    }
  }
}
layer {
  name: "bn3a_branch2a"
  type: "BatchNorm"
  bottom: "res3a_branch2a"
  top: "res3a_branch2a"
  batch_norm_param {
    use_global_stats: false
  }
}
layer {
  name: "scale3a_branch2a"
  type: "Scale"
  bottom: "res3a_branch2a"
  top: "res3a_branch2a"
  scale_param {
    bias_term: true
  }
}
layer {
  name: "res3a_branch2a_relu"
  type: "ReLU"
  bottom: "res3a_branch2a"
  top: "res3a_branch2a"
}
layer {
  name: "res3a_branch2b"
  type: "Convolution"
  bottom: "res3a_branch2a"
  top: "res3a_branch2b"
  convolution_param {
    num_output: 128
    bias_term: false
    pad: 1
    kernel_size: 3
    stride: 1
    weight_filler {
      type: "msra"
    }
  }
}
layer {
  name: "bn3a_branch2b"
  type: "BatchNorm"
  bottom: "res3a_branch2b"
  top: "res3a_branch2b"
  batch_norm_param {
    use_global_stats: false
  }
}
layer {
  name: "scale3a_branch2b"
  type: "Scale"
  bottom: "res3a_branch2b"
  top: "res3a_branch2b"
  scale_param {
    bias_term: true
  }
}
layer {
  name: "res3a"
  type: "Eltwise"
  bottom: "res3a_branch1"
  bottom: "res3a_branch2b"
  top: "res3a"
  eltwise_param {
    operation: SUM
  }
}
layer {
  name: "res3a_relu"
  type: "ReLU"
  bottom: "res3a"
  top: "res3a"
}
layer {
  name: "res3b_branch2a"
  type: "Convolution"
  bottom: "res3a"
  top: "res3b_branch2a"
  convolution_param {
    num_output: 128
    bias_term: false
    pad: 1
    kernel_size: 3
    stride: 1
    weight_filler {
      type: "msra"
    }
  }
}
layer {
  name: "bn3b_branch2a"
  type: "BatchNorm"
  bottom: "res3b_branch2a"
  top: "res3b_branch2a"
  batch_norm_param {
    use_global_stats: false
  }
}
layer {
  name: "scale3b_branch2a"
  type: "Scale"
  bottom: "res3b_branch2a"
  top: "res3b_branch2a"
  scale_param {
    bias_term: true
  }
}
layer {
  name: "res3b_branch2a_relu"
  type: "ReLU"
  bottom: "res3b_branch2a"
  top: "res3b_branch2a"
}
layer {
  name: "res3b_branch2b"
  type: "Convolution"
  bottom: "res3b_branch2a"
  top: "res3b_branch2b"
  convolution_param {
    num_output: 128
    bias_term: false
    pad: 1
    kernel_size: 3
    stride: 1
    weight_filler {
      type: "msra"
    }
  }
}
layer {
  name: "bn3b_branch2b"
  type: "BatchNorm"
  bottom: "res3b_branch2b"
  top: "res3b_branch2b"
  batch_norm_param {
    use_global_stats: false
  }
}
layer {
  name: "scale3b_branch2b"
  type: "Scale"
  bottom: "res3b_branch2b"
  top: "res3b_branch2b"
  scale_param {
    bias_term: true
  }
}
layer {
  name: "res3b"
  type: "Eltwise"
  bottom: "res3a"
  bottom: "res3b_branch2b"
  top: "res3b"
  eltwise_param {
    operation: SUM
  }
}
layer {
  name: "res3b_relu"
  type: "ReLU"
  bottom: "res3b"
  top: "res3b"
}
layer {
  name: "res3c_branch2a"
  type: "Convolution"
  bottom: "res3b"
  top: "res3c_branch2a"
  convolution_param {
    num_output: 128
    bias_term: false
    pad: 1
    kernel_size: 3
    stride: 1
    weight_filler {
      type: "msra"
    }
  }
}
layer {
  name: "bn3c_branch2a"
  type: "BatchNorm"
  bottom: "res3c_branch2a"
  top: "res3c_branch2a"
  batch_norm_param {
    use_global_stats: false
  }
}
layer {
  name: "scale3c_branch2a"
  type: "Scale"
  bottom: "res3c_branch2a"
  top: "res3c_branch2a"
  scale_param {
    bias_term: true
  }
}
layer {
  name: "res3c_branch2a_relu"
  type: "ReLU"
  bottom: "res3c_branch2a"
  top: "res3c_branch2a"
}
layer {
  name: "res3c_branch2b"
  type: "Convolution"
  bottom: "res3c_branch2a"
  top: "res3c_branch2b"
  convolution_param {
    num_output: 128
    bias_term: false
    pad: 1
    kernel_size: 3
    stride: 1
    weight_filler {
      type: "msra"
    }
  }
}
layer {
  name: "bn3c_branch2b"
  type: "BatchNorm"
  bottom: "res3c_branch2b"
  top: "res3c_branch2b"
  batch_norm_param {
    use_global_stats: false
  }
}
layer {
  name: "scale3c_branch2b"
  type: "Scale"
  bottom: "res3c_branch2b"
  top: "res3c_branch2b"
  scale_param {
    bias_term: true
  }
}
layer {
  name: "res3c"
  type: "Eltwise"
  bottom: "res3b"
  bottom: "res3c_branch2b"
  top: "res3c"
  eltwise_param {
    operation: SUM
  }
}
layer {
  name: "res3c_relu"
  type: "ReLU"
  bottom: "res3c"
  top: "res3c"
}
layer {
  name: "res3d_branch2a"
  type: "Convolution"
  bottom: "res3c"
  top: "res3d_branch2a"
  convolution_param {
    num_output: 128
    bias_term: false
    pad: 1
    kernel_size: 3
    stride: 1
    weight_filler {
      type: "msra"
    }
  }
}
layer {
  name: "bn3d_branch2a"
  type: "BatchNorm"
  bottom: "res3d_branch2a"
  top: "res3d_branch2a"
  batch_norm_param {
    use_global_stats: false
  }
}
layer {
  name: "scale3d_branch2a"
  type: "Scale"
  bottom: "res3d_branch2a"
  top: "res3d_branch2a"
  scale_param {
    bias_term: true
  }
}
layer {
  name: "res3d_branch2a_relu"
  type: "ReLU"
  bottom: "res3d_branch2a"
  top: "res3d_branch2a"
}
layer {
  name: "res3d_branch2b"
  type: "Convolution"
  bottom: "res3d_branch2a"
  top: "res3d_branch2b"
  convolution_param {
    num_output: 128
    bias_term: false
    pad: 1
    kernel_size: 3
    stride: 1
    weight_filler {
      type: "msra"
    }
  }
}
layer {
  name: "bn3d_branch2b"
  type: "BatchNorm"
  bottom: "res3d_branch2b"
  top: "res3d_branch2b"
  batch_norm_param {
    use_global_stats: false
  }
}
layer {
  name: "scale3d_branch2b"
  type: "Scale"
  bottom: "res3d_branch2b"
  top: "res3d_branch2b"
  scale_param {
    bias_term: true
  }
}
layer {
  name: "res3d"
  type: "Eltwise"
  bottom: "res3c"
  bottom: "res3d_branch2b"
  top: "res3d"
  eltwise_param {
    operation: SUM
  }
}
layer {
  name: "res3d_relu"
  type: "ReLU"
  bottom: "res3d"
  top: "res3d"
}
layer {
  name: "res4a_branch1"
  type: "Convolution"
  bottom: "res3d"
  top: "res4a_branch1"
  convolution_param {
    num_output: 256
    bias_term: false
    pad: 0
    kernel_size: 1
    stride: 2
    weight_filler {
      type: "msra"
    }
  }
}
layer {
  name: "bn4a_branch1"
  type: "BatchNorm"
  bottom: "res4a_branch1"
  top: "res4a_branch1"
  batch_norm_param {
    use_global_stats: false
  }
}
layer {
  name: "scale4a_branch1"
  type: "Scale"
  bottom: "res4a_branch1"
  top: "res4a_branch1"
  scale_param {
    bias_term: true
  }
}
layer {
  name: "res4a_branch2a"
  type: "Convolution"
  bottom: "res3d"
  top: "res4a_branch2a"
  convolution_param {
    num_output: 256
    bias_term: false
    pad: 1
    kernel_size: 3
    stride: 2
    weight_filler {
      type: "msra"
    }
  }
}
layer {
  name: "bn4a_branch2a"
  type: "BatchNorm"
  bottom: "res4a_branch2a"
  top: "res4a_branch2a"
  batch_norm_param {
    use_global_stats: false
  }
}
layer {
  name: "scale4a_branch2a"
  type: "Scale"
  bottom: "res4a_branch2a"
  top: "res4a_branch2a"
  scale_param {
    bias_term: true
  }
}
layer {
  name: "res4a_branch2a_relu"
  type: "ReLU"
  bottom: "res4a_branch2a"
  top: "res4a_branch2a"
}
layer {
  name: "res4a_branch2b"
  type: "Convolution"
  bottom: "res4a_branch2a"
  top: "res4a_branch2b"
  convolution_param {
    num_output: 256
    bias_term: false
    pad: 1
    kernel_size: 3
    stride: 1
    weight_filler {
      type: "msra"
    }
  }
}
layer {
  name: "bn4a_branch2b"
  type: "BatchNorm"
  bottom: "res4a_branch2b"
  top: "res4a_branch2b"
  batch_norm_param {
    use_global_stats: false
  }
}
layer {
  name: "scale4a_branch2b"
  type: "Scale"
  bottom: "res4a_branch2b"
  top: "res4a_branch2b"
  scale_param {
    bias_term: true
  }
}
layer {
  name: "res4a"
  type: "Eltwise"
  bottom: "res4a_branch1"
  bottom: "res4a_branch2b"
  top: "res4a"
  eltwise_param {
    operation: SUM
  }
}
layer {
  name: "res4a_relu"
  type: "ReLU"
  bottom: "res4a"
  top: "res4a"
}
layer {
  name: "res4b_branch2a"
  type: "Convolution"
  bottom: "res4a"
  top: "res4b_branch2a"
  convolution_param {
    num_output: 256
    bias_term: false
    pad: 1
    kernel_size: 3
    stride: 1
    weight_filler {
      type: "msra"
    }
  }
}
layer {
  name: "bn4b_branch2a"
  type: "BatchNorm"
  bottom: "res4b_branch2a"
  top: "res4b_branch2a"
  batch_norm_param {
    use_global_stats: false
  }
}
layer {
  name: "scale4b_branch2a"
  type: "Scale"
  bottom: "res4b_branch2a"
  top: "res4b_branch2a"
  scale_param {
    bias_term: true
  }
}
layer {
  name: "res4b_branch2a_relu"
  type: "ReLU"
  bottom: "res4b_branch2a"
  top: "res4b_branch2a"
}
layer {
  name: "res4b_branch2b"
  type: "Convolution"
  bottom: "res4b_branch2a"
  top: "res4b_branch2b"
  convolution_param {
    num_output: 256
    bias_term: false
    pad: 1
    kernel_size: 3
    stride: 1
    weight_filler {
      type: "msra"
    }
  }
}
layer {
  name: "bn4b_branch2b"
  type: "BatchNorm"
  bottom: "res4b_branch2b"
  top: "res4b_branch2b"
  batch_norm_param {
    use_global_stats: false
  }
}
layer {
  name: "scale4b_branch2b"
  type: "Scale"
  bottom: "res4b_branch2b"
  top: "res4b_branch2b"
  scale_param {
    bias_term: true
  }
}
layer {
  name: "res4b"
  type: "Eltwise"
  bottom: "res4a"
  bottom: "res4b_branch2b"
  top: "res4b"
  eltwise_param {
    operation: SUM
  }
}
layer {
  name: "res4b_relu"
  type: "ReLU"
  bottom: "res4b"
  top: "res4b"
}
layer {
  name: "res4c_branch2a"
  type: "Convolution"
  bottom: "res4b"
  top: "res4c_branch2a"
  convolution_param {
    num_output: 256
    bias_term: false
    pad: 1
    kernel_size: 3
    stride: 1
    weight_filler {
      type: "msra"
    }
  }
}
layer {
  name: "bn4c_branch2a"
  type: "BatchNorm"
  bottom: "res4c_branch2a"
  top: "res4c_branch2a"
  batch_norm_param {
    use_global_stats: false
  }
}
layer {
  name: "scale4c_branch2a"
  type: "Scale"
  bottom: "res4c_branch2a"
  top: "res4c_branch2a"
  scale_param {
    bias_term: true
  }
}
layer {
  name: "res4c_branch2a_relu"
  type: "ReLU"
  bottom: "res4c_branch2a"
  top: "res4c_branch2a"
}
layer {
  name: "res4c_branch2b"
  type: "Convolution"
  bottom: "res4c_branch2a"
  top: "res4c_branch2b"
  convolution_param {
    num_output: 256
    bias_term: false
    pad: 1
    kernel_size: 3
    stride: 1
    weight_filler {
      type: "msra"
    }
  }
}
layer {
  name: "bn4c_branch2b"
  type: "BatchNorm"
  bottom: "res4c_branch2b"
  top: "res4c_branch2b"
  batch_norm_param {
    use_global_stats: false
  }
}
layer {
  name: "scale4c_branch2b"
  type: "Scale"
  bottom: "res4c_branch2b"
  top: "res4c_branch2b"
  scale_param {
    bias_term: true
  }
}
layer {
  name: "res4c"
  type: "Eltwise"
  bottom: "res4b"
  bottom: "res4c_branch2b"
  top: "res4c"
  eltwise_param {
    operation: SUM
  }
}
layer {
  name: "res4c_relu"
  type: "ReLU"
  bottom: "res4c"
  top: "res4c"
}
layer {
  name: "res4d_branch2a"
  type: "Convolution"
  bottom: "res4c"
  top: "res4d_branch2a"
  convolution_param {
    num_output: 256
    bias_term: false
    pad: 1
    kernel_size: 3
    stride: 1
    weight_filler {
      type: "msra"
    }
  }
}
layer {
  name: "bn4d_branch2a"
  type: "BatchNorm"
  bottom: "res4d_branch2a"
  top: "res4d_branch2a"
  batch_norm_param {
    use_global_stats: false
  }
}
layer {
  name: "scale4d_branch2a"
  type: "Scale"
  bottom: "res4d_branch2a"
  top: "res4d_branch2a"
  scale_param {
    bias_term: true
  }
}
layer {
  name: "res4d_branch2a_relu"
  type: "ReLU"
  bottom: "res4d_branch2a"
  top: "res4d_branch2a"
}
layer {
  name: "res4d_branch2b"
  type: "Convolution"
  bottom: "res4d_branch2a"
  top: "res4d_branch2b"
  convolution_param {
    num_output: 256
    bias_term: false
    pad: 1
    kernel_size: 3
    stride: 1
    weight_filler {
      type: "msra"
    }
  }
}
layer {
  name: "bn4d_branch2b"
  type: "BatchNorm"
  bottom: "res4d_branch2b"
  top: "res4d_branch2b"
  batch_norm_param {
    use_global_stats: false
  }
}
layer {
  name: "scale4d_branch2b"
  type: "Scale"
  bottom: "res4d_branch2b"
  top: "res4d_branch2b"
  scale_param {
    bias_term: true
  }
}
layer {
  name: "res4d"
  type: "Eltwise"
  bottom: "res4c"
  bottom: "res4d_branch2b"
  top: "res4d"
  eltwise_param {
    operation: SUM
  }
}
layer {
  name: "res4d_relu"
  type: "ReLU"
  bottom: "res4d"
  top: "res4d"
}
layer {
  name: "res4e_branch2a"
  type: "Convolution"
  bottom: "res4d"
  top: "res4e_branch2a"
  convolution_param {
    num_output: 256
    bias_term: false
    pad: 1
    kernel_size: 3
    stride: 1
    weight_filler {
      type: "msra"
    }
  }
}
layer {
  name: "bn4e_branch2a"
  type: "BatchNorm"
  bottom: "res4e_branch2a"
  top: "res4e_branch2a"
  batch_norm_param {
    use_global_stats: false
  }
}
layer {
  name: "scale4e_branch2a"
  type: "Scale"
  bottom: "res4e_branch2a"
  top: "res4e_branch2a"
  scale_param {
    bias_term: true
  }
}
layer {
  name: "res4e_branch2a_relu"
  type: "ReLU"
  bottom: "res4e_branch2a"
  top: "res4e_branch2a"
}
layer {
  name: "res4e_branch2b"
  type: "Convolution"
  bottom: "res4e_branch2a"
  top: "res4e_branch2b"
  convolution_param {
    num_output: 256
    bias_term: false
    pad: 1
    kernel_size: 3
    stride: 1
    weight_filler {
      type: "msra"
    }
  }
}
layer {
  name: "bn4e_branch2b"
  type: "BatchNorm"
  bottom: "res4e_branch2b"
  top: "res4e_branch2b"
  batch_norm_param {
    use_global_stats: false
  }
}
layer {
  name: "scale4e_branch2b"
  type: "Scale"
  bottom: "res4e_branch2b"
  top: "res4e_branch2b"
  scale_param {
    bias_term: true
  }
}
layer {
  name: "res4e"
  type: "Eltwise"
  bottom: "res4d"
  bottom: "res4e_branch2b"
  top: "res4e"
  eltwise_param {
    operation: SUM
  }
}
layer {
  name: "res4e_relu"
  type: "ReLU"
  bottom: "res4e"
  top: "res4e"
}
layer {
  name: "res4f_branch2a"
  type: "Convolution"
  bottom: "res4e"
  top: "res4f_branch2a"
  convolution_param {
    num_output: 256
    bias_term: false
    pad: 1
    kernel_size: 3
    stride: 1
    weight_filler {
      type: "msra"
    }
  }
}
layer {
  name: "bn4f_branch2a"
  type: "BatchNorm"
  bottom: "res4f_branch2a"
  top: "res4f_branch2a"
  batch_norm_param {
    use_global_stats: false
  }
}
layer {
  name: "scale4f_branch2a"
  type: "Scale"
  bottom: "res4f_branch2a"
  top: "res4f_branch2a"
  scale_param {
    bias_term: true
  }
}
layer {
…
I0328 19:41:59.573846 13194 net.cpp:124] Setting up scale4a_branch2b
I0328 19:41:59.573854 13194 net.cpp:131] Top shape: 10 256 14 14 (501760)
I0328 19:41:59.573858 13194 net.cpp:139] Memory required for data: 656302240
I0328 19:41:59.573861 13194 layer_factory.hpp:77] Creating layer res4a
I0328 19:41:59.573868 13194 net.cpp:86] Creating Layer res4a
I0328 19:41:59.573870 13194 net.cpp:408] res4a <- res4a_branch1
I0328 19:41:59.573874 13194 net.cpp:408] res4a <- res4a_branch2b
I0328 19:41:59.573879 13194 net.cpp:382] res4a -> res4a
I0328 19:41:59.573907 13194 net.cpp:124] Setting up res4a
I0328 19:41:59.573912 13194 net.cpp:131] Top shape: 10 256 14 14 (501760)
I0328 19:41:59.573915 13194 net.cpp:139] Memory required for data: 658309280
I0328 19:41:59.573918 13194 layer_factory.hpp:77] Creating layer res4a_relu
I0328 19:41:59.573922 13194 net.cpp:86] Creating Layer res4a_relu
I0328 19:41:59.573925 13194 net.cpp:408] res4a_relu <- res4a
I0328 19:41:59.573931 13194 net.cpp:369] res4a_relu -> res4a (in-place)
I0328 19:41:59.574532 13194 net.cpp:124] Setting up res4a_relu
I0328 19:41:59.574542 13194 net.cpp:131] Top shape: 10 256 14 14 (501760)
I0328 19:41:59.574545 13194 net.cpp:139] Memory required for data: 660316320
I0328 19:41:59.574548 13194 layer_factory.hpp:77] Creating layer res4a_res4a_relu_0_split
I0328 19:41:59.574553 13194 net.cpp:86] Creating Layer res4a_res4a_relu_0_split
I0328 19:41:59.574556 13194 net.cpp:408] res4a_res4a_relu_0_split <- res4a
I0328 19:41:59.574563 13194 net.cpp:382] res4a_res4a_relu_0_split -> res4a_res4a_relu_0_split_0
I0328 19:41:59.574570 13194 net.cpp:382] res4a_res4a_relu_0_split -> res4a_res4a_relu_0_split_1
I0328 19:41:59.574623 13194 net.cpp:124] Setting up res4a_res4a_relu_0_split
I0328 19:41:59.574630 13194 net.cpp:131] Top shape: 10 256 14 14 (501760)
I0328 19:41:59.574633 13194 net.cpp:131] Top shape: 10 256 14 14 (501760)
I0328 19:41:59.574635 13194 net.cpp:139] Memory required for data: 664330400
I0328 19:41:59.574638 13194 layer_factory.hpp:77] Creating layer res4b_branch2a
I0328 19:41:59.574646 13194 net.cpp:86] Creating Layer res4b_branch2a
I0328 19:41:59.574649 13194 net.cpp:408] res4b_branch2a <- res4a_res4a_relu_0_split_0
I0328 19:41:59.574656 13194 net.cpp:382] res4b_branch2a -> res4b_branch2a
I0328 19:41:59.581867 13194 net.cpp:124] Setting up res4b_branch2a
I0328 19:41:59.581881 13194 net.cpp:131] Top shape: 10 256 14 14 (501760)
I0328 19:41:59.581883 13194 net.cpp:139] Memory required for data: 666337440
I0328 19:41:59.581889 13194 layer_factory.hpp:77] Creating layer bn4b_branch2a
I0328 19:41:59.581894 13194 net.cpp:86] Creating Layer bn4b_branch2a
I0328 19:41:59.581898 13194 net.cpp:408] bn4b_branch2a <- res4b_branch2a
I0328 19:41:59.581904 13194 net.cpp:369] bn4b_branch2a -> res4b_branch2a (in-place)
I0328 19:41:59.582140 13194 net.cpp:124] Setting up bn4b_branch2a
I0328 19:41:59.582147 13194 net.cpp:131] Top shape: 10 256 14 14 (501760)
I0328 19:41:59.582149 13194 net.cpp:139] Memory required for data: 668344480
I0328 19:41:59.582159 13194 layer_factory.hpp:77] Creating layer scale4b_branch2a
I0328 19:41:59.582175 13194 net.cpp:86] Creating Layer scale4b_branch2a
I0328 19:41:59.582177 13194 net.cpp:408] scale4b_branch2a <- res4b_branch2a
I0328 19:41:59.582181 13194 net.cpp:369] scale4b_branch2a -> res4b_branch2a (in-place)
I0328 19:41:59.582231 13194 layer_factory.hpp:77] Creating layer scale4b_branch2a
I0328 19:41:59.582363 13194 net.cpp:124] Setting up scale4b_branch2a
I0328 19:41:59.582370 13194 net.cpp:131] Top shape: 10 256 14 14 (501760)
I0328 19:41:59.582372 13194 net.cpp:139] Memory required for data: 670351520
I0328 19:41:59.582377 13194 layer_factory.hpp:77] Creating layer res4b_branch2a_relu
I0328 19:41:59.582381 13194 net.cpp:86] Creating Layer res4b_branch2a_relu
I0328 19:41:59.582386 13194 net.cpp:408] res4b_branch2a_relu <- res4b_branch2a
I0328 19:41:59.582391 13194 net.cpp:369] res4b_branch2a_relu -> res4b_branch2a (in-place)
I0328 19:41:59.582852 13194 net.cpp:124] Setting up res4b_branch2a_relu
I0328 19:41:59.582860 13194 net.cpp:131] Top shape: 10 256 14 14 (501760)
I0328 19:41:59.582864 13194 net.cpp:139] Memory required for data: 672358560
I0328 19:41:59.582866 13194 layer_factory.hpp:77] Creating layer res4b_branch2b
I0328 19:41:59.582875 13194 net.cpp:86] Creating Layer res4b_branch2b
I0328 19:41:59.582878 13194 net.cpp:408] res4b_branch2b <- res4b_branch2a
I0328 19:41:59.582883 13194 net.cpp:382] res4b_branch2b -> res4b_branch2b
I0328 19:41:59.590242 13194 net.cpp:124] Setting up res4b_branch2b
I0328 19:41:59.590256 13194 net.cpp:131] Top shape: 10 256 14 14 (501760)
I0328 19:41:59.590260 13194 net.cpp:139] Memory required for data: 674365600
I0328 19:41:59.590265 13194 layer_factory.hpp:77] Creating layer bn4b_branch2b
I0328 19:41:59.590271 13194 net.cpp:86] Creating Layer bn4b_branch2b
I0328 19:41:59.590274 13194 net.cpp:408] bn4b_branch2b <- res4b_branch2b
I0328 19:41:59.590281 13194 net.cpp:369] bn4b_branch2b -> res4b_branch2b (in-place)
I0328 19:41:59.590515 13194 net.cpp:124] Setting up bn4b_branch2b
I0328 19:41:59.590521 13194 net.cpp:131] Top shape: 10 256 14 14 (501760)
I0328 19:41:59.590524 13194 net.cpp:139] Memory required for data: 676372640
I0328 19:41:59.590550 13194 layer_factory.hpp:77] Creating layer scale4b_branch2b
I0328 19:41:59.590559 13194 net.cpp:86] Creating Layer scale4b_branch2b
I0328 19:41:59.590561 13194 net.cpp:408] scale4b_branch2b <- res4b_branch2b
I0328 19:41:59.590565 13194 net.cpp:369] scale4b_branch2b -> res4b_branch2b (in-place)
I0328 19:41:59.590615 13194 layer_factory.hpp:77] Creating layer scale4b_branch2b
I0328 19:41:59.590746 13194 net.cpp:124] Setting up scale4b_branch2b
I0328 19:41:59.590752 13194 net.cpp:131] Top shape: 10 256 14 14 (501760)
I0328 19:41:59.590755 13194 net.cpp:139] Memory required for data: 678379680
I0328 19:41:59.590760 13194 layer_factory.hpp:77] Creating layer res4b
I0328 19:41:59.590766 13194 net.cpp:86] Creating Layer res4b
I0328 19:41:59.590770 13194 net.cpp:408] res4b <- res4a_res4a_relu_0_split_1
I0328 19:41:59.590773 13194 net.cpp:408] res4b <- res4b_branch2b
I0328 19:41:59.590777 13194 net.cpp:382] res4b -> res4b
I0328 19:41:59.590808 13194 net.cpp:124] Setting up res4b
I0328 19:41:59.590813 13194 net.cpp:131] Top shape: 10 256 14 14 (501760)
I0328 19:41:59.590816 13194 net.cpp:139] Memory required for data: 680386720
I0328 19:41:59.590818 13194 layer_factory.hpp:77] Creating layer res4b_relu
I0328 19:41:59.590823 13194 net.cpp:86] Creating Layer res4b_relu
I0328 19:41:59.590826 13194 net.cpp:408] res4b_relu <- res4b
I0328 19:41:59.590831 13194 net.cpp:369] res4b_relu -> res4b (in-place)
I0328 19:41:59.591301 13194 net.cpp:124] Setting up res4b_relu
I0328 19:41:59.591310 13194 net.cpp:131] Top shape: 10 256 14 14 (501760)
I0328 19:41:59.591312 13194 net.cpp:139] Memory required for data: 682393760
I0328 19:41:59.591315 13194 layer_factory.hpp:77] Creating layer res4b_res4b_relu_0_split
I0328 19:41:59.591321 13194 net.cpp:86] Creating Layer res4b_res4b_relu_0_split
I0328 19:41:59.591325 13194 net.cpp:408] res4b_res4b_relu_0_split <- res4b
I0328 19:41:59.591342 13194 net.cpp:382] res4b_res4b_relu_0_split -> res4b_res4b_relu_0_split_0
I0328 19:41:59.591349 13194 net.cpp:382] res4b_res4b_relu_0_split -> res4b_res4b_relu_0_split_1
I0328 19:41:59.591403 13194 net.cpp:124] Setting up res4b_res4b_relu_0_split
I0328 19:41:59.591409 13194 net.cpp:131] Top shape: 10 256 14 14 (501760)
I0328 19:41:59.591413 13194 net.cpp:131] Top shape: 10 256 14 14 (501760)
I0328 19:41:59.591415 13194 net.cpp:139] Memory required for data: 686407840
I0328 19:41:59.591418 13194 layer_factory.hpp:77] Creating layer res4c_branch2a
I0328 19:41:59.591428 13194 net.cpp:86] Creating Layer res4c_branch2a
I0328 19:41:59.591430 13194 net.cpp:408] res4c_branch2a <- res4b_res4b_relu_0_split_0
I0328 19:41:59.591435 13194 net.cpp:382] res4c_branch2a -> res4c_branch2a
I0328 19:41:59.598631 13194 net.cpp:124] Setting up res4c_branch2a
I0328 19:41:59.598644 13194 net.cpp:131] Top shape: 10 256 14 14 (501760)
I0328 19:41:59.598647 13194 net.cpp:139] Memory required for data: 688414880
I0328 19:41:59.598652 13194 layer_factory.hpp:77] Creating layer bn4c_branch2a
I0328 19:41:59.598659 13194 net.cpp:86] Creating Layer bn4c_branch2a
I0328 19:41:59.598661 13194 net.cpp:408] bn4c_branch2a <- res4c_branch2a
I0328 19:41:59.598668 13194 net.cpp:369] bn4c_branch2a -> res4c_branch2a (in-place)
I0328 19:41:59.598907 13194 net.cpp:124] Setting up bn4c_branch2a
I0328 19:41:59.598914 13194 net.cpp:131] Top shape: 10 256 14 14 (501760)
I0328 19:41:59.598917 13194 net.cpp:139] Memory required for data: 690421920
I0328 19:41:59.598922 13194 layer_factory.hpp:77] Creating layer scale4c_branch2a
I0328 19:41:59.598929 13194 net.cpp:86] Creating Layer scale4c_branch2a
I0328 19:41:59.598933 13194 net.cpp:408] scale4c_branch2a <- res4c_branch2a
I0328 19:41:59.598937 13194 net.cpp:369] scale4c_branch2a -> res4c_branch2a (in-place)
I0328 19:41:59.598984 13194 layer_factory.hpp:77] Creating layer scale4c_branch2a
I0328 19:41:59.599135 13194 net.cpp:124] Setting up scale4c_branch2a
I0328 19:41:59.599143 13194 net.cpp:131] Top shape: 10 256 14 14 (501760)
I0328 19:41:59.599145 13194 net.cpp:139] Memory required for data: 692428960
I0328 19:41:59.599150 13194 layer_factory.hpp:77] Creating layer res4c_branch2a_relu
I0328 19:41:59.599155 13194 net.cpp:86] Creating Layer res4c_branch2a_relu
I0328 19:41:59.599159 13194 net.cpp:408] res4c_branch2a_relu <- res4c_branch2a
I0328 19:41:59.599164 13194 net.cpp:369] res4c_branch2a_relu -> res4c_branch2a (in-place)
I0328 19:41:59.599773 13194 net.cpp:124] Setting up res4c_branch2a_relu
I0328 19:41:59.599783 13194 net.cpp:131] Top shape: 10 256 14 14 (501760)
I0328 19:41:59.599786 13194 net.cpp:139] Memory required for data: 694436000
I0328 19:41:59.599789 13194 layer_factory.hpp:77] Creating layer res4c_branch2b
I0328 19:41:59.599800 13194 net.cpp:86] Creating Layer res4c_branch2b
I0328 19:41:59.599803 13194 net.cpp:408] res4c_branch2b <- res4c_branch2a
I0328 19:41:59.599810 13194 net.cpp:382] res4c_branch2b -> res4c_branch2b
I0328 19:41:59.607039 13194 net.cpp:124] Setting up res4c_branch2b
I0328 19:41:59.607051 13194 net.cpp:131] Top shape: 10 256 14 14 (501760)
I0328 19:41:59.607054 13194 net.cpp:139] Memory required for data: 696443040
I0328 19:41:59.607060 13194 layer_factory.hpp:77] Creating layer bn4c_branch2b
I0328 19:41:59.607065 13194 net.cpp:86] Creating Layer bn4c_branch2b
I0328 19:41:59.607069 13194 net.cpp:408] bn4c_branch2b <- res4c_branch2b
I0328 19:41:59.607077 13194 net.cpp:369] bn4c_branch2b -> res4c_branch2b (in-place)
I0328 19:41:59.607343 13194 net.cpp:124] Setting up bn4c_branch2b
I0328 19:41:59.607350 13194 net.cpp:131] Top shape: 10 256 14 14 (501760)
I0328 19:41:59.607353 13194 net.cpp:139] Memory required for data: 698450080
I0328 19:41:59.607359 13194 layer_factory.hpp:77] Creating layer scale4c_branch2b
I0328 19:41:59.607365 13194 net.cpp:86] Creating Layer scale4c_branch2b
I0328 19:41:59.607368 13194 net.cpp:408] scale4c_branch2b <- res4c_branch2b
I0328 19:41:59.607372 13194 net.cpp:369] scale4c_branch2b -> res4c_branch2b (in-place)
I0328 19:41:59.607424 13194 layer_factory.hpp:77] Creating layer scale4c_branch2b
I0328 19:41:59.607578 13194 net.cpp:124] Setting up scale4c_branch2b
I0328 19:41:59.607584 13194 net.cpp:131] Top shape: 10 256 14 14 (501760)
I0328 19:41:59.607586 13194 net.cpp:139] Memory required for data: 700457120
I0328 19:41:59.607591 13194 layer_factory.hpp:77] Creating layer res4c
I0328 19:41:59.607599 13194 net.cpp:86] Creating Layer res4c
I0328 19:41:59.607601 13194 net.cpp:408] res4c <- res4b_res4b_relu_0_split_1
I0328 19:41:59.607605 13194 net.cpp:408] res4c <- res4c_branch2b
I0328 19:41:59.607609 13194 net.cpp:382] res4c -> res4c
I0328 19:41:59.607641 13194 net.cpp:124] Setting up res4c
I0328 19:41:59.607646 13194 net.cpp:131] Top shape: 10 256 14 14 (501760)
I0328 19:41:59.607650 13194 net.cpp:139] Memory required for data: 702464160
I0328 19:41:59.607651 13194 layer_factory.hpp:77] Creating layer res4c_relu
I0328 19:41:59.607656 13194 net.cpp:86] Creating Layer res4c_relu
I0328 19:41:59.607659 13194 net.cpp:408] res4c_relu <- res4c
I0328 19:41:59.607664 13194 net.cpp:369] res4c_relu -> res4c (in-place)
I0328 19:41:59.608129 13194 net.cpp:124] Setting up res4c_relu
I0328 19:41:59.608137 13194 net.cpp:131] Top shape: 10 256 14 14 (501760)
I0328 19:41:59.608140 13194 net.cpp:139] Memory required for data: 704471200
I0328 19:41:59.608144 13194 layer_factory.hpp:77] Creating layer res4c_res4c_relu_0_split
I0328 19:41:59.608147 13194 net.cpp:86] Creating Layer res4c_res4c_relu_0_split
I0328 19:41:59.608151 13194 net.cpp:408] res4c_res4c_relu_0_split <- res4c
I0328 19:41:59.608157 13194 net.cpp:382] res4c_res4c_relu_0_split -> res4c_res4c_relu_0_split_0
I0328 19:41:59.608163 13194 net.cpp:382] res4c_res4c_relu_0_split -> res4c_res4c_relu_0_split_1
I0328 19:41:59.608217 13194 net.cpp:124] Setting up res4c_res4c_relu_0_split
I0328 19:41:59.608224 13194 net.cpp:131] Top shape: 10 256 14 14 (501760)
I0328 19:41:59.608227 13194 net.cpp:131] Top shape: 10 256 14 14 (501760)
I0328 19:41:59.608229 13194 net.cpp:139] Memory required for data: 708485280
I0328 19:41:59.608232 13194 layer_factory.hpp:77] Creating layer res4d_branch2a
I0328 19:41:59.608242 13194 net.cpp:86] Creating Layer res4d_branch2a
I0328 19:41:59.608245 13194 net.cpp:408] res4d_branch2a <- res4c_res4c_relu_0_split_0
I0328 19:41:59.608249 13194 net.cpp:382] res4d_branch2a -> res4d_branch2a
I0328 19:41:59.615474 13194 net.cpp:124] Setting up res4d_branch2a
I0328 19:41:59.615489 13194 net.cpp:131] Top shape: 10 256 14 14 (501760)
I0328 19:41:59.615491 13194 net.cpp:139] Memory required for data: 710492320
I0328 19:41:59.615496 13194 layer_factory.hpp:77] Creating layer bn4d_branch2a
I0328 19:41:59.615504 13194 net.cpp:86] Creating Layer bn4d_branch2a
I0328 19:41:59.615507 13194 net.cpp:408] bn4d_branch2a <- res4d_branch2a
I0328 19:41:59.615514 13194 net.cpp:369] bn4d_branch2a -> res4d_branch2a (in-place)
I0328 19:41:59.615757 13194 net.cpp:124] Setting up bn4d_branch2a
I0328 19:41:59.615763 13194 net.cpp:131] Top shape: 10 256 14 14 (501760)
I0328 19:41:59.615767 13194 net.cpp:139] Memory required for data: 712499360
I0328 19:41:59.615772 13194 layer_factory.hpp:77] Creating layer scale4d_branch2a
I0328 19:41:59.615779 13194 net.cpp:86] Creating Layer scale4d_branch2a
I0328 19:41:59.615782 13194 net.cpp:408] scale4d_branch2a <- res4d_branch2a
I0328 19:41:59.615787 13194 net.cpp:369] scale4d_branch2a -> res4d_branch2a (in-place)
I0328 19:41:59.615834 13194 layer_factory.hpp:77] Creating layer scale4d_branch2a
I0328 19:41:59.615972 13194 net.cpp:124] Setting up scale4d_branch2a
I0328 19:41:59.615978 13194 net.cpp:131] Top shape: 10 256 14 14 (501760)
I0328 19:41:59.615981 13194 net.cpp:139] Memory required for data: 714506400
I0328 19:41:59.615986 13194 layer_factory.hpp:77] Creating layer res4d_branch2a_relu
I0328 19:41:59.615991 13194 net.cpp:86] Creating Layer res4d_branch2a_relu
I0328 19:41:59.615994 13194 net.cpp:408] res4d_branch2a_relu <- res4d_branch2a
I0328 19:41:59.616000 13194 net.cpp:369] res4d_branch2a_relu -> res4d_branch2a (in-place)
I0328 19:41:59.616626 13194 net.cpp:124] Setting up res4d_branch2a_relu
I0328 19:41:59.616644 13194 net.cpp:131] Top shape: 10 256 14 14 (501760)
I0328 19:41:59.616647 13194 net.cpp:139] Memory required for data: 716513440
I0328 19:41:59.616652 13194 layer_factory.hpp:77] Creating layer res4d_branch2b
I0328 19:41:59.616660 13194 net.cpp:86] Creating Layer res4d_branch2b
I0328 19:41:59.616664 13194 net.cpp:408] res4d_branch2b <- res4d_branch2a
I0328 19:41:59.616672 13194 net.cpp:382] res4d_branch2b -> res4d_branch2b
I0328 19:41:59.623917 13194 net.cpp:124] Setting up res4d_branch2b
I0328 19:41:59.623929 13194 net.cpp:131] Top shape: 10 256 14 14 (501760)
I0328 19:41:59.623930 13194 net.cpp:139] Memory required for data: 718520480
I0328 19:41:59.623936 13194 layer_factory.hpp:77] Creating layer bn4d_branch2b
I0328 19:41:59.623941 13194 net.cpp:86] Creating Layer bn4d_branch2b
I0328 19:41:59.623945 13194 net.cpp:408] bn4d_branch2b <- res4d_branch2b
I0328 19:41:59.623951 13194 net.cpp:369] bn4d_branch2b -> res4d_branch2b (in-place)
I0328 19:41:59.624198 13194 net.cpp:124] Setting up bn4d_branch2b
I0328 19:41:59.624205 13194 net.cpp:131] Top shape: 10 256 14 14 (501760)
I0328 19:41:59.624208 13194 net.cpp:139] Memory required for data: 720527520
I0328 19:41:59.624214 13194 layer_factory.hpp:77] Creating layer scale4d_branch2b
I0328 19:41:59.624218 13194 net.cpp:86] Creating Layer scale4d_branch2b
I0328 19:41:59.624222 13194 net.cpp:408] scale4d_branch2b <- res4d_branch2b
I0328 19:41:59.624227 13194 net.cpp:369] scale4d_branch2b -> res4d_branch2b (in-place)
I0328 19:41:59.624274 13194 layer_factory.hpp:77] Creating layer scale4d_branch2b
I0328 19:41:59.624413 13194 net.cpp:124] Setting up scale4d_branch2b
I0328 19:41:59.624419 13194 net.cpp:131] Top shape: 10 256 14 14 (501760)
I0328 19:41:59.624421 13194 net.cpp:139] Memory required for data: 722534560
I0328 19:41:59.624426 13194 layer_factory.hpp:77] Creating layer res4d
I0328 19:41:59.624433 13194 net.cpp:86] Creating Layer res4d
I0328 19:41:59.624436 13194 net.cpp:408] res4d <- res4c_res4c_relu_0_split_1
I0328 19:41:59.624440 13194 net.cpp:408] res4d <- res4d_branch2b
I0328 19:41:59.624444 13194 net.cpp:382] res4d -> res4d
I0328 19:41:59.624490 13194 net.cpp:124] Setting up res4d
I0328 19:41:59.624497 13194 net.cpp:131] Top shape: 10 256 14 14 (501760)
I0328 19:41:59.624500 13194 net.cpp:139] Memory required for data: 724541600
I0328 19:41:59.624502 13194 layer_factory.hpp:77] Creating layer res4d_relu
I0328 19:41:59.624506 13194 net.cpp:86] Creating Layer res4d_relu
I0328 19:41:59.624511 13194 net.cpp:408] res4d_relu <- res4d
I0328 19:41:59.624514 13194 net.cpp:369] res4d_relu -> res4d (in-place)
I0328 19:41:59.624990 13194 net.cpp:124] Setting up res4d_relu
I0328 19:41:59.625000 13194 net.cpp:131] Top shape: 10 256 14 14 (501760)
I0328 19:41:59.625003 13194 net.cpp:139] Memory required for data: 726548640
I0328 19:41:59.625006 13194 layer_factory.hpp:77] Creating layer res4d_res4d_relu_0_split
I0328 19:41:59.625011 13194 net.cpp:86] Creating Layer res4d_res4d_relu_0_split
I0328 19:41:59.625015 13194 net.cpp:408] res4d_res4d_relu_0_split <- res4d
I0328 19:41:59.625021 13194 net.cpp:382] res4d_res4d_relu_0_split -> res4d_res4d_relu_0_split_0
I0328 19:41:59.625027 13194 net.cpp:382] res4d_res4d_relu_0_split -> res4d_res4d_relu_0_split_1
I0328 19:41:59.625080 13194 net.cpp:124] Setting up res4d_res4d_relu_0_split
I0328 19:41:59.625087 13194 net.cpp:131] Top shape: 10 256 14 14 (501760)
I0328 19:41:59.625092 13194 net.cpp:131] Top shape: 10 256 14 14 (501760)
I0328 19:41:59.625093 13194 net.cpp:139] Memory required for data: 730562720
I0328 19:41:59.625097 13194 layer_factory.hpp:77] Creating layer res4e_branch2a
I0328 19:41:59.625103 13194 net.cpp:86] Creating Layer res4e_branch2a
I0328 19:41:59.625106 13194 net.cpp:408] res4e_branch2a <- res4d_res4d_relu_0_split_0
I0328 19:41:59.625113 13194 net.cpp:382] res4e_branch2a -> res4e_branch2a
I0328 19:41:59.632596 13194 net.cpp:124] Setting up res4e_branch2a
I0328 19:41:59.632607 13194 net.cpp:131] Top shape: 10 256 14 14 (501760)
I0328 19:41:59.632614 13194 net.cpp:139] Memory required for data: 732569760
I0328 19:41:59.632630 13194 layer_factory.hpp:77] Creating layer bn4e_branch2a
I0328 19:41:59.632661 13194 net.cpp:86] Creating Layer bn4e_branch2a
I0328 19:41:59.632665 13194 net.cpp:408] bn4e_branch2a <- res4e_branch2a
I0328 19:41:59.632670 13194 net.cpp:369] bn4e_branch2a -> res4e_branch2a (in-place)
I0328 19:41:59.632918 13194 net.cpp:124] Setting up bn4e_branch2a
I0328 19:41:59.632925 13194 net.cpp:131] Top shape: 10 256 14 14 (501760)
I0328 19:41:59.632927 13194 net.cpp:139] Memory required for data: 734576800
I0328 19:41:59.632935 13194 layer_factory.hpp:77] Creating layer scale4e_branch2a
I0328 19:41:59.632941 13194 net.cpp:86] Creating Layer scale4e_branch2a
I0328 19:41:59.632944 13194 net.cpp:408] scale4e_branch2a <- res4e_branch2a
I0328 19:41:59.632947 13194 net.cpp:369] scale4e_branch2a -> res4e_branch2a (in-place)
I0328 19:41:59.632997 13194 layer_factory.hpp:77] Creating layer scale4e_branch2a
I0328 19:41:59.633134 13194 net.cpp:124] Setting up scale4e_branch2a
I0328 19:41:59.633141 13194 net.cpp:131] Top shape: 10 256 14 14 (501760)
I0328 19:41:59.633143 13194 net.cpp:139] Memory required for data: 736583840
I0328 19:41:59.633148 13194 layer_factory.hpp:77] Creating layer res4e_branch2a_relu
I0328 19:41:59.633152 13194 net.cpp:86] Creating Layer res4e_branch2a_relu
I0328 19:41:59.633155 13194 net.cpp:408] res4e_branch2a_relu <- res4e_branch2a
I0328 19:41:59.633160 13194 net.cpp:369] res4e_branch2a_relu -> res4e_branch2a (in-place)
I0328 19:41:59.633630 13194 net.cpp:124] Setting up res4e_branch2a_relu
I0328 19:41:59.633641 13194 net.cpp:131] Top shape: 10 256 14 14 (501760)
I0328 19:41:59.633642 13194 net.cpp:139] Memory required for data: 738590880
I0328 19:41:59.633646 13194 layer_factory.hpp:77] Creating layer res4e_branch2b
I0328 19:41:59.633654 13194 net.cpp:86] Creating Layer res4e_branch2b
I0328 19:41:59.633657 13194 net.cpp:408] res4e_branch2b <- res4e_branch2a
I0328 19:41:59.633662 13194 net.cpp:382] res4e_branch2b -> res4e_branch2b
I0328 19:41:59.640904 13194 net.cpp:124] Setting up res4e_branch2b
I0328 19:41:59.640915 13194 net.cpp:131] Top shape: 10 256 14 14 (501760)
I0328 19:41:59.640918 13194 net.cpp:139] Memory required for data: 740597920
I0328 19:41:59.640923 13194 layer_factory.hpp:77] Creating layer bn4e_branch2b
I0328 19:41:59.640930 13194 net.cpp:86] Creating Layer bn4e_branch2b
I0328 19:41:59.640935 13194 net.cpp:408] bn4e_branch2b <- res4e_branch2b
I0328 19:41:59.640940 13194 net.cpp:369] bn4e_branch2b -> res4e_branch2b (in-place)
I0328 19:41:59.641191 13194 net.cpp:124] Setting up bn4e_branch2b
I0328 19:41:59.641198 13194 net.cpp:131] Top shape: 10 256 14 14 (501760)
I0328 19:41:59.641201 13194 net.cpp:139] Memory required for data: 742604960
I0328 19:41:59.641207 13194 layer_factory.hpp:77] Creating layer scale4e_branch2b
I0328 19:41:59.641212 13194 net.cpp:86] Creating Layer scale4e_branch2b
I0328 19:41:59.641216 13194 net.cpp:408] scale4e_branch2b <- res4e_branch2b
I0328 19:41:59.641219 13194 net.cpp:369] scale4e_branch2b -> res4e_branch2b (in-place)
I0328 19:41:59.641271 13194 layer_factory.hpp:77] Creating layer scale4e_branch2b
I0328 19:41:59.641413 13194 net.cpp:124] Setting up scale4e_branch2b
I0328 19:41:59.641420 13194 net.cpp:131] Top shape: 10 256 14 14 (501760)
I0328 19:41:59.641423 13194 net.cpp:139] Memory required for data: 744612000
I0328 19:41:59.641427 13194 layer_factory.hpp:77] Creating layer res4e
I0328 19:41:59.641433 13194 net.cpp:86] Creating Layer res4e
I0328 19:41:59.641436 13194 net.cpp:408] res4e <- res4d_res4d_relu_0_split_1
I0328 19:41:59.641440 13194 net.cpp:408] res4e <- res4e_branch2b
I0328 19:41:59.641446 13194 net.cpp:382] res4e -> res4e
I0328 19:41:59.641476 13194 net.cpp:124] Setting up res4e
I0328 19:41:59.641481 13194 net.cpp:131] Top shape: 10 256 14 14 (501760)
I0328 19:41:59.641484 13194 net.cpp:139] Memory required for data: 746619040
I0328 19:41:59.641487 13194 layer_factory.hpp:77] Creating layer res4e_relu
I0328 19:41:59.641494 13194 net.cpp:86] Creating Layer res4e_relu
I0328 19:41:59.641499 13194 net.cpp:408] res4e_relu <- res4e
I0328 19:41:59.641512 13194 net.cpp:369] res4e_relu -> res4e (in-place)
I0328 19:41:59.642134 13194 net.cpp:124] Setting up res4e_relu
I0328 19:41:59.642146 13194 net.cpp:131] Top shape: 10 256 14 14 (501760)
I0328 19:41:59.642148 13194 net.cpp:139] Memory required for data: 748626080
I0328 19:41:59.642153 13194 layer_factory.hpp:77] Creating layer res4e_res4e_relu_0_split
I0328 19:41:59.642158 13194 net.cpp:86] Creating Layer res4e_res4e_relu_0_split
I0328 19:41:59.642161 13194 net.cpp:408] res4e_res4e_relu_0_split <- res4e
I0328 19:41:59.642165 13194 net.cpp:382] res4e_res4e_relu_0_split -> res4e_res4e_relu_0_split_0
I0328 19:41:59.642174 13194 net.cpp:382] res4e_res4e_relu_0_split -> res4e_res4e_relu_0_split_1
I0328 19:41:59.642230 13194 net.cpp:124] Setting up res4e_res4e_relu_0_split
I0328 19:41:59.642235 13194 net.cpp:131] Top shape: 10 256 14 14 (501760)
I0328 19:41:59.642238 13194 net.cpp:131] Top shape: 10 256 14 14 (501760)
I0328 19:41:59.642241 13194 net.cpp:139] Memory required for data: 752640160
I0328 19:41:59.642243 13194 layer_factory.hpp:77] Creating layer res4f_branch2a
I0328 19:41:59.642252 13194 net.cpp:86] Creating Layer res4f_branch2a
I0328 19:41:59.642256 13194 net.cpp:408] res4f_branch2a <- res4e_res4e_relu_0_split_0
I0328 19:41:59.642262 13194 net.cpp:382] res4f_branch2a -> res4f_branch2a
I0328 19:41:59.649516 13194 net.cpp:124] Setting up res4f_branch2a
I0328 19:41:59.649528 13194 net.cpp:131] Top shape: 10 256 14 14 (501760)
I0328 19:41:59.649530 13194 net.cpp:139] Memory required for data: 754647200
I0328 19:41:59.649536 13194 layer_factory.hpp:77] Creating layer bn4f_branch2a
I0328 19:41:59.649544 13194 net.cpp:86] Creating Layer bn4f_branch2a
I0328 19:41:59.649547 13194 net.cpp:408] bn4f_branch2a <- res4f_branch2a
I0328 19:41:59.649552 13194 net.cpp:369] bn4f_branch2a -> res4f_branch2a (in-place)
I0328 19:41:59.649804 13194 net.cpp:124] Setting up bn4f_branch2a
I0328 19:41:59.649812 13194 net.cpp:131] Top shape: 10 256 14 14 (501760)
I0328 19:41:59.649814 13194 net.cpp:139] Memory required for data: 756654240
I0328 19:41:59.649821 13194 layer_factory.hpp:77] Creating layer scale4f_branch2a
I0328 19:41:59.649825 13194 net.cpp:86] Creating Layer scale4f_branch2a
I0328 19:41:59.649828 13194 net.cpp:408] scale4f_branch2a <- res4f_branch2a
I0328 19:41:59.649832 13194 net.cpp:369] scale4f_branch2a -> res4f_branch2a (in-place)
I0328 19:41:59.649883 13194 layer_factory.hpp:77] Creating layer scale4f_branch2a
I0328 19:41:59.650027 13194 net.cpp:124] Setting up scale4f_branch2a
I0328 19:41:59.650032 13194 net.cpp:131] Top shape: 10 256 14 14 (501760)
I0328 19:41:59.650035 13194 net.cpp:139] Memory required for data: 758661280
I0328 19:41:59.650039 13194 layer_factory.hpp:77] Creating layer res4f_branch2a_relu
I0328 19:41:59.650046 13194 net.cpp:86] Creating Layer res4f_branch2a_relu
I0328 19:41:59.650049 13194 net.cpp:408] res4f_branch2a_relu <- res4f_branch2a
I0328 19:41:59.650053 13194 net.cpp:369] res4f_branch2a_relu -> res4f_branch2a (in-place)
I0328 19:41:59.650524 13194 net.cpp:124] Setting up res4f_branch2a_relu
I0328 19:41:59.650532 13194 net.cpp:131] Top shape: 10 256 14 14 (501760)
I0328 19:41:59.650535 13194 net.cpp:139] Memory required for data: 760668320
I0328 19:41:59.650538 13194 layer_factory.hpp:77] Creating layer res4f_branch2b
I0328 19:41:59.650547 13194 net.cpp:86] Creating Layer res4f_branch2b
I0328 19:41:59.650552 13194 net.cpp:408] res4f_branch2b <- res4f_branch2a
I0328 19:41:59.650557 13194 net.cpp:382] res4f_branch2b -> res4f_branch2b
I0328 19:41:59.657783 13194 net.cpp:124] Setting up res4f_branch2b
I0328 19:41:59.657795 13194 net.cpp:131] Top shape: 10 256 14 14 (501760)
I0328 19:41:59.657799 13194 net.cpp:139] Memory required for data: 762675360
I0328 19:41:59.657804 13194 layer_factory.hpp:77] Creating layer bn4f_branch2b
I0328 19:41:59.657811 13194 net.cpp:86] Creating Layer bn4f_branch2b
I0328 19:41:59.657814 13194 net.cpp:408] bn4f_branch2b <- res4f_branch2b
I0328 19:41:59.657819 13194 net.cpp:369] bn4f_branch2b -> res4f_branch2b (in-place)
I0328 19:41:59.658079 13194 net.cpp:124] Setting up bn4f_branch2b
I0328 19:41:59.658097 13194 net.cpp:131] Top shape: 10 256 14 14 (501760)
I0328 19:41:59.658099 13194 net.cpp:139] Memory required for data: 764682400
I0328 19:41:59.658107 13194 layer_factory.hpp:77] Creating layer scale4f_branch2b
I0328 19:41:59.658111 13194 net.cpp:86] Creating Layer scale4f_branch2b
I0328 19:41:59.658114 13194 net.cpp:408] scale4f_branch2b <- res4f_branch2b
I0328 19:41:59.658118 13194 net.cpp:369] scale4f_branch2b -> res4f_branch2b (in-place)
I0328 19:41:59.658172 13194 layer_factory.hpp:77] Creating layer scale4f_branch2b
I0328 19:41:59.658314 13194 net.cpp:124] Setting up scale4f_branch2b
I0328 19:41:59.658320 13194 net.cpp:131] Top shape: 10 256 14 14 (501760)
I0328 19:41:59.658324 13194 net.cpp:139] Memory required for data: 766689440
I0328 19:41:59.658329 13194 layer_factory.hpp:77] Creating layer res4f
I0328 19:41:59.658334 13194 net.cpp:86] Creating Layer res4f
I0328 19:41:59.658336 13194 net.cpp:408] res4f <- res4e_res4e_relu_0_split_1
I0328 19:41:59.658339 13194 net.cpp:408] res4f <- res4f_branch2b
I0328 19:41:59.658346 13194 net.cpp:382] res4f -> res4f
I0328 19:41:59.658375 13194 net.cpp:124] Setting up res4f
I0328 19:41:59.658380 13194 net.cpp:131] Top shape: 10 256 14 14 (501760)
I0328 19:41:59.658383 13194 net.cpp:139] Memory required for data: 768696480
I0328 19:41:59.658386 13194 layer_factory.hpp:77] Creating layer res4f_relu
I0328 19:41:59.658392 13194 net.cpp:86] Creating Layer res4f_relu
I0328 19:41:59.658396 13194 net.cpp:408] res4f_relu <- res4f
I0328 19:41:59.658399 13194 net.cpp:369] res4f_relu -> res4f (in-place)
I0328 19:41:59.659023 13194 net.cpp:124] Setting up res4f_relu
I0328 19:41:59.659034 13194 net.cpp:131] Top shape: 10 256 14 14 (501760)
I0328 19:41:59.659036 13194 net.cpp:139] Memory required for data: 770703520
I0328 19:41:59.659039 13194 layer_factory.hpp:77] Creating layer res4f_res4f_relu_0_split
I0328 19:41:59.659045 13194 net.cpp:86] Creating Layer res4f_res4f_relu_0_split
I0328 19:41:59.659049 13194 net.cpp:408] res4f_res4f_relu_0_split <- res4f
I0328 19:41:59.659054 13194 net.cpp:382] res4f_res4f_relu_0_split -> res4f_res4f_relu_0_split_0
I0328 19:41:59.659061 13194 net.cpp:382] res4f_res4f_relu_0_split -> res4f_res4f_relu_0_split_1
I0328 19:41:59.659127 13194 net.cpp:124] Setting up res4f_res4f_relu_0_split
I0328 19:41:59.659134 13194 net.cpp:131] Top shape: 10 256 14 14 (501760)
I0328 19:41:59.659137 13194 net.cpp:131] Top shape: 10 256 14 14 (501760)
I0328 19:41:59.659140 13194 net.cpp:139] Memory required for data: 774717600
I0328 19:41:59.659143 13194 layer_factory.hpp:77] Creating layer res5a_branch1
I0328 19:41:59.659152 13194 net.cpp:86] Creating Layer res5a_branch1
I0328 19:41:59.659155 13194 net.cpp:408] res5a_branch1 <- res4f_res4f_relu_0_split_0
I0328 19:41:59.659162 13194 net.cpp:382] res5a_branch1 -> res5a_branch1
I0328 19:41:59.662014 13194 net.cpp:124] Setting up res5a_branch1
I0328 19:41:59.662027 13194 net.cpp:131] Top shape: 10 512 7 7 (250880)
I0328 19:41:59.662030 13194 net.cpp:139] Memory required for data: 775721120
I0328 19:41:59.662034 13194 layer_factory.hpp:77] Creating layer bn5a_branch1
I0328 19:41:59.662040 13194 net.cpp:86] Creating Layer bn5a_branch1
I0328 19:41:59.662044 13194 net.cpp:408] bn5a_branch1 <- res5a_branch1
I0328 19:41:59.662050 13194 net.cpp:369] bn5a_branch1 -> res5a_branch1 (in-place)
I0328 19:41:59.662364 13194 net.cpp:124] Setting up bn5a_branch1
I0328 19:41:59.662376 13194 net.cpp:131] Top shape: 10 512 7 7 (250880)
I0328 19:41:59.662379 13194 net.cpp:139] Memory required for data: 776724640
I0328 19:41:59.662385 13194 layer_factory.hpp:77] Creating layer scale5a_branch1
I0328 19:41:59.662389 13194 net.cpp:86] Creating Layer scale5a_branch1
I0328 19:41:59.662394 13194 net.cpp:408] scale5a_branch1 <- res5a_branch1
I0328 19:41:59.662397 13194 net.cpp:369] scale5a_branch1 -> res5a_branch1 (in-place)
I0328 19:41:59.662446 13194 layer_factory.hpp:77] Creating layer scale5a_branch1
I0328 19:41:59.662597 13194 net.cpp:124] Setting up scale5a_branch1
I0328 19:41:59.662608 13194 net.cpp:131] Top shape: 10 512 7 7 (250880)
I0328 19:41:59.662619 13194 net.cpp:139] Memory required for data: 777728160
I0328 19:41:59.662626 13194 layer_factory.hpp:77] Creating layer res5a_branch2a
I0328 19:41:59.662633 13194 net.cpp:86] Creating Layer res5a_branch2a
I0328 19:41:59.662637 13194 net.cpp:408] res5a_branch2a <- res4f_res4f_relu_0_split_1
I0328 19:41:59.662643 13194 net.cpp:382] res5a_branch2a -> res5a_branch2a
I0328 19:41:59.674993 13194 net.cpp:124] Setting up res5a_branch2a
I0328 19:41:59.675005 13194 net.cpp:131] Top shape: 10 512 7 7 (250880)
I0328 19:41:59.675009 13194 net.cpp:139] Memory required for data: 778731680
I0328 19:41:59.675014 13194 layer_factory.hpp:77] Creating layer bn5a_branch2a
I0328 19:41:59.675022 13194 net.cpp:86] Creating Layer bn5a_branch2a
I0328 19:41:59.675025 13194 net.cpp:408] bn5a_branch2a <- res5a_branch2a
I0328 19:41:59.675032 13194 net.cpp:369] bn5a_branch2a -> res5a_branch2a (in-place)
I0328 19:41:59.675304 13194 net.cpp:124] Setting up bn5a_branch2a
I0328 19:41:59.675312 13194 net.cpp:131] Top shape: 10 512 7 7 (250880)
I0328 19:41:59.675314 13194 net.cpp:139] Memory required for data: 779735200
I0328 19:41:59.675320 13194 layer_factory.hpp:77] Creating layer scale5a_branch2a
I0328 19:41:59.675328 13194 net.cpp:86] Creating Layer scale5a_branch2a
I0328 19:41:59.675330 13194 net.cpp:408] scale5a_branch2a <- res5a_branch2a
I0328 19:41:59.675334 13194 net.cpp:369] scale5a_branch2a -> res5a_branch2a (in-place)
I0328 19:41:59.675381 13194 layer_factory.hpp:77] Creating layer scale5a_branch2a
I0328 19:41:59.675536 13194 net.cpp:124] Setting up scale5a_branch2a
I0328 19:41:59.675542 13194 net.cpp:131] Top shape: 10 512 7 7 (250880)
I0328 19:41:59.675544 13194 net.cpp:139] Memory required for data: 780738720
I0328 19:41:59.675550 13194 layer_factory.hpp:77] Creating layer res5a_branch2a_relu
I0328 19:41:59.675554 13194 net.cpp:86] Creating Layer res5a_branch2a_relu
I0328 19:41:59.675557 13194 net.cpp:408] res5a_branch2a_relu <- res5a_branch2a
I0328 19:41:59.675565 13194 net.cpp:369] res5a_branch2a_relu -> res5a_branch2a (in-place)
I0328 19:41:59.676184 13194 net.cpp:124] Setting up res5a_branch2a_relu
I0328 19:41:59.676196 13194 net.cpp:131] Top shape: 10 512 7 7 (250880)
I0328 19:41:59.676199 13194 net.cpp:139] Memory required for data: 781742240
I0328 19:41:59.676203 13194 layer_factory.hpp:77] Creating layer res5a_branch2b
I0328 19:41:59.676213 13194 net.cpp:86] Creating Layer res5a_branch2b
I0328 19:41:59.676215 13194 net.cpp:408] res5a_branch2b <- res5a_branch2a
I0328 19:41:59.676220 13194 net.cpp:382] res5a_branch2b -> res5a_branch2b
I0328 19:41:59.698695 13194 net.cpp:124] Setting up res5a_branch2b
I0328 19:41:59.698717 13194 net.cpp:131] Top shape: 10 512 7 7 (250880)
I0328 19:41:59.698720 13194 net.cpp:139] Memory required for data: 782745760
I0328 19:41:59.698727 13194 layer_factory.hpp:77] Creating layer bn5a_branch2b
I0328 19:41:59.698734 13194 net.cpp:86] Creating Layer bn5a_branch2b
I0328 19:41:59.698738 13194 net.cpp:408] bn5a_branch2b <- res5a_branch2b
I0328 19:41:59.698746 13194 net.cpp:369] bn5a_branch2b -> res5a_branch2b (in-place)
I0328 19:41:59.699015 13194 net.cpp:124] Setting up bn5a_branch2b
I0328 19:41:59.699021 13194 net.cpp:131] Top shape: 10 512 7 7 (250880)
I0328 19:41:59.699024 13194 net.cpp:139] Memory required for data: 783749280
I0328 19:41:59.699030 13194 layer_factory.hpp:77] Creating layer scale5a_branch2b
I0328 19:41:59.699038 13194 net.cpp:86] Creating Layer scale5a_branch2b
I0328 19:41:59.699040 13194 net.cpp:408] scale5a_branch2b <- res5a_branch2b
I0328 19:41:59.699044 13194 net.cpp:369] scale5a_branch2b -> res5a_branch2b (in-place)
I0328 19:41:59.699098 13194 layer_factory.hpp:77] Creating layer scale5a_branch2b
I0328 19:41:59.699259 13194 net.cpp:124] Setting up scale5a_branch2b
I0328 19:41:59.699266 13194 net.cpp:131] Top shape: 10 512 7 7 (250880)
I0328 19:41:59.699270 13194 net.cpp:139] Memory required for data: 784752800
I0328 19:41:59.699275 13194 layer_factory.hpp:77] Creating layer res5a
I0328 19:41:59.699290 13194 net.cpp:86] Creating Layer res5a
I0328 19:41:59.699313 13194 net.cpp:408] res5a <- res5a_branch1
I0328 19:41:59.699317 13194 net.cpp:408] res5a <- res5a_branch2b
I0328 19:41:59.699322 13194 net.cpp:382] res5a -> res5a
I0328 19:41:59.699357 13194 net.cpp:124] Setting up res5a
I0328 19:41:59.699363 13194 net.cpp:131] Top shape: 10 512 7 7 (250880)
I0328 19:41:59.699367 13194 net.cpp:139] Memory required for data: 785756320
I0328 19:41:59.699369 13194 layer_factory.hpp:77] Creating layer res5a_relu
I0328 19:41:59.699374 13194 net.cpp:86] Creating Layer res5a_relu
I0328 19:41:59.699378 13194 net.cpp:408] res5a_relu <- res5a
I0328 19:41:59.699383 13194 net.cpp:369] res5a_relu -> res5a (in-place)
I0328 19:41:59.699873 13194 net.cpp:124] Setting up res5a_relu
I0328 19:41:59.699883 13194 net.cpp:131] Top shape: 10 512 7 7 (250880)
I0328 19:41:59.699887 13194 net.cpp:139] Memory required for data: 786759840
I0328 19:41:59.699889 13194 layer_factory.hpp:77] Creating layer res5a_res5a_relu_0_split
I0328 19:41:59.699895 13194 net.cpp:86] Creating Layer res5a_res5a_relu_0_split
I0328 19:41:59.699898 13194 net.cpp:408] res5a_res5a_relu_0_split <- res5a
I0328 19:41:59.699904 13194 net.cpp:382] res5a_res5a_relu_0_split -> res5a_res5a_relu_0_split_0
I0328 19:41:59.699911 13194 net.cpp:382] res5a_res5a_relu_0_split -> res5a_res5a_relu_0_split_1
I0328 19:41:59.699968 13194 net.cpp:124] Setting up res5a_res5a_relu_0_split
I0328 19:41:59.699975 13194 net.cpp:131] Top shape: 10 512 7 7 (250880)
I0328 19:41:59.699977 13194 net.cpp:131] Top shape: 10 512 7 7 (250880)
I0328 19:41:59.699980 13194 net.cpp:139] Memory required for data: 788766880
I0328 19:41:59.699982 13194 layer_factory.hpp:77] Creating layer res5b_branch2a
I0328 19:41:59.699993 13194 net.cpp:86] Creating Layer res5b_branch2a
I0328 19:41:59.699996 13194 net.cpp:408] res5b_branch2a <- res5a_res5a_relu_0_split_0
I0328 19:41:59.700001 13194 net.cpp:382] res5b_branch2a -> res5b_branch2a
I0328 19:41:59.722555 13194 net.cpp:124] Setting up res5b_branch2a
I0328 19:41:59.722574 13194 net.cpp:131] Top shape: 10 512 7 7 (250880)
I0328 19:41:59.722578 13194 net.cpp:139] Memory required for data: 789770400
I0328 19:41:59.722584 13194 layer_factory.hpp:77] Creating layer bn5b_branch2a
I0328 19:41:59.722594 13194 net.cpp:86] Creating Layer bn5b_branch2a
I0328 19:41:59.722597 13194 net.cpp:408] bn5b_branch2a <- res5b_branch2a
I0328 19:41:59.722602 13194 net.cpp:369] bn5b_branch2a -> res5b_branch2a (in-place)
I0328 19:41:59.722872 13194 net.cpp:124] Setting up bn5b_branch2a
I0328 19:41:59.722879 13194 net.cpp:131] Top shape: 10 512 7 7 (250880)
I0328 19:41:59.722882 13194 net.cpp:139] Memory required for data: 790773920
I0328 19:41:59.722888 13194 layer_factory.hpp:77] Creating layer scale5b_branch2a
I0328 19:41:59.722894 13194 net.cpp:86] Creating Layer scale5b_branch2a
I0328 19:41:59.722898 13194 net.cpp:408] scale5b_branch2a <- res5b_branch2a
I0328 19:41:59.722901 13194 net.cpp:369] scale5b_branch2a -> res5b_branch2a (in-place)
I0328 19:41:59.722954 13194 layer_factory.hpp:77] Creating layer scale5b_branch2a
I0328 19:41:59.723109 13194 net.cpp:124] Setting up scale5b_branch2a
I0328 19:41:59.723122 13194 net.cpp:131] Top shape: 10 512 7 7 (250880)
I0328 19:41:59.723125 13194 net.cpp:139] Memory required for data: 791777440
I0328 19:41:59.723130 13194 layer_factory.hpp:77] Creating layer res5b_branch2a_relu
I0328 19:41:59.723136 13194 net.cpp:86] Creating Layer res5b_branch2a_relu
I0328 19:41:59.723140 13194 net.cpp:408] res5b_branch2a_relu <- res5b_branch2a
I0328 19:41:59.723145 13194 net.cpp:369] res5b_branch2a_relu -> res5b_branch2a (in-place)
I0328 19:41:59.723765 13194 net.cpp:124] Setting up res5b_branch2a_relu
I0328 19:41:59.723778 13194 net.cpp:131] Top shape: 10 512 7 7 (250880)
I0328 19:41:59.723780 13194 net.cpp:139] Memory required for data: 792780960
I0328 19:41:59.723783 13194 layer_factory.hpp:77] Creating layer res5b_branch2b
I0328 19:41:59.723794 13194 net.cpp:86] Creating Layer res5b_branch2b
I0328 19:41:59.723798 13194 net.cpp:408] res5b_branch2b <- res5b_branch2a
I0328 19:41:59.723809 13194 net.cpp:382] res5b_branch2b -> res5b_branch2b
I0328 19:41:59.746402 13194 net.cpp:124] Setting up res5b_branch2b
I0328 19:41:59.746419 13194 net.cpp:131] Top shape: 10 512 7 7 (250880)
I0328 19:41:59.746423 13194 net.cpp:139] Memory required for data: 793784480
I0328 19:41:59.746430 13194 layer_factory.hpp:77] Creating layer bn5b_branch2b
I0328 19:41:59.746438 13194 net.cpp:86] Creating Layer bn5b_branch2b
I0328 19:41:59.746443 13194 net.cpp:408] bn5b_branch2b <- res5b_branch2b
I0328 19:41:59.746448 13194 net.cpp:369] bn5b_branch2b -> res5b_branch2b (in-place)
I0328 19:41:59.746719 13194 net.cpp:124] Setting up bn5b_branch2b
I0328 19:41:59.746727 13194 net.cpp:131] Top shape: 10 512 7 7 (250880)
I0328 19:41:59.746731 13194 net.cpp:139] Memory required for data: 794788000
I0328 19:41:59.746737 13194 layer_factory.hpp:77] Creating layer scale5b_branch2b
I0328 19:41:59.746743 13194 net.cpp:86] Creating Layer scale5b_branch2b
I0328 19:41:59.746747 13194 net.cpp:408] scale5b_branch2b <- res5b_branch2b
I0328 19:41:59.746750 13194 net.cpp:369] scale5b_branch2b -> res5b_branch2b (in-place)
I0328 19:41:59.746803 13194 layer_factory.hpp:77] Creating layer scale5b_branch2b
I0328 19:41:59.746958 13194 net.cpp:124] Setting up scale5b_branch2b
I0328 19:41:59.746965 13194 net.cpp:131] Top shape: 10 512 7 7 (250880)
I0328 19:41:59.746968 13194 net.cpp:139] Memory required for data: 795791520
I0328 19:41:59.746973 13194 layer_factory.hpp:77] Creating layer res5b
I0328 19:41:59.746981 13194 net.cpp:86] Creating Layer res5b
I0328 19:41:59.746984 13194 net.cpp:408] res5b <- res5a_res5a_relu_0_split_1
I0328 19:41:59.746989 13194 net.cpp:408] res5b <- res5b_branch2b
I0328 19:41:59.746995 13194 net.cpp:382] res5b -> res5b
I0328 19:41:59.747027 13194 net.cpp:124] Setting up res5b
I0328 19:41:59.747032 13194 net.cpp:131] Top shape: 10 512 7 7 (250880)
I0328 19:41:59.747035 13194 net.cpp:139] Memory required for data: 796795040
I0328 19:41:59.747038 13194 layer_factory.hpp:77] Creating layer res5b_relu
I0328 19:41:59.747045 13194 net.cpp:86] Creating Layer res5b_relu
I0328 19:41:59.747048 13194 net.cpp:408] res5b_relu <- res5b
I0328 19:41:59.747052 13194 net.cpp:369] res5b_relu -> res5b (in-place)
I0328 19:41:59.747524 13194 net.cpp:124] Setting up res5b_relu
I0328 19:41:59.747532 13194 net.cpp:131] Top shape: 10 512 7 7 (250880)
I0328 19:41:59.747534 13194 net.cpp:139] Memory required for data: 797798560
I0328 19:41:59.747537 13194 layer_factory.hpp:77] Creating layer res5b_res5b_relu_0_split
I0328 19:41:59.747543 13194 net.cpp:86] Creating Layer res5b_res5b_relu_0_split
I0328 19:41:59.747546 13194 net.cpp:408] res5b_res5b_relu_0_split <- res5b
I0328 19:41:59.747552 13194 net.cpp:382] res5b_res5b_relu_0_split -> res5b_res5b_relu_0_split_0
I0328 19:41:59.747560 13194 net.cpp:382] res5b_res5b_relu_0_split -> res5b_res5b_relu_0_split_1
I0328 19:41:59.747617 13194 net.cpp:124] Setting up res5b_res5b_relu_0_split
I0328 19:41:59.747623 13194 net.cpp:131] Top shape: 10 512 7 7 (250880)
I0328 19:41:59.747627 13194 net.cpp:131] Top shape: 10 512 7 7 (250880)
I0328 19:41:59.747629 13194 net.cpp:139] Memory required for data: 799805600
I0328 19:41:59.747632 13194 layer_factory.hpp:77] Creating layer res5c_branch2a
I0328 19:41:59.747643 13194 net.cpp:86] Creating Layer res5c_branch2a
I0328 19:41:59.747648 13194 net.cpp:408] res5c_branch2a <- res5b_res5b_relu_0_split_0
I0328 19:41:59.747653 13194 net.cpp:382] res5c_branch2a -> res5c_branch2a
I0328 19:41:59.770392 13194 net.cpp:124] Setting up res5c_branch2a
I0328 19:41:59.770411 13194 net.cpp:131] Top shape: 10 512 7 7 (250880)
I0328 19:41:59.770414 13194 net.cpp:139] Memory required for data: 800809120
I0328 19:41:59.770422 13194 layer_factory.hpp:77] Creating layer bn5c_branch2a
I0328 19:41:59.770431 13194 net.cpp:86] Creating Layer bn5c_branch2a
I0328 19:41:59.770434 13194 net.cpp:408] bn5c_branch2a <- res5c_branch2a
I0328 19:41:59.770442 13194 net.cpp:369] bn5c_branch2a -> res5c_branch2a (in-place)
I0328 19:41:59.770712 13194 net.cpp:124] Setting up bn5c_branch2a
I0328 19:41:59.770725 13194 net.cpp:131] Top shape: 10 512 7 7 (250880)
I0328 19:41:59.770750 13194 net.cpp:139] Memory required for data: 801812640
I0328 19:41:59.770757 13194 layer_factory.hpp:77] Creating layer scale5c_branch2a
I0328 19:41:59.770762 13194 net.cpp:86] Creating Layer scale5c_branch2a
I0328 19:41:59.770766 13194 net.cpp:408] scale5c_branch2a <- res5c_branch2a
I0328 19:41:59.770771 13194 net.cpp:369] scale5c_branch2a -> res5c_branch2a (in-place)
I0328 19:41:59.770823 13194 layer_factory.hpp:77] Creating layer scale5c_branch2a
I0328 19:41:59.770978 13194 net.cpp:124] Setting up scale5c_branch2a
I0328 19:41:59.770987 13194 net.cpp:131] Top shape: 10 512 7 7 (250880)
I0328 19:41:59.770989 13194 net.cpp:139] Memory required for data: 802816160
I0328 19:41:59.770994 13194 layer_factory.hpp:77] Creating layer res5c_branch2a_relu
I0328 19:41:59.770999 13194 net.cpp:86] Creating Layer res5c_branch2a_relu
I0328 19:41:59.771003 13194 net.cpp:408] res5c_branch2a_relu <- res5c_branch2a
I0328 19:41:59.771006 13194 net.cpp:369] res5c_branch2a_relu -> res5c_branch2a (in-place)
I0328 19:41:59.771486 13194 net.cpp:124] Setting up res5c_branch2a_relu
I0328 19:41:59.771494 13194 net.cpp:131] Top shape: 10 512 7 7 (250880)
I0328 19:41:59.771497 13194 net.cpp:139] Memory required for data: 803819680
I0328 19:41:59.771500 13194 layer_factory.hpp:77] Creating layer res5c_branch2b
I0328 19:41:59.771512 13194 net.cpp:86] Creating Layer res5c_branch2b
I0328 19:41:59.771515 13194 net.cpp:408] res5c_branch2b <- res5c_branch2a
I0328 19:41:59.771522 13194 net.cpp:382] res5c_branch2b -> res5c_branch2b
I0328 19:41:59.794266 13194 net.cpp:124] Setting up res5c_branch2b
I0328 19:41:59.794288 13194 net.cpp:131] Top shape: 10 512 7 7 (250880)
I0328 19:41:59.794291 13194 net.cpp:139] Memory required for data: 804823200
I0328 19:41:59.794298 13194 layer_factory.hpp:77] Creating layer bn5c_branch2b
I0328 19:41:59.794306 13194 net.cpp:86] Creating Layer bn5c_branch2b
I0328 19:41:59.794309 13194 net.cpp:408] bn5c_branch2b <- res5c_branch2b
I0328 19:41:59.794317 13194 net.cpp:369] bn5c_branch2b -> res5c_branch2b (in-place)
I0328 19:41:59.794589 13194 net.cpp:124] Setting up bn5c_branch2b
I0328 19:41:59.794595 13194 net.cpp:131] Top shape: 10 512 7 7 (250880)
I0328 19:41:59.794598 13194 net.cpp:139] Memory required for data: 805826720
I0328 19:41:59.794605 13194 layer_factory.hpp:77] Creating layer scale5c_branch2b
I0328 19:41:59.794613 13194 net.cpp:86] Creating Layer scale5c_branch2b
I0328 19:41:59.794616 13194 net.cpp:408] scale5c_branch2b <- res5c_branch2b
I0328 19:41:59.794620 13194 net.cpp:369] scale5c_branch2b -> res5c_branch2b (in-place)
I0328 19:41:59.794673 13194 layer_factory.hpp:77] Creating layer scale5c_branch2b
I0328 19:41:59.794837 13194 net.cpp:124] Setting up scale5c_branch2b
I0328 19:41:59.794844 13194 net.cpp:131] Top shape: 10 512 7 7 (250880)
I0328 19:41:59.794847 13194 net.cpp:139] Memory required for data: 806830240
I0328 19:41:59.794852 13194 layer_factory.hpp:77] Creating layer res5c
I0328 19:41:59.794862 13194 net.cpp:86] Creating Layer res5c
I0328 19:41:59.794864 13194 net.cpp:408] res5c <- res5b_res5b_relu_0_split_1
I0328 19:41:59.794868 13194 net.cpp:408] res5c <- res5c_branch2b
I0328 19:41:59.794872 13194 net.cpp:382] res5c -> res5c
I0328 19:41:59.794909 13194 net.cpp:124] Setting up res5c
I0328 19:41:59.794914 13194 net.cpp:131] Top shape: 10 512 7 7 (250880)
I0328 19:41:59.794916 13194 net.cpp:139] Memory required for data: 807833760
I0328 19:41:59.794919 13194 layer_factory.hpp:77] Creating layer res5c_relu
I0328 19:41:59.794925 13194 net.cpp:86] Creating Layer res5c_relu
I0328 19:41:59.794929 13194 net.cpp:408] res5c_relu <- res5c
I0328 19:41:59.794934 13194 net.cpp:369] res5c_relu -> res5c (in-place)
I0328 19:41:59.795560 13194 net.cpp:124] Setting up res5c_relu
I0328 19:41:59.795572 13194 net.cpp:131] Top shape: 10 512 7 7 (250880)
I0328 19:41:59.795575 13194 net.cpp:139] Memory required for data: 808837280
I0328 19:41:59.795579 13194 layer_factory.hpp:77] Creating layer pool5
I0328 19:41:59.795589 13194 net.cpp:86] Creating Layer pool5
I0328 19:41:59.795611 13194 net.cpp:408] pool5 <- res5c
I0328 19:41:59.795619 13194 net.cpp:382] pool5 -> pool5
I0328 19:41:59.796120 13194 net.cpp:124] Setting up pool5
I0328 19:41:59.796128 13194 net.cpp:131] Top shape: 10 512 1 1 (5120)
I0328 19:41:59.796131 13194 net.cpp:139] Memory required for data: 808857760
I0328 19:41:59.796134 13194 layer_factory.hpp:77] Creating layer fc1000
I0328 19:41:59.796141 13194 net.cpp:86] Creating Layer fc1000
I0328 19:41:59.796145 13194 net.cpp:408] fc1000 <- pool5
I0328 19:41:59.796152 13194 net.cpp:382] fc1000 -> fc1000
I0328 19:41:59.799320 13194 net.cpp:124] Setting up fc1000
I0328 19:41:59.799332 13194 net.cpp:131] Top shape: 10 1000 (10000)
I0328 19:41:59.799335 13194 net.cpp:139] Memory required for data: 808897760
I0328 19:41:59.799341 13194 layer_factory.hpp:77] Creating layer fc1000_fc1000_0_split
I0328 19:41:59.799347 13194 net.cpp:86] Creating Layer fc1000_fc1000_0_split
I0328 19:41:59.799350 13194 net.cpp:408] fc1000_fc1000_0_split <- fc1000
I0328 19:41:59.799356 13194 net.cpp:382] fc1000_fc1000_0_split -> fc1000_fc1000_0_split_0
I0328 19:41:59.799365 13194 net.cpp:382] fc1000_fc1000_0_split -> fc1000_fc1000_0_split_1
I0328 19:41:59.799369 13194 net.cpp:382] fc1000_fc1000_0_split -> fc1000_fc1000_0_split_2
I0328 19:41:59.799440 13194 net.cpp:124] Setting up fc1000_fc1000_0_split
I0328 19:41:59.799448 13194 net.cpp:131] Top shape: 10 1000 (10000)
I0328 19:41:59.799450 13194 net.cpp:131] Top shape: 10 1000 (10000)
I0328 19:41:59.799453 13194 net.cpp:131] Top shape: 10 1000 (10000)
I0328 19:41:59.799456 13194 net.cpp:139] Memory required for data: 809017760
I0328 19:41:59.799458 13194 layer_factory.hpp:77] Creating layer loss
I0328 19:41:59.799464 13194 net.cpp:86] Creating Layer loss
I0328 19:41:59.799468 13194 net.cpp:408] loss <- fc1000_fc1000_0_split_0
I0328 19:41:59.799471 13194 net.cpp:408] loss <- label_data_1_split_0
I0328 19:41:59.799476 13194 net.cpp:382] loss -> loss
…
